config/results/AgrConserv_Refactored_2M_Final_v4_GAMMA/Hummingbird_Conservative/checkpoint.pt (torch, 573045 bytes, 36 tensors)

network_body._body_endoder.seq_layers.0.weight f4 [128, 47]
000000 c9 a6 81 3e 1d 19 8e 3d a9 0c 22 bd fe 3d 5c bd
       0.2532256 0.06938384 -0.039562855 -0.053770058
000010 07 7c 86 3c cc 6f b3 3c dd 10 bb bd 56 9a 38 bc
       0.016416563 0.021903895 -0.09134076 -0.011267265
000020 a6 fa 2d 3d 03 dc 9f 3d f8 1b 84 bd 7d 98 0d 3d
       0.042475365 0.07805636 -0.06450647 0.034569252
000030 21 46 24 3d 97 3a a3 be 79 4a 8a be 54 fa 9d 3d
       0.040105943 -0.31880638 -0.27009943 0.07713762
000040 75 a4 14 3e 5b 40 dd bd 2c cb 88 3d 0e 7f 68 bc
       0.1451586 -0.108032905 0.06679377 -0.014190448
000050 52 64 08 be e9 3c 6b be cd 54 4a be 45 0a 1f be
       -0.13319519 -0.22972454 -0.19758911 -0.15531261
000060 fe 9a 9e bd 99 6d a5 bb f1 e2 e7 bb 25 6c 37 3e
       -0.07744406 -0.0050484654 -0.007076614 0.17912348
000070 ae d4 89 bc 7d 7d 8c bd 6d 10 c2 bd 49 64 1c 3d
       -0.016825046 -0.068598725 -0.09475789 0.038181577
000080 f8 5a 9d bd dd 83 6f 3d 05 7d c4 3c 50 60 c7 bd
       -0.076833665 0.058475364 0.023985395 -0.09735167
000090 b1 4b 03 bd d6 d4 2f bd 53 ab 68 be 25 0b b6 bc
       -0.032054607 -0.042927586 -0.22721605 -0.022222111
0000a0 62 fb 4a 3d 4a f5 ad 3c e7 b8 af 3d 4d 55 e2 3c
       0.049556144 0.021235127 0.08580189 0.027628565
0000b0 44 84 d6 bd fa f5 34 be 66 c4 86 3d 6c 1b 4f 3e
       -0.104744464 -0.17671958 0.06580429 0.20225304
0000c0 33 10 df 3d 67 ca 40 3e 22 67 c9 bd 4e 0e 2a 3c
       0.10891762 0.1882721 -0.09834124 0.010379387
0000d0 5b 1b bd bd ce 85 33 bd 77 e5 7f be 26 98 84 3e
       -0.09233733 -0.043828778 -0.24989878 0.2589733
0000e0 d2 8f ca bd 51 ef 20 bd f7 04 73 3d a4 50 7d 3e
       -0.09890713 -0.03929073 0.059330907 0.24737793
0000f0 e2 69 81 3e 9c 51 ed bc 8d cf fe 3d b7 b3 61 3e
       0.25276095 -0.028969578 0.12441931 0.22041212
000100 53 6c 38 be 69 c5 d5 bd bc a6 ed bd f0 95 08 bd
       -0.18010072 -0.104380436 -0.11604068 -0.033346117
000110 f1 11 16 3d 1e 0f 0b 3e 06 2e 5c 3e 54 7a 8a 3e
       0.036638204 0.13579985 0.21501932 0.27046454
000120 29 c6 7a 3d 50 98 3f be e3 1e 57 3e c3 73 d0 3e
       0.061224137 -0.18710446 0.21007876 0.4071332
000130 e2 21 fc 3d c3 6b dc bd c5 f3 9e 3d 79 a8 cd 3d
       0.1231115 -0.107627414 0.07761339 0.10041899
000140 72 aa 3f be 00 a6 27 bd 5b da 5a be 1a 45 00 be
       -0.18717363 -0.040929794 -0.21372359 -0.1252636
000150 e2 32 52 3e 66 60 00 3d ff af c4 3c 73 8b b7 bc
       0.20527223 0.031341933 0.024009703 -0.022405362
000160 73 ae 2f 3d 20 e1 d6 3d 93 5a 5c 3e 88 8f b6 3d
       0.042890977 0.10492158 0.21518926 0.08914095
000170 5d b0 8a 3d 40 d3 f0 3d 8b 43 59 3e 06 e4 06 be
       0.0677192 0.11759043 0.21217172 -0.13172922
000180 d1 d0 03 bd ad c1 0f bd 03 d6 26 3e 61 cb c7 be
       -0.032181565 -0.035096813 0.16292576 -0.39022353
000190 f7 90 95 3e 1a 2c 9d bd a2 0a 7b bd df 46 ae 3c
       0.29212162 -0.07674427 -0.061289437 0.021274028
0001a0 1d 23 95 3d 24 88 eb 3d 1a 83 63 bd e2 49 82 3c
       0.07282088 0.11500576 -0.05554495 0.01590437
0001b0 d2 f2 ad 3c 29 5e 28 3e b7 59 55 3e 3f 89 6a 3e
       0.02123395 0.16442169 0.20835005 0.22903918
0001c0 4c 3e d2 3d 58 51 cb bd b2 c7 84 3d 5f 0b 07 bd
       0.102657884 -0.099276245 0.06483401 -0.03296983
0001d0 90 d9 bf 3e a2 02 09 be fa a4 07 3d ee d5 80 be
       0.37470675 -0.1337991 0.03311632 -0.25163215
0001e0 b0 56 30 3e 4b cf d8 3d 61 89 e5 3d 9e 49 ff 3b
       0.17220569 0.10586413 0.112078436 0.0077907583
0001f0 0f 74 0d bd 65 84 90 3d 3f 86 28 be d2 31 bd bd
       -0.03453451 0.07056502 -0.16457461 -0.09238018
000200 72 4e 1c 3d 24 25 1e be 27 65 b8 bd 4c ae a9 3e
       0.03816075 -0.15443856 -0.09003668 0.3314079
000210 4b 44 ad bd f6 8b 5d be ef 06 d7 3c fe fd 35 3e
       -0.084602915 -0.21635422 0.026248423 0.17772672
000220 c6 88 63 bd 7c 71 ee bd 49 f1 3b be a5 0e 4b bd
       -0.05555036 -0.11642739 -0.18353762 -0.049574513
000230 8a ab 33 bd 87 59 2f 3e e0 e4 0e 3d 98 96 78 3e
       -0.043864764 0.17123996 0.03488624 0.24276197
000240 ca 71 9c 3d b4 85 b8 be 86 2f 2a 3d 22 d6 29 3e
       0.07638891 -0.36039507 0.041549228 0.16585591
000250 da a9 5a bd d6 d4 01 be 36 1b 57 be d9 f0 4a bd
       -0.05338464 -0.12678847 -0.21006474 -0.049546096
000260 4b b3 33 be d1 47 65 bd cc ad 27 bc 33 da 1c be
       -0.17548864 -0.055976693 -0.0102343075 -0.15317611
000270 3f 3e 45 bd 16 f7 38 be c5 17 44 be 72 83 8e bd
       -0.048155066 -0.18063006 -0.19149692 -0.06958665
000280 d6 0f f0 bb f4 1e 8e be f7 42 27 3e 53 64 3d 3d
       -0.0073261065 -0.2775799 0.16334139 0.046238255
000290 34 81 cf bd fc 3b 8c bd d3 21 87 3d 6e f6 5e 3d
       -0.101320654 -0.068473786 0.06598248 0.054434232
0002a0 e1 66 0e 3e fc 60 ac 3c 13 87 3c be ea a0 c8 bd
       0.13906433 0.02104234 -0.18410902 -0.09796317
0002b0 65 86 b9 bb 73 20 d2 bd 2d 4a 97 be b2 19 ba 3e
       -0.005661773 -0.102600954 -0.2954878 0.3634773
0002c0 0d d4 25 3e 89 8d bb 3d 68 c4 95 be 9a d1 8b 3d
       0.16194172 0.09157855 -0.2925141 0.06827088
0002d0 af 43 da bd 27 b6 0f 3e 46 ff 4a 3c ac ff 03 3b
       -0.10657441 0.1403433 0.0123899635 0.0020141406
0002e0 61 a4 29 be a6 d8 29 3e e4 34 22 be ef 03 40 bd
       -0.16566612 0.16586551 -0.15840489 -0.04687875
0002f0 a1 aa 14 3e 3f e7 59 3e 1f 53 55 3d a0 2c 1c 3c
       0.14518215 0.2127962 0.052081224 0.009532124
000300 31 2f 1f bd 22 88 4d be 07 2c 5e be 2e 5e a5 bd
       -0.038863365 -0.20071462 -0.21696483 -0.08074604
000310 e7 80 45 3e 0d 4a 0f 3e 5f 09 0c bd 41 04 e4 3b
       0.19287454 0.13993092 -0.034188624 0.006958515
000320 c4 da 62 3e 5b 19 84 3d 9e fc f5 3c dc d9 b5 bd
       0.22153765 0.06450149 0.030027684 -0.08879444
000330 c7 96 1e 3e db 7e a8 bd c2 a4 4b 3d 52 d3 0f 3e
       0.15487204 -0.08227321 0.049717672 0.14045456
000340 ca a2 f6 3c a1 ee 6f bc ed bd fb 3d f8 37 01 bd
       0.03010692 -0.014644296 0.12292085 -0.031547517
000350 d8 41 9c 3c aa 3f 0c 3e 8d 21 9b 3d fd 83 37 3d
       0.019074365 0.13696161 0.07574759 0.04480361
000360 1d 92 86 3d 5f f9 54 3d 7d 68 e3 ba 40 26 65 3e
       0.06570838 0.05199563 -0.0017349866 0.22377872
000370 36 3a c8 bd 84 f1 91 3e ca 72 9b be 6e 4b 25 3e
       -0.09776728 0.28504574 -0.30361015 0.16142055
000380 29 9c 25 bd 80 7e 36 ba 47 cc 44 be f3 aa 19 3e
       -0.04043213 -0.0006961599 -0.1921855 0.15006618
000390 a1 22 b6 be 43 fc 95 3d ad 81 44 bd b6 1d ff bd
       -0.35573295 0.07323506 -0.04797523 -0.12456839
0003a0 13 46 a5 3b ae 36 9e bd 88 a1 bd 3e 53 3f 08 3e
       0.005043754 -0.07725273 0.370373 0.13305406
0003b0 be 82 d5 3d e6 a6 b3 bc 1c 4c e3 3a 81 87 7d be
       0.10425328 -0.02193017 0.0017341408 -0.24758722
0003c0 e4 4e 94 bd bf 10 d1 bc 36 ec 6a 3e 28 81 db 3d
       -0.0724161 -0.02552068 0.2294167 0.10717994
0003d0 f9 da 32 3e b7 90 cc 3d 08 f1 11 be 89 56 5d 3d
       0.17466344 0.0998854 -0.14252102 0.054037604
0003e0 21 a8 3c 3c db 4c f6 bc b5 4c 90 3d 2c 71 ab be
       0.011514694 -0.030065944 0.07045881 -0.3348478
0003f0 c3 5b 74 be ab 22 7a 3d 13 fd 83 be a4 b9 cd bd
       -0.2386313 0.06106822 -0.25779018 -0.10045174

network_body._body_endoder.seq_layers.0.bias f4 [128]
000000 2b f5 04 39 84 03 ea 3c d4 ae 14 3c 05 09 ad bc
       0.00012679833 0.02856613 0.009074885 -0.021122465
000010 03 97 ef 3c ca 60 17 bc 33 11 3c bc 17 1f 2f 3b
       0.029246813 -0.009239385 -0.01147871 0.0026721412
000020 91 aa e6 3b 16 6f d2 3c 38 cc 7b bc 67 77 96 3c
       0.007039376 0.025687736 -0.015368514 0.018367482
000030 ff ed f9 3c ff 1f 58 3c 1b af bd 3c e7 ba 5a 3c
       0.030508993 0.013191222 0.023154786 0.013350225
000040 91 d9 24 3d e0 c5 12 3b 16 61 8e ba 6b 73 9e 3c
       0.04024655 0.0022395775 -0.0010862674 0.019342145
000050 51 01 b8 3c 67 39 ba 3c 5f 04 08 3d 25 67 d2 3c
       0.022461565 0.02273245 0.033207294 0.025683949
000060 0a 8f 75 3c cf 0b 46 3c b2 c4 04 3c a6 64 2d 3c
       0.014987716 0.012087776 0.008103536 0.0105830785
000070 b7 31 26 bc e6 ce bd 3c d3 c1 50 bc 99 b4 4f bc
       -0.010143689 0.023169946 -0.012741524 -0.012677335
000080 1a 07 17 3c 41 f2 a1 3c b2 69 22 bc fa a2 ae 3c
       0.009218002 0.019768836 -0.009912895 0.021317948
000090 b4 41 6c 3c 78 2a a0 bc 48 20 9f 3c 8e b9 f8 b9
       0.014419962 -0.0195515 0.019424573 -0.00047440495
0000a0 cf f3 9e 3c 48 87 03 3d c7 72 8b bc 59 78 a0 3c
       0.019403366 0.032111436 -0.017022504 0.019588636
0000b0 ea 58 77 3c 90 6c f9 3c d5 a5 07 bb 60 3c a9 3c
       0.015096882 0.030447274 -0.0020698209 0.020658672
0000c0 2b fb ab 3c 1e 9f 1c 3c be 03 8a 3c 23 16 d8 3c
       0.02099379 0.009559421 0.016847488 0.026377743
0000d0 78 2a 13 3b 7e 6e 1b bd 20 e6 0f 3c 70 6b 68 3c
       0.0022455733 -0.03794717 0.008782893 0.014185771
0000e0 5f 76 29 3c 40 c2 67 bb bd d4 a6 bb cc 02 d9 3c
       0.010343163 -0.0035363585 -0.0050912783 0.026490591
0000f0 6b 92 df bc 5d 72 d1 3b e7 98 19 3c f8 2c 42 3c
       -0.027291497 0.006391807 0.009374834 0.011851542
000100 2a 1c a1 3c d5 be a5 3a 49 e8 d9 3c d2 05 eb 3c
       0.01966675 0.0012645373 0.02660002 0.028689299
000110 a7 01 2d 3c af 69 16 bc b0 f5 11 3c e2 84 8a 3c
       0.010559476 -0.00918047 0.008908674 0.016909067
000120 a4 5c 33 3d c6 5f 77 bc d8 9f a7 bc 65 13 25 3d
       0.04378952 -0.015098518 -0.020461962 0.0403017
000130 9f 47 22 3c 4e b3 92 bc 4d 95 53 ba e5 90 9b bc
       0.009904771 -0.017907765 -0.0008071259 -0.01898999
000140 95 f9 d4 bb 33 26 bd 3b 49 e1 81 3c df 56 29 3c
       -0.006499479 0.005772376 0.015854495 0.010335653
000150 58 fa 8d 3c c8 ca 45 bb 22 31 ee 3c 1b 61 8a 3c
       0.017331287 -0.0030180681 0.029076163 0.016892007
000160 6f fa 76 3c d9 15 30 3c de c8 dd 3c 35 60 3a bc
       0.015074356 0.010747396 0.02707332 -0.011375477
000170 a5 0d 01 3d 32 08 a2 3a 79 fd 9b bb 15 ef e0 3c
       0.031507153 0.0012362062 -0.004760441 0.027457753
000180 1d 41 cb ba f1 aa 8c 3c 71 b8 07 3d 63 06 ce 3b
       -0.0015507076 0.017171355 0.03313488 0.0062873824
000190 0d 44 d8 3b ab 07 cd 3c 5e 7e 02 3d 61 4c fe bb
       0.006599909 0.02502807 0.031858794 -0.00776057
0001a0 32 16 e9 3c e0 fa a0 3c 87 b3 49 bc 71 99 05 bc
       0.028452966 0.019650877 -0.012310869 -0.008154259
0001b0 08 09 cb 3c 13 2d c1 3c f8 79 ca bb 27 51 00 3d
       0.02478458 0.023581063 -0.0061790906 0.031327393
0001c0 1d ad 9b 3c 86 0b 5f 3c a1 64 c9 ba 9a c0 76 3c
       0.019003445 0.013613587 -0.0015365073 0.015060568
0001d0 b2 ac a1 bc dd 0f 23 3a dd 7c f0 3c a5 99 b4 3a
       -0.019735668 0.00062203204 0.029356414 0.00137787
0001e0 4b a7 b6 3b f8 aa 85 3c 37 ef 75 3c 46 07 e8 bb
       0.005574142 0.016316876 0.015010647 -0.007080945
0001f0 60 e2 fa bc 8b ff f3 3c fa 80 3e 3c 97 a6 86 39
       -0.030625522 0.029784938 0.01162743 0.0002568259

network_body._body_endoder.seq_layers.2.weight f4 [128, 128]
000000 cf 41 15 be 9a d6 2a bb d3 52 1b 3e 5a 51 ae 3c
       -0.14575885 -0.0026067854 0.15168314 0.021279026
000010 f8 f4 b4 bc 92 8a c8 3b 18 f7 08 3e 2c af 1c 3d
       -0.022089466 0.0061200345 0.13375509 0.038252994
000020 71 96 cc bc 2c 15 10 be 2c f4 61 3d 8b a6 52 3d
       -0.02497408 -0.14070576 0.0551645 0.05142836
000030 c8 f6 4b bd a2 90 19 be 7f 11 07 be 13 22 c4 3d
       -0.049795896 -0.1499658 -0.13190268 0.09576812
000040 be bb fc 3c 20 ae 45 3e f6 91 cf bd 4d e8 1e bd
       0.030851241 0.19304705 -0.10135262 -0.038795758
000050 cd f4 a2 3d 0a 4e a8 bc 3b 2e 48 3e 5d 27 48 3e
       0.07956848 -0.020545024 0.19548886 0.19546266
000060 be 13 09 bc d5 64 e5 3c 8e d8 85 bb ba 66 e3 bc
       -0.008366523 0.028002182 -0.004084653 -0.027758945
000070 95 cc 90 3d 3c 7a b3 3d 2b 6a 8e 3b 2b 0d 7f 3d
       0.07070271 0.08763549 0.0043461523 0.062268417
000080 fe 9f da bc 8d ff 69 3d 05 f1 83 bd 8c 9e 38 bd
       -0.026687618 0.057128478 -0.06442455 -0.045073077
000090 6e 3a 89 3d e9 82 30 3d 4b dd b6 3d 2e eb 0f bc
       0.06700598 0.043093596 0.08928927 -0.008784099
0000a0 03 fd 3d bd 09 cc 99 bc 87 00 6b 3b ef 42 a6 3c
       -0.04638387 -0.01877405 0.0035858469 0.020295588
0000b0 7e 9a 92 3d 69 90 0d 3d d9 57 16 bd 4f 73 bb bd
       0.07158373 0.03456155 -0.03670487 -0.09152853
0000c0 97 1d 11 bd 8c 17 bd 3d 33 c2 bb 3d 2e 1a 07 bd
       -0.03542861 0.09233007 0.091679 -0.03298395
0000d0 e9 74 03 3d cf cb 4f 3c d4 dd 10 3e 13 d3 de 3c
       0.032093916 0.012682869 0.1414712 0.027200257
0000e0 a3 84 a6 3c e3 c3 c7 3d d4 db 07 3e ca 95 29 3d
       0.020326918 0.09754159 0.13267452 0.041402616
0000f0 fe 97 dc bd 63 5b 4a bd 63 6d 68 3b 2e 65 53 3d
       -0.10771178 -0.04940356 0.003546559 0.051610164
000100 77 c4 e3 3d 0e 80 f6 bd 24 0d 27 bd c9 78 7e 3b
       0.11121457 -0.12036143 -0.040784016 0.0038829318
000110 63 05 6d 3e d4 71 37 be 15 d4 16 3e 95 9e 1d be
       0.23146586 -0.17914516 0.1472934 -0.15392525
000120 78 3f 48 3c a4 8a f3 3d b4 38 89 3b c4 e4 5f bd
       0.012222163 0.11891678 0.0041876677 -0.054661527
000130 ff f5 a0 bd 9d 17 25 3e 81 1d bc 3c b3 64 24 bc
       -0.0785942 0.16122289 0.022963287 -0.010033774
000140 8f 36 27 bd 2b ac 39 3e 0f 02 08 3d 56 cf 0a 3c
       -0.040823516 0.18132083 0.03320509 0.008472284
000150 3e 1b 89 bd 2d 34 07 3e 89 4c 4e 3e 85 13 11 3c
       -0.06694649 0.13203497 0.20146383 0.0088547515
000160 99 f8 ce bb 12 02 ff 3c 4c a8 c9 bd d5 1f e3 3d
       -0.0063162562 0.031128917 -0.09846553 0.11090056
000170 59 e1 3c 3d f7 f7 b0 bd 3a 5d d9 3d 55 a8 a5 3c
       0.046113346 -0.086410455 0.10613485 0.020221869
000180 c5 73 83 bd 12 e0 b1 bd c8 a4 a6 bd a8 b2 aa ba
       -0.06418566 -0.08685316 -0.08136898 -0.0013023214
000190 b7 26 8f 3d 95 b0 11 be ac bf 3d bb a4 10 89 bd
       0.06989806 -0.14227517 -0.0028953357 -0.06692627
0001a0 28 0d 10 bd 50 c9 48 bd 9c 65 94 3d 07 3d 3b be
       -0.035168797 -0.04902011 0.07245943 -0.18284999
0001b0 d4 05 29 3c 3f 31 ad bd 51 8a 47 3e ac 5d a1 3d
       0.010316331 -0.084566586 0.19486357 0.078791946
0001c0 49 5f b1 3c 5e 04 88 bd 8f 95 03 3d b7 c8 57 3d
       0.02165188 -0.06641458 0.032125052 0.05268165
0001d0 a0 da 91 3d 5c d8 99 3d 57 84 43 3d be 33 96 3d
       0.071217775 0.075119704 0.04773363 0.07334088
0001e0 36 79 97 b8 89 9f 05 bc 16 7f 93 bd 28 7c ac bb
       -7.2228184e-05 -0.008155712 -0.07201974 -0.005263824
0001f0 c6 92 12 be f4 59 9c 3c ff cb 3f 3d ea e2 cc 3d
       -0.14313802 0.019085862 0.046825405 0.10004218
000200 67 ec 03 be ab 11 90 bb 1c 38 2c bd 01 38 22 3c
       -0.12883149 -0.0043966374 -0.042045698 0.009901048
000210 7e 90 01 be ac 52 a1 3c 10 5b b2 bd ff 0e d7 bd
       -0.12652776 0.019692741 -0.08708775 -0.10500907
000220 42 eb 80 3c 6a 20 1e bc 3a 22 4e bb 1e be 14 3d
       0.01573718 -0.009651283 -0.0031453506 0.036314122
000230 9d ef 52 bd ea c9 22 3c 95 c4 b4 bc 30 f0 2e 3d
       -0.051498044 0.009935835 -0.022066394 0.04270953
000240 c9 40 46 bb b1 85 4c bd a6 23 3d bd c1 f0 ba bd
       -0.0030251017 -0.049932186 -0.046176575 -0.091279514
000250 b6 3d 19 be 16 ca 05 3d ef a7 93 3b d4 1f 0a 3d
       -0.14964947 0.032663427 0.004506103 0.03372176
000260 0d e2 24 3e 7f b5 25 bd 2d 29 6b 3d 68 29 03 3e
       0.16101857 -0.04045629 0.057412315 0.12808764
000270 1a 37 0d be 26 ce 5f 3d e9 b2 e6 3d 78 f2 06 be
       -0.13790551 0.054639958 0.11264593 -0.13178432
000280 5d b4 0a be 34 70 02 be 50 08 10 3d c1 e7 1e 3e
       -0.13545366 -0.12738115 0.035164177 0.15518095
000290 2c fb 92 ba 4f 42 f3 3c fd 89 f5 bc 4b 2d 95 3d
       -0.0011213771 0.029694704 -0.029973025 0.072840296
0002a0 3a 34 45 be 6c c5 5c be aa ac 0f 3e 62 d6 17 3e
       -0.19258204 -0.21559685 0.1403071 0.14827874
0002b0 9b 14 c8 bd f9 d7 64 3d 47 c9 0f be 75 0f 05 be
       -0.09769555 0.05587003 -0.14041625 -0.12994178
0002c0 2a 70 e8 3a 58 b7 48 be 80 4e 20 be 65 58 af 3a
       0.0017733623 -0.1960119 -0.15654945 0.0013377784
0002d0 08 64 37 3d 18 1a a0 3c 09 09 4e bd 15 d9 e0 3d
       0.04477313 0.019543692 -0.050301585 0.10978905
0002e0 ea b8 f6 bc c0 d1 07 bd 87 4a 2b bd 8d c0 15 3d
       -0.03011747 -0.033159018 -0.04181912 0.036560584
0002f0 ef 26 e6 bd 43 b7 33 bd 38 70 40 3d 1a b1 82 3b
       -0.11237895 -0.043875944 0.04698202 0.0039883973
000300 e7 63 31 3d 86 3f ce bc 68 81 2d 3d 31 f0 46 3d
       0.043308165 -0.025176775 0.04235974 0.048568908
000310 eb e1 b9 3d e2 e7 f2 bc bb 29 ed bc ea dc e1 3d
       0.090762936 -0.029651586 -0.028950563 0.11028464
000320 ca b5 7b 3b 37 5f c8 3b 13 78 ed 3b 63 d9 95 3d
       0.0038407915 0.006114866 0.00724698 0.07316854
000330 b5 72 c1 3b 2d 6c 02 3e 04 b9 88 3d 86 a8 2e 3e
       0.0059035667 0.12736578 0.06675914 0.17056474
000340 8d e1 e2 3c 64 e3 d4 bd 48 63 23 be 0f 79 60 bd
       0.027695442 -0.10394934 -0.15955842 -0.05480295
000350 a1 ad bc bd 9e df 99 3d 06 50 28 3d 85 c8 05 3e
       -0.092128046 0.07513355 0.04109194 0.13064773
000360 d5 66 40 bc 69 a3 b0 3c 05 a4 03 be ca 6e 3b be
       -0.011743267 0.021562295 -0.12855537 -0.18303981
000370 87 65 a9 bd 32 a4 b2 3b 41 6d 90 bd a3 ff a3 3d
       -0.08271318 0.0054517025 -0.070520885 0.08007743
000380 6d 7d 84 bd 17 5b c3 3d a5 10 a0 3c c2 56 a2 3d
       -0.064692356 0.095388584 0.019539187 0.07926704
000390 a0 b4 d7 bd 5f 71 8f bc e6 75 10 be 2d 94 7e ba
       -0.10532498 -0.017510114 -0.14107475 -0.0009711411
0003a0 98 d4 19 bd 89 50 ef bb 60 7a cd bd d0 1c d2 bb
       -0.03755626 -0.0073033017 -0.10033107 -0.006412126
0003b0 a5 37 cb 3d 04 48 12 3e fb 21 88 3e 03 06 40 3d
       0.09922723 0.14285284 0.26588425 0.046880733
0003c0 ee c2 04 3d 6b 38 bd 3d 3e 07 80 3d 6b 28 51 ba
       0.032412462 0.092392765 0.06251381 -0.000797874
0003d0 5c 5e 8c bd 33 fc 3a 3c 8c 2d cd bc c3 4b 93 3b
       -0.06853935 0.011412668 -0.025046133 0.0044951155
0003e0 0f 54 bb bd a6 1b da 3d e5 10 03 bd 1d 87 0f bc
       -0.09146892 0.10649805 -0.031998534 -0.008760241
0003f0 81 d2 e4 bc 78 0e b1 bc dc 4d 1d 3e e0 bc de bd
       -0.027932407 -0.021613345 0.15361732 -0.10875869

network_body._body_endoder.seq_layers.2.bias f4 [128]
000000 b9 79 df bb a5 90 a8 b9 65 4d 86 3c 69 0e bd 3c
       -0.0068199304 -0.00032151226 0.016394326 0.02307816
000010 26 32 4a 3d ac fb 0f bc 4d e7 46 39 37 15 02 bd
       0.04936423 -0.008788031 0.00018968918 -0.031758513
000020 8f 2f ca 3a 27 46 b5 3c e7 12 28 3d f7 76 23 3c
       0.001542555 0.022128178 0.04103365 0.009977094
000030 3e 79 a8 3c f9 25 70 3c 4a ae 24 bb 46 94 60 bc
       0.020565625 0.014657491 -0.0025128298 -0.013707226
000040 a3 e0 97 3c fa 14 97 3c b4 dd 79 3a 62 1d 8d 3b
       0.018539732 0.01844262 0.00095316325 0.004306481
000050 d5 85 b5 3c c1 55 7a 3b 61 63 9d bc 93 43 a1 bc
       0.022158543 0.0038198086 -0.019212427 -0.019685542
000060 e5 64 a7 3b 55 54 be 3c 24 8c a3 3b af 9c 78 bc
       0.005108463 0.023233572 0.0049910713 -0.015174075
000070 ab e6 6f bc bf 35 9a 3c 55 b0 db 3c f2 c9 00 3d
       -0.014642398 0.018824456 0.02681748 0.03144259
000080 8f 35 27 3d eb 22 db 3c 63 64 85 bb a1 cb 7c 3b
       0.04082256 0.026750049 -0.004070805 0.003857352
000090 f1 4c 26 bc ad e9 58 3c fd 00 cf 3c 0b 9e 6f bc
       -0.01015018 0.013239306 0.025269026 -0.014625083
0000a0 b5 74 e4 3c e9 ce 2a 3c f0 4c 25 bb f7 96 19 3c
       0.027887681 0.010425308 -0.002522286 0.009374372
0000b0 bd f2 5c 3b cc ad ea 3c 00 20 84 3c d1 9d 83 3c
       0.003371402 0.028647326 0.01612854 0.016066464
0000c0 9d f3 28 3c 51 ad 0f 3c 95 bb c4 3c d4 89 07 3c
       0.010311988 0.008769349 0.024015227 0.008272607
0000d0 40 89 71 bc 56 00 75 3c 28 89 5d bc 00 4d 9e bb
       -0.014742196 0.014953693 -0.01352147 -0.0048309565
0000e0 14 d3 44 bc fa f0 db bb 75 eb 3e bc b3 c6 20 3b
       -0.012013216 -0.0067120763 -0.011652817 0.0024532496
0000f0 7d 04 70 3c 9c 3e 87 bc 63 46 bc 3c 49 95 42 3c
       0.014649508 -0.016509347 0.022982782 0.011876413
000100 2f 2b 34 bc 02 b8 ee 3b 46 1b 20 3b 1c 98 e4 3c
       -0.010996624 0.007285119 0.0024430319 0.027904563
000110 f2 ae 40 3c a9 23 a8 3c 95 4f 04 3d ec 1a eb 3c
       0.01176046 0.020524817 0.032302458 0.02869936
000120 d4 23 cd bb 70 5b 25 3c 4e 18 b0 bb 70 32 f1 bc
       -0.0062603746 0.010092601 -0.005373991 -0.029442996
000130 16 9e 42 3c fd 99 5a 3a f0 51 d0 3c 61 7f 4f bc
       0.011878511 0.0008338986 0.025429696 -0.012664647
000140 1b 77 0c 3c cc be 2b 3c 88 8b 94 3c 6f 01 7e bc
       0.008573319 0.010482501 0.01813294 -0.0155032715
000150 00 f1 be 3b 74 ba 2e 3b f3 84 c3 ba 1b 8d 4b ba
       0.0058270693 0.0026661428 -0.0014916941 -0.0007764862
000160 a3 b8 14 3c 71 d6 7d bc 77 94 98 3c f1 93 dd bb
       0.009077224 -0.015493021 0.018625481 -0.0067620208
000170 1b b5 06 3d f5 6b 16 3c 29 b1 31 3c d3 1e 68 bb
       0.03288756 0.009181012 0.010845461 -0.0035418763
000180 e7 8b 3d bc 2b 08 9b bc 27 1c 4f bc cb 3a 9b 3c
       -0.011569 -0.018924793 -0.012640989 0.018948933
000190 d5 7c 33 3c 10 50 b9 3c bb 7b ea bc 27 f5 91 bb
       0.010955055 0.022621185 -0.028623452 -0.0044542733
0001a0 34 e4 7d 3c 97 6a d4 bc 67 aa a6 bc 5c aa 01 3c
       0.015496302 -0.025929732 -0.020344926 0.007914152
0001b0 c3 e2 b1 bb 4d 79 8d ba 64 46 94 3c 73 57 62 3c
       -0.0054286434 -0.0010793597 0.018099971 0.013814795
0001c0 2b d4 1a 3d b6 d8 af 3b c8 9f d9 bb 23 4a a4 ba
       0.037799995 0.00536641 -0.006641362 -0.0012534301
0001d0 53 d1 83 bc 37 e3 8b bc 18 1a bb 3c 46 55 c0 3a
       -0.016091025 -0.017076118 0.02283959 0.0014673851
0001e0 03 65 9a bc 03 70 b9 3c 50 e1 47 3c 4e 23 13 bc
       -0.018846994 0.02263642 0.012199715 -0.008980585
0001f0 21 aa 8e 3b 03 de 8d 3c 7b 9f a1 bc 3c 44 ee 3b
       0.004353777 0.017317777 -0.019729367 0.0072713178

action_model._continuous_distribution.log_sigma f4 [1, 5]
000000 79 f2 13 3d aa 63 05 3d c4 30 bf 3c b3 21 37 3d
       0.03611991 0.03256575 0.023338683 0.044709872
000010 ea e2 19 3d
       0.037569918

action_model._continuous_distribution.mu.weight f4 [5, 128]
000000 b1 0f 2b bc b4 0d 3a 3d e2 a1 49 bc 39 44 b8 bc
       -0.010440753 0.045423225 -0.012306662 -0.022493469
000010 5f 25 99 bc 6f ce 2b 3d 7f f8 5e 3c 02 31 82 3c
       -0.018694578 0.041944917 0.013609051 0.01589251
000020 17 24 37 3b a7 ed b6 3c 2f 53 39 3d 69 05 01 3d
       0.0027945095 0.022330118 0.045245346 0.0314993
000030 2c 51 28 bd 7c f9 4b 3c e5 76 8b 3c 4d af 04 bd
       -0.041093037 0.012449618 0.017024467 -0.032393742
000040 3a 49 04 bc b3 92 c0 3d 7d 4c 10 bd 48 fa c2 bb
       -0.008074099 0.09402981 -0.035229195 -0.005950246
000050 3a f7 09 3c e3 73 15 bc 39 13 77 3c b3 8d 9d bc
       0.00842076 -0.009121868 0.015080267 -0.019232607
000060 54 3c e0 bc ab 17 d7 bc a9 91 e6 bc e1 73 15 3d
       -0.027372517 -0.026256403 -0.028145628 0.036487464
000070 55 02 01 3c e4 ab e1 bc f2 8b 29 bd 30 0c 2c 3c
       0.007874091 -0.027547784 -0.041393228 0.010500953
000080 fc 6c 75 bc d5 2a 1d 3d 58 30 cd 3c a6 43 13 3b
       -0.014979597 0.038370926 0.025047466 0.0022470742
000090 39 4d f6 3b 38 0e 53 bd 94 46 05 bd 46 13 0f bd
       0.00751653 -0.051527232 -0.03253801 -0.03493049
0000a0 15 68 0a bd de 20 aa 3b 34 f9 1b 3a 99 c6 b3 bc
       -0.033790667 0.0051919064 0.0005949915 -0.021945285
0000b0 61 86 bd ba 3f a3 b1 ba c4 06 0d 3d 1a ab 90 bb
       -0.0014459604 -0.001355268 0.03443028 -0.004414928
0000c0 0a 0e 05 bd 9b c7 88 bd 9e f9 99 bc f9 16 f5 bc
       -0.03248409 -0.06678697 -0.018795785 -0.02991818
0000d0 37 fa 60 3b 79 e0 fa 3c 26 d2 10 bc 10 cc 23 3d
       0.0034328827 0.030624615 -0.008839166 0.03998953
0000e0 bf 65 e0 3c 9e 01 ca 3c 5c 6f e9 3c 8d 65 1e bd
       0.027392266 0.024658974 0.028495483 -0.038671065
0000f0 da 2b 2f 3c 6b 6e c0 3c a0 eb af bc 4b 28 cb 3b
       0.010691607 0.023490151 -0.02147466 0.0061998717
000100 39 9e 02 3a 4f 0e 35 bd 3f dd 1c bb 79 05 9e bc
       0.00049826835 -0.0442031 -0.0023935584 -0.019289719
000110 df a4 0a 3d b3 ac 13 bb cc eb e0 bc 29 95 8c 3c
       0.03384864 -0.0022533357 -0.027456187 0.017160969
000120 09 dd 8c bc eb c5 a6 bc 6f 7a 7c bc 1e ad 96 bb
       -0.017195242 -0.020358047 -0.01541005 -0.004598274
000130 2f a9 89 bc b5 84 9b bc b2 ae dd bc 33 e8 7d 3d
       -0.016804306 -0.018984178 -0.02706084 0.06198902
000140 45 87 fd ba b6 08 8e bd ff c6 a2 3c 3c d2 ed bb
       -0.0019342682 -0.06935255 0.01987028 -0.007257728
000150 99 a8 9e 3c 59 c5 d9 bc f5 8f 03 3d 31 ce 01 3d
       0.019367503 -0.02658336 0.03211971 0.03169078
000160 47 a0 7c 3c 30 4c c3 bc 5c 79 da bc 1a b2 90 3b
       0.0154190725 -0.02384004 -0.026669197 0.0044157626
000170 3a 7d 17 bc 95 3c 20 3d 2a ac ad bb b3 ba aa bd
       -0.009246165 0.039120276 -0.0053000646 -0.08336391
000180 3b db 20 bd 26 18 66 bc 66 69 5c bc e4 9c 52 bb
       -0.039271574 -0.014043843 -0.013452863 -0.003213697
000190 88 6e d2 bc 66 cc 43 3d 0e 49 59 3c 34 42 16 bd
       -0.025687471 0.04780235 0.0132620465 -0.03668423
0001a0 b6 1f 2e bd ac 2a b1 3c 35 7b ae 3c d4 91 3d 3d
       -0.04251071 0.021626793 0.021298984 0.04628165
0001b0 ee a8 95 bb ef 95 6c bd 1e 65 93 3c 8f f0 13 bd
       -0.004567257 -0.057760175 0.017992552 -0.036118086
0001c0 15 bf 90 3c f5 cd f2 bb 88 68 59 3d d5 70 94 bd
       0.01766924 -0.007409806 0.053078204 -0.072480835
0001d0 44 9b d8 3b e1 9b 72 3c 5b d2 8c 3b 6f d1 4a 3d
       0.006610306 0.014807672 0.0042975373 0.049516138
0001e0 12 0c 04 3d 22 55 81 3c 9d 95 88 bd 94 2a af bc
       0.032238074 0.015787665 -0.066691615 -0.021382608
0001f0 45 5e 82 bc 1d 7a 3e 3c 70 7f 00 bc 7d e2 99 3c
       -0.015914092 0.011625794 -0.0078428835 0.018784756
000200 f8 9b 03 bd 06 49 e6 bb 2e 90 b0 bb 3b 74 16 bd
       -0.032131165 -0.007027748 -0.0053882813 -0.03673194
000210 b7 16 a5 bc 5a 73 a6 3c 22 db c2 bc 36 f3 34 3d
       -0.020152433 0.020318676 -0.023786131 0.044177257
000220 47 b5 d3 3b 02 3a f2 bc 8b 77 aa bd e9 63 3b bd
       0.006460819 -0.029568676 -0.08323582 -0.04574958
000230 8f 9a 13 bc 3f 14 31 bd 0f fd d8 bc 74 51 8d 3d
       -0.009009018 -0.0432322 -0.026487855 0.069003016
000240 8b 76 e4 bc 61 2c 64 bd d6 9b 35 3d 43 ac ab bc
       -0.027888557 -0.055706386 0.04433807 -0.020956164
000250 96 2a 83 bc eb e2 4e bd 5a 6a 14 3d 20 77 0a 3d
       -0.016011517 -0.050509375 0.036234237 0.033805013
000260 6e 97 05 3d 05 6d ba 38 3c 5f f5 bc f9 5e 87 3c
       0.032615118 8.8894776e-05 -0.029952638 0.016524779
000270 b8 4e 1d 3d d1 c8 89 bd df 16 9a 3a 35 23 a1 bd
       0.03840515 -0.06727756 0.0011756084 -0.07868043
000280 ff cc 75 bd 23 4c 44 bd 1d c3 c9 3c 7e dc e0 bc
       -0.060009953 -0.047924172 0.02462917 -0.027448889
000290 a8 82 e3 3c 7e 7e b2 bc 75 41 b8 bc d3 82 1d 3d
       0.027772263 -0.021788832 -0.02249215 0.03845484
0002a0 91 e0 ba bd f4 eb b1 bc eb d9 1b 3d 8f 01 23 bd
       -0.09124864 -0.021718957 0.03804962 -0.03979641
0002b0 6e bc 3f ba 61 b2 86 bc 29 01 49 bd 07 2f 30 bd
       -0.000731415 -0.01644248 -0.049073372 -0.0430136
0002c0 0d 77 98 3a c0 c5 8b 3b 94 3f 91 bc 5e 96 d3 3c
       0.001163216 0.004265517 -0.017730512 0.025828537
0002d0 38 6a a4 bc ee 1e 56 bd 71 09 13 3d 38 e4 91 bc
       -0.02007018 -0.05227559 0.035897676 -0.017809018
0002e0 a6 3c 02 3d 08 00 45 3d 99 fe c4 bc 4f 4a 0c bc
       0.03179612 0.048095733 -0.024047183 -0.008562638
0002f0 a2 74 43 bc 26 c2 58 3c 98 fc 29 bc 61 1b 57 bd
       -0.011929663 0.013229882 -0.010375164 -0.052516345
000300 da 88 26 3d ff 77 37 bd 07 c4 c3 bc 38 57 21 bd
       0.040657856 -0.04479217 -0.023897184 -0.03938982
000310 2b 7d 7f bd 4d fc 0b bc 73 82 8a bd 15 84 28 bd
       -0.06237523 -0.00854404 -0.067631625 -0.04114159
000320 00 d2 07 3d c1 7d da bc 37 87 01 bd f8 41 24 3d
       0.033159256 -0.026671292 -0.03162309 0.040101975
000330 b2 16 c7 bc 3f 00 4e 3c 35 ad 4e bc b7 3f 2b 3d
       -0.024302814 0.012573301 -0.012614538 0.04180881
000340 6e 1a f1 bc f9 52 15 3d 45 0c a6 3c 38 9e 85 3d
       -0.029431548 0.036456082 0.020269522 0.065243185
000350 a8 92 d9 bc b7 58 c5 bc a7 71 3f bc 73 11 80 bc
       -0.026559189 -0.024090154 -0.011684812 -0.01563332
000360 58 e6 d2 bc 93 0e 1f bc d7 a7 b6 bb 7b 57 3c 3c
       -0.025744602 -0.009708065 -0.0055742073 0.011495466
000370 f2 f8 8c bc 8b ec 90 bc 89 5f 3c 3c fe 34 92 3d
       -0.01720855 -0.017690917 0.011497387 0.07139014
000380 bc e1 19 3d e3 85 ae 39 ea 06 1b 3d 06 45 16 bd
       0.037568793 0.0003328762 0.03784839 -0.03668692
000390 c5 69 f6 3b d5 6a 3f bd dd 95 38 3d a8 77 ce 3b
       0.007519933 -0.046732742 0.045064796 0.006300885
0003a0 1f dc a4 bb 79 7f a7 3d 28 3c a6 3b 83 44 13 bd
       -0.0050311233 0.0817861 0.005073089 -0.03595401
0003b0 5d 21 42 3c 36 48 3f 3d c9 39 8f bd f9 66 29 bd
       0.011848775 0.046699725 -0.069934435 -0.041357968
0003c0 24 14 69 bd 1b c6 a0 3c 82 ae 01 3b 7b d7 cc bb
       -0.056903973 0.019625714 0.0019787853 -0.006251273
0003d0 31 65 6c 3d 32 6b 87 3d d4 0d a0 bd bb 1e 54 bc
       0.05771369 0.06612243 -0.078151375 -0.01294678
0003e0 56 6d 11 3d c7 33 73 bd e1 39 c2 bc be 02 80 bc
       0.03550466 -0.05937555 -0.02370924 -0.015626308
0003f0 ff f2 04 3c 2e 5a 1d bd 3a a3 63 3d 93 77 61 bd
       0.008114575 -0.03841608 0.055575587 -0.055045675

action_model._continuous_distribution.mu.bias f4 [5]
000000 f0 6f aa b9 b2 9b fb bc 5d 34 b4 bb 5a f3 90 bc
       -0.00032508327 -0.03071389 -0.0054994063 -0.017694164
000010 ab 76 1e 3c
       0.009671847

exp_avg f4 [128, 47]
000000 23 65 4f 38 cc a5 b3 b6 00 00 00 00 23 d3 57 b5
       4.9446837e-05 -5.353917e-06 0.0 -8.0400986e-07
000010 2c cf b6 35 ef 39 33 38 00 00 00 00 e8 77 69 37
       1.3620352e-06 4.273088e-05 0.0 1.39158e-05
000020 77 94 9e b5 0a e5 3d 38 00 00 00 00 f3 73 6f 37
       -1.1815126e-06 4.527442e-05 0.0 1.4272507e-05
000030 b9 5a 5f b6 15 e6 46 38 00 00 00 00 6d a8 81 37
       -3.3282397e-06 4.742116e-05 0.0 1.5456428e-05
000040 c9 85 04 35 51 de 36 38 00 00 00 00 4d 2d 5b 37
       4.9368515e-07 4.359923e-05 0.0 1.3063965e-05
000050 87 d6 80 35 b4 e9 34 38 00 00 00 00 4f 42 87 37
       9.599179e-07 4.3132997e-05 0.0 1.6124131e-05
000060 88 e4 a0 37 49 fc d0 37 00 00 00 00 d9 e0 91 36
       1.9179904e-05 2.4913012e-05 0.0 4.3475125e-06
000070 bd 2a 6c b7 16 fb 73 38 00 00 00 00 7a ee c1 37
       -1.4076647e-05 5.8169557e-05 0.0 2.3118442e-05
000080 f1 80 2c 37 28 d0 0d 38 00 00 00 00 29 c8 6a 37
       1.028202e-05 3.381088e-05 0.0 1.399409e-05
000090 ad 91 65 b7 50 ad 3a 37 24 65 de 36 4a fb 1b 38
       -1.3683381e-05 1.1126816e-05 6.62789e-06 3.718891e-05
0000a0 79 88 06 37 8e bc 14 38 70 f4 b0 36 39 4e e7 b7
       8.018797e-06 3.5461555e-05 5.273665e-06 -2.7573771e-05
0000b0 f5 33 0b b8 28 33 50 35 cc 55 e6 b6 6a d8 d8 b7
       -3.318857e-05 7.756048e-07 -6.864522e-06 -2.5849982e-05
0000c0 38 90 8f 37 00 00 00 00 29 eb a8 36 6b 01 3e b8
       1.7114085e-05 0.0 5.0341664e-06 -4.530085e-05
0000d0 5a 5d 19 38 00 00 00 00 d6 6d b8 36 b8 42 1f 34
       3.6564983e-05 0.0 5.496414e-06 1.4832301e-07
0000e0 4b 0d 15 b7 00 00 00 00 9f cc df b6 4f 04 c4 37
       -8.884187e-06 0.0 -6.669739e-06 2.3367027e-05
0000f0 3a a6 06 b8 00 00 00 00 cf a1 27 b7 72 27 74 36
       -3.21029e-05 0.0 -9.99165e-06 3.6381794e-06
000100 5a 9a 4f b7 00 00 00 00 e2 b0 18 b6 4a 72 84 b7
       -1.2374099e-05 0.0 -2.2752724e-06 -1.5788846e-05
000110 c2 a8 ec 36 00 00 00 00 89 3b 29 37 2e fa 90 37
       7.052994e-06 0.0 1.0087047e-05 1.7282637e-05
000120 5e 42 da b7 00 00 00 00 a2 c4 99 b7 3f 01 3a 38
       -2.601853e-05 0.0 -1.8330586e-05 4.4347016e-05
000130 57 a5 5e b8 00 00 00 00 5c 0b eb 34 93 96 a8 b7
       -5.308291e-05 0.0 4.3780426e-07 -2.0097277e-05
000140 e1 9c 3e 37 00 00 00 00 3c 87 49 36 5c 1c 18 38
       1.1361409e-05 0.0 3.003005e-06 3.6266036e-05
000150 5e 59 4f 38 3d 0b 53 38 31 b4 48 b8 3d 4f 8e 38
       4.9435876e-05 5.0316787e-05 -4.7851532e-05 6.785847e-05
000160 95 bc ba 36 75 03 3d 37 06 8e d2 b7 a9 db 83 b7
       5.565186e-06 1.1266083e-05 -2.5100086e-05 -1.5718704e-05
000170 13 a2 c8 b5 43 37 19 36 0f 78 19 b8 5c d8 31 36
       -1.4948331e-06 2.2830943e-06 -3.6589856e-05 2.6500993e-06
000180 00 00 00 00 40 b1 52 35 80 f8 d9 b7 34 79 05 b7
       0.0 7.848903e-07 -2.5984133e-05 -7.955638e-06
000190 00 00 00 00 36 ad d5 b6 d4 96 48 b6 1c d1 01 b8
       0.0 -6.368059e-06 -2.9890116e-06 -3.0950745e-05
0001a0 00 00 00 00 24 84 60 b7 d7 36 bd 37 f8 f5 6c b8
       0.0 -1.3382207e-05 2.2556093e-05 -5.649586e-05
0001b0 00 00 00 00 7b 8c 9a b7 e1 6f 80 b7 38 45 9c b7
       0.0 -1.8423647e-05 -1.5310887e-05 -1.8628882e-05
0001c0 00 00 00 00 34 e2 1c b7 bc 08 6b b6 03 54 ff b7
       0.0 -9.350992e-06 -3.5022813e-06 -3.043749e-05
0001d0 00 00 00 00 d6 14 06 b7 04 34 01 b8 51 68 52 b6
       0.0 -7.991874e-06 -3.080444e-05 -3.1353159e-06
0001e0 00 00 00 00 6b 58 e4 b6 cd 77 c2 37 6c 96 6f b8
       0.0 -6.8052227e-06 2.3182389e-05 -5.712213e-05
0001f0 00 00 00 00 b1 77 3a b7 22 c4 55 b7 0e d3 b1 b7
       0.0 -1.1114332e-05 -1.2741455e-05 -2.1198324e-05
000200 00 00 00 00 55 32 24 b7 4e 48 ac 35 2c b2 55 37
       0.0 -9.786881e-06 1.2836042e-06 1.2737273e-05
000210 a2 f3 42 37 5b 13 3a b7 23 ba e8 37 b7 e8 98 b7
       1.1620026e-05 -1.10909705e-05 2.7743232e-05 -1.8228178e-05
000220 03 4d b2 b7 e3 78 95 37 cf ff eb 37 4e 79 9b b5
       -2.1255115e-05 1.7818476e-05 2.8133303e-05 -1.1583704e-06
000230 57 ba c5 b6 3d d5 0b 37 a7 e8 34 b6 00 00 00 00
       -5.8927503e-06 8.334694e-06 -2.6957512e-06 0.0
000240 a0 ae 1d b5 fb 6a 32 b5 87 83 d3 36 00 00 00 00
       -5.874117e-07 -6.6465844e-07 6.303602e-06 0.0
000250 7a 8c 5a 36 62 e6 20 36 fb 85 59 36 00 00 00 00
       3.25663e-06 2.3975958e-06 3.2413507e-06 0.0
000260 1c 60 d2 35 4e 7f 04 b7 64 1a 63 37 00 00 00 00
       1.5674191e-06 -7.8974535e-06 1.3536399e-05 0.0
000270 33 7b 72 36 66 ea ab b6 4b 90 34 37 00 00 00 00
       3.6132521e-06 -5.1234847e-06 1.0762432e-05 0.0
000280 34 30 07 36 9d d2 ff 34 01 39 ad 36 00 00 00 00
       2.0144626e-06 4.7650693e-07 5.162438e-06 0.0
000290 64 85 fa 35 81 92 22 b6 b9 3f 07 37 00 00 00 00
       1.8665273e-06 -2.4225158e-06 8.061464e-06 0.0
0002a0 fc 25 2d 36 03 e1 8b b7 8e 2e bb 37 00 00 00 00
       2.5801119e-06 -1.667487e-05 2.2313816e-05 0.0
0002b0 38 cc ae 36 ff c6 f5 36 21 43 e2 b5 00 00 00 00
       5.2093783e-06 7.324735e-06 -1.6857849e-06 0.0
0002c0 ac fd b4 b4 df a7 b4 b6 a4 ab 00 b7 ce f2 f5 b6
       -3.3712183e-07 -5.383961e-06 -7.669358e-06 -7.329835e-06
0002d0 65 ff ae 36 78 1c e8 b6 19 94 9c 36 e4 bb 4f 35
       5.215336e-06 -6.917453e-06 4.666403e-06 7.7386926e-07
0002e0 a3 8f 83 35 fb 3c 35 b5 eb 69 93 30 81 3b ef 34
       9.802064e-07 -6.751649e-07 1.0725761e-09 4.4560514e-07
0002f0 d5 b4 d7 38 02 7f fb 36 00 00 00 00 d8 da 84 36
       0.000102856815 7.4951686e-06 0.0 3.9593833e-06
000300 82 00 58 b8 84 b6 29 39 00 00 00 00 cb d1 25 38
       -5.1498886e-05 0.00016185088 0.0 3.953445e-05
000310 e4 8f dc b7 5f 48 0f 39 00 00 00 00 2e e6 15 38
       -2.6293048e-05 0.00013664503 0.0 3.573874e-05
000320 55 95 54 b7 b7 ff 00 39 00 00 00 00 3d 0e 1a 38
       -1.2670954e-05 0.00012302292 0.0 3.672972e-05
000330 a3 f9 bf b7 97 b5 0b 39 00 00 00 00 55 be 2f 38
       -2.288522e-05 0.0001332372 0.0 4.1900512e-05
000340 a6 39 03 b8 ca 84 14 39 00 00 00 00 e8 81 a3 38
       -3.1286523e-05 0.00014163848 0.0 7.7966426e-05
000350 58 3f b9 38 ad b5 b8 37 00 00 00 00 23 3c 79 b7
       8.833286e-05 2.2019109e-05 0.0 -1.4855558e-05
000360 ca 79 d0 37 5c 4e b3 38 00 00 00 00 cf d1 cf 38
       2.4852245e-05 8.549981e-05 0.0 9.909609e-05
000370 ca b0 09 37 b1 36 d6 38 00 00 00 00 06 84 09 38
       8.206998e-06 0.00010214502 0.0 3.27863e-05
000380 5b f3 54 38 ec 1f d0 38 65 86 d0 38 a8 91 6b b8
       5.077138e-05 9.924159e-05 9.943246e-05 -5.616402e-05
000390 be df 8c 38 0e 2b 1a 39 f2 c7 c3 b8 55 86 18 b9
       6.7173954e-05 0.00014702624 -9.335567e-05 -0.00014545892
0003a0 6b 6f 19 b9 1e 0e ff b4 49 19 d1 b7 cd 0c ec b7
       -0.00014632723 -4.7507723e-07 -2.4926516e-05 -2.8139353e-05
0003b0 d4 25 3f 37 00 00 00 00 f9 2b cf 35 5e c6 66 36
       1.1393295e-05 0.0 1.54355e-06 3.4388136e-06
0003c0 ae 52 a9 b7 00 00 00 00 75 48 39 b6 31 31 16 b6
       -2.018487e-05 0.0 -2.7609324e-06 -2.2380375e-06
0003d0 75 67 73 b7 00 00 00 00 af b1 f3 b5 29 7b 0a b8
       -1.4508017e-05 0.0 -1.8156624e-06 -3.3016466e-05
0003e0 72 7c 88 37 00 00 00 00 e0 a9 63 36 9b 85 2a 38
       1.6270413e-05 0.0 3.3924516e-06 4.065559e-05
0003f0 8a c2 70 b8 00 00 00 00 3c 60 1a b7 dd cb a6 b6
       -5.7401638e-05 0.0 -9.201522e-06 -4.9709183e-06

exp_avg_sq f4 [128, 47]
000000 3e 8f 09 33 d7 b2 13 30 00 00 00 00 1b 81 8c 2d
       3.2028076e-08 5.3732435e-10 0.0 1.5973492e-11
000010 8e 79 2b 31 f7 49 00 33 00 00 00 00 3f 7c 40 31
       2.495287e-09 2.9869593e-08 0.0 2.8010303e-09
000020 dd 97 37 31 fe 73 fe 32 00 00 00 00 a4 0d 53 31
       2.671633e-09 2.9622239e-08 0.0 3.0712295e-09
000030 33 8e b6 31 46 95 e6 32 00 00 00 00 48 64 42 31
       5.3130633e-09 2.6843406e-08 0.0 2.8287719e-09
000040 26 36 c4 31 70 10 e5 32 00 00 00 00 85 bb 81 31
       5.7105067e-09 2.6666584e-08 0.0 3.7757126e-09
000050 39 52 c1 31 04 35 e6 32 00 00 00 00 44 7d 7c 31
       5.626387e-09 2.6799633e-08 0.0 3.6742032e-09
000060 c7 7b d1 31 e9 58 de 32 00 00 00 00 7b eb b6 31
       6.0967724e-09 2.5884633e-08 0.0 5.323668e-09
000070 de 3b e0 31 5d 34 db 32 00 00 00 00 68 27 ab 31
       6.526064e-09 2.5518768e-08 0.0 4.981235e-09
000080 84 af f9 31 1a bc ce 32 00 00 00 00 1c cd 8c 31
       7.2668076e-09 2.4067095e-08 0.0 4.0978545e-09
000090 5e ac 95 31 4d 41 38 32 7c 6b 9e 31 00 4d 45 32
       4.3560666e-09 1.0725057e-08 4.6106248e-09 1.1484417e-08
0000a0 17 db 06 32 67 16 2e 32 5b ce 71 32 f5 6f 1b 32
       7.849642e-09 1.0133227e-08 1.4074966e-08 9.0476435e-09
0000b0 4d a6 8c 32 3e b7 05 2f 20 85 99 30 2c 2f a8 34
       1.637377e-08 1.216138e-10 1.1170052e-09 3.132676e-07
0000c0 4c 76 bb 31 00 00 00 00 10 11 31 2f f2 b2 06 33
       5.455865e-09 0.0 1.6104118e-10 3.1362056e-08
0000d0 91 be 9b 34 00 00 00 00 78 00 e8 32 70 b5 76 33
       2.9009655e-07 0.0 2.7008568e-08 5.7441355e-08
0000e0 8e af 8d 34 00 00 00 00 16 9c ec 32 c3 aa 31 33
       2.639103e-07 0.0 2.7544996e-08 4.136633e-08
0000f0 d0 9a 94 34 00 00 00 00 f1 91 fa 32 aa 57 c8 33
       2.767979e-07 0.0 2.9170197e-08 9.329172e-08
000100 98 c2 69 34 00 00 00 00 8d 37 06 33 13 07 54 33
       2.1770609e-07 0.0 3.124983e-08 4.936653e-08
000110 c0 0f 92 34 00 00 00 00 16 4b 21 33 ec 9b f6 33
       2.720608e-07 0.0 3.7554024e-08 1.148363e-07
000120 70 03 5a 34 00 00 00 00 00 26 38 33 53 b6 a2 33
       2.0304083e-07 0.0 4.28754e-08 7.5768774e-08
000130 af ce 83 34 00 00 00 00 10 ae 4a 33 14 0a fc 33
       2.4551034e-07 0.0 4.71901e-08 1.17364976e-07
000140 83 34 55 34 00 00 00 00 a4 74 0f 33 2e d1 39 33
       1.9856274e-07 0.0 3.3400866e-08 4.3263917e-08
000150 82 f7 fe 33 93 9f 61 33 a3 af e9 33 ca 9c a6 33
       1.1872818e-07 5.2532027e-08 1.0881856e-07 7.758497e-08
000160 91 42 eb 33 fd e6 0b 34 a7 0b d6 33 ae 37 2b 34
       1.09551486e-07 1.3029417e-07 9.967271e-08 1.5945872e-07
000170 f0 c0 a8 30 1c 82 89 32 fa ae 81 33 1d 56 4d 30
       1.2278445e-09 1.6008066e-08 6.038859e-08 7.470094e-10
000180 00 00 00 00 15 cf e1 2d 4d ee 05 32 49 36 66 33
       0.0 2.5671501e-11 7.795802e-09 5.360042e-08
000190 00 00 00 00 70 b0 ad 31 8f 15 f4 31 aa 61 67 33
       0.0 5.0550213e-09 7.1037856e-09 5.3872704e-08
0001a0 00 00 00 00 1f b2 c3 31 24 95 0a 32 6c 0d 60 33
       0.0 5.695497e-09 8.066568e-09 5.216627e-08
0001b0 00 00 00 00 86 9a bf 31 7c ec 53 32 c5 69 4a 33
       0.0 5.576399e-09 1.2335587e-08 4.7127987e-08
0001c0 00 00 00 00 9a 20 e8 31 98 6f 38 32 5c 32 56 33
       0.0 6.755795e-09 1.0735583e-08 4.987156e-08
0001d0 00 00 00 00 5c b8 ea 31 51 1a ad 32 18 73 26 33
       0.0 6.8312556e-09 2.0151818e-08 3.8754564e-08
0001e0 00 00 00 00 95 79 07 32 41 d3 80 32 c2 82 41 33
       0.0 7.885679e-09 1.4997228e-08 4.5055238e-08
0001f0 00 00 00 00 2a fb 1a 32 d7 d1 88 32 c8 6b 42 33
       0.0 9.021088e-09 1.5927908e-08 4.526717e-08
000200 00 00 00 00 0e 47 fb 31 76 d8 07 32 24 1a c2 32
       0.0 7.3131394e-09 7.907252e-09 2.259646e-08
000210 f3 1e 23 32 bf e1 b6 32 f6 82 68 32 01 da c9 32
       9.494886e-09 2.1290246e-08 1.3533954e-08 2.3498616e-08
000220 1b b2 b5 32 80 7f ae 32 ad 1a 05 33 07 6e 4e 2f
       2.1152166e-08 2.0314246e-08 3.0990737e-08 1.877468e-10
000230 e1 eb 14 31 87 d2 51 32 65 ee ba 2f 00 00 00 00
       2.1670916e-09 1.22132695e-08 3.4002592e-10 0.0
000240 7f 01 d3 2c a1 de fb 2e e7 05 53 32 00 00 00 00
       5.997147e-12 1.1453705e-10 1.22831585e-08 0.0
000250 e9 02 9c 30 91 72 b0 30 c8 00 46 32 00 00 00 00
       1.1351321e-09 1.2838247e-09 1.15252945e-08 0.0
000260 c9 b5 9f 30 6f 93 0f 30 1d 9b 4b 32 00 00 00 00
       1.1620439e-09 5.223261e-10 1.1851424e-08 0.0
000270 e7 92 a6 30 bf ee e7 30 a7 fe 38 32 00 00 00 00
       1.2119842e-09 1.6875318e-09 1.0768111e-08 0.0
000280 a1 2b c4 30 65 4c 01 30 5a 19 4e 32 00 00 00 00
       1.4273277e-09 4.703849e-10 1.1996542e-08 0.0
000290 08 be df 30 f1 69 fe 30 04 96 36 32 00 00 00 00
       1.6279396e-09 1.8511043e-09 1.0627904e-08 0.0
0002a0 1a 30 11 31 2b 56 52 31 2c 39 21 32 00 00 00 00
       2.112762e-09 3.0608003e-09 9.384433e-09 0.0
0002b0 bf aa fb 30 d3 44 a5 31 11 d0 00 32 00 00 00 00
       1.8311183e-09 4.8099564e-09 7.497889e-09 0.0
0002c0 39 50 cb 30 71 ca 00 31 61 7a 81 31 bc 29 e3 30
       1.4792995e-09 1.8741526e-09 3.768307e-09 1.6528285e-09
0002d0 3e c2 a9 31 ce c7 45 31 04 a2 a7 31 39 17 a5 31
       4.94063e-09 2.8780849e-09 4.8787587e-09 4.804772e-09
0002e0 74 06 a3 31 af 92 c1 31 0f 62 1d 2e 56 f8 90 2f
       4.744658e-09 5.6337153e-09 3.578476e-11 2.63699e-10
0002f0 41 ea 10 35 fa 32 7b 32 00 00 00 00 30 9d 8a 2f
       5.3985065e-07 1.4621714e-08 0.0 2.5213742e-10
000300 21 a7 64 33 9d 3d 0a 35 00 00 00 00 e2 0e 4d 33
       5.323739e-08 5.1498665e-07 0.0 4.7743818e-08
000310 8d 17 80 33 7e 4e 04 35 00 00 00 00 45 73 5b 33
       5.964748e-08 4.9288053e-07 0.0 5.1094748e-08
000320 0a d6 a6 33 db 5f 00 35 00 00 00 00 94 d4 57 33
       7.768911e-08 4.7823204e-07 0.0 5.0251927e-08
000330 89 e2 e5 33 36 c4 e7 34 00 00 00 00 cd e8 81 33
       1.070485e-07 4.3169865e-07 0.0 6.049377e-08
000340 5e 56 c2 33 b9 3d fa 34 00 00 00 00 d1 4b 8c 33
       9.049539e-08 4.6611038e-07 0.0 6.533049e-08
000350 8e 63 16 34 e3 ec d8 34 00 00 00 00 90 c6 a7 33
       1.4006056e-07 4.0405493e-07 0.0 7.812662e-08
000360 aa b3 d9 33 7a bd f2 34 00 00 00 00 63 22 cc 33
       1.01375306e-07 4.5213875e-07 0.0 9.505745e-08
000370 3c 46 fd 33 d5 ae e7 34 00 00 00 00 10 8d a6 33
       1.1794006e-07 4.315431e-07 0.0 7.7556365e-08
000380 5b 83 b1 33 18 88 43 34 8c c1 a5 33 3d 44 66 34
       8.266098e-08 1.8210301e-07 7.718617e-08 2.1445244e-07
000390 07 49 17 34 4b ba 4d 34 ea f9 72 34 c9 07 49 34
       1.4089538e-07 1.9159886e-07 2.2628925e-07 1.8722416e-07
0003a0 8b 34 8d 34 0f e7 0f 31 e1 61 bf 32 26 ae 3e 34
       2.6301527e-07 2.094058e-09 2.2279837e-08 1.7758484e-07
0003b0 44 a0 b2 31 00 00 00 00 ee b2 b9 2e e0 97 d1 31
       5.198702e-09 0.0 8.44461e-11 6.0999668e-09
0003c0 45 1f 3f 34 00 00 00 00 a6 e1 89 32 54 25 59 32
       1.7799637e-07 0.0 1.6051512e-08 1.263955e-08
0003d0 4b 39 36 34 00 00 00 00 a3 76 8f 32 f7 2f 3f 32
       1.6970914e-07 0.0 1.670134e-08 1.1128569e-08
0003e0 3f 41 3b 34 00 00 00 00 e5 77 96 32 8a d8 d4 32
       1.7439469e-07 0.0 1.751682e-08 2.4778519e-08
0003f0 6f fb 27 34 00 00 00 00 e5 69 b1 32 76 a4 52 32
       1.5644558e-07 0.0 2.0653667e-08 1.2261003e-08

exp_avg f4 [128]
000000 67 f0 38 38 77 90 12 b7 8d 5a 0e b8 1b 36 bd 36
       4.409291e-05 -8.735914e-06 -3.393977e-05 5.6389376e-06
000010 c8 6c e7 38 de 79 8c b7 22 5e 2c 37 ec d4 67 b8
       0.000110352004 -1.674605e-05 1.0273916e-05 -5.527299e-05
000020 a0 56 c1 37 ca 83 93 b7 ca 8d 43 b8 27 fc c2 36
       2.304773e-05 -1.7585135e-05 -4.6623674e-05 5.811005e-06
000030 ca 48 35 b8 bb da 33 b6 60 ea da 38 d9 e5 ca b8
       -4.3221553e-05 -2.6800396e-06 0.00010438706 -9.674923e-05
000040 d2 91 17 b5 81 68 cc b8 c8 3d 13 36 f4 61 64 38
       -5.646408e-07 -9.7469434e-05 2.1940668e-06 5.4450662e-05
000050 f4 dd f8 b8 2d 46 05 b8 1c e1 1d b8 e6 31 8c 36
       -0.000118669035 -3.1775027e-05 -3.7641366e-05 4.178134e-06
000060 96 3d a2 36 b1 33 1f b8 2e 58 3b b8 f9 2e df b7
       4.835146e-06 -3.7956695e-05 -4.4666398e-05 -2.6605545e-05
000070 cb 16 b9 37 d8 d0 58 38 e7 e7 89 b8 45 73 cc 37
       2.2064332e-05 5.1692914e-05 -6.575864e-05 2.4372372e-05
000080 cf 0b 4a 38 df 37 d3 37 4c 07 dc b7 57 1d b6 b8
       4.817155e-05 2.5179177e-05 -2.6229442e-05 -8.683901e-05
000090 e1 e8 34 b7 37 45 ef b7 84 75 d8 36 a2 ef cb b7
       -1.0783057e-05 -2.852325e-05 6.4509823e-06 -2.4311074e-05
0000a0 13 40 8e b8 61 44 0b 38 4e 5e 37 b8 67 24 33 b8
       -6.7830224e-05 3.3203865e-05 -4.3718428e-05 -4.2710828e-05
0000b0 fd b0 65 b9 fc f4 99 36 8a 9a 80 b6 66 5e e1 35
       -0.00021905075 4.5882753e-06 -3.832688e-06 1.679128e-06
0000c0 27 9f 4c 37 9d 02 9c b8 8a cc 11 b6 57 4b 83 36
       1.2196403e-05 -7.4391464e-05 -2.172574e-06 3.912875e-06
0000d0 7f ba ce b8 dd aa 13 b8 3b f0 f5 37 f1 cc 21 b7
       -9.857583e-05 -3.520666e-05 2.9318142e-05 -9.644064e-06
0000e0 77 2e 67 38 e9 61 41 b7 ce 3b e3 b8 98 e7 a5 37
       5.5117966e-05 -1.1526493e-05 -0.00010835343 1.9777377e-05
0000f0 e9 bb db 37 b8 08 b3 b8 e9 03 8f b7 62 5d 06 38
       2.6194337e-05 -8.537009e-05 -1.704875e-05 3.203506e-05
000100 5a 2b a7 b8 eb 4c 80 38 c6 a3 1c b9 47 53 48 b7
       -7.9712554e-05 6.117843e-05 -0.0001493833 -1.19403185e-05
000110 10 77 d9 b7 e1 3c 00 b8 75 2c 87 b7 2d d6 d2 b7
       -2.5923859e-05 -3.0574276e-05 -1.6113956e-05 -2.5133684e-05
000120 23 17 37 b7 d3 44 03 b8 57 73 01 38 c8 67 90 38
       -1.0913037e-05 -3.129693e-05 3.0863415e-05 6.885786e-05
000130 3e c3 90 b8 fa 28 82 b7 74 b4 ec b7 b9 6a bd 38
       -6.902822e-05 -1.5516289e-05 -2.8217422e-05 9.032101e-05
000140 25 55 ff b6 13 0e e1 37 30 cc 61 b7 a3 9f cc 36
       -7.6095043e-06 2.6828644e-05 -1.3458586e-05 6.098258e-06
000150 a2 66 0e b9 21 4b 21 b8 1d 60 4d b8 fe 75 0c 38
       -0.00013580409 -3.845536e-05 -4.896532e-05 3.348849e-05
000160 d8 7f 3a 38 54 a6 8b 37 76 b9 de b7 3b c5 7b 38
       4.446492e-05 1.6647544e-05 -2.6550824e-05 6.002675e-05
000170 9f 53 97 38 98 03 90 b7 85 4e 37 b7 aa e7 d0 37
       7.215817e-05 -1.7167811e-05 -1.0925932e-05 2.490341e-05
000180 09 12 8d 37 b7 56 da b8 7a 0d b4 b7 09 00 a8 38
       1.6816908e-05 -0.00010411202 -2.1463948e-05 8.010871e-05
000190 d3 9d cd b5 c7 c9 88 37 be 99 dd 37 1a e1 a5 b7
       -1.5319623e-06 1.6306423e-05 2.6416845e-05 -1.9774354e-05
0001a0 03 3f 09 38 e0 e4 42 37 f7 52 92 b7 5c e6 2e 38
       3.272203e-05 1.161659e-05 -1.744319e-05 4.169937e-05
0001b0 ff f0 e5 b7 c3 f1 d4 37 ca 70 f7 b7 4c 63 f7 b8
       -2.741115e-05 2.5384948e-05 -2.9497216e-05 -0.00011796373
0001c0 d0 9c c8 b7 af 53 99 37 ee 75 a1 b8 48 49 e7 b6
       -2.391488e-05 1.827799e-05 -7.699044e-05 -6.8928675e-06
0001d0 73 05 47 b8 31 7f c0 b8 5e 06 eb b6 1f 45 83 b8
       -4.7450372e-05 -9.178965e-05 -7.004287e-06 -6.2594416e-05
0001e0 f5 73 99 37 fe 2c 86 b7 4d 66 15 b9 8e b7 0a 38
       1.8293018e-05 -1.5994996e-05 -0.00014247857 3.3072713e-05
0001f0 ea 3f 0d 37 a2 2d 01 b9 62 29 9c 37 1e be 74 37
       8.419136e-06 -0.00012319398 1.861592e-05 1.4587798e-05
