config/results/AgrConserv_Refactored_2M_Almost-Final_v4_BETA/Hummingbird_Aggressive/Hummingbird_Aggressive-999960.pt (torch, 574408 bytes, 36 tensors)

network_body._body_endoder.seq_layers.0.weight f4 [128, 47]
0	0xbdd87b00	-0.105703354
1	0xbeed5b6c	-0.46358812
2	0x3d4f0119	0.050538156
3	0x3d2e7862	0.042595275
4	0x3d1c3c28	0.038143307
5	0xbdb021a3	-0.08600166
6	0x3e65489a	0.22390977
7	0x3d1fa155	0.038972218
8	0xbe45f00f	-0.19329856
9	0xbe0cd801	-0.13754274
10	0xbdd6b930	-0.104845405
11	0x3c4e4813	0.012590426
12	0x3e638b2c	0.22221059
13	0xbdfae539	-0.12250752
14	0x3caacbcf	0.020849137
15	0x3a824652	0.000993917
16	0x3d195d76	0.037442647
17	0xbdc63216	-0.09677522
18	0xbe28a5fd	-0.1646957
19	0x3da31011	0.07962049
20	0xbc9b7501	-0.01897669
21	0x3e8f3327	0.27968714
22	0x3e2e5e6f	0.17028211
23	0x3dc3bf2a	0.09557946
24	0x3d8e3c8f	0.069451444
25	0x3d4dd819	0.050254915
26	0x3d3d5213	0.04622085
27	0xbe1a8a5c	-0.15091842
28	0x3c81b7c1	0.015834691
29	0x3db51907	0.08842664
30	0xbe0ed271	-0.13947465
31	0xbe17033d	-0.14747329
32	0x3ec1f81d	0.37884608
33	0x3cfcc887	0.030857338
34	0x3dc82483	0.09772589
35	0xbc5eee1b	-0.013606573
36	0x3d8d60ab	0.069032036
37	0xbe1465fa	-0.14492026
38	0x3e03e15c	0.12878937
39	0x3dce0650	0.10059798
40	0x3cd30bb2	0.025762413
41	0x3d18588e	0.037193827
42	0xbd6bcb4b	-0.057566922
43	0xbe0c3bca	-0.13694683
44	0xbdd1c83c	-0.1024327
45	0xbe34ce6a	-0.17656866
46	0x3eb8b7af	0.3607764
47	0xbd775b63	-0.060389888
48	0xbd05fef9	-0.032713864
49	0x3d5029aa	0.050820984
50	0x3ccc08dc	0.024906568
51	0xbe56947b	-0.20955078
52	0xbded5e34	-0.115902334
53	0x3d2f63c2	0.042819746
54	0xbb3910e8	-0.0028238837
55	0xbec057db	-0.37567028
56	0xbefae3e5	-0.49001995
57	0xbd5bf263	-0.053697955
58	0xbea65303	-0.32485208
59	0x3bda5682	0.0066631446
60	0x3d12ca32	0.03583736
61	0xbe865d13	-0.26242885
62	0x3db5f765	0.088850774
63	0xbe4ee0fd	-0.20203014
64	0xbd9e891a	-0.07740994
65	0xbe2c1755	-0.16805775
66	0x3e533829	0.20626892
67	0xbcdf3477	-0.027246697
68	0x3df37a12	0.118885174
69	0x3d654f57	0.055983867
70	0xbdf183c7	-0.11792713
71	0x3c103826	0.008802449
72	0xbe775559	-0.24153651
73	0x3d1a3698	0.03764972
74	0x3e18b6c1	0.14913465
75	0x3dd5b605	0.10435108
76	0xbd8ff2ea	-0.07028754
77	0xbde28fbf	-0.11062574
78	0xbe5eca1a	-0.21756783
79	0xbd43feeb	-0.04785053
80	0xbde703dd	-0.11280034
81	0x3e9a76a3	0.30168638
82	0x3e21a84c	0.15786856
83	0x3c01cd6d	0.0079225125
84	0x3d7ccfa1	0.061721448
85	0xbe1bfa58	-0.15232217
86	0x3e79d185	0.24396332
87	0x3dc3ea33	0.09566154
88	0x3bcbab97	0.0062155235
89	0x3d357e05	0.044309635
90	0xbdf8ea6b	-0.12154087
91	0x3dcc90c5	0.0998855
92	0x3e6434e5	0.22285803
93	0xbdee3969	-0.11632044
94	0xbe35beae	-0.1774852
95	0x3e14a97f	0.14517783
96	0xbd67ec4e	-0.056621842
97	0x3da3e6a3	0.08002975
98	0x3c736f89	0.014858135
99	0xbdcbf1b4	-0.099582106
100	0x3e48cdee	0.19609806
101	0xbe438780	-0.19094658
102	0xbdd9f93f	-0.10643243
103	0xbdf55294	-0.11978641
104	0xbd13f3f8	-0.03612134
105	0xbd2e5eb8	-0.0425708
106	0xbdd55c1c	-0.10417959
107	0x3d47445a	0.04864917
108	0x3e2106a9	0.15725197
109	0x3c9d97b5	0.019237379
110	0x3e86b800	0.26312256
111	0xbdc619d0	-0.09672892
112	0xbdf45124	-0.11929539
113	0x3dbbd248	0.09170967
114	0x3dc1b84b	0.09458979
115	0xbdbee002	-0.0932007
116	0x3d18fb06	0.03734877
117	0xbcbff38a	-0.023431558
118	0xbe33cb0c	-0.17557925
119	0x3cecf490	0.02892521
120	0xbe04f3a5	-0.12983568
121	0xbd524039	-0.05133078
122	0xbe5bf511	-0.21480204
123	0xbe31f712	-0.17379406
124	0x3e13ae2c	0.1442191
125	0x3e1d51ee	0.15363285
126	0x3c86b2b1	0.016442629
127	0xbd8207b7	-0.06349128
128	0x3e0fa7c9	0.14028849
129	0xbde81a85	-0.11333183
130	0xbe6842a0	-0.22681665
131	0xbd7b7ab3	-0.061396312
132	0x3e8ccbcb	0.27499232
133	0xbd1e5b13	-0.038661074
134	0x3d9c1153	0.07620492
135	0x3b62338f	0.0034515595
136	0x3cb57e4b	0.022154948
137	0x3e147afa	0.14500037
138	0xbda9d7c3	-0.082931064
139	0xbd04a0a3	-0.032379758
140	0xbe81dcdd	-0.25363818
141	0xbdef7451	-0.116921075
142	0x3e32b166	0.17450485
143	0xbd635cea	-0.05550853
144	0xbbcd1d8c	-0.006259626
145	0x3e44d5dc	0.19222206
146	0xbde39b1e	-0.11113571
147	0xb97093ac	-0.00022943196
148	0xbdd80a0b	-0.105487905
149	0x3d455094	0.04817255
150	0x3db2f93a	0.087389424
151	0x3d5df7ac	0.054191276
152	0xbe18b8f9	-0.14914311
153	0x3e5ebcf9	0.21751775
154	0x3d436baf	0.047710117
155	0x3e7f1bb8	0.24912918
156	0x3c38c3c0	0.011277139
157	0xbd99c79d	-0.07508776
158	0x3df4677f	0.11933803
159	0xbe489e66	-0.19591674
160	0x3e7762c4	0.2415877
161	0x3dae2b8f	0.08504402
162	0xbe4e75a0	-0.20162058
163	0xbe9536a3	-0.29143247
164	0x3dfd28bf	0.12361287
165	0x3c200bd7	0.009768448
166	0x3d0fbb49	0.03509072
167	0xbdf60721	-0.120130785
168	0xbdf2e3a6	-0.11859827
169	0xbd399062	-0.04530371
170	0xbe6e5534	-0.2327469
171	0x3d8c5e5d	0.06853936
172	0xbe04ea40	-0.12979984
173	0x3f0864f5	0.5327905
174	0x3a8613c5	0.001022928
175	0x3d12542e	0.03572481
176	0xbe5f198d	-0.2178709
177	0xbe708de6	-0.2349163
178	0x3e0ddc1a	0.13853493
179	0xbdc3af5c	-0.095549315
180	0xbdbbdc06	-0.091728255
181	0xbd9d0893	-0.07667651
182	0xbdc7e603	-0.09760668
183	0xbe9a4cf1	-0.30136827
184	0x3df6729a	0.12033577
185	0x3e0c1466	0.13679656
186	0xbd948b70	-0.07253158
187	0x3d0370e9	0.0320901
188	0x3dc634bb	0.09678026
189	0x3dd8c1ce	0.1058384
190	0x3dcbc515	0.099497
191	0xbd7c71ae	-0.06163185
192	0x3dbbbd41	0.09166957
193	0x3dfffbd7	0.124992065
194	0x3d9ad6d0	0.075605035
195	0xbc966fda	-0.018363882
196	0x3e825619	0.25456312
197	0xbc92ca47	-0.017918719
198	0xbe153571	-0.14571168
199	0xbe5e6160	-0.21716833
200	0xbd0365b9	-0.032079432
201	0x3dfc22f4	0.12311354
202	0x3d16c8a3	0.036812436
203	0x3d841e92	0.06451143
204	0xbe3f5398	-0.18684232
205	0x3eaa3d71	0.3325
206	0x3e75ba13	0.23996763
207	0x3e062b08	0.13102353
208	0xbcc081f4	-0.023499466
209	0xbe745ee3	-0.23864321
210	0xbe071c2d	-0.13194342
211	0xbe3aa29e	-0.18226096
212	0xbde93d94	-0.11388698
213	0x3dbf4042	0.09338428
214	0x3e52d404	0.2058869
215	0xbed2b292	-0.41151863
216	0x3db15f1f	0.08660721
217	0xbe85d42a	-0.2613843
218	0x3e47b913	0.19504194
219	0xbdea402c	-0.11438021
220	0x3e615eac	0.2200877
221	0x3c828bc0	0.015935779
222	0x3e78d2b7	0.24299131
223	0xbe451325	-0.19245584
224	0x3ddffd2c	0.109369606
225	0xbc81c9c6	-0.015843283
226	0x3d7bb26d	0.061449457
227	0xbd1ab29f	-0.037768003
228	0xbe0f6cd4	-0.14006358
229	0xbd54ecdb	-0.051983695
230	0xbd271b56	-0.040797554
231	0xbe55d800	-0.20883179
232	0x3d86a0e4	0.06573656
233	0x3e0cde24	0.13756615
234	0x3e0dc738	0.13845527
235	0x3a76ae32	0.00094101124
236	0xbd94b766	-0.07261543
237	0x3e2ffa6f	0.17185377
238	0x3dd9ecb3	0.1064085
239	0xbe1d05fe	-0.15334317
240	0x3ebfbf6f	0.3745074
241	0xbe4002a7	-0.18751012
242	0xbd96c324	-0.07361439
243	0x3e04588e	0.12924406
244	0xbddbd670	-0.1073426
245	0x3dbbb6b5	0.09165708
246	0x3e4f70a9	0.2025782
247	0xbdcd164a	-0.10014017
248	0x3ddc411e	0.107546076
249	0xbe8caa1d	-0.27473536
250	0x3e1362f6	0.1439322
251	0xbd05d914	-0.032677725
252	0x3d97b1a0	0.07406926
253	0x3e151843	0.14560036
254	0x3db1201f	0.08648705
255	0xbe3bccfd	-0.18339916

network_body._body_endoder.seq_layers.0.bias f4 [128]
0	0xbc6887e1	-0.014192552
1	0xbc30343b	-0.01075464
2	0xbcfec348	-0.031098977
3	0x3d013a67	0.031549837
4	0x3cc61132	0.024178121
5	0x3d0f0689	0.03491834
6	0x3cad09a1	0.021122755
7	0x3cd40b24	0.025884219
8	0x3cf92e92	0.030417714
9	0x3cad643c	0.02116596
10	0x3cf99185	0.030464897
11	0x3c66ae08	0.014079578
12	0x3caebecf	0.021331219
13	0x3d2b67fe	0.04184722
14	0x3cd68df8	0.026190743
15	0xba2d53e7	-0.00066119287
16	0x3c68be3b	0.014205511
17	0x3cdc9470	0.02692625
18	0x3a93a49a	0.0011264265
19	0x3ce2ee16	0.027701419
20	0x3c07c2ef	0.008286222
21	0x3cc70466	0.02429409
22	0x3d1894d5	0.037251312
23	0x3c440cfd	0.011965987
24	0x3c628f64	0.013828132
25	0x3c9987b0	0.018741459
26	0x3ca6541f	0.020303784
27	0xb9c90ac7	-0.00038345737
28	0x3cab8c01	0.020940783
29	0x3c168b64	0.009188507
30	0x3cf999f3	0.030468917
31	0x3b9b8f25	0.004747289
32	0x3c8074f1	0.015680762
33	0x3c6f7ab3	0.014616656
34	0x3d5aab5c	0.053386077
35	0x3c842aea	0.016133744
36	0x3c7f0f16	0.015567562
37	0x3cf919f9	0.030407893
38	0xbd0a265d	-0.033727992
39	0x3cf14a61	0.029454412
40	0xbca82515	-0.020525495
41	0xbcd244b5	-0.025667528
42	0xbc3885c4	-0.011262361
43	0x3c4eef5a	0.012630308
44	0xbc8dad8e	-0.017294671
45	0x3d88f052	0.066864625
46	0x3cfd9264	0.030953594
47	0x3c7cc7ab	0.015428464
48	0x3c8d313d	0.017235393
49	0x3cc9a232	0.024613474
50	0x3c26444a	0.010148117
51	0x3a9ed2ca	0.0012117263
52	0x3c05568d	0.008138311
53	0xbacc3dc7	-0.0015582376
54	0x3cabda6b	0.020978173
55	0x3ca2e3d0	0.01988402
56	0xbcf99a0c	-0.030468963
57	0xbbc37231	-0.0059645404
58	0x3d4567c1	0.04819465
59	0x3cf7f846	0.030269753
60	0x3d0beaf8	0.03415963
61	0xbc2f91a4	-0.010715876
62	0x3c900348	0.01757969
63	0x3d307e7e	0.043089382
64	0x3d5d6010	0.05404669
65	0x3d1794e3	0.037007224
66	0x3d00ee52	0.03147728
67	0x3d10d5ed	0.035360266
68	0xba9a129d	-0.0011754815
69	0xbad23e9b	-0.0016040386
70	0xbc70ce94	-0.01469769
71	0x3bf679fe	0.007521867
72	0x3c639197	0.013889692
73	0xba9edc67	-0.0012120128
74	0x3d517888	0.05114034
75	0x3d03a55e	0.03214013
76	0x3d0c1ea4	0.03420891
77	0x3d106ba5	0.035258908
78	0x3d805b5d	0.06267426
79	0xbc1055c3	-0.00880951
80	0x3ca7098f	0.0203903
81	0x3c9d7751	0.019221934
82	0x3cc7b4fa	0.024378289
83	0x3d0fc28a	0.035097636
84	0x3d7055e6	0.05867567
85	0x3cbc2507	0.022966875
86	0x3b33e441	0.0027449282
87	0x3c22fd52	0.009948092
88	0x3d2f921c	0.04286395
89	0x3d8c34fd	0.06846044
90	0xbca1cfbf	-0.019752381
91	0x3d07dc7d	0.03316926
92	0x3d0b570b	0.034018558
93	0x3cd69698	0.026194856
94	0x3cb11226	0.0216151
95	0x3c81f7a6	0.015865158
96	0xbc91384f	-0.017727045
97	0x3d123d35	0.035702903
98	0x3cfefd9a	0.031126786
99	0x3d2bcf0d	0.041945506
100	0x3c3362a0	0.010948807
101	0x3a9f1ab8	0.00121387
102	0x378076a6	1.5314039e-05
103	0x3c82d9ee	0.015973058
104	0x3a8630f3	0.0010237977
105	0x3cfeb033	0.031089878
106	0x3d014765	0.031562228
107	0x3cf673cf	0.030084519
108	0x3aafcf22	0.0013413171
109	0x3d34060a	0.04395107
110	0x3ca4a12b	0.020096382
111	0x3c92169f	0.017833052
112	0xbcfd36e2	-0.03090996
113	0x3ccdaff5	0.025108317
114	0x3cbebd97	0.023283763
115	0x3cabee3a	0.020987619
116	0x3d1b1792	0.037864275
117	0xbaade905	-0.0013268298
118	0xbbf16424	-0.007366674
119	0x3d0293c7	0.031879213
120	0x3c584809	0.013200768
121	0x3d6f8aee	0.058482103
122	0xba266808	-0.00063478993
123	0x3cebaca6	0.028768849
124	0x3c50ee77	0.012752167
125	0x3d506be1	0.05088413
126	0xbc8f4576	-0.017489176
127	0x3cbc01e8	0.022950128

network_body._body_endoder.seq_layers.2.weight f4 [128, 128]
0	0xbdc59075	-0.096466936
1	0xbc116abd	-0.008875546
2	0x3cdc8451	0.026918562
3	0xbd81e8eb	-0.06343254
4	0xbd7a5666	-0.061117552
5	0xbadd8000	-0.0016899109
6	0xbd996273	-0.07489481
7	0xbdbce04f	-0.09222471
8	0x3da070f2	0.078340426
9	0x3e6b3a24	0.22971398
10	0x3e256385	0.16151245
11	0xbe33e5c9	-0.17568125
12	0x3dc467dc	0.09590122
13	0xbdfd51f6	-0.123691484
14	0x3df4e126	0.11957006
15	0xbdee6d5c	-0.116419524
16	0x3b7c236c	0.0038473262
17	0xbdec55f3	-0.11539831
18	0x3deb921f	0.1150248
19	0x3c9834e6	0.018579911
20	0x3ddf906b	0.109162174
21	0xbd9ea753	-0.07746758
22	0xbe0b9db8	-0.13634384
23	0xbe2dc3ff	-0.16969298
24	0xbde4c3ea	-0.1117018
25	0x3adf5991	0.0017040243
26	0xbe18f353	-0.14936571
27	0xbd71b34e	-0.05900889
28	0x3e4b82c9	0.1987411
29	0xbd34b3e6	-0.044116877
30	0xbdd211b8	-0.10257286
31	0xbd8eb5d7	-0.06968277
32	0xbdadb50d	-0.08481798
33	0xbc84c3f8	-0.016206726
34	0xbe72423e	-0.23658082
35	0xbda589a8	-0.080828965
36	0x3d8a1dd1	0.06743968
37	0xb79c219c	-1.86123e-05
38	0x3db9bf33	0.090696715
39	0x3e53b95d	0.20676179
40	0x3db8c564	0.09022024
41	0xbda954b1	-0.08268107
42	0x3a4d1803	0.00078237074
43	0xbcbceaf7	-0.023061259
44	0xbc91fc0a	-0.017820377
45	0xbd09a89d	-0.033608068
46	0xbd5882c8	-0.052859098
47	0x3ca331a8	0.019921139
48	0xbd79ab3e	-0.060954325
49	0x3e16416b	0.14673392
50	0xbd57ed00	-0.052716255
51	0xbd9293a4	-0.071570665
52	0xbe11805f	-0.14209126
53	0x3e1de2a8	0.15418494
54	0xbcdd075c	-0.026981048
55	0xbe50641b	-0.20350687
56	0x3daed5a1	0.0853684
57	0x3e2bded8	0.16784227
58	0x3d6be2f7	0.057589497
59	0x3e0ce157	0.13757835
60	0xbe0b74e9	-0.13618816
61	0x3d6707f7	0.05640408
62	0xbb9cbad1	-0.0047830124
63	0x3c8949a8	0.016758755
64	0xbca304cb	-0.019899746
65	0xbdc400e9	-0.09570486
66	0xbe151755	-0.14559682
67	0xbdf3fc65	-0.11913375
68	0x3e135417	0.14387546
69	0x3c3e6f74	0.011623252
70	0x3ddac414	0.1068193
71	0x3e5e7403	0.21723942
72	0xbca265f6	-0.01982401
73	0x3e3d3bd2	0.18479851
74	0xbba513a4	-0.0050377417
75	0x3e1c104a	0.15240589
76	0x3d0559bc	0.03255628
77	0xbd745cfd	-0.059658993
78	0xbd944651	-0.07239974
79	0x3da3cda4	0.07998207
80	0x3d913105	0.07089428
81	0x3df51f99	0.119689174
82	0xbdb76d62	-0.0895641
83	0xbdc81e52	-0.09771408
84	0x3db34982	0.08754255
85	0xbc95de24	-0.018294401
86	0x3df29954	0.11845651
87	0x3d9d181a	0.07670613
88	0x3e10d0a2	0.14142087
89	0x3d1d2b3b	0.038371306
90	0xbdbb7db9	-0.09154839
91	0x3e1b626b	0.15174262
92	0xbbc33db5	-0.005958284
93	0x3d2d9078	0.042374104
94	0xbc662362	-0.014046522
95	0x3d96b143	0.07358029
96	0xbd74858c	-0.059697673
97	0x3d9a56f5	0.07536117
98	0xbbe996f2	-0.00712859
99	0x3cbcd92d	0.023052776
100	0x3e1af4fb	0.15132515
101	0x3cf9c269	0.03048821
102	0xbccfae14	-0.025351562
103	0x3cc13735	0.023585895
104	0xbdb1cb5d	-0.086813666
105	0xbd4b47d2	-0.04962904
106	0x3d82cdf9	0.063869424
107	0x3a6a67ba	0.0008941848
108	0x3d5e9e0e	0.05434995
109	0xbda7b4d8	-0.0818879
110	0xbe2edf94	-0.17077476
111	0x3dff11fc	0.12454602
112	0x3d9bf8c6	0.07615809
113	0xbe255db6	-0.16149029
114	0x3cbd3cad	0.023100222
115	0x3dd71aea	0.1050318
116	0x3d941a3f	0.072315685
117	0x3e1c535d	0.15266176
118	0xbd3b0ede	-0.045668475
119	0xbd83169b	-0.06400796
120	0x3db221b3	0.08697834
121	0xbe0c2f9a	-0.13690034
122	0x3d99d57b	0.07511421
123	0xbd374e49	-0.044752393
124	0xbd3a9385	-0.04555084
125	0x3d996764	0.07490423
126	0xbe01756b	-0.12642448
127	0xbb89988d	-0.0041990937
128	0xbbf8b05d	-0.0075893835
129	0x3d54104a	0.051773347
130	0xbda44ebb	-0.08022829
131	0x3dda088b	0.10646161
132	0x3a68ca61	0.00088802545
133	0xbd316e55	-0.04331811
134	0x3e15cc69	0.14628758
135	0x3dfe25a0	0.1240952
136	0x3e20b4a2	0.15693906
137	0x3ba01b05	0.0048860335
138	0xbe573c51	-0.21019103
139	0x3cd6b713	0.026210343
140	0xbc01402a	-0.007888833
141	0xbe0ce3e8	-0.13758814
142	0x3d6821a9	0.056672726
143	0x3e610789	0.2197553
144	0xbe063181	-0.13104822
145	0xbde9515f	-0.113924734
146	0xbc4f05e6	-0.012635684
147	0xbc470e16	-0.012149354
148	0xbe04083d	-0.12893768
149	0x3b998256	0.0046847267
150	0x3d83976b	0.06425365
151	0xbd7af99a	-0.061273195
152	0x3e2c4bd2	0.16825798
153	0xbd381c75	-0.044949014
154	0x3dad93e5	0.08475474
155	0xbd8e2cf9	-0.069421716
156	0x3c879bd8	0.016553804
157	0xbe5bbb18	-0.2145809
158	0x3e2f9d18	0.1714977
159	0x3d2b331d	0.041796792
160	0xbd0266a0	-0.031836152
161	0x3dc89e0e	0.097957715
162	0xbd5df19f	-0.054185506
163	0x3bbbba74	0.005729014
164	0x3de5c6b6	0.11219542
165	0xbd87229d	-0.06598399
166	0x3df19abc	0.11797091
167	0x3d5c1876	0.053734265
168	0xbdc488ea	-0.09596427
169	0x3ce43f88	0.027862325
170	0x3cb43d08	0.022001758
171	0xbdbe26fc	-0.092847794
172	0xbdb68397	-0.089118175
173	0x3d0d81ec	0.03454773
174	0x3c213ce5	0.009841179
175	0x3d4f2c47	0.050579336
176	0xbd01dfa8	-0.031707436
177	0x3cdf3681	0.02724767
178	0xbbeba0c7	-0.007190797
179	0x3daaca06	0.08339314
180	0x3d711ff6	0.05886837
181	0x3e728a50	0.23685575
182	0x3dd4e96e	0.10396086
183	0xbe563052	-0.2091687
184	0x3dd0e61e	0.10200141
185	0x3db8d896	0.090256855
186	0xbdab33a9	-0.08359463
187	0xbc5caf02	-0.0134694595
188	0x3dbd3b29	0.092397995
189	0x3b96f957	0.0046073603
190	0xbd4e44aa	-0.050358452
191	0xbde924e3	-0.11383989
192	0x3b815f4e	0.003948129
193	0xbe0e8e3f	-0.1392145
194	0x3c5f3705	0.0136239575
195	0xbca2a71e	-0.019855078
196	0x3cd35af0	0.025800198
197	0x3da00475	0.0781335
198	0xbe34cf1a	-0.17657128
199	0xbdd7292c	-0.105059
200	0xbd81fa42	-0.06346561
201	0x3daf37ed	0.08555589
202	0xbce304bb	-0.027712217
203	0xbd22c7d8	-0.039741367
204	0x3b71a141	0.0036869796
205	0x3d8de063	0.06927564
206	0x3cc1f2c3	0.023675328
207	0x3e4fef24	0.20306069
208	0xbd394e09	-0.045240436
209	0x3dd8e0c9	0.10589749
210	0x3ddb45e8	0.10706693
211	0xbdb882ab	-0.09009298
212	0xbd580afb	-0.052744847
213	0xbdc2d797	-0.09513777
214	0x3d859869	0.065232106
215	0x3d8548dc	0.065080374
216	0xbcdd8ff7	-0.027046187
217	0xbe0e92ea	-0.13923231
218	0x3afe4ced	0.0019401588
219	0xbc9952dc	-0.018716268
220	0xbd9dd64f	-0.07706892
221	0x3d929a93	0.07158389
222	0xbddf33bc	-0.108985394
223	0x3ced7c00	0.028989792
224	0x3e1d6117	0.15369068
225	0x3e29c341	0.1657839
226	0xbc3c6805	-0.01149941
227	0x3e0f7f69	0.14013447
228	0x3bdca81a	0.0067339065
229	0xbe5f63ed	-0.21815462
230	0xbde62fb8	-0.112395704
231	0xbd935c8e	-0.07195388
232	0xbdd20cd6	-0.102563545
233	0x3d2b448f	0.04181343
234	0x3dc7c473	0.097542666
235	0x3e13a0e9	0.14416851
236	0x3e041fd7	0.12902771
237	0xbd53c393	-0.051700186
238	0xbe09b5f9	-0.13448323
239	0xbd495d24	-0.04916109
240	0x3d8ec4f7	0.06971162
241	0x3d4b6459	0.049656246
242	0xbe152008	-0.14563
243	0x3d903e21	0.070431
244	0xbd964927	-0.073381715
245	0xbb10fb06	-0.0022122278
246	0x3d7d63b2	0.061862655
247	0xbc5230c7	-0.012829012
248	0x3ce71380	0.02820754
249	0xbdbe3b26	-0.092886254
250	0x3dde97e9	0.10868818
251	0xbe87002c	-0.2636732
252	0x3d08bb94	0.033382013
253	0xbd8db6ae	-0.06919609
254	0x3cf7d3df	0.030252395
255	0xbe0c1c62	-0.13682702

network_body._body_endoder.seq_layers.2.bias f4 [128]
0	0x3cbadf21	0.022811474
1	0xbc4a4063	-0.012344453
2	0x3c236c44	0.009974543
3	0x3c853c2a	0.01626404
4	0xbca46479	-0.02006744
5	0x3cc66a02	0.02422047
6	0x3c20f8e8	0.009824969
7	0x3c80fd68	0.015745834
8	0x3d09d27e	0.033648007
9	0x3ca22690	0.019793779
10	0x3bc57291	0.0060256203
11	0x3cf582ee	0.029969659
12	0x3c94267f	0.018084763
13	0x3d0bba60	0.034113288
14	0x3c1ce76b	0.009576659
15	0x3c2711d8	0.010197125
16	0xbc9a2573	-0.018816685
17	0xbc1933f7	-0.009350768
18	0x3bac3f05	0.005256536
19	0x3cfe777d	0.031062836
20	0x3d29400d	0.04132085
21	0x3d3cd1e6	0.046098612
22	0x3ce0f6d3	0.027461445
23	0x3bdc2a33	0.0067188977
24	0x3d1cdfd1	0.038299385
25	0x3c4be409	0.012444505
26	0xbc9bc143	-0.019013053
27	0x3c81bc25	0.015836785
28	0x3be6e677	0.0070465165
29	0x3cf4fff1	0.029907199
30	0x3cd425a8	0.025896862
31	0x3d2284ba	0.03967736
32	0x3ba7e814	0.0051241014
33	0x3c42fd7b	0.011901255
34	0x3c6088c8	0.013704486
35	0x3d161d98	0.036649317
36	0x3bd7cb46	0.0065855114
37	0x3ca72b55	0.020406405
38	0xbc3c21fc	-0.011482712
39	0x3baed5cd	0.0053355456
40	0x3b78a0c2	0.0037937616
41	0xbb7f4beb	-0.0038955163
42	0x3c860f30	0.016364664
43	0x3cac1d5c	0.021010093
44	0x3c898006	0.01678468
45	0x3caa69f6	0.02080248
46	0x3b397449	0.002829807
47	0x3ca1e123	0.019760674
48	0x3ce17759	0.02752273
49	0xbc9632e5	-0.018334815
50	0x3d0bb6d4	0.034109905
51	0x3c9d1d4b	0.019179007
52	0xbb0b16d7	-0.002122333
53	0x3bf02ae7	0.007329333
54	0x3c8bf306	0.017083656
55	0x3a8029c4	0.0009778072
56	0x3c8e0d7c	0.017340414
57	0x3cb85138	0.022499666
58	0x3d1a9eb4	0.037749007
59	0x3c05c7a8	0.008165278
60	0x3cc5131e	0.024056967
61	0x3bd9fb77	0.0066522914
62	0x3c83d66c	0.016093455
63	0x3c884c7d	0.016638035
64	0x3cb5fa76	0.022214156
65	0x3c68983e	0.014196454
66	0x3d142ab9	0.036173556
67	0xbafb25a5	-0.0019160999
68	0x3d0ab7e9	0.033866797
69	0x3cad3caa	0.021147091
70	0x3d1bcb07	0.03803542
71	0x3ca00af5	0.019536475
72	0x3cb673b9	0.022271978
73	0x3c8e8671	0.017398091
74	0xbcb83a9d	-0.022488886
75	0x3cdbf9c5	0.026852498
76	0x3ae6edec	0.0017618514
77	0x3c95eaa1	0.018300356
78	0xbbd86bec	-0.006604662
79	0x3c98e176	0.018662196
80	0x3c3d8df1	0.011569486
81	0xbc28625f	-0.01027736
82	0x3c73c72d	0.01487903
83	0x3ae98bb9	0.001781813
84	0x3cf3dc03	0.029767996
85	0x3d23b4bb	0.03996728
86	0x3c1d1c0d	0.009589207
87	0x3d178a6b	0.03699724
88	0x3cf2a5a4	0.02962
89	0x3cb289cb	0.02179422
90	0x3a9e7cb3	0.0012091607
91	0x3c86e3b1	0.016465994
92	0x3cfa78fa	0.030575264
93	0xbc302ade	-0.010752408
94	0x3b4cdf78	0.0031261127
95	0xbc31f6e4	-0.010862086
96	0x3c2f4749	0.010698148
97	0x3c3b830e	0.01144482
98	0xbc2f6434	-0.010705043
99	0x3c838b10	0.016057521
100	0x3d105773	0.035239648
101	0x3d14ba7f	0.03631067
102	0x3bd36c4c	0.006452119
103	0x3c8a2034	0.016861059
104	0x3ca276ab	0.019831976
105	0x3cb8a53f	0.022539733
106	0x3ca935cc	0.020655535
107	0xbc0a427d	-0.008438704
108	0xbb5b027d	-0.0033418231
109	0xbc3870b9	-0.011257344
110	0x3cb505ce	0.022097494
111	0xbc81d492	-0.015848432
112	0xbc464d1e	-0.012103347
113	0x3cb0e992	0.02159575
114	0x3c46d4ff	0.012135743
115	0x3c265b51	0.010153607
116	0x3c8dea68	0.017323688
117	0xbd071488	-0.032978565
118	0x3bd2ca34	0.006432796
119	0x3c97b07f	0.018516777
120	0x3d12f52a	0.035878338
121	0x3d3e0862	0.046394713
122	0x3d0e9e73	0.034819078
123	0x3b474532	0.0030406234
124	0x3b51c161	0.0032006132
125	0x3c56f821	0.013120682
126	0x3d127b09	0.035761867
127	0x3b3c8d42	0.002877072

action_model._continuous_distribution.log_sigma f4 [1, 5]
0	0xbcc0960f	-0.023509054
1	0x3c23fd90	0.0100091845
2	0xbd37d748	-0.044883043
3	0x3c6663a1	0.014061839
4	0x3d41de75	0.047331292

action_model._continuous_distribution.mu.weight f4 [5, 128]
0	0x396a608d	0.00022351947
1	0x3b9a4e18	0.0047090165
2	0xbc7c992b	-0.015417377
3	0xbc902539	-0.017595874
4	0xbd77e2ef	-0.060519155
5	0xbd7eba0c	-0.062189147
6	0xba9b9e4a	-0.0011872735
7	0x3d15d851	0.03658325
8	0x3cb06b96	0.021535676
9	0xbc944b61	-0.01810235
10	0xbcfb4f44	-0.030677445
11	0x3dee72dd	0.11643002
12	0xbdd208a6	-0.10255556
13	0x3c47dbdb	0.012198414
14	0xbd050924	-0.03247942
15	0xbdef352a	-0.11680062
16	0xbd195d45	-0.037442464
17	0xbd8ef1e2	-0.06979729
18	0xbca79117	-0.020454926
19	0x3d19f7b4	0.037589744
20	0x3d45cf30	0.048293293
21	0x3d1837fc	0.037162766
22	0x3c4fae3c	0.012675818
23	0xbd08ca59	-0.0333961
24	0x3d77fcf0	0.060543954
25	0x3d6f6658	0.058447212
26	0x3c03bd5a	0.00804075
27	0xbdbc5ba4	-0.091971666
28	0xbdb0aad0	-0.0862633
29	0x3d20eb0e	0.039286666
30	0xbd088fba	-0.033340193
31	0x3d6d2f66	0.05790653
32	0xbce37fca	-0.027770896
33	0xbd55e64d	-0.052221585
34	0x3d20b2d5	0.039233048
35	0xbd698ade	-0.0570172
36	0x3d54ac7b	0.051922303
37	0xbc62d716	-0.013845226
38	0xbb8c1183	-0.0042745485
39	0x3c952fff	0.018211363
40	0xbd909a8d	-0.07060728
41	0xbdafd3ec	-0.08585343
42	0x3dbfd079	0.09365935
43	0x3d8a1515	0.06742302
44	0xbd41fe77	-0.047361817
45	0x3d5a844e	0.05334883
46	0x3cbd454a	0.023104329
47	0xbd201ff8	-0.039092988
48	0x3bfa0689	0.0076301736
49	0x3b818b7a	0.0039533945
50	0x3d8aed72	0.0678357
51	0xbda9603c	-0.082703084
52	0xbdc4101e	-0.095733866
53	0xbcc67041	-0.024223449
54	0xbd8e7800	-0.06956482
55	0x3ca0f2dd	0.019647056
56	0xbbd4fd2b	-0.0064999065
57	0x3c013c69	0.007887938
58	0x3d34ff1a	0.044188596
59	0x3cc22d0d	0.023703123
60	0xbd2b11bb	-0.041764956
61	0x3dd4314b	0.103609644
62	0x3cbd6996	0.023121636
63	0xbdbf6b38	-0.09346622
64	0xbdc641a7	-0.09680491
65	0xbc903203	-0.017601972
66	0x3be20c6d	0.006898454
67	0xbd04624d	-0.03232031
68	0xbc5b428a	-0.013382563
69	0xbd0fef05	-0.035140056
70	0xbd18ddd0	-0.037320912
71	0x3d48cac7	0.04902151
72	0x3cc264cd	0.023729706
73	0xbd33a0b3	-0.043854427
74	0x3c36bb94	0.011153121
75	0x3d16fd59	0.036862705
76	0x3c9868f6	0.018604737
77	0x3c85c706	0.016330253
78	0x3c6288cf	0.013826563
79	0x3cfba836	0.030719858
80	0xbd271120	-0.040787816
81	0x3c1c2317	0.00952985
82	0x3dababcc	0.08382377
83	0x3d3b13e1	0.045673255
84	0x3da57369	0.08078653
85	0xbdcdea9e	-0.10054515
86	0x3bb3c949	0.0054866415
87	0x3d05f120	0.032700658
88	0x3d49d6c4	0.049277082
89	0x3ca9283e	0.020649072
90	0xbcf116fd	-0.029429907
91	0x3c206412	0.009789484
92	0x3d09dc11	0.033657137
93	0xbbfcb948	-0.007712517
94	0x3cf79d0e	0.030226257
95	0xbd893439	-0.06699414
96	0xbe092dcf	-0.13396381
97	0x3d744f4f	0.059645947
98	0xbd02f057	-0.031967487
99	0x3bff170c	0.00778473
100	0x3d857d48	0.06518036
101	0x3d99c0b8	0.07507461
102	0x3d64d23c	0.055864558
103	0x3dbbc5db	0.09168597
104	0x3d55ec12	0.052227087
105	0x3b70bd68	0.0036733989
106	0xbdff8deb	-0.124782406
107	0xbd0d5121	-0.0345012
108	0xbcf10af1	-0.029424163
109	0xbd500045	-0.050781507
110	0x3c2e8103	0.010650876
111	0xbcbfcaa0	-0.023412049
112	0xbd5c5377	-0.053790536
113	0xbc2f42af	-0.010697051
114	0x3dee1001	0.11624146
115	0xbd992f31	-0.07479704
116	0x3c839163	0.016060537
117	0x3ae46453	0.0017424918
118	0xbd1c834e	-0.03821116
119	0x3dbf61f3	0.09344854
120	0x3c8f1293	0.017464912
121	0xbc7e1511	-0.015507952
122	0x3d22bc83	0.03973056
123	0xbcafeaf9	-0.021474348
124	0x3d9a1f2a	0.07525475
125	0x3c339ad7	0.01096221
126	0x3db14654	0.08655992
127	0x3d0c32c4	0.0342281
128	0xbd2b0f34	-0.041762546
129	0xbd810794	-0.063002735
130	0x3d5956e5	0.053061385
131	0x3bba3cc3	0.005683513
132	0xbd518952	-0.05115635
133	0xbd637113	-0.055527758
134	0x3cf99ec8	0.03047122
135	0x3d411d87	0.0471473
136	0x3c610508	0.01373411
137	0xbdf7c71d	-0.12098525
138	0xbd0d737e	-0.03453397
139	0x3da4cced	0.08046899
140	0x3d828d29	0.063745804
141	0x3dead9df	0.11467337
142	0x3bcd8e08	0.006273035
143	0xbcf6396b	-0.030056676
144	0x3bb4e1d0	0.005520083
145	0x3ce39aab	0.027783712
146	0xbdd1295a	-0.10212965
147	0x3d53301a	0.051559545
148	0x3d92ca98	0.07167548
149	0x3dbb475b	0.09144469
150	0xbcd373c3	-0.025812035
151	0xbcc66f88	-0.024223104
152	0x3dc421ed	0.09576783
153	0xbcd8bb7f	-0.026456593
154	0xbad54d43	-0.0016273636
155	0xbd4b613f	-0.049653288
156	0x3b110ce2	0.0022132923
157	0xbd04304f	-0.032272633
158	0xbd07767e	-0.033071987
159	0x3d88617d	0.066592194
160	0x3cade0fb	0.021225443
161	0xbda51654	-0.080608994
162	0xbe001ec5	-0.12511738
163	0x3da08d82	0.078394905
164	0xbcd6f338	-0.026239023
165	0xbde21646	-0.110394046
166	0xbc98ddd9	-0.018660473
167	0x3d77e094	0.06051691
168	0xbd6fc35f	-0.05853593
169	0xbd4c93d7	-0.04994568
170	0x3d34039f	0.043948766
171	0xba20ea03	-0.0006138386
172	0x3d449189	0.047990356
173	0x3dcc882c	0.0998691
174	0xbdb1b1a0	-0.086764574
175	0xbdc570aa	-0.096406296
176	0x3cd80414	0.026369132
177	0xbc935125	-0.017983029
178	0xbd12c412	-0.03583152
179	0xbd1f0d47	-0.03883102
180	0xbc794916	-0.015215179
181	0x3c88ef80	0.016715765
182	0xbdb63cf8	-0.088983476
183	0x3d1c8de7	0.038221266
184	0xb97d2cba	-0.00024144622
185	0x3dc0ef1b	0.09420606
186	0xbd93f227	-0.07223921
187	0x3cc52341	0.024064662
188	0xbcaca91a	-0.021076728
189	0xbda5c67a	-0.08094497
190	0xbd02e85a	-0.03195987
191	0x3cfe0993	0.031010425
192	0x3bf8f4c9	0.00759754
193	0xbce42420	-0.027849257
194	0x3d83d4d0	0.06437075
195	0xbd4ed8e1	-0.0504998
196	0xbc734305	-0.014847522
197	0x3ccb0be0	0.024785936
198	0x3da80f04	0.08205989
199	0x3d8b7a7c	0.068104714
200	0x3dd573da	0.104224876
201	0xbbd5bdea	-0.0065228837
202	0x3b4d1ffa	0.0031299577
203	0x3cf44fa8	0.02982314
204	0x3d399e66	0.045317076
205	0x3d8b4a2d	0.06801257
206	0xbb8fe888	-0.0043917336
207	0xbb965d64	-0.0045887697
208	0xbd736e1e	-0.059431188
209	0xbccd7fc4	-0.025085337
210	0xbd994368	-0.0748356
211	0xbdd15a88	-0.102223456
212	0xbd39cf8b	-0.045363944
213	0x3d9d1c33	0.07671394
214	0xbd7f0b33	-0.06226654
215	0x3d14297d	0.03617238
216	0xbd83a6cd	-0.06428299
217	0xbb2d0037	-0.0026397833
218	0x3ce9c556	0.02853648
219	0xbd566480	-0.052341938
220	0xbd2f462e	-0.042791538
221	0x3c0d6494	0.008629937
222	0xbccfc18f	-0.02536085
223	0xbd66e249	-0.056368146
224	0x3c18a461	0.009316535
225	0xbd2b75e4	-0.041860476
226	0xbd9e49ba	-0.07728906
227	0x3d960b14	0.07326332
228	0x3d0a4145	0.033753652
229	0x3cf2888e	0.02960613
230	0xbd3abbf9	-0.04558942
231	0x3c187360	0.009304851
232	0xbce5afa2	-0.02803785
233	0xbd006f97	-0.03135642
234	0x3d084b7b	0.03327511
235	0x3c4a9be0	0.012366265
236	0x3d06cd3b	0.032910567
237	0xbd6178ab	-0.05504672
238	0x3d1ed03d	0.03877281
239	0xbb412f49	-0.0029477647
240	0xbdc10c1c	-0.09426138
241	0x3e089c20	0.13340807
242	0xbd1d254f	-0.03836566
243	0x3c19fe19	0.0093989605
244	0x3d3c6346	0.045993112
245	0x3c0121b7	0.007881573
246	0x3c939756	0.018016499
247	0x3c236c57	0.009974561
248	0x3d3ed2d8	0.046587795
249	0x3dd3454e	0.10315953
250	0x3db468c2	0.088090435
251	0xbca509c7	-0.020146264
252	0x3cbabca6	0.022795033
253	0x3d52a5dc	0.051427707
254	0x3dcc11f7	0.09964364
255	0xbd910762	-0.07081486

action_model._continuous_distribution.mu.bias f4 [5]
0	0x3ba8262a	0.0051315026
1	0xbb2603c8	-0.0025331844
2	0xbb51b8ef	-0.0032001098
3	0x3cae9538	0.021311387
4	0x3cd3fa83	0.02587629

exp_avg f4 [128, 47]
0	0x3942539e	0.00018532432
1	0xb6cb2c07	-6.054997e-06
2	0x00000000	0.0
3	0x386b8a59	5.6157212e-05
4	0x39647492	0.000217872
5	0xb63b0c62	-2.787238e-06
6	0x00000000	0.0
7	0x36eeb3ae	7.11387e-06
8	0x3915bfe0	0.00014281226
9	0xb691f94f	-4.35036e-06
10	0x00000000	0.0
11	0x35f596c7	1.8297804e-06
12	0x396ac199	0.000223881
13	0xb79dd750	-1.8816121e-05
14	0x00000000	0.0
15	0x35d93260	1.6182421e-06
16	0x38f0951e	0.00011471867
17	0xb685fa60	-3.9928564e-06
18	0x00000000	0.0
19	0x370e756e	8.491201e-06
20	0x395c4df7	0.00021009879
21	0xb7b7add8	-2.1896252e-05
22	0x00000000	0.0
23	0x36d42911	6.322873e-06
24	0x3925002b	0.00015735689
25	0x3782e2c4	1.5602804e-05
26	0x00000000	0.0
27	0xb55b81cd	-8.177274e-07
28	0x38cd13ea	9.778871e-05
29	0x3741accb	1.1543928e-05
30	0x00000000	0.0
31	0x372e1939	1.0377081e-05
32	0x38fc3813	0.00012026741
33	0x38a0ece4	7.673519e-05
34	0x00000000	0.0
35	0x37201bd0	9.543219e-06
36	0xb6908473	-4.3069535e-06
37	0x3905ada6	0.00012748557
38	0xb902b098	-0.00012463552
39	0xb67f98d0	-3.808691e-06
40	0xb77f563d	-1.5219263e-05
41	0xb916fd9c	-0.00014399592
42	0xb8c1536e	-9.218497e-05
43	0x395ec01c	0.00021243136
44	0x39434bec	0.00018624932
45	0x352924de	6.3011055e-07
46	0x391c409d	0.0001490139
47	0x37919160	1.7353042e-05
48	0x369a4708	4.597827e-06
49	0x00000000	0.0
50	0xb593f867	-1.1024648e-06
51	0x37cbfe28	2.4317837e-05
52	0xb3d13e9e	-9.743711e-08
53	0x00000000	0.0
54	0xb49d5d2b	-2.9311317e-07
55	0x37af9d52	2.0934884e-05
56	0x347f10b3	2.3754801e-07
57	0x00000000	0.0
58	0x35137a5d	5.493983e-07
59	0x37566b87	1.278043e-05
60	0x3505ea6d	4.9887495e-07
61	0x00000000	0.0
62	0x35087848	5.083898e-07
63	0x37e434d8	2.7204325e-05
64	0x358846d9	1.0153409e-06
65	0x00000000	0.0
66	0x34bfe131	3.574037e-07
67	0x3783632f	1.5662603e-05
68	0x365335e7	3.1472825e-06
69	0x00000000	0.0
70	0x350d3170	5.2598534e-07
71	0x379a1882	1.8369643e-05
72	0xb5a90934	-1.259416e-06
73	0x00000000	0.0
74	0x3595da14	1.1164834e-06
75	0x37aa08fd	2.0269765e-05
76	0x36a3dc4e	4.8834254e-06
77	0x00000000	0.0
78	0x33fa3f02	1.1652993e-07
79	0x367f7a1e	3.8069043e-06
80	0x375e2ad1	1.32422e-05
81	0x00000000	0.0
82	0x37074b8e	8.0642185e-06
83	0x37c8727f	2.3895174e-05
84	0x359846ef	1.1345527e-06
85	0x346a815c	2.1840009e-07
86	0x37f50dcc	2.92127e-05
87	0x37956fd1	1.7814253e-05
88	0xb443f313	-1.824922e-07
89	0x373bcd55	1.1193876e-05
90	0x36f7aadb	7.381064e-06
91	0x36e19e4c	6.7239507e-06
92	0x34e74c4d	4.308262e-07
93	0x37081d62	8.113073e-06
94	0xb7c5b767	-2.3569633e-05
95	0xb56c3cce	-8.8005334e-07
96	0x00000000	0.0
97	0xb6b75935	-5.46421e-06
98	0xb7d2aa05	-2.5113122e-05
99	0x34e5ed21	4.2827108e-07
100	0x00000000	0.0
101	0xb2fb8123	-2.927897e-08
102	0xb743fc5b	-1.1681662e-05
103	0x34157533	1.3919343e-07
104	0x00000000	0.0
105	0x345893c4	2.0170324e-07
106	0xb750cf00	-1.2445962e-05
107	0x35d5f155	1.5939974e-06
108	0x00000000	0.0
109	0x34539b13	1.9707322e-07
110	0xb760cf4f	-1.3399708e-05
111	0xb4b12b88	-3.3000492e-07
112	0x00000000	0.0
113	0xb5085346	-5.0785127e-07
114	0xb795ec2a	-1.7872157e-05
115	0x347c87bc	2.3518709e-07
116	0x00000000	0.0
117	0x3501ad74	4.830865e-07
118	0xb7cfc683	-2.4768762e-05
119	0xb61f75b6	-2.3761363e-06
120	0x00000000	0.0
121	0xb411eee0	-1.359108e-07
122	0x353b3c19	6.975038e-07
123	0xb51bacb7	-5.799333e-07
124	0x00000000	0.0
125	0x353891d1	6.875753e-07
126	0xb79cf9df	-1.8713004e-05
127	0xb72526ad	-9.843771e-06
128	0x00000000	0.0
129	0xb60e6d50	-2.1223277e-06
130	0xb721ce62	-9.6444e-06
131	0xb7244023	-9.790095e-06
132	0x372ac4a1	1.0178571e-05
133	0xb7480e86	-1.19243105e-05
134	0x37a9dd94	2.024955e-05
135	0x3787b0f7	1.617566e-05
136	0x35317de0	6.612081e-07
137	0xb80634f3	-3.1997402e-05
138	0xb7c6910c	-2.3670982e-05
139	0xb41e79ac	-1.475916e-07
140	0xb808ed6f	-3.2646054e-05
141	0xb7dfbfcc	-2.6672984e-05
142	0xb84407b4	-4.6737216e-05
143	0x00000000	0.0
144	0xb73abc18	-1.1130258e-05
145	0xb8baa1fc	-8.899343e-05
146	0x352dbcf7	6.47225e-07
147	0x00000000	0.0
148	0xb5b186cb	-1.3226758e-06
149	0xb8a2d87a	-7.765084e-05
150	0x3738ecc6	1.1022383e-05
151	0x00000000	0.0
152	0x355ee48f	8.303404e-07
153	0xb872de60	-5.79044e-05
154	0x3668985f	3.4659386e-06
155	0x00000000	0.0
156	0xb63213b1	-2.6535529e-06
157	0xb857c080	-5.1439274e-05
158	0x372a12fa	1.0137208e-05
159	0x00000000	0.0
160	0x367b12e0	3.7412901e-06
161	0xb84696e0	-4.7347392e-05
162	0xb72c50cc	-1.0270811e-05
163	0x00000000	0.0
164	0xb6a5eb37	-4.944766e-06
165	0xb8accd2a	-8.239814e-05
166	0x37e86c8a	2.7707098e-05
167	0x00000000	0.0
168	0x36931b3c	4.384112e-06
169	0xb82563e7	-3.9432107e-05
170	0xb81ab843	-3.688807e-05
171	0x00000000	0.0
172	0xb61b43c2	-2.313624e-06
173	0xb80e59cf	-3.393908e-05
174	0xb7c5164c	-2.3494613e-05
175	0x00000000	0.0
176	0xb69a7077	-4.6026503e-06
177	0xb906072b	-0.00012781906
178	0xb804ff84	-3.170922e-05
179	0x3806df5a	3.2156102e-05
180	0xb923644b	-0.00015582253
181	0x38752fee	5.845719e-05
182	0xb82c1ce7	-4.1034913e-05
183	0xb69b3ee8	-4.626683e-06
184	0xb8244a95	-3.9170107e-05
185	0xb7fee541	-3.0385914e-05
186	0xb68bed75	-4.1701664e-06
187	0xb7b2b7cf	-2.1304846e-05
188	0x38e62730	0.00010974554
189	0xb89ea4d0	-7.564726e-05
190	0x00000000	0.0
191	0x37d473bc	2.5326262e-05
192	0xb789d1c5	-1.6429354e-05
193	0xb692452b	-4.3591913e-06
194	0x00000000	0.0
195	0x373c5be7	1.1227071e-05
196	0x38780e3f	5.9141075e-05
197	0x366a0993	3.487429e-06
198	0x00000000	0.0
199	0x368b92b7	4.1596027e-06
200	0x3815dd15	3.5730267e-05
201	0xb7664996	-1.3726201e-05
202	0x00000000	0.0
203	0xb679b00e	-3.7206369e-06
204	0x38212ebd	3.842892e-05
205	0x3687d1d3	4.0477403e-06
206	0x00000000	0.0
207	0x37341406	1.0733498e-05
208	0x3894ae7b	7.0896895e-05
209	0xb7908343	-1.7227261e-05
210	0x00000000	0.0
211	0x370538b4	7.94062e-06
212	0xb7933bc9	-1.7551605e-05
213	0x38a08b60	7.655355e-05
214	0x00000000	0.0
215	0x3740c231	1.14893055e-05
216	0x37b2ce35	2.1315276e-05
217	0xb75e55ec	-1.3252236e-05
218	0x00000000	0.0
219	0x375c5c88	1.3134566e-05
220	0xb88c158f	-6.679736e-05
221	0x390528d7	0.00012699082
222	0x00000000	0.0
223	0x376e0aa4	1.4188383e-05
224	0xb97fe1d4	-0.00024402823
225	0x38ea3449	0.000111677284
226	0xb8c59a17	-9.4223935e-05
227	0xb99ec065	-0.00030279453
228	0x38be07ff	9.0613954e-05
229	0xb902a07b	-0.0001245755
230	0xb865776d	-5.470908e-05
231	0x38e0452a	0.00010694035
232	0x38f45973	0.00011651488
233	0xb6ac1bed	-5.1292504e-06
234	0x38f25c5f	0.00011556665
235	0x3621c757	2.41069e-06
236	0x37cbe5cd	2.4306495e-05
237	0x00000000	0.0
238	0x37d73178	2.5653033e-05
239	0x38f54196	0.00011694727
240	0xb7117d95	-8.671913e-06
241	0x00000000	0.0
242	0xb695b2b2	-4.461349e-06
243	0xb7845bb0	-1.5778322e-05
244	0xb71a7f0d	-9.208697e-06
245	0x00000000	0.0
246	0xb6ad2da5	-5.1611155e-06
247	0x38ad9670	8.277304e-05
248	0xb776bd93	-1.4706881e-05
249	0x00000000	0.0
250	0xb682dee7	-3.900251e-06
251	0x354dd7e1	7.6682596e-07
252	0xb6dd4548	-6.5943786e-06
253	0x00000000	0.0
254	0xb5c0129d	-1.4310532e-06
255	0x3877d35a	5.9086226e-05

exp_avg_sq f4 [128, 47]
0	0x346d6365	2.2108505e-07
1	0x322369a6	9.51187e-09
2	0x00000000	0.0
3	0x315a780d	3.1791416e-09
4	0x34500633	1.9373765e-07
5	0x304f07b2	7.5317097e-10
6	0x00000000	0.0
7	0x2f90f5f9	2.6368221e-10
8	0x345f7763	2.0811926e-07
9	0x305f9494	8.133807e-10
10	0x00000000	0.0
11	0x2fa9ec6e	3.0908914e-10
12	0x3462049a	2.1049564e-07
13	0x3070b179	8.7563695e-10
14	0x00000000	0.0
15	0x2f9e0cd3	2.8749145e-10
16	0x3464fecd	2.132685e-07
17	0x30a9e0c4	1.2360251e-09
18	0x00000000	0.0
19	0x2fd87d85	3.9379358e-10
20	0x346cf833	2.2069507e-07
21	0x30f8c467	1.8100196e-09
22	0x00000000	0.0
23	0x2ff39fc9	4.4314977e-10
24	0x346daa66	2.2134336e-07
25	0x31a6adab	4.8509796e-09
26	0x00000000	0.0
27	0x30474cde	7.2505013e-10
28	0x346faa23	2.2320505e-07
29	0x31aa47af	4.9558007e-09
30	0x00000000	0.0
31	0x30477cb3	7.2572987e-10
32	0x3389254a	6.3863425e-08
33	0x3433c48a	1.6742175e-07
34	0x00000000	0.0
35	0x33055ece	3.10527e-08
36	0x334b126e	4.7281382e-08
37	0x3386e9fc	6.282423e-08
38	0x332d39a3	4.033212e-08
39	0x3399e675	7.1665376e-08
40	0x33892ead	6.38805e-08
41	0x33f4a3ec	1.13919526e-07
42	0x3356cccb	5.0012016e-08
43	0x34008093	1.1967704e-07
44	0x3409cd94	1.2833908e-07
45	0x2e3c21b8	4.27762e-11
46	0x3424fb81	1.5365187e-07
47	0x31ecb08b	6.8885746e-09
48	0x30346f83	6.5642086e-10
49	0x00000000	0.0
50	0x2ecf12a9	9.416585e-11
51	0x31a2568e	4.7246607e-09
52	0x2dc22065	2.2069633e-11
53	0x00000000	0.0
54	0x2c4dc9c0	2.9244246e-12
55	0x31abcee1	5.0002744e-09
56	0x2da38a57	1.859239e-11
57	0x00000000	0.0
58	0x2c5a9d53	3.1066996e-12
59	0x31d54915	6.2074244e-09
60	0x2dda96a3	2.4850627e-11
61	0x00000000	0.0
62	0x2c6d0cd5	3.3686849e-12
63	0x31d379b3	6.154744e-09
64	0x2db07c8e	2.0064197e-11
65	0x00000000	0.0
66	0x2cbe941c	5.4165682e-12
67	0x31f145ef	7.0219737e-09
68	0x2e445ee5	4.4649524e-11
69	0x00000000	0.0
70	0x2cdb1a3f	6.2272683e-12
71	0x31f74ac3	7.1971455e-09
72	0x2e2a0f83	3.8667302e-11
73	0x00000000	0.0
74	0x2d6ed3e7	1.35757855e-11
75	0x31fd8868	7.3787767e-09
76	0x2ee7c5f6	1.0539829e-10
77	0x00000000	0.0
78	0x2d81f03d	1.477229e-11
79	0x3109228f	1.9955768e-09
80	0x31bb7da2	5.456699e-09
81	0x00000000	0.0
82	0x309be132	1.1341739e-09
83	0x30bc87f5	1.3717442e-09
84	0x31309035	2.5693343e-09
85	0x30e932db	1.6967435e-09
86	0x310e3205	2.0692152e-09
87	0x31220b20	2.3580427e-09
88	0x31740dcb	3.5514514e-09
89	0x30e9cd46	1.7011323e-09
90	0x31a4756f	4.786379e-09
91	0x319a39aa	4.4885455e-09
92	0x2ba1df7c	1.1501767e-12
93	0x31a185cf	4.700929e-09
94	0x319d0c2c	4.570685e-09
95	0x30939706	1.0738581e-09
96	0x00000000	0.0
97	0x2eac85be	7.845412e-11
98	0x31abee50	5.003848e-09
99	0x2e1b5ac9	3.5323553e-11
100	0x00000000	0.0
101	0x2cc7e1d4	5.680992e-12
102	0x31b62cac	5.3019757e-09
103	0x2e202b2f	3.6418143e-11
104	0x00000000	0.0
105	0x2cf6c3de	7.013486e-12
106	0x31b0ee6b	5.149379e-09
107	0x2e3727c9	4.164472e-11
108	0x00000000	0.0
109	0x2cffd0cb	7.2707166e-12
110	0x31c00074	5.587987e-09
111	0x2e7372ca	5.5353756e-11
112	0x00000000	0.0
113	0x2d1d3b3c	8.9375694e-12
114	0x31bd4655	5.50862e-09
115	0x2e59afe1	4.94963e-11
116	0x00000000	0.0
117	0x2d2ad476	9.710557e-12
118	0x31af97a4	5.11041e-09
119	0x2fe07a53	4.083228e-10
120	0x00000000	0.0
121	0x2dab51bb	1.9476745e-11
122	0x31bd00ec	5.5007288e-09
123	0x2f300a0a	1.6010673e-10
124	0x00000000	0.0
125	0x2da83ce5	1.9126431e-11
126	0x30c0c096	1.4024575e-09
127	0x318dc8db	4.1264747e-09
128	0x00000000	0.0
129	0x306051e8	8.160712e-10
130	0x30bf6e54	1.3928436e-09
131	0x30ac04b7	1.2515987e-09
132	0x3058fafb	7.8937007e-10
133	0x31120d11	2.1253224e-09
134	0x30dc80ae	1.604368e-09
135	0x31493315	2.9278386e-09
136	0x30aa013b	1.2369478e-09
137	0x3168afdc	3.3860408e-09
138	0x3165d4ff	3.344496e-09
139	0x2ba3af89	1.1630567e-12
140	0x314c40de	2.972278e-09
141	0x3454b330	1.9809227e-07
142	0x329c71c8	1.8212532e-08
143	0x00000000	0.0
144	0x3140e328	2.80688e-09
145	0x34552b33	1.9852887e-07
146	0x2fc66f7f	3.6095213e-10
147	0x00000000	0.0
148	0x2f1c7e96	1.423309e-10
149	0x345ded0a	2.0668463e-07
150	0x300f68c3	5.217197e-10
151	0x00000000	0.0
152	0x2f4e16a0	1.8743629e-10
153	0x345b7fe2	2.0442488e-07
154	0x2fe77de2	4.21081e-10
155	0x00000000	0.0
156	0x2f3858f0	1.67663e-10
157	0x346188cf	2.1004529e-07
158	0x3103d3bc	1.9183366e-09
159	0x00000000	0.0
160	0x2f9f4086	2.8967778e-10
161	0x345ebc5f	2.074389e-07
162	0x3041b2f0	7.0467276e-10
163	0x00000000	0.0
164	0x2f9acb57	2.8156918e-10
165	0x345de43c	2.066526e-07
166	0x31c4eeeb	5.7315126e-09
167	0x00000000	0.0
168	0x30246e22	5.981936e-10
169	0x345fd48f	2.0845822e-07
170	0x3140daef	2.8064127e-09
171	0x00000000	0.0
172	0x3022af1c	5.91841e-10
173	0x33481a67	4.659014e-08
174	0x34215a9e	1.502726e-07
175	0x00000000	0.0
176	0x32f2da40	2.8271756e-08
177	0x33115ca9	3.3844717e-08
178	0x338fbc4d	6.693208e-08
179	0x3335a26a	4.229006e-08
180	0x335f9659	5.2057974e-08
181	0x3345d9ce	4.606573e-08
182	0x33df0d1b	1.03866306e-07
183	0x3333d9c9	4.187476e-08
184	0x33f503ad	1.140937e-07
185	0x3402cd61	1.218191e-07
186	0x2e0f63c0	3.260303e-11
187	0x3408c47d	1.2737469e-07
188	0x34e330c7	4.2317535e-07
189	0x33172bc0	3.5197218e-08
190	0x00000000	0.0
191	0x31db0b95	6.3750556e-09
192	0x34cfb00f	3.8684854e-07
193	0x30c39efa	1.4233301e-09
194	0x00000000	0.0
195	0x2fce637f	3.7541878e-10
196	0x34e22998	4.2126044e-07
197	0x30e5185f	1.666887e-09
198	0x00000000	0.0
199	0x2fe84742	4.2251186e-10
200	0x34d8bfb2	4.0372612e-07
201	0x30e32bc4	1.6528863e-09
202	0x00000000	0.0
203	0x2ffb7f99	4.5747298e-10
204	0x34e2e940	4.2265492e-07
205	0x31c396fb	5.6924114e-09
206	0x00000000	0.0
207	0x302af821	6.219825e-10
208	0x34e632ff	4.2877943e-07
209	0x30e983a3	1.6990395e-09
210	0x00000000	0.0
211	0x3022cda1	5.9227473e-10
212	0x34e8ccda	4.3362417e-07
213	0x3291bbd7	1.6965641e-08
214	0x00000000	0.0
215	0x30a6cd5c	1.2136456e-09
216	0x34f00737	4.4708733e-07
217	0x319fd380	4.651554e-09
218	0x00000000	0.0
219	0x30b19490	1.2920669e-09
220	0x33df5a6d	1.0400695e-07
221	0x34a951a2	3.15381e-07
222	0x00000000	0.0
223	0x337d8208	5.9024416e-08
224	0x33ba4115	8.673138e-08
225	0x34178ca1	1.4114131e-07
226	0x33c62d77	9.2283635e-08
227	0x340dc52b	1.3203378e-07
228	0x33f24775	1.1282001e-07
229	0x34723b1b	2.2559509e-07
230	0x33c2c914	9.070405e-08
231	0x3480605d	2.3911971e-07
232	0x34871ead	2.516803e-07
233	0x2e9b72ce	7.0689773e-11
234	0x3492ac12	2.7319817e-07
235	0x33e5b8f5	1.0697287e-07
236	0x31ed16b2	6.900188e-09
237	0x00000000	0.0
238	0x30bc66c4	1.3708008e-09
239	0x33c44e1b	9.1411685e-08
240	0x31137321	2.1456759e-09
241	0x00000000	0.0
242	0x2f939c98	2.685041e-10
243	0x33d6103e	9.968106e-08
244	0x310b1b59	2.0242708e-09
245	0x00000000	0.0
246	0x2f98db09	2.7804273e-10
247	0x33d17ddb	9.755214e-08
248	0x311111ef	2.1110471e-09
249	0x00000000	0.0
250	0x2fa0d448	2.9254665e-10
251	0x33df9e96	1.0413093e-07
252	0x311e49ba	2.3033935e-09
253	0x00000000	0.0
254	0x2f9ec34d	2.8878802e-10
255	0x33dce71e	1.0286588e-07

exp_avg f4 [128]
0	0x394fa26b	0.00019801564
1	0x378fe107	1.7151715e-05
2	0xb7f2b1ec	-2.89315e-05
3	0xb889034e	-6.5332846e-05
4	0x387504eb	5.8417132e-05
5	0x38371113	4.36465e-05
6	0xb93c45c0	-0.00017955061
7	0xb96ff397	-0.0002288356
8	0x38079bd6	3.233164e-05
9	0xb8eedc63	-0.000113897746
10	0x374d747d	1.2246074e-05
11	0x3863f630	5.4350297e-05
12	0x37be8161	2.2710012e-05
13	0x38aa8fcd	8.133017e-05
14	0x38c5c664	9.430645e-05
15	0xb9172ddb	-0.00014417565
16	0xb9243238	-0.00015658967
17	0xb73870ca	-1.0993515e-05
18	0x3895d57f	7.1446404e-05
19	0x3977c340	0.00023628492
20	0x38aaa314	8.136607e-05
21	0x397283c7	0.0002312801
22	0x39846435	0.00025251662
23	0x39536292	0.00020159248
24	0x34fef517	4.7489513e-07
25	0x388100b3	6.1513296e-05
26	0xb9bd9d9c	-0.00036166317
27	0xb87aa39b	-5.9757014e-05
28	0x38d6d4e4	0.00010243969
29	0x37800ca8	1.5264683e-05
30	0xb9abba0e	-0.00032754283
31	0x38070543	3.219141e-05
32	0x38b79b0d	8.7550005e-05
33	0xb9296fc2	-0.00016158729
34	0xb522fa45	-6.0713893e-07
35	0x39231ee6	0.00015556402
36	0xb7bfe367	-2.2874867e-05
37	0xb74c725c	-1.2185974e-05
38	0xb8d47a0c	-0.00010131681
39	0x396d1014	0.00022608071
40	0xb7a0dcd8	-1.9176325e-05
41	0xb661a125	-3.3621411e-06
42	0xb81d3dfe	-3.748945e-05
43	0x385b5439	5.2292107e-05
44	0x361158f4	2.1658461e-06
45	0x3928326d	0.00016040514
46	0x39072f07	0.00012892122
47	0xb97d2bdd	-0.000241443
48	0x391e7df0	0.0001511497
49	0xb94d918a	-0.00019604541
50	0xb6fbd712	-7.5054204e-06
51	0xb97facc7	-0.0002438306
52	0xb92b68c8	-0.00016346865
53	0xb9dca129	-0.00042081744
54	0xb8445aa1	-4.6814446e-05
55	0x371b390b	9.252001e-06
56	0x386c0e6a	5.628021e-05
57	0x34b9c200	3.460009e-07
58	0xb7fc2c20	-3.0061288e-05
59	0x39c41af3	0.00037404112
60	0x392bbb47	0.00016377597
61	0xb5ce3a78	-1.5365213e-06
62	0x395ecd0e	0.00021247959
63	0x388c7dc1	6.699144e-05
64	0xb92ca82e	-0.0001646585
65	0x393da587	0.00018086108
66	0x368bc529	4.1654753e-06
67	0x377f2b3b	1.520925e-05
68	0x376ed8a6	1.4236348e-05
69	0xb8ebe5d2	-0.000112484806
70	0xb6aed19d	-5.2100063e-06
71	0x3941af73	0.00018471274
72	0xb90ad990	-0.00013241754
73	0x390090b8	0.00012260943
74	0x36d1445b	6.236643e-06
75	0xb8341bb7	-4.2941156e-05
76	0x383ba77a	4.474025e-05
77	0xb99dcbc1	-0.00030097182
78	0xb8917e95	-6.9377165e-05
79	0xb80ec207	-3.403614e-05
80	0x3996e51c	0.0002878093
81	0xb9944944	-0.00028283347
82	0x3807c14f	3.236654e-05
83	0x398e79ee	0.00027175195
84	0x37e4ab87	2.7259592e-05
85	0xb917d5a2	-0.00014480067
86	0xb70c2232	-8.352612e-06
87	0xb9ede703	-0.0004537628
88	0xb96f263c	-0.0002280706
89	0x39b64a6a	0.00034769188
90	0xb6e4dd26	-6.8206746e-06
91	0x3940e07b	0.00018394172
92	0xb6c087fc	-5.7378766e-06
93	0x393e113a	0.0001812623
94	0x37b72c20	2.1835847e-05
95	0xb8e2145c	-0.00010780312
96	0xb948e03e	-0.00019157023
97	0xb9289e92	-0.000160808
98	0xb6e7d081	-6.9086095e-06
99	0xb94eac86	-0.00019709961
100	0x398a5533	0.0002638489
101	0xb9112246	-0.00013841045
102	0x388f5aff	6.835721e-05
103	0x393fad34	0.00018279703
104	0xb8a1d45d	-7.716634e-05
105	0x39537751	0.00020166977
106	0xb8eb3cb7	-0.00011216982
107	0x38d89e97	0.00010329222
108	0x388723f7	6.4440006e-05
109	0xb9971dc3	-0.0002882314
110	0xb938d990	-0.00017628656
111	0x39498544	0.00019218499
112	0x38c911c2	9.5877345e-05
113	0xb9c1f1d8	-0.00036992016
114	0xb9d12d57	-0.00039897367
115	0xb7a0236e	-1.9089985e-05
116	0x3892701c	6.9827045e-05
117	0xb75ae123	-1.3046231e-05
118	0x38a276c2	7.746882e-05
119	0xb9a4f3a1	-0.00031462035
120	0xb9e231b1	-0.00043143102
121	0x38dd4f1b	0.00010552836
122	0xb998ff4a	-0.00029181904
123	0x395bc77f	0.00020959786
124	0xb8a6c47b	-7.952094e-05
125	0x3795de3b	1.7865668e-05
126	0x38c1566a	9.219053e-05
127	0x36b73cba	5.4608945e-06

exp_avg_sq f4 [128]
0	0x34785161	2.3126405e-07
1	0x32046be5	7.707944e-09
2	0x31c8cfdb	5.8443965e-09
3	0x346cf41a	2.2068016e-07
4	0x34f2a727	4.5197632e-07
5	0x33f3ab94	1.1346779e-07
6	0x3547eb8c	7.447604e-07
7	0x3507af14	5.054619e-07
8	0x33d5c0a9	9.95363e-08
9	0x344eea45	1.9270472e-07
10	0x352c7ba7	6.425493e-07
11	0x336f6dc9	5.5746373e-08
12	0x355559b6	7.947923e-07
13	0x3420cd4c	1.4975848e-07
14	0x35cbe3c0	1.5190963e-06
15	0x34183110	1.4173952e-07
16	0x34caea5a	3.7795945e-07
17	0x340c9f3e	1.3096448e-07
18	0x34b16a5c	3.3046206e-07
19	0x355b8492	8.177677e-07
20	0x339f11d8	7.40726e-08
21	0x3551a7de	7.8102846e-07
22	0x34cad0d5	3.7777377e-07
23	0x3507e816	5.062915e-07
24	0x30c1b28b	1.4093343e-09
25	0x352fbba9	6.546566e-07
26	0x3582a242	9.732978e-07
27	0x344162b0	1.8010428e-07
28	0x3539f342	6.927186e-07
29	0x33394353	4.31349e-08
30	0x356a972d	8.739178e-07
31	0x34123327	1.3615919e-07
32	0x34b33387	3.337884e-07
33	0x34279291	1.5606408e-07
34	0x33e3a566	1.0600597e-07
35	0x350bfb32	5.214707e-07
36	0x34ce8826	3.846955e-07
37	0x3501444d	4.8155636e-07
38	0x340255ef	1.2138456e-07
39	0x3551183c	7.7893833e-07
40	0x328326cd	1.5268052e-08
41	0x32251d49	9.610923e-09
42	0x339fc1fb	7.439299e-08
43	0x348fefea	2.6810386e-07
44	0x333ba2ee	4.3687514e-08
45	0x34dce3b2	4.1143863e-07
46	0x356b7fd8	8.773036e-07
47	0x3525816e	6.1655635e-07
48	0x34d26d74	3.9195186e-07
49	0x34d69ac9	3.9973227e-07
50	0x31885aea	3.9684567e-09
51	0x35654d07	8.542124e-07
52	0x3561696d	8.3972446e-07
53	0x35d6bcad	1.5999154e-06
54	0x35012d0b	4.812179e-07
55	0x33967290	7.005758e-08
56	0x32951e0b	1.7359545e-08
57	0x33ed18bb	1.1040671e-07
58	0x352c32c6	6.414888e-07
59	0x3592abb5	1.0927821e-06
60	0x349840ab	2.8359258e-07
61	0x3171ee09	3.5205423e-09
62	0x351fcbde	5.952878e-07
63	0x349e58ee	2.9494498e-07
64	0x351398ed	5.4984304e-07
65	0x34d0affe	3.887107e-07
66	0x31dfb6fe	6.510958e-09
67	0x342ddaa1	1.6191417e-07
68	0x34be6dc3	3.547012e-07
69	0x34464b64	1.8467614e-07
70	0x33b2d2cc	8.3271146e-08
71	0x34d7f2c5	4.022351e-07
72	0x33d58417	9.9426124e-08
73	0x3508a673	5.0906164e-07
74	0x3540c96e	7.181869e-07
75	0x349ba489	2.8990715e-07
76	0x3444b115	1.8318345e-07
77	0x3514508e	5.525152e-07
78	0x33e778a1	1.0778718e-07
79	0x34dab59c	4.0737802e-07
80	0x359bf367	1.1619239e-06
81	0x35184e92	5.673875e-07
82	0x3366ec27	5.3765827e-08
83	0x34b4bc1c	3.366448e-07
84	0x35d371b9	1.5753823e-06
85	0x34ba8721	3.474352e-07
86	0x33144c7f	3.4528508e-08
87	0x35bfbab0	1.4284942e-06
88	0x3549af56	7.513348e-07
89	0x35a9628f	1.2620166e-06
90	0x312c603f	2.5084004e-09
91	0x35605a88	8.3578243e-07
92	0x333bee09	4.3755822e-08
93	0x34e45efd	4.2537422e-07
94	0x358d885e	1.0545007e-06
95	0x3502451d	4.8529347e-07
96	0x34d4c468	3.9630982e-07
97	0x351b935f	5.795645e-07
98	0x326d0c7f	1.3798057e-08
99	0x359bca69	1.1607309e-06
100	0x350be234	5.2110704e-07
101	0x34845660	2.4649762e-07
102	0x34151dca	1.3887544e-07
103	0x35009cf5	4.791212e-07
104	0x34ddd9c6	4.132291e-07
105	0x35095c75	5.117102e-07
106	0x33bc2911	8.761902e-08
107	0x350f3a85	5.335681e-07
108	0x3482eb27	2.4385483e-07
109	0x3579ea23	9.310044e-07
110	0x34a1dd63	3.0149667e-07
111	0x3488b9ed	2.5467253e-07
112	0x3391c05b	6.787078e-08
113	0x358342b8	9.779678e-07
114	0x3538ba70	6.8816644e-07
115	0x346230bc	2.106562e-07
116	0x33728007	5.6461456e-08
117	0x33037a9b	3.0612323e-08
118	0x3464f94e	2.1324851e-07
119	0x35957e2c	1.1138086e-06
120	0x35ca5535	1.5074971e-06
121	0x3511e60f	5.435149e-07
122	0x3501989f	4.827834e-07
123	0x34d3cb60	3.9449787e-07
124	0x340f290e	1.3332848e-07
125	0x34a3b76a	3.0494567e-07
126	0x3380c454	5.9961764e-08
127	0x34ac5ba8	3.2104185e-07
