config/results/AgrConserv_Refactored_2M_Almost-Final_v4_BETA/Hummingbird_Aggressive/Hummingbird_Aggressive-1499968.pt (torch, 574473 bytes, 36 tensors)

network_body._body_endoder.seq_layers.0.weight f4 [128, 47]
00000000: 9232 cebd 41e2 f8be 1901 4f3d 1a50 1a3c
00000010: 6de5 1d3d f3d5 d1bd 9a48 653e 4b41 ab3c
00000020: c228 41be 79a4 1dbe 30b9 d6bd 233e 04bc
00000030: 47d0 643e 0ff8 0bbe cfcb aa3c f9ba dabc
00000040: a059 213d db13 e1bd fda5 28be dc0f 533d
00000050: ab4c a5bc f871 853e 6f5e 2e3e 7a35 823d
00000060: c250 933d 8344 023d 1352 3d3d 93a5 3dbe
00000070: 2e77 6a3c 4d26 b33d 71d2 0ebe a5c2 34be
00000080: b648 c13e 7b1e fd3c 8324 c83d c184 62bc
00000090: 5aac 953d 6fc1 11be 4284 fd3d 3a07 d23d
000000a0: f039 e03c 6902 293d 33d2 66bd 2f2a 22be
000000b0: a668 bebd 7e93 7abe b238 b43e 201e 8ebd
000000c0: 3890 99bc aa29 503d 1cf2 273d 590c 5bbe
000000d0: 605c ebbd c263 2f3d 19eb 98ba ded1 c4be
000000e0: d745 f9be 63f2 5bbd 3247 a4be 50dd 043b
000000f0: 62eb f63c 135d 86be 5960 bd3d 3b71 52be
00000100: 99ac 81bd 5517 2cbe 53f2 673e 33ea ebbc
00000110: a35c f63d 574f 653d 0b5e cfbd 318d 943b
00000120: 56cb 63be 9836 1a3d ab3b 323e 6f31 cf3d
00000130: 3f83 8abd bf8f e2bd 552e 4cbe 7f90 6abd
00000140: c155 e6bd a376 9a3e 1714 1f3e e53a 063c
00000150: 2e35 873d c854 20be 285c 7a3e 1846 d53d
00000160: dfad ea3b 84dd 5e3d 1c44 ebbd 917a b73d
00000170: 2fe0 8b3e 3a38 f3bd 38a8 39be 9c15 2c3e
00000180: 4eec 67bd 93d5 d83d 9e62 cd3c 8be0 cfbd
00000190: eecd 483e db29 31be 88de cebd e9c1 00be
000001a0: f8f3 13bd 1882 d0bc 1907 ccbd ccdd 393d
000001b0: a906 213e 3f3b 2b3d b1dd 893e 1be6 bdbd
000001c0: 2451 f4bd c754 f43d 839d d03d eeac b0bd
000001d0: 06fb 183d 2619 293b 674c 2fbe 6e15 2e3d
000001e0: a5f3 04be 2b23 b4bc c96e 52be 58e1 42be
000001f0: 2cae 133e dda8 363e a423 c83c ad02 72bd
00000200: c9a7 0f3e 1477 debd 8e55 68be baa1 6abd
00000210: f0c3 8a3e 73c5 1dbd 136e 773d 18c4 d3bb
00000220: dddf ff3c a2ee 2d3e 528e aabd f582 a73c
00000230: f2cc 77be d32f dabd a9f6 283e ea5c 63bd
00000240: 0349 473b 20a6 4a3e 6055 c2bd ac93 70b9
00000250: 67d0 c6bd 5c9e 693d aaf9 c23d acf7 5d3d
00000260: b743 0fbe f03e 643e e282 873d b81b 7f3e
00000270: eaa1 be3c d161 87bd 51dc de3d 669e 48be
00000280: e532 7b3e a0b9 b73d b7bc 42be a336 95be
00000290: 42a9 023e f7b9 8b3c f645 213d 2107 f6bd
000002a0: d222 edbd 2557 1cbd 87ac 6dbe 5d5e 8c3d
000002b0: b463 04be 88dd 083f abe3 1c3c 2e54 123d
000002c0: 13bb 50be ce4a 70be f27a 103e b0f9 c5bd
000002d0: 8e87 babd bca9 aabd 54e5 d1bd 649d a7be
000002e0: cc70 f33d fee7 183e eeb3 a5bd 70a4 2a3d
000002f0: a1cf e03d b69f a73d 15c5 cb3d 570b b6bd
00000300: 2434 c63d 36db f73d d0d6 9a3d 76fd e0bc
00000310: e438 883e ea92 04bd 7135 15be 5e9f 69be
00000320: b9eb ddbc 8f42 e93d a3c8 163d 551d 413d
00000330: 3239 35be 77ab a03e 13ba 753e ea4a da3d
00000340: a242 b1bc aa8f 7dbe 2d1c 07be fa16 58be
00000350: 0e46 d7bd 8890 a73d 04d4 523e b3b8 e2be
00000360: 9410 ba3d 6d02 88be 13b9 473e 840e 0ebe
00000370: 9ac8 633e ca6d b73c b7d2 783e fae4 3dbe
00000380: 868d e13d 4e7e 93bc 3a3e 7f3d 7b21 1bbd
00000390: ea02 20be 41cc 5cbd 1ddd 50bd 9f60 67be
000003a0: 223f a83d 5607 8e3d b906 0c3e 7691 c73b
000003b0: 33cf a7bd 6ffa 2f3e 567f c43d 85b6 1bbe
000003c0: 75f3 b93e a702 40be fc20 b5bd eb8a 083e
000003d0: 4eb9 eabd b5b6 bb3d 05a9 3f3e 47be c6bd
000003e0: 2fa8 c73d 1daa 8cbe 669e f83d 3f21 e5bc
000003f0: 7ec9 883d 4318 153e 3dd8 8a3d c8f6 3abe
-0.10068239 -0.48610118 0.050538156 0.009418512 0.038548876 -0.10245886 0.22390977 0.020905158
-0.18863204 -0.15394773 -0.104845405 -0.008071455 0.22345077 -0.13668846 0.020849137 -0.026700484
0.039392114 -0.10990115 -0.1646957 0.051528797 -0.02017816 0.26063514 0.17028211 0.06357856
0.07193138 0.03180362 0.04622085 -0.18520193 0.014310641 0.0874754 -0.13947465 -0.17652376
0.37750787 0.030898323 0.09772589 -0.013825596 0.07308264 -0.14233945 0.12378742 0.102552846
0.027371377 0.041262064 -0.056352805 -0.15836404 -0.09297304 -0.24470326 0.35199505 -0.0693934
-0.018745527 0.050820984 0.041002378 -0.21391429 -0.114922285 0.042819746 -0.0011666744 -0.38441366
-0.48686096 -0.053697955 -0.32085568 0.0020273514 0.030141536 -0.26242885 0.092468925 -0.20551006
-0.063317485 -0.16805775 0.22651033 -0.028798198 0.12029388 0.055983867 -0.10125359 0.004533433
-0.22245535 0.03764972 0.17405574 0.101168506 -0.067633145 -0.11062574 -0.1993955 -0.05726671
-0.11246825 0.30168638 0.15535007 0.0081927525 0.0660194 -0.15657341 0.24449217 0.1041376
0.0071618403 0.054410473 -0.114876 0.089589246 0.27319476 -0.11875959 -0.18130577 0.16805118
-0.056621842 0.10587611 0.025071438 -0.1015025 0.19609806 -0.17301123 -0.10101038 -0.12573971
-0.03612134 -0.025452659 -0.09962291 0.045377538 0.15725197 0.04180455 0.2692695 -0.09272405
-0.11929539 0.119302325 0.10186293 -0.08626734 0.03734877 0.0025802343 -0.17118989 0.042500906
-0.12983568 -0.021989426 -0.20550074 -0.19031274 0.1442191 0.17837854 0.024431057 -0.059084583
0.14028849 -0.10862556 -0.22688887 -0.05728314 0.27102613 -0.03851838 0.06040771 -0.006462585
0.031234676 0.16985562 -0.08327927 0.020448187 -0.24199274 -0.10653653 0.16500343 -0.05550853
0.0030408509 0.19789934 -0.0948894 -0.00022943196 -0.09707718 0.05703579 0.09520276 0.054191276
-0.13990675 0.22289634 0.06616761 0.24912918 0.023270566 -0.06610454 0.10881866 -0.19591674
0.24531133 0.08970952 -0.19017301 -0.29143247 0.12759879 0.017056448 0.03937336 -0.120130785
-0.11578907 -0.038169045 -0.23210345 0.06853936 -0.12928659 0.5346303 0.009575765 0.03572481
-0.20383863 -0.23466036 0.141094 -0.09666765 -0.09107886 -0.083331555 -0.10248819 -0.32737267
0.11886749 0.14932248 -0.080909595 0.041660726 0.10977102 0.08184759 0.099497 -0.08888882
0.09677914 0.12102358 0.075605035 -0.02746461 0.26605904 -0.03236667 -0.14571168 -0.228147
-0.02708994 0.11389648 0.036812436 0.047147114 -0.176976 0.31380817 0.23996763 0.1065882
-0.021638218 -0.24761835 -0.13194342 -0.21102515 -0.10511409 0.08181864 0.2058869 -0.4428154
0.09085193 -0.2656435 0.19504194 -0.13872725 0.22244492 0.022391219 0.24299131 -0.18544379
0.110133216 -0.018004563 0.062315203 -0.037873726 -0.15626112 -0.05390573 -0.05099212 -0.22595452
0.08215167 0.06934993 0.1367444 0.0060903383 -0.08193817 0.17185377 0.095946 -0.15206344
0.36318555 -0.18751012 -0.08844182 0.13334243 -0.11461125 0.09165708 0.1871682 -0.09704261
0.09748875 -0.27473536 0.12139587 -0.027969955 0.066790566 0.14560036 0.067795254 -0.18258202

network_body._body_endoder.seq_layers.0.bias f4 [128]
00000000: d229 6fbc e446 75bc a53e bebc df71 213d
00000010: 7987 fb3c 44b4 163d 749c d43c 95c8 fb3c
00000020: e6c5 103d e562 c03c 2eb2 163d 8f14 7c3c
00000030: ff76 db3c d8cc 413d f038 ed3c fadf 833b
00000040: 1e5f 923c 31d7 ff3c 0757 ef3a 7a02 0e3d
00000050: 09ad 8d3b 80b8 ec3c 14ea 453d a6ab 783c
00000060: 280f 623c f729 cd3c 0ddc c43c 5a06 843b
00000070: 67cd d63c fec6 5a3c 6ff1 0e3d 9bd9 4d3c
00000080: b363 a43c 3421 983c 5cfe 653d 2670 b13c
00000090: 44f7 9d3c a1e6 113d 254f 0dbd 7100 093d
000000a0: 3241 b7bc 5729 e1bc 480a e0bb b14e 8e3c
000000b0: acde e1bb 0e23 933d 272d 143d a11b 953c
000000c0: 285c aa3c 7eaf e43c a235 8c3c c256 f23b
000000d0: 9398 403c 7b98 923a 1ed8 d33c 3112 d53c
000000e0: 684d d6bc cc0d 443a bd0e 5c3d d71f 0d3d
000000f0: 38f0 0a3d 7968 24bc 44f0 b53c bd1a 503d
00000100: 1bd7 763d bfbc 273d d6c0 db3c 54e2 143d
00000110: f4a6 843b 6a77 713b 2599 34bc 4529 453c
00000120: 50d2 d43c b565 593a 27e6 693d 2a1b 1a3d
00000130: f1d1 1f3d 176d 223d 5c8b 913d 2b28 b7bb
00000140: 8ddc c93c 1623 c83c 2601 d63c dfa8 243d
00000150: 45c3 823d a6fa 0c3d b2c5 ac3b 2d9c 6c3c
00000160: 2db7 4b3d 3684 923d 3afd c5bc 7dc7 123d
00000170: a1b3 513d ee20 f53c 677c ef3c 8321 a63c
00000180: d631 89bc 5c0f 263d dc2b 0e3d 0168 3c3d
00000190: aab2 783c f0c0 333c b13f 0339 50d8 9c3c
000001a0: 620f ad3b fc22 0d3d 22a4 233d b21e 0d3d
000001b0: 1fe9 903b ff1d 573d 8457 c53c c67d b93c
000001c0: d965 0bbd a1ff ee3c 1d1e fa3c e079 c33c
000001d0: 3288 293d c77e f33a 3a9a 95ba 01da 1a3d
000001e0: e5ad 673c beb3 7c3d 331c c13b 6d34 013d
000001f0: f874 743c d5c1 6c3d e610 abbc 7b8a d93c
-0.014597373 -0.014970515 -0.02322323 0.039415237 0.030704247 0.03679301 0.025953509 0.030735293
0.03534498 0.023484657 0.03679102 0.015385761 0.02679014 0.047314495 0.028957814 0.004024503
0.017867621 0.031230541 0.0018260189 0.03467033 0.004323606 0.02889657 0.048318937 0.015177643
0.013797559 0.025044424 0.02403071 0.0040290775 0.02622099 0.0133531075 0.034898218 0.012564088
0.020067072 0.01857052 0.05615078 0.021659922 0.019282945 0.035620335 -0.034499306 0.033447687
-0.022369955 -0.027485533 -0.006837163 0.017371507 -0.0068929996 0.071844205 0.036175873 0.018201651
0.020795897 0.027915712 0.017115418 0.0073955962 0.0117551265 0.0011184359 0.025859889 0.02600965
-0.026159957 0.00074788625 0.053724993 0.034454193 0.033920497 -0.010034674 0.022209294 0.05080675
0.060263734 0.040951487 0.02682535 0.036348656 0.0040482227 0.0036844858 -0.011022841 0.012033765
0.025979191 0.00082930486 0.057104256 0.037623562 0.039018575 0.039654817 0.07106659 -0.005589505
0.0246413 0.024430793 0.026123594 0.04020011 0.06384901 0.034418724 0.0052725906 0.014441532
0.049735237 0.071541235 -0.0241686 0.035834778 0.051196698 0.029922929 0.029234124 0.020279652
-0.016747396 0.04054199 0.034709796 0.045997623 0.015179316 0.010971293 0.0001251686 0.019146115
0.005281375 0.03445719 0.03995145 0.0344531 0.0044223214 0.05251884 0.024089582 0.022642981
-0.034032676 0.029174628 0.030531937 0.023861825 0.04138965 0.0018577211 -0.0011413761 0.03780556
0.014140581 0.061694853 0.005893254 0.031544138 0.014920466 0.05780204 -0.020882081 0.02655529

network_body._body_endoder.seq_layers.2.weight f4 [128, 128]
00000000: dfaa d0bd 2895 0bbc 98ac d23c 4095 81bd
00000010: 32ac 9abd 2cd3 54bc 0fdf 99bd 7a88 dabd
00000020: c1d7 b33d 0595 703e f3af 223e 4942 3abe
00000030: 843a cf3d 3f90 08be f7cd f93d fb01 f1bd
00000040: 84e9 c03b 3a70 fcbd 6e98 ee3d bc31 df3b
00000050: 3496 ee3d 9367 98bd cb6b 20be 0c2c 35be
00000060: 9f2f e9bd a9f0 f83a f3ff 1ebe 62da 66bd
00000070: 73f5 543e 15f9 14bd 7bf5 e3bd 8767 97bd
00000080: 3998 babd cf95 a1bc 3cc2 76be fe18 9fbd
00000090: 1abe 9a3d 960a dbba df8a d33d 7fc9 563e
000000a0: 1bda b93d 1bfa aebd cbc2 2bb9 ed67 00bd
000000b0: 2cd2 8fbc d463 7bbc 1e98 45bd af64 d03c
000000c0: 576b a9bd 8829 1a3e 3024 74bd 79e6 8abd
000000d0: bf30 16be 3275 213e b746 cbbc 0b92 4abe
000000e0: 778f b33d 9dca 2e3e c0a1 8c3d 7fc2 113e
000000f0: 4ab8 0abe 3979 573d fcca 1abc b4fc a83c
00000100: 80c0 c7bc aba6 bebd 6696 18be db45 e7bd
00000110: 6e2d 1d3e 1d93 5d3c 665e b73d e708 603e
00000120: 9b89 c8bc ef17 423e 9a89 26bc bbf0 293e
00000130: 3f6d 1e3d 1ae5 38bd 4072 9ebd adbb aa3d
00000140: 24af 9a3d 4f17 0a3e 5a72 d8bd 9968 ccbd
00000150: 5e48 ac3d e9c3 d7bc 9795 ea3d 15d9 b03d
00000160: 2e56 153e 2652 1f3d 89e8 c2bd 1628 1d3e
00000170: 4103 bebb 32cd 553d 0df4 babc f625 983d
00000180: 8f7a 5cbd 45f2 a03d 6753 01bc 5c16 f53c
00000190: 3212 273e 0301 bf3c 5dbb a9bc 6bee dd3c
000001a0: 03dd a8bd 4ed3 61bd f6c3 a13d f8b2 b13b
000001b0: ef00 883d 1d72 a6bd b020 26be 645d 043e
000001c0: b771 933d 97a8 19be fa33 c93c 937c e33d
000001d0: d14b 943d a649 1f3e 4a8f 2dbd d7b1 7cbd
000001e0: 1f8e bb3d 28cc 02be 4449 7f3d dce0 82bd
000001f0: 7524 2ebd 45b4 a13d 7617 00be d6b5 983a
00000200: fbab 1bbc 0842 4c3d e16e a0bd 635d ec3d
00000210: 0060 76bc ac83 5dbd de3b 173e 412f fb3d
00000220: 7dda 303e 027f 7e3c 4106 5fbe 60eb 8b3c
00000230: bf01 3abb 7194 15be 70d8 6a3d 9574 673e
00000240: 667d 0fbe 1ffc dcbd 36b7 7dbc b328 3abd
00000250: 6567 0ebe 29af 3db8 7883 1c3d 90d6 94bd
00000260: 867e 2b3e 723d 3ebd e517 a93d 6091 7ebd
00000270: 90b1 9e3c c7f1 5cbe dd80 423e 9c1a 033d
00000280: 0ca4 3bbd 6954 cc3d 2649 6ebd 4440 bf3b
00000290: d01e fd3d 3df5 82bd 9abe 033e cb66 3f3d
000002a0: 2a61 c7bd ceaa cd3c ae7c 973c 8d15 eebd
000002b0: ca06 b0bd bba6 7e3d 1862 fc3b cc15 753d
000002c0: 2c71 78bd 741a 053d cb36 14bc 586a b13d
000002d0: 1ef6 833d cbc5 773e 4cdf e03d 176c 59be
000002e0: e271 d33d be67 ad3d f75d 86bd 7033 f8bb
000002f0: 896d ab3d dbf5 a5ba b571 51bd a428 e9bd
00000300: 2590 f33b 8cdc 10be 1445 553c 71eb ffbc
00000310: fc5b 083d 4b8c a03d f94a 48be 9120 debd
00000320: 0cae 85bd abba be3d 55b1 1bbd ee05 dfbc
00000330: 08a6 873c d64c b33d c84d fb3b cf80 4f3e
00000340: 509d 4cbd 494b f73d ec57 d33d 9d82 e3bd
00000350: dba7 73bd 2186 fabd 909a 513d 8c40 a53d
00000360: adec 8abc 8ef5 0ebe d47a 97ba 767d c2bc
00000370: f296 8ebd f290 ab3d cf5f 02be bfe2 293d
00000380: 69b4 233e 8928 343e c6df 86bc 8c50 183e
00000390: e6d6 323c ac6b 5bbe 6488 d9bd 1877 8cbd
000003a0: 0394 c7bd fa87 1e3d be15 dd3d 3425 183e
000003b0: ed88 113e 6d7a 38bd ec2c 04be 2bae 3abd
000003c0: 5bba 923d 1f49 863d e00a 09be fad9 9c3d
000003d0: 8ac1 8bbd 6e7f b7bb 6356 843d 9c25 91bb
000003e0: 4d0f 0c3d 125c afbd f651 c33d 0336 8fbe
000003f0: 39f7 2d3d 6c07 83bd 45db ea3c ec46 08be
-0.10188841 -0.008519448 0.025717065 -0.06327295 -0.07552375 -0.0129898 -0.07513248 -0.10670562
0.08781386 0.23494346 0.15887432 -0.18189348 0.10118583 -0.13336276 0.12197488 -0.11767956
0.005887212 -0.12326093 0.116501674 0.0068113487 0.11649743 -0.0744163 -0.1566612 -0.17692584
-0.11386036 0.0018992621 -0.15527324 -0.05636061 0.20796756 -0.036370356 -0.11130806 -0.07392793
-0.091110654 -0.019724755 -0.24097532 -0.07768439 0.0755579 -0.0016711529 0.10329222 0.20975302
0.090748034 -0.085437976 -0.00016380397 -0.03134911 -0.017556272 -0.015343625 -0.048240773 0.025438635
-0.082724266 0.15054905 -0.059604824 -0.067822404 -0.14667033 0.15767363 -0.024813993 -0.19782273
0.08767598 0.17069478 0.06866789 0.1423435 -0.13546863 0.05260584 -0.009447809 0.02062831
-0.024383783 -0.09309133 -0.14901122 -0.11292621 0.15349361 0.013523844 0.08953552 0.21878396
-0.024479678 0.18954442 -0.010164643 0.16595738 0.038678404 -0.045140363 -0.07736635 0.083365776
0.07552937 0.13485454 -0.10568686 -0.09980888 0.084122404 -0.026338534 0.11454313 0.08635155
0.14583656 0.038896702 -0.09517009 0.15347323 -0.0057987277 0.052197643 -0.02282145 0.074291155
-0.05382782 0.07858709 -0.00789342 0.029917888 0.16315535 0.023315912 -0.020719225 0.027091226
-0.0824528 -0.055133156 0.07898705 0.005422946 0.06640803 -0.08127234 -0.16223407 0.1292625
0.07199424 -0.15005718 0.024560917 0.11107745 0.07241023 0.15555438 -0.04237298 -0.06169304
0.09157967 -0.12773192 0.06232573 -0.06390545 -0.042515237 0.07895712 -0.1250895 0.0011650871
-0.009501453 0.04986766 -0.078336485 0.115412496 -0.015037537 -0.05408065 0.14768931 0.12264872
0.17270847 0.015533211 -0.2177973 0.017080009 -0.0028382388 -0.14607407 0.057335317 0.22603066
-0.1401268 -0.10790276 -0.015485575 -0.04544897 -0.1390663 -4.5224242e-05 0.038211316 -0.07267487
0.16747484 -0.046445318 0.08256511 -0.06215036 0.019371778 -0.21576606 0.1899447 0.0320078
-0.045810744 0.099770375 -0.05817523 0.0058365185 0.12359393 -0.06394432 0.12865677 0.04672889
-0.097353294 0.02510586 0.01849207 -0.11625204 -0.08595045 0.062170725 0.0077021234 0.05983524
-0.060654804 0.03249593 -0.009046267 0.086628616 0.064434275 0.24196546 0.109800905 -0.21232639
0.10324456 0.08467053 -0.06560891 -0.007574491 0.083705015 -0.0012661772 -0.05113383 -0.11384705
0.007432955 -0.14146632 0.013016958 -0.031240197 0.033290848 0.07839259 -0.1955985 -0.10846055
-0.065273374 0.09312948 -0.038010914 -0.027224507 0.016558662 0.0875489 0.0076691844 0.2026398
-0.049954712 0.120749064 0.10319504 -0.11108897 -0.05948625 -0.12232614 0.051172793 0.08068952
-0.016958559 -0.13960859 -0.0011556991 -0.023741465 -0.06962384 0.083772555 -0.1273186 0.041476008
0.1598679 0.17593588 -0.016464125 0.14874476 0.010915494 -0.21427792 -0.106217176 -0.06858653
-0.09745028 0.038703896 0.107951626 0.14857942 0.1421239 -0.04503863 -0.12907761 -0.045576256
0.07164451 0.065569155 -0.13383055 0.07658763 -0.06824024 -0.0055999076 0.064617895 -0.004429532
0.03419428 -0.08562483 0.09537117 -0.27970895 0.042472098 -0.063979 0.028669009 -0.13308305

network_body._body_endoder.seq_layers.2.bias f4 [128]
00000000: b2f9 d33c c8ea 2ebc f172 793c 2edd a33c
00000010: b5bd 82bc 3c7f eb3c fac1 133c b365 983c
00000020: 7b8b 1d3d 5ddc b53c fc74 273c f5d2 053d
00000030: 1342 ca3c a78e 323d f918 863c 525e 6d3c
00000040: 0ca8 3dbc 9dcf c5b9 37da e93b f194 143d
00000050: 0b1c 373d 8ac3 513d f06a fd3c 02ff 203c
00000060: 4eb8 2d3d c649 7a3c 1f42 c8bc 1c83 9f3c
00000070: 59eb 583c 5022 043d d430 f33c d33d 383d
00000080: 34c7 0e3c 149b 7d3c 21b7 763c 3d6b 323d
00000090: 990a 153c 4a26 ad3c d9b4 33bc 6429 f13b
000000a0: 3e3b e63b 22cd a437 d80d 943c e015 b93c
000000b0: 802c be3c 132b c93c 09af 8b3b 1d06 ae3c
000000c0: 1266 fe3c 3092 a9bc 4dcc 113d bd43 c13c
000000d0: 5466 813b a7a4 3a3c 1811 ac3c 80cf 9739
000000e0: ca68 af3c 7cf2 d63c 24b4 273d d20a 0c3c
000000f0: 9534 e43c 19ce 133c 8bfa 983c c4bd c33c
00000100: 8e3b dc3c db7d 923c e7eb 273d 6c93 fd39
00000110: 0269 143d 0552 d93c 38bc 2f3d cd3a bb3c
00000120: 317e dd3c 1fc3 b63c 5382 e3bc 81c0 fb3c
00000130: 038a f03a cd80 b43c 96e6 a3bb e69d a93c
00000140: 8701 693c c231 48bc f856 873c 8d06 763b
00000150: 8bf3 003d 2e58 463d 3a35 3b3c bdd2 303d
00000160: accc 043d 7e71 ca3c a36a 253c 14f9 9c3c
00000170: 2521 0b3d 76bf 20bc 93f7 993b 22a7 f2bb
00000180: 4bab 8a3c f86b 573c d26b 05bc 4c2f ae3c
00000190: 6f06 223d 6cf2 213d 5ce0 f93b 57d8 993c
000001a0: f892 ae3c 2f7d d23c 23cb e23c 14b4 9dbb
000001b0: 43ea 0739 6b46 0fbc c9e0 d43c 12c3 4ebc
000001c0: 8c9e ffbb e0e0 e43c 740d 5e3c 0aa5 793c
000001d0: f9dd c13c 40fb 08bd 5a7d 2c3c a03d a63c
000001e0: 338c 393d 4425 573d 37e9 263d e46e d93b
000001f0: c346 bb3b aaed 863c 7bec 1e3d 077d c83b
0.0258759 -0.010676093 0.015225158 0.020002928 -0.0159596 0.028747194 0.009018416 0.018603181
0.038463097 0.022199804 0.010220762 0.032671887 0.02468971 0.043593075 0.01636933 0.01448782
-0.01157571 -0.00037729452 0.007136609 0.036274854 0.04470448 0.05121187 0.03093478 0.009826424
0.042412095 0.015276378 -0.024445591 0.019471698 0.013239705 0.032259285 0.029686369 0.044980835
0.008714486 0.015478868 0.01505831 0.0435593 0.009096765 0.021136422 -0.01096841 0.0073596705
0.007026105 1.9645846e-05 0.018073007 0.022593439 0.023214579 0.024556672 0.004262809 0.02124315
0.03105453 -0.02069959 0.035595227 0.02359187 0.003948966 0.011391795 0.021004245 0.00028955564
0.021412272 0.026238672 0.04094328 0.008547502 0.027857104 0.0090213055 0.018674156 0.023894198
0.026883867 0.017882278 0.04099646 0.00048365758 0.036232956 0.026528368 0.04290411 0.022855187
0.027037712 0.022309838 -0.027772104 0.030731441 0.0018351678 0.022034073 -0.005001853 0.020705175
0.014221556 -0.012218894 0.016520962 0.0037540526 0.03148226 0.04842394 0.011426264 0.043169726
0.032421753 0.02471232 0.010096225 0.019161738 0.033967156 -0.009811273 0.0046987026 -0.0074051777
0.016927382 0.0131483 -0.008143382 0.021262787 0.039556917 0.039537832 0.0076256227 0.018779917
0.021310315 0.025694458 0.027684754 -0.0048127268 0.00012961873 -0.008744816 0.025986092 -0.012619751
-0.0078008827 0.02793926 0.013553012 0.015237102 0.023665415 -0.033442736 0.010527933 0.020293057
0.04529972 0.052525774 0.040749755 0.0066355336 0.0057152226 0.016470749 0.038799744 0.00611842

action_model._continuous_distribution.log_sigma f4 [1, 5]
00000000: b9e1 14bd cce5 bdbb aa10 a6bd 5332 4f3c
00000010: 1c85 2f3d
-0.03634808 -0.005795216 -0.08108647 0.012646276 0.042851552

action_model._continuous_distribution.mu.weight f4 [5, 128]
00000000: 3c3b 4d3b 7280 1e3c f97e cabc 2f38 a5bc
00000010: 8989 94bd 0a04 89bd 23b7 7fbb 12d2 2f3d
00000020: f245 b73c 062b 95bc 71f3 1bbd 751d 013e
00000030: bad6 efbd 8928 203b 7e83 39bd 9a4f 00be
00000040: 0c67 50bd 958d c1bd d5d1 94bc b3d4 1b3d
00000050: b72b 513d 479d 233d 65bd 8a3c 0ebf 0fbd
00000060: e290 883d 16fd 8c3d 08c3 293c 1daf c6bd
00000070: 2652 d7bd 5a31 393d 7587 0fbd 88f7 873d
00000080: 4f25 ffbc 6d04 6bbd fea4 3e3d 9a20 88bd
00000090: 7e5f 873d 8276 38bc 7ac6 0fba bb06 a33c
000000a0: c7c2 9ebd cbe7 c0bd 3e5f dc3d a0d1 9a3d
000000b0: dea7 5ebd 7572 693d c9ef f43c 1926 27bd
000000c0: 6a2f f13b 6b96 9c3b 138f 9d3d 4045 b5bd
000000d0: 1458 edbd 944c e4bc 7094 96bd c0dc 9c3c
000000e0: dd46 17bc ac16 ef3b f732 523d 1492 ed3c
000000f0: c89a 39bd db1c ee3d 0a55 d23c 7bea dbbd
00000100: c012 d1bd 82bd a0bc a969 a63b 0a3e 11bd
00000110: 9b6f 45bc 2104 25bd 2d40 25bd 090f 653d
00000120: dd90 dd3c 4cc6 50bd 14dc 5b3c 51d1 2f3d
00000130: 2b1c ac3c 8d0f 7a3b 0667 263c ffaa 1e3d
00000140: d022 29bd 401c 313c f9ef bf3d b647 563d
00000150: 6c45 b73d f8f5 ebbd f5f2 f83b 38f5 263d
00000160: 06a8 6a3d a509 bc3c 7611 10bd 6d8b 303c
00000170: 6919 243d 4712 e9bb 5b74 113d 4e93 99bd
00000180: 1d49 18be ee41 893d 0802 18bd 839a a03b
00000190: fbb8 943d e5f6 ac3d 3984 863d d036 db3d
000001a0: 195f 783d 0351 863b 6fa5 0fbe b573 0bbd
000001b0: 0e9e 13bd b975 66bd 09c0 743c 3c9d d1bc
000001c0: c869 81bd 10ec 9ebc acbd 043e 66bb b1bd
000001d0: ed4a 5c3c c9ae 0f3b 1fca 37bd 0cef cb3d
000001e0: 55bf 6d3c 48ee c0bc e38c 283d 30c6 c3bc
000001f0: afba bd3d 8179 513c 0794 be3d 0284 1f3d
00000200: 7b62 3ebd d908 a0bd 69b8 8c3d 51c4 c13b
00000210: e00d 72bd 886e 82bd 832e 153d 2e5e 493d
00000220: 6941 ac3c 5fb8 09be d685 47bd 3551 ae3d
00000230: a72c 983d 8b4f 0e3e 498d 893c 6f3d 0bbd
00000240: 92cd 953c 2415 183d a659 e6bd 8fb9 713d
00000250: 0ed5 9d3d 8d88 cf3d e75e dfbc 44df ebbc
00000260: c392 d93d 4675 06bd 998e 78bb 71ea 67bd
00000270: f4b5 a43b e101 09bd 2487 0ebd 6a0d 9e3d
00000280: 009d b23c 4e77 c2bd d46b 10be 33b5 aa3d
00000290: 96fa 3bbd f0cb fdbd a608 98bc e5b0 8b3d
000002a0: c720 85bd 8dc0 5fbd c491 3f3d ba1f b23a
000002b0: 4422 5d3d e86f e53d 9bfe c9bd 95d1 dabd
000002c0: 6276 df3c 0a82 99bc 3ff3 21bd cd41 3ebd
000002d0: c56c 30bc 8e9b af3c 6c04 dabd 3ae5 373d
000002e0: 5aa1 5d3a dd06 d93d ad9c aabd 50f9 de3c
000002f0: 713a bebc 36d9 c0bd 082b 17bd d1c3 1a3d
00000300: bde7 66ba 2923 f8bc dada 913d 5c58 78bd
00000310: 1ffa 7ebc 6e48 e23c 04e5 b83d e6b9 9c3d
00000320: 718e f83d 4a6e 1ebc 1641 0b3b 2a7a eb3c
00000330: 1790 523d ffe1 a03d 33fa 04bc 0541 12bc
00000340: 54c1 87bd 318a e0bc d19f b1bd 1698 fabd
00000350: 52bb 51bd 10d6 ab3d 3a89 94bd 5661 493d
00000360: 8fd0 94bd df46 38bb ae63 203d a52f 75bd
00000370: 3d48 4abd 8b51 183c d788 dabc 1d80 98bd
00000380: ec5a 503c cfa9 45bd 4590 b9bd c994 a33d
00000390: 2e21 0b3d 7002 033d ec18 7abd 05a6 523c
000003a0: 5153 00bd a7b4 0ebd f63a 1c3d a31b 4a3c
000003b0: c454 353d 16c5 81bd 303b 413d ccfe 40bb
000003c0: 63b0 f2bd f6ab 173e b65d 2ebd 85b5 2a3c
000003d0: b515 6e3d 5adf 213c 84a2 b53c 9701 e23b
000003e0: 6842 803d d052 ef3d d7d9 ca3d 4717 e5bc
000003f0: 3762 e03c 9274 673d 663a e53d 5384 a6bd
0.0031315824 0.009674178 -0.024718748 -0.020168392 -0.07252795 -0.066902235 -0.003901907 0.042924948
0.02237222 -0.018208992 -0.03807396 0.12608893 -0.11710878 0.0024438223 -0.045291416 -0.12530366
-0.050879523 -0.09450833 -0.018166462 0.038044643 0.05106708 0.039944913 0.016936013 -0.035094313
0.06668259 0.0688421 0.0103614405 -0.09701369 -0.105137154 0.04521308 -0.03504129 0.0663901
-0.03114572 -0.057377268 0.046544068 -0.06646843 0.066100106 -0.011258723 -0.00054845924 0.01990067
-0.077519946 -0.09419211 0.107603535 0.07559514 -0.05435931 0.05699392 0.029899495 -0.040807817
0.0073603885 0.0047786734 0.07693305 -0.08851099 -0.11589065 -0.027868547 -0.07352531 0.01914823
-0.009233204 0.007296404 0.051318135 0.02900032 -0.045313627 0.116265975 0.025675315 -0.10738083
-0.102086544 -0.019621614 0.0050785136 -0.035459556 -0.012050535 -0.04028714 -0.040344406 0.05592254
0.027046615 -0.05097036 0.01341917 0.04292423 0.021009525 0.0038156242 0.010156399 0.038737293
-0.041292965 0.010809958 0.09371943 0.052314483 0.08948788 -0.11521524 0.007597322 0.040761203
0.057289146 0.022953818 -0.035172902 0.010775429 0.040063296 -0.0071127745 0.035511356 -0.07498799
-0.1487164 0.06702028 -0.037111312 0.0049012317 0.07261845 0.08445529 0.06568188 0.10703814
0.060637567 0.004099013 -0.14027952 -0.034045894 -0.036039405 -0.056264613 0.014938363 -0.02558767
-0.06319004 -0.019399673 0.12962979 -0.086783215 0.013445598 0.0021924248 -0.044870492 0.09957704
0.014510949 -0.023551121 0.041149985 -0.023898214 0.09264123 0.012785316 0.09305578 0.03894425
-0.046480637 -0.078141876 0.06871111 0.0059132953 -0.059095263 -0.063687384 0.03642131 0.049162082
0.021027284 -0.13449238 -0.04871162 0.08511583 0.07430392 0.1389753 0.016791003 -0.033994135
0.0182865 0.037129536 -0.11247568 0.059014853 0.077066526 0.10133467 -0.027266933 -0.028792985
0.10623696 -0.032826684 -0.0037926792 -0.056620065 0.0050265733 -0.033449057 -0.03479685 0.07717402
0.021803379 -0.09495412 -0.14103633 0.08335342 -0.045893274 -0.123924136 -0.018558811 0.06820849
-0.065003924 -0.05462699 0.046769872 0.0013589778 0.053987756 0.11202985 -0.09863015 -0.10684506
0.027278129 -0.018738765 -0.03953862 -0.04644947 -0.01076812 0.021436479 -0.10645375 0.04489634
0.0008454524 0.10597012 -0.08330665 0.02721849 -0.023221226 -0.0941643 -0.036906272 0.0377844
-0.00088083354 -0.030290203 0.07121821 -0.06063114 -0.015562563 0.027622428 0.09028056 0.07652645
0.121365435 -0.00966985 0.002124851 0.028744776 0.051406946 0.07855605 -0.008116293 -0.008926635
-0.06628671 -0.027409645 -0.08673061 -0.12236039 -0.051204033 0.083904386 -0.072527364 0.049165092
-0.07266342 -0.0028118414 0.039157562 -0.05985989 -0.049385298 0.009296785 -0.026676578 -0.07446311
0.01271699 -0.048257645 -0.0906072 0.07987363 0.03396719 0.031984746 -0.061058924 0.012856965
-0.031329457 -0.034840252 0.038142167 0.012335691 0.044270292 -0.06336419 0.047175586 -0.0029448746
-0.11850049 0.14811692 -0.04256984 0.010419254 0.05812617 0.009879911 0.02217222 0.006897162
0.06262666 0.11685717 0.09904831 -0.027965201 0.027390582 0.056507654 0.11192779 -0.081307076

action_model._continuous_distribution.mu.bias f4 [5]
00000000: 4d41 293b 2cb1 5eba ce64 8fbb be2a cb3c
00000010: 73bf ef3c
0.0025826276 -0.00084950286 -0.0043760305 0.024800655 0.029266095

exp_avg f4 [128, 47]
00000000: 328b d0b8 5fe6 8438 0000 0000 740a 5f38
00000010: 1c72 d5b8 153a c936 0000 0000 8ca6 9935
00000020: aea1 98b8 4120 a037 0000 0000 0be8 b136
00000030: b5a7 82b8 dd32 8936 0000 0000 a108 eb36
00000040: b588 55b8 28e6 a937 0000 0000 c47c 9636
00000050: fd49 0838 2b33 ceb6 0000 0000 a5ee 7d37
00000060: bfbc c2b8 b5b2 4438 0000 0000 8397 5136
00000070: ec74 c936 359d 82b7 0000 0000 4f3c 7537
00000080: b62a de38 572b 3cb9 0000 0000 efcd d8b8
00000090: 7105 a6b8 9f89 56b8 467f 3b38 bf38 bdb8
000000a0: b970 a636 2ee5 00b8 8ad1 9537 7f3d 8f38
000000b0: 3bff 18b9 d599 adb5 010b d238 8146 0e37
000000c0: d1f4 94b7 0000 0000 2b33 02b7 fe2c 2437
000000d0: 15a6 f7b3 0000 0000 80b4 3635 3c7d 3fb7
000000e0: b663 df32 0000 0000 be4b 8f34 12b9 a237
000000f0: 1936 9db4 0000 0000 5d8f 92b4 2632 92b7
00000100: 8061 3eb5 0000 0000 7953 d334 294d b2b6
00000110: 39c3 77b4 0000 0000 3680 5cb5 ec6f d4b6
00000120: d261 62b5 0000 0000 c3fb b1b4 cf91 91b7
00000130: d39a ac35 0000 0000 b7a3 b2b4 e26c 56b7
00000140: de95 4c37 0000 0000 0447 3135 ea44 9837
00000150: 295b 88b7 a118 7c37 4e94 bc37 db0d 2435
00000160: aeac acb6 ed88 0f36 d001 62b7 b193 0b36
00000170: 3d83 dbb3 dc92 07b7 06bc 1d38 db94 b4b6
00000180: 0000 0000 1611 73b6 a202 cf37 c93d 6d34
00000190: 0000 0000 3a65 d1b4 7b6f eb37 6a81 d9b5
000001a0: 0000 0000 ecde 5eb5 b0e3 4738 f64b 9db5
000001b0: 0000 0000 41ae dab5 002a e637 1029 1ab6
000001c0: 0000 0000 00b4 84b4 0287 9b37 ae42 a634
000001d0: 0000 0000 7bdd a6b5 6eda 8f37 8e8f df36
000001e0: 0000 0000 3bd7 4d35 028c b737 c19b a336
000001f0: 0000 0000 039a a9b5 c78a 9fb7 8445 7b38
00000200: 0000 0000 5086 cc37 ec8e 81b7 6a8d 4237
00000210: a129 15b7 dbb2 b5b7 95d2 71b7 2691 30b8
00000220: 9199 5936 5c52 a337 6678 0f38 8056 23b5
00000230: d636 1537 6e3f 71b7 4772 b5b7 0000 0000
00000240: e53a deb7 9c92 05b9 79c5 beb6 0000 0000
00000250: a2bf 47b7 74ea 95b8 98ef 2935 0000 0000
00000260: 7fd6 97b6 18eb 1cb9 a035 8d36 0000 0000
00000270: 2651 d7b6 e787 c0b8 c39e 0cb7 0000 0000
00000280: 4756 16b7 85f4 acb8 7a11 3336 0000 0000
00000290: fe8d 11b7 7d7b c2b8 b0be 06b7 0000 0000
000002a0: 751c 96b7 5346 2eb8 9432 d6b7 0000 0000
000002b0: 6998 91b7 e8cc 2939 c6f1 7eb9 0000 0000
000002c0: f2a5 4eb8 c82a 96b8 b98f 1d38 c5fc 5fb8
000002d0: 5c50 8bb8 b087 7938 bfc2 9a39 9135 1338
000002e0: 430a eab8 8f34 3eb8 c0f3 65b6 bf3a 61b8
000002f0: 5087 e638 9f1d 6039 0000 0000 d4f9 9f38
00000300: 5951 9f38 39c6 7d37 0000 0000 214d 7bb6
00000310: 0ba9 4939 c450 1e38 0000 0000 c0e2 2437
00000320: 1147 9a38 4573 be36 0000 0000 db04 1b37
00000330: e96c 9639 273a 0238 0000 0000 c6d0 c436
00000340: 9f27 be39 0724 08b4 0000 0000 d502 e237
00000350: 0dd3 fe38 f224 1139 0000 0000 1c9e 1337
00000360: 8732 b539 fd91 47b7 0000 0000 3094 b737
00000370: b475 f839 b348 7ab9 0000 0000 7f00 d2b8
00000380: 45a2 9cb9 4b31 c938 0fd5 c5b8 4559 b4b9
00000390: 0199 2cb7 7975 fdb8 8ef7 3439 511d e539
000003a0: d58a 1538 d19f 0936 4517 e039 806c 40b9
000003b0: e141 b535 0000 0000 957d 2d37 5aef 38b9
000003c0: 86f1 5035 0000 0000 7265 46b6 5c01 63b9
000003d0: 3159 6437 0000 0000 c5bc e434 b90f 26b9
000003e0: 8293 b335 0000 0000 3311 2ab5 30fb 6fb9
000003f0: 3c57 5037 0000 0000 5657 c3b5 a27c 2ab9
-9.94414e-05 6.3371604e-05 0.0 5.317708e-05 -0.00010177886 5.9970284e-06 0.0 1.144786e-06
-7.27804e-05 1.9088506e-05 0.0 5.3020244e-06 -6.230121e-05 4.0888394e-06 0.0 7.0045503e-06
-5.0910476e-05 2.0253545e-05 0.0 4.484873e-06 3.2493834e-05 -6.145235e-06 0.0 1.5135539e-05
-9.2857976e-05 4.6896475e-05 0.0 3.1231618e-06 6.0038783e-06 -1.5570413e-05 0.0 1.461718e-05
0.000105937404 -0.00017945222 0.0 -0.00010338041 -7.9165104e-05 -5.1149746e-05 4.4702807e-05 -9.022792e-05
4.960308e-06 -3.073102e-05 1.7859758e-05 6.830226e-05 -0.0001459093 -1.2934275e-06 0.0001001563 8.480275e-06
-1.7756976e-05 0.0 -7.760517e-06 9.785637e-06 -1.1532044e-07 0.0 6.8062946e-07 -1.1413646e-05
2.600596e-08 0.0 2.6690935e-07 1.9398085e-05 -2.928289e-07 0.0 -2.729893e-07 -1.7427908e-05
-7.0922397e-07 0.0 3.9362547e-07 -5.313796e-06 -2.3074689e-07 0.0 -8.214296e-07 -6.3311218e-06
-8.433391e-07 0.0 -3.3152e-07 -1.7353244e-05 1.2860058e-06 0.0 -3.3274202e-07 -1.2780745e-05
1.2194241e-05 0.0 6.604098e-07 1.8151903e-05 -1.6254913e-05 1.5026105e-05 2.2480406e-05 6.1114923e-07
-5.146102e-06 2.1388362e-06 -1.3471072e-05 2.0798582e-06 -1.0221854e-07 -8.08082e-06 3.7606827e-05 -5.381747e-06
0.0 -3.6219767e-06 2.4677549e-05 2.2094822e-07 0.0 -3.9002936e-07 2.8066095e-05 -1.6205424e-06
0.0 -8.302584e-07 4.7657348e-05 -1.1719519e-06 0.0 -1.629298e-06 2.7437694e-05 -2.297169e-06
0.0 -2.4717883e-07 1.8540308e-05 3.0968425e-07 0.0 -1.2432423e-06 1.7148643e-05 6.66263e-06
0.0 7.668165e-07 2.1880496e-05 4.8759107e-06 0.0 -1.2636305e-06 -1.90189e-05 5.9907805e-05
0.0 2.438124e-05 -1.5444552e-05 1.1596227e-05 -8.890785e-06 -2.1660167e-05 -1.4413749e-05 -4.209685e-05
3.2424907e-06 1.9469466e-05 3.4205987e-05 -6.0848106e-07 8.89386e-06 -1.4379488e-05 -2.1630096e-05 0.0
-2.6491887e-05 -0.00012738485 -5.68543e-06 0.0 -1.1905942e-05 -7.148544e-05 6.330606e-07 0.0
-4.5251213e-06 -0.00014964899 4.2083702e-06 0.0 -6.4169462e-06 -9.180587e-05 -8.381615e-06 0.0
-8.960785e-06 -8.2471444e-05 2.6683251e-06 0.0 -8.675734e-06 -9.273642e-05 -8.03142e-06 0.0
-1.7894645e-05 -4.1550327e-05 -2.553434e-05 0.0 -1.7356318e-05 0.0001619343 -0.00024313395 0.0
-4.9268776e-05 -7.160526e-05 3.756557e-05 -5.3402753e-05 -6.6430046e-05 5.9492595e-05 0.00029518266 3.509742e-05
-0.00011159901 -4.534848e-05 -3.426554e-06 -5.3698892e-05 0.000109924586 0.0002137334 0.0 7.628245e-05
7.596863e-05 1.5126127e-05 0.0 -3.744681e-06 0.00019231827 3.7745354e-05 0.0 9.827956e-06
7.3565294e-05 5.6758604e-06 0.0 9.23985e-06 0.00028691374 3.1048574e-05 0.0 5.8655596e-06
0.00036269144 -1.2679094e-07 0.0 2.6942618e-05 0.00012150975 0.00013842041 0.0 8.7986955e-06
0.00034560656 -1.1895315e-05 0.0 2.1884305e-05 0.00047389942 -0.0002386894 0.0 -0.00010013673
-0.0002987554 9.5936084e-05 -9.433377e-05 -0.00034398786 -1.0287623e-05 -0.00012085861 0.00017258359 0.00043700126
3.5653666e-05 2.0507616e-06 0.00042741947 -0.00018350966 1.3504724e-06 0.0 1.0340843e-05 -0.00017636773
7.78375e-07 0.0 -2.9563348e-06 -0.00021648913 1.36106255e-05 0.0 4.2605657e-07 -0.00015836851
1.337947e-06 0.0 -6.3354963e-07 -0.00022886391 1.2418077e-05 0.0 -1.455405e-06 -0.00016258893

exp_avg_sq f4 [128, 47]
00000000: d007 4e35 0537 0a33 0000 0000 2c09 6632
00000010: ea51 3f35 721e d430 0000 0000 3074 8b30
00000020: f3e9 4635 5e51 fb30 0000 0000 04c8 9630
00000030: 0ce8 4e35 6597 e530 0000 0000 ee08 9230
00000040: d65a 5235 9142 5831 0000 0000 12c4 d630
00000050: 6813 4e35 e1e8 9631 0000 0000 5d96 d030
00000060: d728 5135 aaab 4832 0000 0000 a282 5531
00000070: c312 5235 c570 7232 0000 0000 1ed9 3f31
00000080: 577d 7134 1db3 2135 0000 0000 092a f333
00000090: aaf7 3734 f81d 6834 755e 1d34 8e26 8934
000000a0: 6986 3834 9916 f234 f965 2134 d814 dd34
000000b0: 75aa ec34 f6ec 8b2f 154f f934 5568 8c32
000000c0: dd3b db30 0000 0000 799d 932f 3367 3d32
000000d0: 8d9a 652d 0000 0000 3c05 1c2d 5606 4c32
000000e0: 158f 4a2d 0000 0000 4641 282d 3dd3 6c32
000000f0: 9b52 a72d 0000 0000 78bc 352d e9d6 8332
00000100: 1e71 eb2d 0000 0000 b63b 962d 2678 8832
00000110: bdb9 3f2e 0000 0000 1eeb 9a2d f3d4 9132
00000120: 5842 5a2e 0000 0000 84b6 372e ca4f 9732
00000130: 80c3 0b2f 0000 0000 566d 2c2e d43d a031
00000140: 7288 6b32 0000 0000 6fa9 4931 5f9a 5a31
00000150: 0b86 cd31 16b0 8d31 22ba 9e31 d124 9331
00000160: ecad 2232 2901 7231 d49b 3d32 7d8d 3232
00000170: f30b 7f2c 98af 3832 2bcf b632 d1a1 d931
00000180: 0000 0000 9564 1630 3352 d832 0459 f22d
00000190: 0000 0000 87ea ea2d a7c1 da32 52ae 4e2e
000001a0: 0000 0000 c4dd 022e ef79 dc32 5f83 432e
000001b0: 0000 0000 e502 052e 84d9 ec32 91db fa2e
000001c0: 0000 0000 0a7c 442e 84d3 e932 93f5 822e
000001d0: 0000 0000 5379 452e b68a e632 f840 9530
000001e0: 0000 0000 c1f7 d82e 4a15 e932 ec98 0b30
000001f0: 0000 0000 ccf4 dc2e 895b fa31 bb24 b332
00000200: 0000 0000 6d3b 9a31 9482 e631 2435 d531
00000210: 33cd 8f31 7bcc 2932 89eb c331 8be9 8e32
00000220: f221 a831 6215 8a32 2e34 8632 675e 172d
00000230: 29de 6f32 0cc4 0735 0237 3b33 0000 0000
00000240: a06f 2032 53d8 0735 f49d 1630 0000 0000
00000250: bc55 1b30 e637 1035 bd2f 6830 0000 0000
00000260: 59bd 3330 7ad8 0a35 bca8 3330 0000 0000
00000270: 1fb0 2a30 05c0 1135 1f8b 3931 0000 0000
00000280: 7fb9 8830 6354 1035 2688 ad30 0000 0000
00000290: 2997 7d30 8f21 1235 6433 3132 0000 0000
000002a0: fee6 0431 9307 1435 a452 db31 0000 0000
000002b0: 0c55 0031 9e9f 0234 cedd d834 0000 0000
000002c0: 8500 b033 28f7 e533 f713 3234 64c5 ee33
000002d0: 75f1 2734 1d88 e033 6653 a334 4b72 d533
000002e0: 2e19 9634 7ef3 a334 c5f4 2e2f 0cd9 a034
000002f0: bbbe 0f36 e4d6 2c34 0000 0000 a3c4 2233
00000300: a7ec 0a36 1f28 8b31 0000 0000 03e9 2a31
00000310: eeeb 1736 9467 9e31 0000 0000 4466 3631
00000320: 2d54 0d36 9eb8 8231 0000 0000 b331 3731
00000330: 39ec 1736 383f 9b32 0000 0000 c9b8 9231
00000340: c10d 1436 8042 a531 0000 0000 e4cb 8231
00000350: 1e93 1636 0bc3 5233 0000 0000 9cae 0c32
00000360: f722 1b36 47dc 9e32 0000 0000 360a 0332
00000370: 1245 0b35 c018 f035 0000 0000 322e bd34
00000380: 8002 ef34 1690 2f35 7eea ee34 3a99 2f35
00000390: 7f50 f434 c8db b135 061b db34 2e9f 9a35
000003a0: b603 ad35 64b2 3730 5076 a835 352f e034
000003b0: 8cb7 fb32 0000 0000 1038 f831 4ffc c634
000003c0: fe25 3131 0000 0000 5927 5c30 8bad d734
000003d0: 04fc 2c31 0000 0000 a1bd 5730 f6f5 d734
000003e0: 72b0 3031 0000 0000 d65d 6130 8732 e234
000003f0: 05cf 7b31 0000 0000 d7eb 8e30 1067 e434
7.675235e-07 3.218067e-08 0.0 1.33898475e-08 7.1272245e-07 1.5433683e-09 0.0 1.0146604e-09
7.410119e-07 1.828578e-09 0.0 1.0970784e-09 7.707865e-07 1.6704972e-09 0.0 1.0625436e-09
7.836328e-07 3.1469976e-09 0.0 1.5626276e-09 7.676922e-07 4.39205e-09 0.0 1.5176728e-09
7.7917997e-07 1.1680564e-08 0.0 3.1069836e-09 7.82584e-07 1.4111895e-08 0.0 2.7917575e-09
2.2490472e-07 6.023782e-07 0.0 1.13232154e-07 1.7133303e-07 2.1617586e-07 1.4656128e-07 2.554629e-07
1.7185234e-07 4.5092455e-07 1.5031391e-07 4.1179624e-07 4.408245e-07 2.5452324e-10 4.6437404e-07 1.634559e-08
1.5951361e-09 0.0 2.6851035e-10 1.1024713e-08 1.305146e-11 0.0 8.868736e-12 1.18758035e-08
1.1514141e-11 0.0 9.564188e-12 1.3785038e-08 1.9022386e-11 0.0 1.0330507e-11 1.5348137e-08
2.6766641e-11 0.0 1.7079543e-11 1.5887121e-08 4.359334e-11 0.0 1.7612186e-11 1.697706e-08
4.9626386e-11 0.0 4.177149e-11 1.7614997e-08 1.2711432e-10 0.0 3.9205382e-11 4.663642e-09
1.3709824e-08 0.0 2.9345661e-09 3.1810925e-09 5.981524e-09 4.1236587e-09 4.619566e-09 4.2824486e-09
9.469186e-09 3.5216294e-09 1.1036679e-08 1.0393134e-08 3.6244313e-12 1.0750135e-08 2.1281798e-08 6.3339276e-09
0.0 5.471262e-10 2.518309e-08 2.7551746e-11 0.0 2.6706871e-11 2.5466603e-08 4.6993805e-11
0.0 2.9755545e-11 2.566682e-08 4.4454548e-11 0.0 3.024327e-11 2.757293e-08 1.14076866e-10
0.0 4.467541e-11 2.7220956e-08 5.955338e-11 0.0 4.490037e-11 2.6838602e-08 1.0859642e-09
0.0 9.866553e-11 2.7134451e-08 5.078522e-10 0.0 1.00479264e-10 7.286364e-09 2.0855046e-08
0.0 4.488746e-09 6.708726e-09 6.2051573e-09 4.185176e-09 9.883588e-09 5.702024e-09 1.6637179e-08
4.8933027e-09 1.6075038e-08 1.5623382e-08 8.604318e-12 1.3962144e-08 5.0576705e-07 4.358936e-08 0.0
9.338606e-09 5.060621e-07 5.4794147e-10 0.0 5.651051e-10 5.3725523e-07 8.446895e-10 0.0
6.53889e-10 5.172402e-07 6.5359607e-10 0.0 6.2095923e-10 5.4296135e-07 2.7000124e-09 0.0
9.948024e-10 5.376698e-07 1.2626102e-09 0.0 9.2255675e-10 5.443807e-07 1.0314441e-08 0.0
1.9339832e-09 5.514532e-07 6.383134e-09 0.0 1.8674795e-09 1.2165262e-07 4.039452e-07 0.0
8.195733e-08 1.0708601e-07 1.6584805e-07 1.1118644e-07 1.5640929e-07 1.0455572e-07 3.0421796e-07 9.939375e-08
2.7957998e-07 3.053828e-07 1.5912167e-10 2.9960245e-07 2.141968e-06 1.6096925e-07 0.0 3.7897404e-08
2.0701352e-06 4.0499937e-09 0.0 2.4870708e-09 2.2638083e-06 4.6101807e-09 0.0 2.6542617e-09
2.1059634e-06 3.8044865e-09 0.0 2.6658256e-09 2.2638253e-06 1.8073123e-08 0.0 4.270167e-09
2.2061724e-06 4.809692e-09 0.0 3.8066776e-09 2.2437375e-06 4.9071826e-08 0.0 8.188774e-09
2.3117152e-06 1.8493791e-08 0.0 7.627525e-09 5.1882046e-07 1.7888597e-06 0.0 3.5237605e-07
4.4519038e-07 6.5402253e-07 4.450157e-07 6.5415554e-07 4.550711e-07 1.3251492e-06 4.081159e-07 1.1520222e-06
1.2890584e-06 6.682852e-10 1.2551409e-06 4.17576e-07 2.9303713e-08 0.0 7.2241235e-09 3.7063953e-07
2.5778486e-09 0.0 8.009145e-10 4.017314e-07 2.5172548e-09 0.0 7.8486023e-10 4.022583e-07
2.5711668e-09 0.0 8.198787e-10 4.2132544e-07 3.6642984e-09 0.0 1.039889e-09 4.2543297e-07

exp_avg f4 [128]
00000000: 93cb 43b8 518a dfb6 0d21 0738 e528 65b8
00000010: fb60 9039 8b4b 48b9 20b5 fab9 d26f 70b8
00000020: 3e12 a4b9 338e c4b8 e774 023a 453f 47b8
00000030: 767e ed39 f29b 1ab9 7770 bb39 67f6 6139
00000040: b9d0 0e3a 8b5b 7e39 0feb 6739 11b1 9538
00000050: c852 4237 5267 09ba 22cc 75b9 bb82 c0b9
00000060: 96e1 87b7 8129 b438 e63d 053a 87a4 3739
00000070: 51a1 cf37 c407 4939 d57a 54b9 9111 7139
00000080: b4d9 1cb9 3a16 9139 3284 b538 56c0 b2b9
00000090: 6959 bcb9 d016 bab9 84be 2039 fb1b d8b9
000000a0: 99ff a138 c97e 3338 d4dd 7339 cee0 5039
000000b0: 1180 9bb8 72e4 e3b9 bd80 8339 c0d1 1939
000000c0: 6b43 bfb9 f583 8039 b599 9137 349d 023a
000000d0: ef3c 48b8 68a7 eb38 c4a5 76b8 85e6 9ab8
000000e0: d7c8 2138 29cc 3b39 4724 07ba fcde dab9
000000f0: b8d1 b5b9 054f fa36 c054 0bba ad7b a2b8
00000100: 6178 4439 0867 e5b9 f6dc bd37 6986 9ab9
00000110: 781b dd39 64ec 35b9 b8ca 1239 e03f f0b8
00000120: 8e37 c639 ea8b a7b9 c39a d039 c834 e339
00000130: a30c 7eb9 8559 6fb9 9d2a 5f39 3208 b339
00000140: 6b69 fa37 478a aa39 2700 88b8 6f9b b4b9
00000150: 0438 18ba 9830 cd39 4a61 1239 7e62 f939
00000160: ed6f 093a ba2e 06ba ed9e 02b7 f49c 2d39
00000170: 1396 3138 0e40 acb9 2b12 0f3a c9eb d6b9
00000180: 18db 0b39 d522 ee39 d6b9 8a38 1493 15ba
00000190: 69f3 b7b9 2698 9a39 dd6d f3b7 cccd 76b9
000001a0: 01b3 86b9 74da 5fb9 402e 3439 d3ce 03ba
000001b0: 77a6 98b7 2bf1 863a d376 ab38 736e b3b6
000001c0: 3e4d 87b8 273c b438 fd44 9039 ea3f 9cb9
000001d0: 9b68 48b8 ffe3 0639 7583 2fb9 59de 8439
000001e0: 50a2 9b39 2f2b 07ba 8a78 cb39 6a8a 80b9
000001f0: 9345 9639 a60f 67b9 3835 ae38 5aba 6138
-4.6681216e-05 -6.66202e-06 3.221729e-05 -5.463594e-05 0.00027538076 -0.00019101628 -0.00047818664 -5.73246e-05
-0.0003129411 -9.372495e-05 0.0004976526 -4.750422e-05 0.00045298383 -0.00014744679 0.00035751212 0.00021549464
0.0005447972 0.0002425743 0.00022117443 7.137855e-05 1.1582575e-05 -0.0005241531 -0.00023441066 -0.00036718496
-1.61983e-05 8.5907996e-05 0.0005082771 0.00017513531 2.4751442e-05 0.00019171747 -0.00020263654 0.00022990095
-0.0001495842 0.00027673115 8.655376e-05 -0.00034094107 -0.0003592477 -0.0003549368 0.00015329762 -0.00041219578
7.724687e-05 4.2795004e-05 0.00023256923 0.00019920172 -7.41483e-05 -0.0004346702 0.00025082185 0.00014669355
-0.0003648059 0.00024512378 1.7356922e-05 0.00049825315 -4.7740465e-05 0.00011236855 -5.880535e-05 -7.38623e-05
3.8572438e-05 0.00017909765 -0.0005155247 -0.00041746337 -0.00034679263 7.4597797e-06 -0.0005315058 -7.7477984e-05
0.00018736861 -0.00043755048 2.2633449e-05 -0.00029473312 0.0004217287 -0.00017349567 0.00013999164 -0.000114559894
0.00037806894 -0.00031956966 0.00039788158 0.0004333614 -0.00024228035 -0.00022826165 0.00021282812 0.00034147647
2.9851411e-05 0.0003252795 -6.485014e-05 -0.00034448082 -0.0005806687 0.00039136852 0.00013959888 0.00047566363
0.00052428135 -0.0005118657 -7.785607e-06 0.00016557035 4.2339856e-05 -0.0003285412 0.00054577243 -0.00040992934
0.00013337692 0.0004542085 6.6149674e-05 -0.0005705815 -0.00035085835 0.00029486528 -2.9019016e-05 -0.00023537053
-0.0002569184 -0.00021348317 0.00017183367 -0.00050280726 -1.8197328e-05 0.0010295262 8.176048e-05 -5.3474737e-06
-6.451689e-05 8.594273e-05 0.0002751722 -0.00029802258 -4.7781137e-05 0.00012864171 -0.00016738272 0.00025342664
0.00029684836 -0.0005156276 0.00038808986 -0.0002451719 0.00028662066 -0.00022035706 8.306879e-05 5.3817734e-05

exp_avg_sq f4 [128]
00000000: 9e51 5a35 69f0 9d32 b68a f932 b440 1835
00000010: 537a 1e36 7ffe f334 b848 0736 bb51 d635
00000020: 3160 2535 40e6 8135 51b1 1136 254a 6d34
00000030: 49fb f435 71ac 5535 2713 7936 385b 0935
00000040: 9495 ca35 bd88 d834 ac07 8d35 40a7 7136
00000050: 6ac6 ec33 fa7e 3c36 928c 2f36 b025 0d36
00000060: c47a fd30 228a c635 6c70 4636 7ee8 3535
00000070: 2af1 1036 6384 1234 0915 5336 53e3 4435
00000080: d669 df35 d7c7 1b35 70ab ac34 82ad fa35
00000090: ee7a cc35 a4b7 b435 3454 0435 19aa 1636
000000a0: 41a7 7233 f93f 3932 cf02 8934 673b 6e35
000000b0: 78b9 2434 5f65 f035 7487 1d36 b37d 1a36
000000c0: 71f2 ae35 5b66 9a35 02d9 2832 92a4 2036
000000d0: 24d5 1136 d3b5 8d36 2af7 d935 c444 8634
000000e0: 71e3 7a33 a10f b534 2e1d 0136 4142 4536
000000f0: a589 9a35 cc53 3732 654a 2536 c931 6535
00000100: b34f 2736 f796 b635 44ba 3f32 4bcb 3735
00000110: a03a 9435 4e8b 0835 af50 9734 6a13 a135
00000120: a975 2335 d439 0836 3fe5 4c36 7bfd b035
00000130: b91a 5135 da92 0a36 4251 4335 cacb a835
00000140: 7965 6436 d1db 0b36 17ad 3034 7d9c ba35
00000150: 3f63 cf36 9240 0836 822b f433 d640 d436
00000160: 09fd 2636 d566 7436 b474 5531 bbe2 0b36
00000170: 7d9b fc33 61a9 a435 e6ac a236 4b8c d635
00000180: 4a02 8f35 226e 0a36 ccd0 6d33 a7f8 b136
00000190: 6866 d435 6764 a435 18d1 ad34 c469 a435
000001a0: 5437 9635 b572 1336 b642 1f35 c611 cf35
000001b0: de56 6e35 e6f0 8b36 0319 a035 e0d2 5235
000001c0: aa8f 0f34 038e 8d36 c37e 1836 d899 2d35
000001d0: f080 3a34 7443 bd33 2079 e134 6d7f 4e36
000001e0: 1980 9e36 1278 0d36 78b6 f335 b18a bb35
000001f0: 2cf2 1535 6222 5c35 a670 2734 0fd3 fc34
8.1330097e-07 1.8386531e-08 2.9050494e-08 5.671857e-07 2.3615037e-06 4.5447447e-07 2.0158895e-06 1.5968029e-06
6.1607267e-07 9.67826e-07 2.1709895e-06 2.2099319e-07 1.825255e-06 7.959962e-07 3.711504e-06 5.116922e-07
1.5093706e-06 4.0332625e-07 1.0507551e-06 3.600915e-06 1.1025698e-07 2.8088093e-06 2.6158855e-06 2.1032574e-06
1.8443065e-09 1.4792352e-06 2.9569737e-06 6.7766075e-07 2.1598048e-06 1.3645472e-07 3.1453694e-06 7.334649e-07
1.6645597e-06 5.8032805e-07 3.2162234e-07 1.8676949e-06 1.5234962e-06 1.3464492e-06 4.9296364e-07 2.2450752e-06
5.6497132e-08 1.0782963e-08 2.5520282e-07 8.874835e-07 1.5341163e-07 1.7910896e-06 2.3473667e-06 2.3020955e-06
1.303457e-06 1.1503683e-06 9.828229e-09 2.393765e-06 2.1730748e-06 4.2232946e-06 1.6239694e-06 2.5009479e-07
5.8414518e-08 3.372525e-07 1.9239483e-06 2.9393852e-06 1.1513954e-06 1.0671055e-08 2.463022e-06 8.5381595e-07
2.493133e-06 1.3603993e-06 1.1160015e-08 6.846864e-07 1.1043921e-06 5.0866663e-07 2.8184647e-07 1.2001085e-06
6.089345e-07 2.029924e-06 3.0531808e-06 1.3186794e-06 7.7897454e-07 2.0649081e-06 7.2761406e-07 1.2576286e-06
3.4033712e-06 2.0840564e-06 1.6454247e-07 1.3903624e-06 6.1806345e-06 2.0303164e-06 1.13700494e-07 6.3256402e-06
2.4883213e-06 3.641869e-06 3.1061917e-09 2.0844589e-06 1.17629476e-07 1.2268248e-06 4.8481043e-06 1.5985073e-06
1.0654996e-06 2.0627708e-06 5.5370762e-08 5.303958e-06 1.5825035e-06 1.2248173e-06 3.2375897e-07 1.2249734e-06
1.1191973e-06 2.1971475e-06 5.9329193e-07 1.5427875e-06 8.878832e-07 4.170567e-06 1.1928208e-06 7.853796e-07
1.3370177e-07 4.21866e-06 2.272355e-06 6.4671394e-07 1.7369507e-07 8.813268e-08 4.1997646e-07 3.0770564e-06
4.7236795e-06 2.1080527e-06 1.8158016e-06 1.397295e-06 5.585923e-07 8.200642e-07 1.5594068e-07 4.7092223e-07
