config/results/AgrConserv_Refactored_2M_Almost-Final_v4_BETA/Hummingbird_Conservative/Hummingbird_Conservative-999960.onnx (onnx, 97764 bytes, 7 tensors)

network_body._body_endoder.seq_layers.0.weight f4 [128, 47]
0.022905938 0.030709105 -0.3855031 -0.005089363 -0.15179509 0.051700294 0.10456546 -0.09995569
0.0979535 0.38203266 -0.13275875 -0.038953014 -0.1296217 0.030865261 -0.18050118 0.07048913
0.17128438 -0.031691253 0.010604947 -0.026358966 0.11730037 -0.1171699 -0.1341868 0.23747794
0.09135506 -0.0152919 0.15285936 0.34222722 0.1618354 0.3416186 -0.075264014 -0.22077627
0.03823398 -0.24985075 -0.19531272 -0.6187561 -0.05776092 -0.08211208 -0.025038447 0.13552003
-0.1353528 -0.14318816 -0.09290988 -0.21947247 -0.007510721 0.055429827 0.1668041 0.07953566
-0.1534161 -0.28415704 0.038207326 -0.14471711 0.04348435 -0.06727646 -0.026754199 -0.25506875
-0.097107165 -0.30468485 0.03400645 0.21108118 -0.01668906 -0.19274512 -0.06812291 0.17026897
-0.23858246 0.16554664 0.32146898 -0.2902753 0.052105937 0.34849042 0.008396437 -0.054055173
-0.20047341 0.09437353 -0.2530987 0.101960175 0.13284084 0.21747981 0.17027627 -0.06605809
0.027673937 -0.19776039 0.1949212 0.21124601 0.30815774 0.14677653 0.021369895 0.19357243
0.12273007 0.030136935 -0.3346648 0.012237842 -0.13714848 -0.030891282 0.26047292 -0.024507765
0.20652004 0.09224351 0.07930383 0.012460649 0.091067895 -0.08151414 0.057302695 -0.08416929
-0.115928076 -0.09059648 0.025893323 -0.11776524 -0.12031587 -0.13842131 0.057158127 -0.16728963
-0.10000852 0.058468208 0.17759685 0.18531615 0.101933 0.27032214 -0.10500858 0.20014462
0.0038329116 -0.026729789 0.42302668 0.16915095 0.114455745 -0.09773749 0.06939754 -0.23297727
0.13956854 -0.30501163 0.0196488 -0.27577582 -0.074940056 -0.12618455 0.4267673 0.1086527
-0.18088058 -0.113100864 -0.083441965 0.20189704 0.09179513 0.14641738 -0.03807492 0.29694065
0.04449593 0.06251371 0.111057796 -0.33262518 0.15853488 0.11412198 -0.10061702 0.14490367
0.27131885 -0.04923185 0.0063879457 -0.062734224 0.041549753 -0.23968963 -0.1548959 0.09358504
-0.15011509 0.22013411 0.0065950914 -0.01867834 -0.009582251 0.014923911 0.17377716 -0.16058953
0.034390505 -0.19195323 -0.13076204 -0.20574091 -0.030124858 0.16642003 -0.12553403 -0.20700805
-0.16490236 -0.11867899 0.04862511 0.05674373 0.4255896 -0.051702674 0.04573804 -0.17387222
0.22279337 -0.035151705 -0.031370446 0.03248965 -0.17830819 0.13473816 0.012940434 0.0149236815
0.295822 -0.059176363 -0.007908902 0.060030237 0.04560134 -0.16391446 0.005849363 0.07219097
-0.110204384 -0.37237632 0.05572122 0.2302308 -0.01410295 -0.014096494 0.10381296 0.09862421
-0.16912927 -0.15318283 -0.074748695 -0.06869227 -0.108486965 -0.1575066 -0.16164835 -0.108053
0.09489386 -0.012243615 -0.12668988 -0.13805005 0.088839546 0.13088527 0.023532234 0.09860191
-0.01543855 -0.113656774 -0.00068317633 -0.15906632 -0.10630324 -0.13588385 -0.17629187 0.034975957
-0.12973572 0.08480821 -0.0008411866 -0.07128592 0.11802746 -0.24668497 0.104833394 -0.24530011
-0.0127170775 0.041586198 -0.011147648 0.2821734 -0.025825556 0.19263732 0.010609655 -0.2652391
0.17943868 -0.37892574 -0.023958458 0.19998409 -0.057887718 -0.034023095 0.02344821 0.22504751
00000000: 3ca5 bb3c a991 fb3c aa60 c5be acc4 a6bb
00000010: 2c70 1bbe b0c3 533d 6a26 d63d 92b5 ccbd
00000020: d89b c83d c999 c33e e9f1 07be 328d 1fbd
00000030: 8dbb 04be 25d9 fc3c 4dd5 38be 9b5c 903d
00000040: 2c65 2f3e b0ce 01bd 5fc0 2d3c c2ee d7bc
00000050: 2d3b f03d c6f6 efbd 4468 09be 6b2d 733e
00000060: 5d18 bb3d e18a 7abc 2a87 1c3e 6838 af3e
00000070: 2eb8 253e a2e8 ae3e 0524 9abd 2d13 62be
00000080: 3c9b 1c3d e0d8 7fbe 0f00 48be cd66 1ebf
00000090: b796 6cbd 612a a8bd 6e1d cdbc c3c5 0a3e
000000a0: ed99 0abe eb9f 12be 8947 bebd 64bd 60be
000000b0: 7f1c f6bb 630a 633d b2ce 2a3e 98e3 a23d
000000c0: 1c19 1dbe 087d 91be 497f 1c3d b930 14be
000000d0: a51c 323d 3ec8 89bd 9f2b dbbc 5f98 82be
000000e0: 1fe0 c6bd a7ff 9bbe 594a 0b3d aa25 583e
000000f0: 7fb7 88bc fa5e 45be 0684 8bbd fd5a 2e3e
00000100: f64e 74be 0f85 293e 9597 a43e f79e 94be
00000110: 096d 553d 566d b23e 3691 093c f568 5dbd
00000120: e748 4dbe e946 c13d 2796 81be 7fd0 d03d
00000130: 6e07 083e 07b3 5e3e e75c 2e3e 7749 87bd
00000140: 74b4 e23c b381 4abe 6c99 473e e050 583e
00000150: dac6 9d3e 964c 163e eb0f af3c da37 463e
00000160: e759 fb3d bce1 f63c 2f59 abbe 3b81 483c
00000170: a770 0cbe b70f fdbc b55c 853e 82c4 c8bc
00000180: fd79 533e 2aea bc3d 0c6a a23d c027 4c3c
00000190: ce81 ba3d e3f0 a6bd 3bb6 6a3d f360 acbd
000001a0: b36b edbd a68a b9bd 3c1e d43c e72e f1bd
000001b0: 2b68 f6bd 51be 0dbe a41e 6a3d f94d 2bbe
000001c0: 44d1 ccbd 5c7c 6f3d f3db 353e 84c3 3d3e
000001d0: 40c2 d03d aa67 8a3e bd0e d7bd b6f2 4c3e
000001e0: 9631 7b3b 6ef8 dabc f496 d83e e835 2d3e
000001f0: c667 ea3d 982a c8bd 4c20 8e3d 9891 6ebe
00000200: 0eeb 0e3e 7c2a 9cbe 85f6 a03c 7d32 8dbe
00000210: 2c7a 99bd 8636 01be 3e81 da3e 4f85 de3d
00000220: c238 39be 6da1 e7bd 9fe3 aabd 19be 4e3e
00000230: 16ff bb3d 70ee 153e 73f4 1bbd 9b08 983e
00000240: 5d41 363d 3007 803d 4572 e33d d94d aabe
00000250: f856 223e c9b8 e93d 4c10 cebd a161 143e
00000260: 4eea 8a3e 56a7 49bd f951 d13b cd7a 80bd
00000270: 1330 2a3d 3371 75be 089d 1ebe 83a9 bf3d
00000280: c5b7 19be d66a 613e a31b d83b 5103 99bc
00000290: e0fe 1cbc 6b83 743c a4f2 313e 9571 24be
000002a0: 0fdd 0c3d 638f 44be 7ce6 05be bfad 52be
000002b0: 68c8 f6bc 036a 2a3e fe8b 00be ebf9 53be
000002c0: 2adc 28be f80d f3bd 202b 473d 1d6c 683d
000002d0: e1e6 d93e 2fc6 53bd d057 3b3d 8f0b 32be
000002e0: f223 643e 3cfb 0fbd 4c7e 00bd de13 053d
000002f0: 6c96 36be cdf8 093e 1d04 543c 7582 743c
00000300: fb75 973e ea62 72bd 5794 01bc 44e2 753d
00000310: 78c8 3a3d 31d9 27be 03ac bf3b dcd8 933d
00000320: d6b2 e1bd 1ca8 bebe ef3b 643d 9fc1 6b3e
00000330: 0f10 67bc fbf4 66bc e49b d43d 7dfb c93d
00000340: 3930 2dbe f6db 1cbe d815 99bd 88ae 8cbd
00000350: 6a2e debd 6949 21be 2587 25be e44a ddbd
00000360: b657 c23d 7299 48bc feba 01be fe5c 0dbe
00000370: 82f1 b53d ca06 063e acc6 c03c ccef c93d
00000380: f9f1 7cbc e2c4 e8bd 3017 33ba 48e2 22be
00000390: 83b5 d9bd 2325 0bbe db85 34be f342 0f3d
000003a0: 71d9 04be edaf ad3d 1483 5cba 5afe 91bd
000003b0: 62b8 f13d fc9a 7cbe e4b2 d63d f42f 7bbe
000003c0: 4a5b 50bc 4a56 2a3d a0a4 36bc 0879 903e
000003d0: 1e90 d3bc b842 453e 1ed4 2d3c 6bcd 87be
000003e0: c6be 373e 8e02 c2be 8744 c4bc a1c8 4c3e
000003f0: ac1b 6dbd cd5b 0bbd 7616 c03c db72 663e

network_body._body_endoder.seq_layers.0.bias f4 [128]
0.019041518 0.0018738096 0.0005787081 -0.01243511 -0.0038575674 0.009449003 -0.0398474 0.011103559
-0.0009150151 0.016772106 0.0005316302 -0.0042461003 -0.0052161776 -0.0036183912 0.028797477 -0.0045217136
-0.008386368 -0.0008155227 0.010888919 0.0117832795 0.013382029 0.02022911 0.0038677943 -0.005836092
0.0022712874 0.014133497 0.020661894 -0.017874448 -0.00087028905 0.0030125873 0.02139869 -0.01415878
0.025531689 -0.012425577 -0.016506543 0.013603871 0.021090347 -0.0035964698 0.02217566 -0.01685364
0.0022062282 -0.019732708 0.020957924 0.017852964 -0.009687103 0.03882717 0.0067806602 0.013688293
0.001321661 -0.0034908785 0.010512817 -0.022411022 0.0043497714 0.024662208 0.021221692 0.023672117
0.040317416 0.0054612886 0.023704989 -0.006910271 -0.010666604 -0.019015204 0.026485488 0.0029232448
0.025102748 0.0027676371 -0.015090589 -0.0048583057 0.019828012 0.010372948 0.006132854 -0.02235623
0.01795504 0.014093153 -0.032035783 0.017694397 -0.02144352 -0.0115497345 -0.0045693936 0.015412435
0.00565377 0.027391113 0.029394016 0.0028652574 -0.014792059 0.019516386 0.02386472 0.02457288
0.014759309 0.025351949 -0.009430156 0.012796425 0.012886468 -0.016087322 -0.0022179855 0.01613226
0.026765952 0.0180059 -0.015056915 -0.013895214 0.020307649 0.011832829 0.022473147 -0.036329415
-0.007911172 -0.021442525 -0.023094622 0.01155176 0.018633574 0.014729065 0.0002674077 -0.0064050723
0.015284029 0.004171196 -0.011314178 0.00063240906 -0.004747474 0.011727491 -0.0043450356 0.019096702
0.004906128 0.030798875 0.030294716 -0.0186637 -0.008144027 -0.02457453 -0.017672488 0.021381304
00000000: f5fc 9b3c 9e9a f53a 71b4 173a a2bc 4bbc
00000010: 3ecf 7cbb fecf 1a3c 0737 23bd b4eb 353c
00000020: a0dd 6fba a865 893c 195d 0b3a df22 8bbb
00000030: 78ec aabb 8822 6dbb b0e8 eb3c e22a 94bb
00000040: fa66 09bc cdc8 55ba 7067 323c a80e 413c
00000050: 4c40 5b3c 85b7 a53c d27a 7d3b b03c bfbb
00000060: e1d9 143b 2f90 673c 2243 a93c 6f6d 92bc
00000070: 1c24 64ba d46e 453b 4e4c af3c 3afa 67bc
00000080: d527 d13c a694 4bbc bb38 87bc c5e2 5e3c
00000090: aac5 ac3c c0b2 6bbb bba9 b53c a510 8abc
000000a0: 5e96 103b 7da6 a1bc f4af ab3c 6140 923c
000000b0: a8b6 1ebc 3d09 1f3d 4d30 de3b dd44 603c
000000c0: 963b ad3a 39c7 64bb f33d 2c3c 5297 b7bc
000000d0: 8788 8e3b 6608 ca3c 1dd9 ad3c 07ec c13c
000000e0: e023 253d 9cf4 b23b f730 c23c 8e6f e2bb
000000f0: fbc2 2ebc c6c5 9bbc 18f8 d83c e993 3f3b
00000100: 47a4 cd3c 3f61 353b 853e 77bc 6c32 9fbb
00000110: 5b6e a23c 4cf3 293c 1cf6 c83b 6a24 b7bc
00000120: 7316 933c f8e6 663c f437 03bd d7f3 903c
00000130: 52aa afbc 193b 3dbc daba 95bb 7084 7c3c
00000140: 4343 b93b 5463 e03c b8cb f03c 0bc7 3b3b
00000150: 645a 72bc d4e0 9f3c f27f c33c 104d c93c
00000160: 07d1 713c e4ae cf3c f180 1abc 19a8 513c
00000170: c421 533c 8fc9 83bc 9f5b 11bb cd27 843c
00000180: 4544 db3c 1c81 933c 47b1 76bc c0a8 63bc
00000190: 3a5c a63c 7bde 413c 9b19 b83c 27ce 14bd
000001a0: dc9d 01bc 3ca8 afbc ef30 bdbc 9843 3d3c
000001b0: 70a5 983c 2d52 713c db32 8c39 a4e1 d1bb
000001c0: dd69 7a3c 87ae 883b 1a5f 39bc 41c8 253a
000001d0: b390 9bbb aa24 403c cd60 8ebb b070 9c3c
000001e0: 96c3 a03b ec4d fc3c a02c f83c 9ee4 98bc
000001f0: 866e 05bc 8650 c9bc e5c5 90bc d827 af3c

network_body._body_endoder.seq_layers.2.weight f4 [128, 128]
-0.023193656 -0.0696886 -0.14136708 0.06201187 -0.00066306593 0.024452848 0.07380977 0.008436838
-0.00028923375 0.20288934 -0.10085376 0.05857674 0.0887811 0.028412487 0.20194268 -0.04440107
-0.103303455 -0.06291176 -0.13224462 -0.11209595 -0.1271209 -0.10545303 -0.05940936 0.117492706
0.011054449 0.06325106 0.038001884 -0.051792715 -0.08148286 -0.105812535 -0.11688978 0.122682944
-0.07782497 -0.056531478 -0.020017534 0.06304569 0.11461817 0.07472179 0.0491112 0.14375512
0.24066803 0.06889063 0.01169227 0.082589045 0.17094064 0.08489989 -0.062340673 0.059029613
0.06182534 -0.08846177 0.048391502 0.0015746753 0.028580757 -0.13626395 -0.087661706 0.033546794
0.02252854 -0.03950489 -0.120172165 -0.0120512545 0.027552292 0.1303504 0.09796825 -0.0227938
0.27082363 0.01241015 0.022419987 0.016467474 0.07672113 0.15660651 -0.025533292 0.027021637
-0.043363705 0.08066698 0.0033852926 0.037737485 0.025689678 -0.10549641 -0.023290029 0.063098304
-0.043016363 -0.15402174 0.0030993787 0.0035438368 -0.115158305 -0.17255652 0.091686256 -0.036889676
0.14514163 -0.10095386 0.03416553 -0.064245336 0.05418954 0.06346395 0.033925015 0.07062049
-0.12616894 0.08782855 0.09616495 0.08519328 0.10816535 -0.1075441 0.02292222 -0.019424409
0.019955356 -0.018142574 -0.15455687 -0.013842642 0.08566507 0.121846065 0.10890297 -0.026611151
-0.030883979 -0.08251018 0.027791131 -0.0069739507 0.005971748 -0.13954946 0.111846894 -0.07013736
-0.07285543 0.2727332 -0.11771352 0.08606839 -0.027328575 -0.06934582 0.10816589 -0.044376414
0.021682844 0.07424712 -0.15318729 -0.042110436 -0.0040869415 -0.23759389 -0.022431267 0.041237615
0.03621391 -0.09137723 0.17187972 -0.0027631933 -0.007993594 -0.036617275 0.104797736 0.15579437
0.077900305 0.090146 0.06314316 0.056468196 0.04825459 -0.018412665 0.008262213 -0.11925593
-0.14621535 -0.111143835 -0.07562794 -0.01672784 -0.11461256 0.078307875 0.06894874 -0.017577022
-0.13794938 0.11066949 -0.119446695 -0.15480028 -0.13312401 0.08891842 -0.051282283 -0.042456344
0.11788056 0.0020695005 -0.012688227 0.032124422 -0.015037132 -0.012990822 0.09962324 0.021662463
0.060029607 -0.049571153 -0.07850344 -0.027265597 0.014829822 -0.05158712 0.041046385 -0.018037496
0.028625162 -0.08836927 0.018352466 0.06951986 0.12300057 -0.09860871 0.027556993 -0.061703417
0.10043022 -0.0049219746 -0.10677539 0.0022715975 0.056621045 -0.08228044 0.105284214 0.027546303
0.045950845 -0.012563649 -0.06759276 0.08468456 -0.0023377745 0.049119007 0.020900948 0.176181
0.03527188 -0.18594672 0.02643395 -0.015178364 -0.028304357 0.11621422 -0.06472435 -0.009042211
-0.13518167 0.07136328 -0.035237573 0.116735905 -0.080970325 -0.028508512 0.105150506 0.0803318
-0.11070416 0.015958909 0.08719638 0.044637494 0.29512733 0.06671154 0.12230576 -0.017281894
0.07755438 -0.005171096 0.053186703 -0.01900969 -0.13974716 0.033926137 0.003090355 -0.1481862
0.026148086 0.046724595 -0.11437559 -0.05428979 -0.17126517 -0.11026044 0.011231881 0.08283989
0.06975385 0.14263982 0.041538224 0.077210724 0.022275917 -0.13315594 -0.081517905 0.048929114
00000000: 9f00 bebc e6b8 8ebd 88c2 10be 2900 7e3d
00000010: 9ad1 2dba 5751 c83c 9429 973d aa3a 0a3c
00000020: 4ca4 97b9 39c2 4f3e 6b8c cebd 2aee 6f3d
00000030: ded2 b53d 4ec1 e83c 10ca 4e3e e5dd 35bd
00000040: c390 d3bd e1d7 80bd 226b 07be 9092 e5bd
00000050: fb2b 02be c2f7 d7bd 3b57 73bd 04a0 f03d
00000060: b81d 353c c689 813d dda7 1b3d 9924 54bd
00000070: 7ce0 a6bd 3eb4 d8bd e963 efbd 3241 fb3d
00000080: b362 9fbd 8d8d 67bd d0fb a3bc 191e 813d
00000090: eebc ea3d bd07 993d d328 493d 8b34 133e
000000a0: ae71 763e 8816 8d3d ef90 3f3c 7224 a93d
000000b0: 100b 2f3e fedf ad3d ef58 7fbd 09c9 713d
000000c0: 913c 7d3d 722b b5bd 2b36 463d 5665 ce3a
000000d0: 3122 ea3c c788 0bbe fb87 b3bd 5d68 093d
000000e0: c68d b83c e1cf 21bd d31c f6bd a072 45bc
000000f0: 58b5 e13c 937a 053e 94a3 c83d 10ba babc
00000100: 65a9 8a3e f153 4b3c 1faa b73c cce6 863c
00000110: f81f 9d3d 755d 203e 322b d1bc 7b5c dd3c
00000120: 249e 31bd bb34 a53d c9db 5d3b 9f92 1a3d
00000130: 2973 d23c 800e d8bd bbca bebc af39 813d
00000140: ed31 30bd e0b7 1dbe f21e 4b3b b73f 683b
00000150: 1ed8 ebbd a8b2 30be 01c6 bb3d a119 17bd
00000160: 02a0 143e e6c0 cebd 28f1 0b3d 0f93 83bd
00000170: daf5 5d3d 63f9 813d f5f4 0a3d 7aa1 903d
00000180: 6e32 01be 74df b33d 21f2 c43d d079 ae3d
00000190: cc85 dd3d 1540 dcbd 61c7 bb3c f01f 9fbc
000001a0: 6a79 a33c bc9f 94bc 2844 1ebe 40cc 62bc
000001b0: 2b71 af3d 6e8a f93d 8508 df3d a1ff d9bc
000001c0: 6600 fdbc 19fb a8bd 3aaa e33c bd85 e4bb
000001d0: a7ae c33b 0ee6 0ebe fc0f e53d 2da4 8fbd
000001e0: 3a35 95bd b0a3 8b3e c913 f1bd a044 b03d
000001f0: 2de0 dfbc 2e05 8ebd 1486 dd3d 0bc4 35bd
00000200: 38a0 b13c e00e 983d 21dd 1cbe fe7b 2cbd
00000210: c0eb 85bb d04b 73be c7c1 b7bc c6e8 283d
00000220: 0955 143d fc23 bbbd 3d01 303e b116 35bb
00000230: 90f7 02bc fffb 15bd 32a0 d63d 8f88 1f3e
00000240: 328a 9f3d 779e b83d 3351 813d 324b 673d
00000250: 9ba6 453d 28d6 96bc 3c5e 073c 743c f4bd
00000260: 7ab9 15be 619f e3bd d2e2 9abd d308 89bc
00000270: fdb9 eabd e15f a03d ff34 8d3d b0fd 8fbc
00000280: 9a42 0dbe b0a6 e23d 78a0 f4bd f783 1ebe
00000290: a951 08be dc1a b63d 5f0d 52bd b4e6 2dbd
000002a0: 5d6b f13d 75a0 073b 48e2 4fbc e694 033d
000002b0: 4e5e 76bc 75d7 54bc 4507 cc3d 7a75 b13c
000002c0: 9be1 753d 1f0b 4bbd 69c6 a0bd 1a5c dfbc
000002d0: c8f8 723c 044d 53bd 4120 283d 5fc3 93bc
000002e0: 517f ea3c f3fa b4bd e957 963c 6e60 8e3d
000002f0: b9e7 fb3d 5df3 c9bd 34bf e13c b9bc 7cbd
00000300: 5cae cd3d 8448 a1bb 0ead dabd 15df 143b
00000310: 78eb 673d a682 a8bd 409f d73d c9a8 e13c
00000320: f436 3c3d c3d7 4dbc 136e 8abd 196f ad3d
00000330: 5935 19bb 0331 493d 7738 ab3c cb68 343e
00000340: 3f79 103d d168 3ebe 038c d83c acae 78bc
00000350: 8ade e7bc b901 ee3d 338e 84bd c825 14bc
00000360: 106d 0abe e926 923d 4655 10bd 3c13 ef3d
00000370: c5d3 a5bd af8a e9bc 2659 d73d 0085 a43d
00000380: ddb8 e2bd 42bc 823c 0494 b23d ced5 363d
00000390: ee1a 973e 0fa0 883d 717b fa3d c292 8dbc
000003a0: d5d4 9e3d 4c72 a9bb 4dda 593d 36ba 9bbc
000003b0: e119 0fbe 22f6 0a3d 8e87 4a3b 20be 17be
000003c0: 8334 d63c 4a62 3f3d c03d eabd f95e 5ebd
000003d0: 2360 2fbe 3ad0 e1bd ec05 383c f6a7 a93d
000003e0: 1bdb 8e3d 2c10 123e fc23 2a3d a820 9e3d
000003f0: fc7b b63c 085a 08be dcf2 a6bd e569 483d

network_body._body_endoder.seq_layers.2.bias f4 [128]
0.006040936 0.008444022 -0.016702257 0.0027321132 0.030563155 -0.0011616134 -0.011154494 0.03563865
0.023296557 -0.02983021 -0.0073549077 0.0011252331 -0.008378269 0.011714483 0.00091145764 -0.023052718
0.017901609 0.038398713 -0.0022994757 -0.017651418 0.013269002 0.009119253 -0.012447835 -0.02442672
0.007964592 -0.020993866 -0.004251492 0.015790917 -0.030159017 0.024835259 0.018137842 -0.023481386
-0.0010175977 0.017092012 0.0030417643 -0.0001503878 -0.017170077 -0.009953573 -0.019369693 0.006087257
-0.0032182762 0.008404183 0.014793816 0.020783331 0.01098484 0.00045478897 0.009681855 0.0024370204
0.02504722 -0.0045283143 0.033644266 0.025446648 -0.016015826 0.0016845235 0.011807991 -0.014997698
0.004259537 -0.01245286 0.017165918 -0.0098545365 0.018353697 -0.017481701 0.011775853 0.012103066
-0.008683764 -0.018579088 -0.031198613 -0.025375422 0.010409421 0.010217164 0.011825519 -0.020258237
-0.024481691 0.0024064514 0.0030466435 0.0195044 -0.013270576 0.011197896 0.0065488433 0.032728415
-0.007392623 0.000668436 0.021185601 -0.014595753 0.0122073535 0.039901763 0.023048706 -0.017492631
0.026201343 -0.016813876 -0.010732404 0.0047015143 0.016937226 -0.01589101 0.0030469648 0.0051000146
0.008775514 0.005420315 0.007878753 0.012202468 -0.014370429 -0.019381836 0.03741728 -0.009987453
-0.020240517 0.0056797736 0.016641725 0.008139953 -0.016897753 -0.0016240684 -0.019959675 -0.02244567
0.0057516713 -0.00077117636 0.02174561 -0.0075081526 0.0038991105 0.016130066 -0.021567425 0.010914074
0.03199056 0.00938567 -0.008355991 0.018575044 0.025481073 -0.017731708 0.0058655287 -0.019116353
00000000: 0bf3 c53b cc58 0a3c 2cd3 88bc 410d 333b
00000010: 955f fa3c 4741 98ba 57c1 36bc d5f9 113d
00000020: 6cd8 be3c 7c5e f4bc 7001 f1bb 8f7c 933a
00000030: 0245 09bc 1aee 3f3c e3ee 6e3a 0ed9 bcbc
00000040: 65a6 923c f847 1d3d cdb2 16bb b599 90bc
00000050: 3a66 593c eb68 153c 01f2 4bbc 8b1a c8bc
00000060: ec7d 023c 54fb abbc 1a50 8bbb f45b 813c
00000070: 0b10 f7bc 5073 cb3c d095 943c 095c c0bc
00000080: ea60 85ba 8c04 8c3c 5658 473b 6bb1 1db9
00000090: 43a8 8cbc 5014 23bc 31ad 9ebc 9d77 c73b
000000a0: b7e9 52bb b3b1 093c c361 723c ce41 aa3c
000000b0: c2f9 333c be70 ee39 a5a0 1e3c 6bb6 1f3b
000000c0: d42f cd3c 4162 94bb 92ce 093d 7d75 d03c
000000d0: 9f33 83bc 3bcb dc3a 4e76 413c e8b8 75bc
000000e0: 9693 8b3b 1507 4cbc 8a9f 8c3c ec74 21bc
000000f0: 7e5a 963c c935 8fbc 82ef 403c f04b 463c
00000100: 5946 0ebc 2c33 98bc 3c94 ffbc 1ee0 cfbc
00000110: 478c 2a3c e465 273c d2bf 413c 9af4 a5bc
00000120: d48d c8bc 8eb5 1d3b 32aa 473b b1c7 9f3c
00000130: d46c 59bc 6177 373c ae97 d63b 3b0e 063d
00000140: d13d f2bb fb39 2f3a 6d8d ad3c 0623 6fbc
00000150: 5a01 483c 0870 233d a4d0 bc3c b54c 8fbc
00000160: 33a4 d63c 41bd 89bc f7d6 2fbc 290f 9a3b
00000170: f0bf 8a3c dd2d 82bc 96af 473b 061e a73b
00000180: 2cc7 0f3c e69c b13b e315 013c dcec 473c
00000190: f371 6bbc a8c6 9ebc dd42 193d 6aa2 23bc
000001a0: 71cf a5bc 651d ba3b 3a54 883c 705d 053c
000001b0: 286d 8abc b1de d4ba 7982 a3bc fbdf b7bc
000001c0: 8478 bc3b c528 4aba d923 b23c f306 f6bb
000001d0: 3888 7f3b 3323 843c 2bae b0bc f2d0 323c
000001e0: 8908 033d 5ac6 193c 91e7 08bc b12a 983c
000001f0: afbd d03c 1642 91bc 9f33 c03b e699 9cbc

action_model._continuous_distribution.log_sigma f4 [1, 5]
0.047921807 0.016674167 0.02416357 0.05622817 0.007955009
00000000: a849 443d 4398 883c aef2 c53c 824f 663d
00000010: ba55 023c

action_model._continuous_distribution.mu.weight f4 [5, 128]
-0.009927805 -0.04081033 0.011830934 -0.033285137 0.0047179908 0.022314169 -0.012945445 0.0491704
0.08478471 -0.013982311 -0.04929988 -0.0072117536 -0.0058798157 0.041245706 0.015255314 -0.0043782764
0.02361343 -0.016449235 -0.011673937 0.030349307 0.044108648 -0.04337888 0.029568326 0.002032309
0.0010218136 0.022042872 -0.0475577 -0.015091822 0.010627922 0.05945159 -0.014528649 0.009987714
-0.009767503 0.010595059 0.055874433 -0.02914734 0.013197667 -0.023596348 -0.044587184 -0.0029427984
0.08341143 -0.032647155 0.040929552 0.026780315 -0.036709644 0.02753854 -0.039171062 -0.025197377
-0.01676164 0.0034400765 -0.01288587 0.0103942705 0.021475319 0.06746632 -0.060289744 0.01952936
-0.026772007 -0.026853485 -0.013032645 -0.039210256 0.021401899 0.0011006142 -0.07584712 -0.023600746
0.0076901107 0.015186715 -0.004883366 0.014478069 0.0024485078 0.07655492 -0.028064132 0.018683346
0.020999704 0.0154956905 -0.03137874 -0.036894705 -0.04451904 -0.0818804 -0.016759481 0.044127
0.055922803 0.039504405 -0.0068212943 0.020240542 0.032822352 -0.023641413 0.057193916 -0.005556502
-0.046628196 0.032012958 0.018525684 0.04221582 -0.015684033 0.03084863 0.05096324 -0.027272984
0.026282115 -0.028624868 -0.044431396 -0.0028795782 -0.0022461342 -0.005354756 -0.00800262 0.04632906
-0.034275986 0.025954824 0.009065724 -0.046272747 0.03261417 0.04769928 0.009666519 -0.014734961
-0.012864883 0.04337923 -0.018769745 0.00037086903 0.09984409 -0.013682669 0.020029157 0.021855196
0.0065407725 -0.004289143 0.017401243 0.0019688483 -0.026928345 -0.015444717 -0.0690107 0.024856616
0.010896465 -0.00012630268 0.027543316 -0.0054429546 -0.018279273 -0.0027023768 0.026333358 -0.040620547
-0.002847825 0.03906079 0.022226462 -0.025594868 0.031774662 -0.005867332 0.002605143 0.025646038
0.010547961 -0.035785154 0.011088681 0.048699703 -0.0027363813 -0.018479425 0.02805017 0.00993172
-0.022802185 0.020762466 -0.0030815753 -0.0071457513 0.03952958 0.0082773715 -0.030217605 0.02155027
0.0123644285 -0.008624514 0.058063578 0.03475976 0.067934945 0.010523937 0.04713715 0.0592797
0.02448589 0.013105026 0.009304425 -0.034734778 -0.009467245 -0.0004995808 0.011343097 0.011175094
-0.06793611 0.014582489 -0.047599446 -0.07297665 0.038020648 0.018735766 -0.006501607 0.03521504
-0.013398227 0.035784353 -0.017572073 0.04318533 -0.030460196 0.0070221047 -0.013850419 -0.047425568
0.008249245 0.011324663 0.03274884 0.031523455 -0.012066588 0.030104706 -0.0130932825 0.040479932
0.021384254 -0.014668346 0.014632432 -0.019027365 0.039158966 -0.01792076 -0.017621601 -0.064703934
0.0023854014 0.0033619246 -0.018295363 0.0081247315 -0.017019847 -0.03170767 -0.015961923 0.018707264
-0.05782177 0.047676038 0.043467734 -0.0015438866 -0.018154379 0.010253182 0.0013831358 0.0020520166
0.02526488 -0.02829632 -0.0068344227 0.0015395456 0.016045902 0.03265069 -0.037618704 0.052854754
0.028458558 -0.0061741085 -0.048374653 -0.002067301 0.0029129903 0.016650751 0.0314908 0.026272116
-0.0050057983 0.00046842438 -0.06821502 -0.00061802287 0.061627965 -0.016229723 0.029626051 -0.016061634
-0.030257864 -0.00061831245 0.011574739 -0.01415598 -0.03694367 0.042667564 -0.0021582963 0.014039901
00000000: 3ba8 22bc bc28 27bd 89d6 413c ff55 08bd
00000010: 6099 9a3b 34cc b63c 2219 54bc e766 493d
00000020: 9ba3 ad3d 1016 65bc acee 49bd 9350 ecbb
00000030: 78ab c0bb 42f1 283d 6df1 793c a577 8fbb
00000040: f470 c13c 8cc0 86bc 0a44 3fbc 1c9f f83c
00000050: 45ab 343d 0dae 31bd 4639 f23c 7d30 053b
00000060: 60ee 853a 4193 b43c ddcb 42bd b043 77bc
00000070: bc20 2e3c 8383 733d 9209 6ebc 82a3 233c
00000080: e007 20bc e696 2d3c 97dc 643d 67c6 eebc
00000090: 073b 583c 214d c1bc 0da1 36bd f7db 40bb
000000a0: 9dd3 aa3d 06b9 05bd bfa5 273d 6462 db3c
000000b0: da5c 16bd 8198 e13c d671 20bd bb6a cebc
000000c0: b54f 89bc e872 613b 421f 53bc bb4c 2a3c
000000d0: 02ed af3c c82b 8a3d 61f2 76bd 09fc 9f3c
000000e0: f850 dbbc d7fb dbbc e086 55bc ef9a 20bd
000000f0: 0953 af3c 7c42 903a bc55 9bbd 5a56 c1bc
00000100: 53fd fb3b b3d1 783c a504 a0bb 6c35 6d3c
00000110: 2577 203b d3c8 9c3d c0e6 e5bc d10d 993c
00000120: 9207 ac3c a3e1 7d3c fe86 00bd e71e 17bd
00000130: 9959 36bd e9b0 a7bd 2e4b 89bc 83be 343d
00000140: 4f0f 653d 5fcf 213d 2a85 dfbb 7ecf a53c
00000150: bb70 063d a3ab c1bc 2b44 6a3d 5113 b6bb
00000160: 35fd 3ebd 0520 033d 2dc3 973c 7fea 2c3d
00000170: cd7b 80bc 44b6 fc3c d5be 503d 986b dfbc
00000180: 974d d73c b37e eabc b2fd 35bd 4eb7 3cbb
00000190: e133 13bb f376 afbb 6c1d 03bc 8ac3 3d3d
000001a0: fa64 0cbd 369f d43c 6788 143c 7e88 3dbd
000001b0: 7096 053d 5260 433d 5260 1e3c e86a 71bc
000001c0: 3bc7 52bc 6bae 313d 02c3 99bc 3371 c239
000001d0: 0f7b cc3d 462d 60bc 3014 a43c ab09 b33c
000001e0: fa53 d63b f08b 8cbb 0d8d 8e3c cb07 013b
000001f0: d598 dcbc d70b 7dbc 7b55 8dbd 1aa0 cb3c
00000200: 1687 323c 1e70 04b9 85a2 e13c d05a b2bb
00000210: 6abe 95bc 5c1a 31bb 0eb9 d73c bb61 26bd
00000220: 93a2 3abb 35fe 1f3d 4514 b63c 54ac d1bc
00000230: 2626 023d c042 c0bb 0cbb 2a3b a417 d23c
00000240: 5bd1 2c3c 7493 12bd 4dad 353c 5779 473d
00000250: dc54 33bb 2a62 97bc 78c9 e53c a7b8 223c
00000260: a6cb babc 0c16 aa3c 41f4 49bb e826 eabb
00000270: c5e9 213d d09d 073c e98a f7bc 318a b03c
00000280: 2c94 4a3c d54d 0dbc 13d4 6d3d 4060 0e3d
00000290: 7a21 8b3d 976c 2c3c e212 413d 45cf 723d
000002a0: a296 c83c 77b6 563c 9671 183c 0e46 0ebd
000002b0: 811c 1bbc 4df6 02ba 66d8 393c be17 373c
000002c0: 1622 8bbd 64eb 6e3c a3f7 42bd c874 95bd
000002d0: 8abb 1b3d c07b 993c 6f0b d5bb a53d 103d
000002e0: 3d84 5bbc 9d92 123d 4ff3 8fbc 1ae3 303d
000002f0: a987 f9bc af19 e63b deec 62bc 5041 42bd
00000300: d727 073c 148b 393c a623 063d bd1e 013d
00000310: f0b2 45bc 259e f63c 3585 56bc 49ce 253d
00000320: 082e af3c 8153 70bc debc 6f3c 47df 9bbc
00000330: 2765 203d 8fce 92bc 2d5b 90bc 7f83 84bd
00000340: 6554 1c3b bc53 5c3b 28e0 95bc 981d 053c
00000350: 356d 8bbc e7df 01bd 94c2 82bc fa3f 993c
00000360: 85d6 6cbd f347 433d 390b 323d 3d5c caba
00000370: 7eb8 94bc f6fc 273c 564a b53a 207b 063b
00000380: 4bf8 ce3c afcd e7bc 4bf3 dfbb 94ca c93a
00000390: b272 833c bbbc 053d 1216 1abd 3a7e 583d
000003a0: ec21 e93c 2d50 cabb 8024 46bd 8e7b 07bb
000003b0: dee7 3e3b 2867 883c 7ffc 003d 9f38 d73c
000003c0: ae07 a4bb db96 f539 51b4 8bbd d002 22ba
000003d0: 9b6d 7c3d 32f4 84bc 55b2 f23c b093 83bc
000003e0: 57df f7bc 3f16 22ba f9a3 3d3c 7cee 67bc
000003f0: 3f52 17bd 2fc4 2e3d 3472 0dbb 9d07 663c

action_model._continuous_distribution.mu.bias f4 [5]
0.0015219777 -0.023765713 -0.0031432325 -0.017112171 -0.025275093
00000000: 197d c73a 50b0 c2bc b1fe 4dbb d32e 8cbc
00000010: b60d cfbc
