config/results/AgrConserv_Refactored_2M_Pre-Final_v3/Hummingbird_Conservative/checkpoint.pt (torch, 573045 bytes, 36 tensors)

network_body._body_endoder.seq_layers.0.weight f4 [128, 47]
-0.13553227 -0.07292119 -0.14297916 0.057512805 0.14766735 0.13655412 0.043969586 -0.08170495
-0.08240673 0.13421829 -0.03968419 -0.37308922 0.1057463 -0.074198626 -0.16029285 0.03324335
0.018082945 -0.008510992 -0.09396616 -0.019824097 -0.113889016 -0.09640048 0.21028209 -0.14832178
-0.05944508 0.09576136 0.10003583 0.21251172 -0.023573406 0.06896741 0.053012088 0.020326953
0.00895755 -0.102455676 -0.15038441 0.1460882 0.23434246 -0.09489549 0.094210684 0.15756372
-0.29507926 -0.1266422 0.03269854 0.18659593 -0.17168024 0.3023702 0.14359097 0.25141928
-0.1995557 0.045772817 0.3148386 -0.06805156 -0.15690458 -0.27732664 0.035370722 0.13205037
-0.12140491 0.0511443 -0.049144268 0.15662926 0.07255236 0.057604484 -0.012068301 0.16489236
0.045791596 0.008260497 -0.15091352 -0.054046884 0.14434922 0.124454275 0.20089714 -0.015351843
0.17813192 -0.022251843 0.060018394 -0.06419942 0.09112119 -0.12148633 0.006655031 -0.031952977
0.28263587 -0.05542309 0.10110447 -0.2464808 -0.05252703 -0.18914774 0.08092766 -0.18930778
0.117894456 -0.09103004 -0.026795158 0.086791575 0.26980007 0.021270989 -0.14597178 0.026938448
0.103616275 0.08212928 -0.10421828 0.042189796 -0.2804792 0.14346029 -0.056062005 0.09457774
0.20960772 0.15267876 0.19479868 -0.094060145 -0.27516967 0.042655107 0.06115569 0.061493464
-0.09690678 0.26418096 0.1529044 0.13021861 0.3040356 0.09674525 -0.057348885 -0.2173745
0.113674104 0.010211721 -0.21098095 0.2541871 0.0005644219 -0.018181175 -0.19774564 0.22968939
-0.10689362 0.3545611 0.042857863 -0.019912152 0.09352418 -0.1072002 -0.07290054 -0.010431717
-0.04286451 -0.12307048 0.10393371 0.21068166 -0.005915308 -0.07870081 0.04146193 -0.30313972
-0.119898915 0.1241909 0.020441199 -0.021885557 -0.06341099 0.3565861 -0.000112961265 0.19780706
0.25433627 0.05813982 -0.10502311 -0.08894191 -0.098885655 -0.20608023 -0.059490193 -0.043575678
-0.024987934 -0.30343145 0.061035763 -0.11766004 0.059856474 0.041500878 0.13464631 0.25056097
-0.1459351 0.03880707 0.006103354 0.0103933 -0.25545937 0.057629053 -0.0716595 -0.061402973
-0.30106226 0.17370914 0.3487825 -0.18103167 -0.042951383 0.0805927 0.08410012 0.2277477
0.08737241 -0.21457967 -0.0073185917 -0.30053106 -0.0876701 0.34583974 -0.22663182 0.09907436
0.111412905 0.109268054 -0.028130382 0.12466749 -0.081528164 0.03363131 0.14464583 -0.04037674
-0.18287097 0.09557487 0.2188893 -0.08188463 0.10276821 0.021947771 -0.28617004 -0.03482128
-0.0057103885 0.026805524 -0.014500261 -0.07274933 -0.048390105 0.020672817 0.022810197 0.21906163
0.01499804 0.036971603 0.021643188 -0.051999975 -0.2260981 -0.15488957 -0.14229803 0.21784085
0.0047139265 0.11195062 0.3403273 -0.18650162 0.15708998 0.12518865 -0.13872394 0.07321646
-0.087705866 0.03092612 -0.059539054 0.11120275 -0.20108017 -0.17416061 -0.00029923115 0.18070705
0.17327262 -0.1576428 0.20261987 0.24246071 0.08256353 -0.4241675 0.051221624 0.20708647
0.13220716 -0.11871518 -0.22222978 -0.0987448 0.13486798 0.012228378 0.018341979 0.21044755
00000000: f9c8 0abe b457 95bd 2169 12be 8c92 6b3d
00000010: 1c36 173e d8d4 0b3e 7419 343d ed54 a7bd
00000020: dcc4 a8bd 8570 093e e48b 22bd 8d05 bfbe
00000030: 8491 d83d 73f5 97bd cf23 24be 2e2a 083d
00000040: af22 943c b071 0bbc 5571 c0bd 2566 a2bc
00000050: a53e e9bd 9d6d c5bd 3054 573e aae1 17be
00000060: af7c 73bd 881e c43d 96df cc3d ac9c 593e
00000070: 041d c1bc c93e 8d3d 3423 593d b684 a63c
00000080: b0c2 123c 48d4 d1bd 5ffe 19be 2598 153e
00000090: 78f7 6f3e 9158 c2bd 88f1 c03d 6258 213e
000000a0: a114 97be 7eae 01be e7ee 053d 0113 3f3e
000000b0: f2cc 2fbe 44d0 9a3e 8309 133e 07ba 803e
000000c0: 5458 4cbe 477c 3b3d 8632 a13e 9e5e 8bbd
000000d0: 98ab 20be c2fd 8dbe e4e0 103d 3638 073e
000000e0: 23a3 f8bd af7c 513d 804b 49bd 6c63 203e
000000f0: 5596 943d aef2 6b3d 20ba 45bc 8bd9 283e
00000100: f88f 3b3d 0957 073c 1389 1abe 4460 5dbd
00000110: 48d0 133e e2e1 fe3d fbb7 4d3e 4c86 7bbc
00000120: 3768 363e 7f49 b6bc d9d5 753d fc7a 83bd
00000130: bf9d ba3d d3cd f8bd 7212 da3b 20e1 02bd
00000140: a6b5 903e 5203 63bd dc0f cf3d 7665 7cbe
00000150: 9526 57bd f2af 41be 67bd a53d e6d9 41be
00000160: a672 f13d f56d babd 8581 dbbc c8bf b13d
00000170: 3c23 8a3e 7f40 ae3c a079 15be 05ae dc3c
00000180: c534 d43d 6533 a83d 6570 d5bd 35cf 2c3d
00000190: f89a 8fbe 41e7 123e 46a1 65bd f9b1 c13d
000001a0: 68a3 563e d257 1c3e 4e79 473e 9ba2 c0bd
000001b0: 0ae3 8cbe 1fb7 2e3d 647e 7a3d 92e0 7b3d
000001c0: 1077 c6bd ba42 873e f992 1c3e 0758 053e
000001d0: 8eaa 9b3e 6022 c63d aae6 6abd 6c97 5ebe
000001e0: f8cd e83d 104f 273c 640b 58be d024 823e
000001f0: b6f5 133a b0f0 94bc d57d 4abe b233 6b3e
00000200: 0beb dabd 0889 b53e ba8b 2f3d cf1e a3bc
00000210: 9b89 bf3d c78b dbbd e14c 95bd cbe9 2abc
00000220: b292 2fbd 600c fcbd 32db d43d efbc 573e
00000230: 33d5 c1bb e42d a1bd fcd3 293d 2135 9bbe
00000240: 908d f5bd cc57 fe3d 4d74 a73c 5749 b3bc
00000250: 9fdd 81bd 7492 b63e 9ee5 ecb8 ef8d 4a3e
00000260: 5d38 823e 0524 6e3d 5b16 d7bd 2d27 b6bd
00000270: 9084 cabd b206 53be fdab 73bd 697c 32bd
00000280: 7fb3 ccbc 5e5b 9bbe a300 7a3d bff7 f0bd
00000290: 102c 753d d3fc 293d b9e0 093e 8749 803e
000002a0: 0370 15be 2af4 1e3d a5fe c73b a948 2a3c
000002b0: 92cb 82be 710c 6c3d 37c2 92bd af81 7bbd
000002c0: d524 9abe cfe0 313e 9f93 b23e 5e60 39be
000002d0: caed 2fbd c90d a53d af3c ac3d b136 693e
000002e0: 4ef0 b23d c6ba 5bbe ccd0 efbb 35df 99be
000002f0: 628c b3bd e811 b13e 2c12 68be 80e7 ca3d
00000300: 732c e43d eec7 df3d b071 e6bc ab51 ff3d
00000310: 3df8 a6bd fcc0 093d 091e 143e 1562 25bd
00000320: 8742 3bbe c2bc c33d 8424 603e 21b3 a7bd
00000330: 2478 d23d d0cb b33c e184 92be c2a0 0ebd
00000340: 361e bbbb 4297 db3c 8192 6dbc 9afd 94bd
00000350: b434 46bd 0a5a a93c 73dc ba3c b151 603e
00000360: 57ba 753c 896f 173d 0e4d b13c edfd 54bd
00000370: 4386 67be 5f9b 1ebe 93b6 11be ac11 5f3e
00000380: 4877 9a3b 5e46 e53d 613f ae3e 48fa 3ebe
00000390: 32dc 203e 7431 003e a60d 0ebe 83f2 953d
000003a0: 229f b3bd c658 fd3c 39df 73bd 44be e33d
000003b0: f6e7 4dbe 2957 32be 20e2 9cb9 450b 393e
000003c0: 616e 313e 1d6d 21be 957b 4f3e 9f47 783e
000003d0: 1117 a93d 7c2c d9be c4cd 513d 7a0e 543e
000003e0: 5061 073e f220 f3bd 3490 63be b73a cabd
000003f0: d51a 0a3e 8959 483c eb41 963c 907f 573e

network_body._body_endoder.seq_layers.0.bias f4 [128]
0.03310219 0.02640238 -0.020055229 -0.027108863 0.023424 0.022329371 0.02251857 -0.0037440031
0.014570031 0.023807572 0.026980102 -0.014189931 -0.03155565 -0.0047577308 0.02369183 0.030981703
0.001534885 0.017400308 0.014661718 0.008199242 -0.003748149 -0.0060894517 0.043658916 0.040456828
-0.0015447371 0.013677277 0.020470928 0.014474608 0.011747729 -0.022419311 -0.018635089 0.019517092
-0.011854308 0.004190647 0.005614533 0.020592248 0.0048604026 -0.017400613 0.0064925426 -0.010813524
0.02336936 0.051842757 0.025697365 0.0025471328 0.009644398 0.0027688688 0.02404293 -0.0074132984
0.008785324 0.0019177774 0.018191222 0.018721832 -0.008803386 -0.0052868235 0.032613814 -0.00067353714
-0.006100288 0.05038986 0.02648665 0.025590274 -0.0047387993 0.00047109454 0.017633121 0.01035487
-0.009748962 -0.00059791486 -0.03686893 -0.025022238 -0.0011393946 -0.01640044 0.0002425125 0.02250963
0.013042742 -0.03877283 -0.016969074 -0.032254938 0.015801135 0.015200296 0.026333835 0.00036054396
0.009667626 -0.010555606 0.029332373 0.03147094 -0.018722871 0.02615992 -0.0033407058 0.021895664
0.03595842 0.038030934 -0.0028506361 -0.006797393 0.0035492668 0.020932497 0.027574072 0.03381434
0.01512596 0.013849927 0.0033276326 0.030858407 0.0024420156 0.004931921 -0.023672337 0.005261148
0.020434685 0.011616503 -8.98112e-05 0.0033600982 0.0006625579 -0.009638423 -0.013519739 0.02223851
0.0012433737 0.04965022 0.039402466 0.0012466636 0.01724718 0.02518534 0.027142951 0.018516447
0.018042985 0.010373686 0.015089094 -0.009897408 0.021233387 0.03066513 0.026459215 0.050301947
00000000: 2996 073d ce49 d83c dd4a a4bc 6813 debc
00000010: b0e3 bf3c 16ec b63c dd78 b83c f35d 75bb
00000020: 24b7 6e3c 1908 c33c 6005 dd3c e27c 68bc
00000030: 7f40 01bd bde6 9bbb 5e15 c23c 57cd fd3c
00000040: 322e c93a 178b 8e3c b437 703c 1d56 063c
00000050: 81a3 75bb 068a c7bb b1d3 323d 0fb6 253d
00000060: c778 caba a816 603c a6b2 a73c e826 6d3c
00000070: 8c79 403c b4a8 b7bc 9da8 98bc 4fe2 9f3c
00000080: 9238 42bc b251 893b 1efa b73b 13b1 a83c
00000090: 0344 9f3b bb8b 8ebc 65bf d43b 352b 31bc
000000a0: 1a71 bf3c 1259 543d 4883 d23c cced 263b
000000b0: 8903 1e3c e975 353b aef5 c43c 41eb f2bb
000000c0: 52f0 0f3c ee5d fb3a c205 953c 875e 993c
000000d0: 143c 10bc 173d adbb 1096 053d 5090 30ba
000000e0: ede4 c7bb 9965 4e3d 88fa d83c b2a2 d13c
000000f0: ee47 9bbb 3dfd f639 5673 903c 79a7 293c
00000100: 1cba 1fbc 63bd 1cba e003 17bd 70fb ccbc
00000110: bd57 95ba 375a 86bc f44a 7e39 1e66 b83c
00000120: 3ab1 553c 42d0 1ebd ba02 8bbc c11d 04bd
00000130: 6271 813c aa0a 793c 0eba d73c 6407 bd39
00000140: f664 1e3c 6cf1 2cbc 724a f03c ace7 003d
00000150: b560 99bc 544d d63c beef 5abb 895e b33c
00000160: 2349 133d 53c6 1b3d bdd1 3abb aabc debb
00000170: d19a 683b a17a ab3c 05e3 e13c e880 0a3d
00000180: e0d2 773c ceea 623c 6914 5a3b c5ca fc3c
00000190: 390a 203b f49b a13b 7dec c1bc b565 ac3b
000001a0: a466 a73c 2553 3e3c 0559 bcb8 1835 5c3b
000001b0: 82af 2d3a 7aea 1dbc e581 5dbc 892d b63c
000001c0: b3f8 a23a 075e 4b3d 7b64 213d 1767 a33a
000001d0: f549 8d3c 7c51 ce3c e55a de3c ceaf 973c
000001e0: e2ce 933c 65f6 293c 3f38 773c bd28 22bc
000001f0: a4f1 ad3c 7035 fb3c ffc0 d83c 6a09 4e3d

network_body._body_endoder.seq_layers.2.weight f4 [128, 128]
-0.010523042 0.020912321 -0.0473575 0.021024771 0.05387075 -0.00025374902 0.0005846042 0.032097045
0.051257197 -0.15696251 -0.06862014 -0.16226679 -0.0982356 -0.013856062 0.049096256 -0.06130258
0.055603713 0.06420244 -0.054668475 0.06577645 0.015071459 -0.13077675 0.14666376 0.015005139
0.08529336 -0.0016452795 -0.038046632 0.024743645 0.0288756 -0.018708635 0.049908143 -0.037052523
-0.075327374 -0.009937042 0.039733645 -0.04676884 -0.0033917995 0.113170795 0.026364839 -0.10031019
-0.060110927 0.05295488 0.04063449 -0.021497235 0.0023925502 0.06969052 0.057111934 -0.11528054
-0.06441566 0.16144818 0.064113095 0.058778316 0.1324664 -0.04766386 0.13214612 0.10815367
-0.0028869722 0.17921379 0.095624134 -0.11806841 -0.094449945 -0.06955867 -0.013515069 -0.12378269
0.009784058 -0.039656032 -0.009756088 -0.109842636 0.027935684 0.0015886668 0.08650074 0.060056776
0.06458664 -0.009239638 0.11736968 -0.038918708 0.112429306 0.09116977 0.04020373 -0.1780459
0.10898398 -0.10177802 -0.059502017 0.0011593017 0.124725536 0.08663241 -0.010404949 -0.0014815534
0.027662154 0.026575286 0.039665826 0.098939046 -0.0945282 0.07139384 -0.022218408 0.02697147
-0.072816886 0.054740377 -0.14969222 0.043800127 0.08250807 -0.16120562 0.0035905887 -0.17978792
-0.1259098 0.15373087 -0.1386931 0.06851793 0.060631216 -0.04204814 0.05059442 0.17502086
0.0036933364 0.1412692 -0.10934289 -0.1912188 -0.008537991 -0.051093534 0.02201692 0.057149574
0.10412087 0.0753185 -0.118137926 -0.0340598 0.011974486 -0.03240764 0.19078186 -0.038285892
0.06550338 0.009566476 -0.05610435 -0.13806647 0.10757542 -0.010346674 0.12170629 -0.030894864
0.0075422204 0.15126902 -0.1617664 -0.10049 0.1195533 -0.1301617 -0.053348582 0.07620582
-0.050819576 0.024260579 -0.035265032 0.027045855 0.05578644 0.054133736 -0.06559186 0.1598804
-0.08837854 -0.012412579 0.11853065 0.056235213 -0.010295223 0.10004842 -0.027062584 -0.14704672
-0.10285258 -0.08575627 -0.019585226 -0.06592368 0.08515967 -0.1268749 0.16227774 -0.077614196
0.09624835 -0.07268528 -0.018001806 -0.12763284 0.16923396 -0.059018 0.0046754815 0.07406679
0.09407671 0.10232029 0.010657495 0.082350455 -0.024322176 0.065157086 0.016239896 0.0959581
-0.17690597 0.06010649 0.025703209 0.0832355 -0.015311397 -0.1309021 0.080636896 0.0022034934
-0.10827231 -0.18136477 0.118117705 0.00826606 0.1696961 -0.01277523 0.054003324 -0.025513208
0.113492474 -0.04418281 0.06507438 0.050786078 0.014207948 -0.02712937 -0.10104548 -0.1566967
0.017754145 0.042310283 -0.010387749 0.15920569 0.070115365 -0.02478383 -0.1807408 0.15915592
-0.06464742 -0.13867548 -0.010422893 -0.074240975 0.000376374 0.21874475 0.051442247 0.12326005
-0.20832942 0.06021157 0.13136724 0.068838775 -0.06568895 -0.0324234 0.042514414 -0.017581293
-0.11742968 -0.024865534 -0.10371097 -0.028334536 -0.15667129 -0.06994678 -0.08354923 0.048798215
-0.10594525 0.024321824 -0.16664429 0.1308339 0.08653553 0.05247804 0.096206136 0.022113226
-0.011474382 0.034036085 0.054430988 0.005918956 0.041194048 0.13909791 0.04114945 0.0132452985
00000000: d668 2cbc 5150 ab3c f0f9 41bd 243c ac3c
00000010: 93a7 5c3d 9e09 85b9 2040 193a 3178 033d
00000020: 11f3 513d c8ba 20be b788 8cbd 4429 26be
00000030: bf2f c9bd 8904 63bc 2819 493d 6a18 7bbd
00000040: b8c0 633d 927c 833d 0dec 5fbd ceb5 863d
00000050: 48ee 763c 57ea 05be 062f 163e 1dd8 753c
00000060: 49ae ae3d 6ba6 d7ba c9d6 1bbd 2fb3 ca3c
00000070: 868c ec3c da42 99bc 7b6c 4c3d 63c4 17bd
00000080: 3d45 9abd face 22bc bfbf 223d af90 3fbd
00000090: f448 5ebb 17c6 e73d 13fb d73c 6e6f cdbd
000000a0: e036 76bd 37e7 583d 5a70 263d f81a b0bc
000000b0: 55cc 1c3b e7b9 8e3d 34ee 693d 3418 ecbd
000000c0: 5cec 83bd ac52 253e ba4d 833d 88c1 703d
000000d0: 46a5 073e 2e3b 43bd 5051 073e ac7f dd3d
000000e0: 5b33 3dbb d283 373e 96d6 c33d dacd f1bd
000000f0: f96e c1bd c774 8ebd 4f6e 5dbc c781 fdbd
00000100: 504d 203c 5d6e 22bd 00d8 1fbc 2df5 e0bd
00000110: 60d9 e43c d03a d03a 4d27 b13d 18fe 753d
00000120: 0046 843d da61 17bc 845f f03d 3969 1fbd
00000130: 5641 e63d 37b7 ba3d abac 243d aa51 36be
00000140: fe32 df3d ff70 d0bd 63b8 73bd b6f3 973a
00000150: 1a70 ff3d 556c b13d 8579 2abc af30 c2ba
00000160: be9b e23c 6ab4 d93c a278 223d 8ea0 ca3d
00000170: 0098 c1bd ef36 923d 6103 b6bc 46f3 dc3c
00000180: 0521 95bd 7237 603d eb48 19be c367 333d
00000190: fef9 a83d 1613 25be 1550 6b3b 531a 38be
000001a0: 80ee 00be a06b 1d3e 9005 0ebe 2153 8c3d
000001b0: 7058 783d ac3a 2cbd 183c 4f3d ab38 333e
000001c0: e70b 723b e0a8 103e 2aef dfbd dcce 43be
000001d0: eee2 0bbc 7447 51bd d45c b43c ac15 6a3d
000001e0: 533d d53d 9640 9a3d 4cf2 f1bd 4a82 0bbd
000001f0: a230 443c e0bd 04bd 525c 433e abd1 1cbd
00000200: a326 863d b5bc 1c3c adcd 65bd 4c61 0dbe
00000210: 8050 dc3d 1985 29bc 2641 f93d 3a17 fdbc
00000220: bb24 f73b 44e6 1a3e 17a6 25be b3cd cdbd
00000230: 5cd8 f43d 1c49 05be 0b84 5abd cc11 9c3d
00000240: 3028 50bd 1fbe c63c 1172 10bd 458f dd3c
00000250: 5280 643d 56bb 5d3d 0655 86bd b0b7 233e
00000260: cfff b4bd 215e 4bbc 33c0 f23d e556 663d
00000270: 4cad 28bc 30e6 cc3d 5ab2 ddbc 6a93 16be
00000280: 60a4 d2bd fca0 afbd 3271 a0bc ff02 87bd
00000290: 3168 ae3d 7eeb 01be 232c 263e 31f4 9ebd
000002a0: db1d c53d 05dc 94bd 8678 93bc 2fb2 02be
000002b0: ab4b 2d3e dcbc 71bd c834 993b 54b0 973d
000002c0: 4aab c03d 4d8d d13d c69c 2e3c 5ba7 a83d
000002d0: 4d3f c7bc 1471 853d 8809 853c ae85 c43d
000002e0: d726 35be 3932 763d 898f d23c 6077 aa3d
000002f0: a7dc 7abc 330b 06be f524 a53d 7c68 103b
00000300: dfbd ddbd b0b7 39be b2e7 f13d 5e6e 073c
00000310: d0c4 2d3e 334f 51bc 9732 5d3d 1301 d1bc
00000320: be6e e83d 09f9 34bd b745 853d 1005 503d
00000330: 74c8 683c 6a3e debc eff0 cebd 1a75 20be
00000340: 2471 913c 8c4d 2d3d 6131 2abc d106 233e
00000350: a598 8f3d 7507 cbbc 1e14 39be c5f9 223e
00000360: de65 84bd f200 0ebe c8c4 2abc a70b 98bd
00000370: 1054 c539 a0fe 5f3e 1bb5 523d c46f fc3d
00000380: 4f54 55be 68a0 763d 2285 063e 58fb 8c3d
00000390: ee87 86bd 66ce 04bd 9823 2e3d a506 90bc
000003a0: f97e f0bd ceb2 cbbc 6b66 d4bd d41d e8bc
000003b0: 706e 20be 4240 8fbd dc1b abbd a3e0 473d
000003c0: d3f9 d8bd 903e c73c cda4 2abe 52f9 053e
000003d0: 8a39 b13d 37f3 563d b907 c53d cc26 b53c
000003e0: 0cff 3bbc 6c69 0b3d 07f3 5e3d cdf3 c13b
000003f0: 17bb 283d af6f 0e3e 538c 283d cf02 593c

network_body._body_endoder.seq_layers.2.bias f4 [128]
0.029956417 0.033193197 0.019761022 0.021987189 -0.018555455 0.010938977 0.0060922373 -0.022026686
-0.022335537 2.0085845e-05 -0.008297086 0.024208317 -0.0037388443 -0.0067164996 0.013625656 -0.009922689
0.010086245 0.012519823 -0.006305728 -0.00702222 0.012553559 -0.022273554 -0.0004917417 0.029811323
-0.009177934 0.019563844 0.011893513 -0.033220142 0.035176795 0.016405491 -0.0015860558 -0.016774204
0.0009563882 0.006976418 -0.0074438998 -0.011205592 -0.0056958157 -0.0035314744 0.021705678 0.022433953
-0.00030996712 0.030598884 0.008946703 -0.0070828777 0.019702181 -0.0079846205 0.03257914 0.017357124
0.031096231 0.0046744416 0.025042098 -0.013018927 0.0047692955 0.0089221895 0.0088149365 -0.0019303652
-0.011301797 -0.015563975 0.007523885 -0.011369831 0.008365418 -0.005743738 -7.425011e-05 0.011088094
-0.02239499 0.029164871 0.01608391 0.02853677 -0.004324803 0.03682427 0.011237845 0.01988492
-0.01709935 0.008341433 0.030500177 0.028614596 0.03537876 0.0050375727 0.016505137 0.026105843
-0.0061019734 -0.016606055 0.0032802583 -0.020721652 -0.010146106 0.018797766 0.0071967565 -0.02478497
-0.006375834 0.019849068 0.010602889 0.029249158 -0.003552013 0.02700241 0.00843499 0.01692948
0.019532686 0.015234645 0.0357063 0.008488559 -0.010445366 0.0025074882 -0.017897699 0.020358317
0.03397013 -0.014899374 0.009505953 -0.019805579 0.008124358 -0.005715855 -0.008670599 0.015218822
0.031498697 -0.0012727941 0.030066457 0.018942358 0.0051843985 -0.02451911 0.01927168 0.0013517522
0.031648833 0.0026321264 0.014436004 0.013581175 0.02185798 -0.005289746 0.0059840335 -0.022161402
00000000: 2967 f53c 97f5 073d dee1 a13c 7a1e b43c
00000010: 9c01 98bc 6539 333c 64a1 c73b 4f71 b4bc
00000020: 04f9 b6bc 067e a837 80f0 07bc 8550 c63c
00000030: 6607 75bb 1516 dcbb 253e 5f3c c692 22bc
00000040: c740 253c f21f 4d3c 48a0 cebb a71a e6bb
00000050: 71ad 4d3c 0777 b6bc 3ae8 00ba e036 f43c
00000060: 0c5f 16bc 5b44 a03c 02dd 423c d811 08bd
00000070: 8b15 103d cf64 863c 34e3 cfba 0e6a 89bc
00000080: 20b6 7a3a 709a e43b f5eb f3bb a997 37bc
00000090: f7a3 babb 4f70 67bb 1bd0 b13c 69c7 b73c
000000a0: 1583 a2b9 83aa fa3c 3195 123c 7c17 e8bb
000000b0: 7866 a13c edd1 02bc b471 053d 8730 8e3c
000000c0: 86bd fe3c 0f2c 993b 1625 cd3c 564d 55bc
000000d0: c047 9c3b 602e 123c 866c 103c 4f04 fdba
000000e0: 2c2b 39bc 0b00 7fbc ec8a f63b 8748 3abc
000000f0: 1b0f 093c f735 bcbb b9b6 9bb8 d6aa 353c
00000100: b375 b7bc 2beb ee3c 67c2 833c f2c5 e93c
00000110: 14b7 8dbb 0cd5 163d f01e 383c b3e5 a23c
00000120: f013 8cbc 81aa 083c 82db f93c 2869 ea3c
00000130: 52e9 103d 3912 a53b c835 873c ecdb d53c
00000140: 10f3 c7bb 6c09 88bc 9af9 563b 74c0 a9bc
00000150: da3b 26bc c6fd 993c c5d2 eb3b d909 cbbc
00000160: 5fec d0bb 839a a23c bdb7 2d3c ee9b ef3c
00000170: e4c8 68bb 2834 dd3c ea32 0a3c b1af 8a3c
00000180: 0303 a03c bc9a 793c c540 123d 9913 0b3c
00000190: 0a23 2bbc ac54 243b 329e 92bc 7cc6 a63c
000001a0: 4324 0b3d 811c 74bc dbbe 1b3c 4f3f a2bc
000001b0: 071c 053c 114c bbbb 210f 0ebc 5e58 793c
000001c0: c704 013d e2d3 a6ba ee4d f63c 012d 9b3c
000001d0: e3e1 a93b 4ddc c8bc a4df 9d3c 472d b13a
000001e0: 35a2 013d c17f 2c3b fd84 6c3c 9483 5e3c
000001f0: 820f b33c 9b55 adbb b615 c43b d48b b5bc

action_model._continuous_distribution.log_sigma f4 [1, 5]
0.03283631 0.068536706 0.045518562 0.047241393 0.02638554
00000000: 5e7f 063d f95c 8c3d ac71 3a3d 3180 413d
00000010: 7d26 d83c

action_model._continuous_distribution.mu.weight f4 [5, 128]
0.029662639 0.019293847 0.0023177115 -0.028199391 -0.030853366 0.06629255 0.052101377 -0.028793829
0.015619134 -0.041622363 -0.030594617 -0.012313419 0.035384003 0.023682011 0.012515841 -0.010014402
0.04974016 0.051982626 0.0059380317 0.034646694 -0.007326815 0.009249616 0.030176867 -0.025482656
0.028722372 0.051531572 -0.032355715 -0.00072281866 -0.01360676 -0.06696403 0.0486713 -0.025554674
-0.0057178964 -0.008231389 -0.015953476 0.027409563 -0.023332538 0.06880314 -0.046047546 -0.02467125
-0.029671514 -0.012304348 -0.029741917 0.031102262 0.022838954 0.037609912 -0.035112116 -0.0063759205
-0.052174754 0.03266231 0.03433155 0.06759415 0.061409354 -0.0059831194 -0.0080312835 -0.0106225
0.017088976 -0.024387568 -0.03815644 -0.0004225337 -0.030514346 -0.025307985 0.0069811256 -0.054548677
0.028673057 0.026386436 -0.0038149506 -0.02711068 0.034489118 0.019705087 -0.008082713 0.0036966524
-0.014786671 -0.0007169996 -0.0060346723 -0.00021722376 0.037968 0.047379334 -0.008189931 0.040768597
0.0026273099 -0.007562739 -0.011139937 0.026494714 -0.046254124 -0.058529247 -0.0023461466 -0.02971273
-0.029451463 -0.03173949 -0.03414428 0.043435015 -0.02536207 0.05288124 0.0028912122 -0.043978147
0.04426078 -0.08148942 -0.009722842 -0.024258632 -0.0054215305 0.05076914 -0.03348792 -0.00029937632
-0.0013650572 0.0018511785 0.0023628378 0.043212134 0.013431552 0.019099561 -0.0038690234 0.008788963
0.020514064 0.0068464545 -0.0019127902 -0.027019309 0.010232428 0.0058681127 -0.03822069 -0.0009897006
0.06366733 -0.017388625 0.023397837 0.034799274 -0.043130904 0.010873731 -0.021808105 0.012950586
-0.06992695 -0.047711592 -0.038428005 -0.044708334 0.046500593 -0.0053652003 -0.03395809 0.025396885
0.06362844 -0.0066660186 0.05944131 -0.03815326 0.046089537 -0.035686325 0.023437709 0.044502456
0.012683886 -0.030486604 0.024906488 0.03863906 -0.018113188 0.05276291 0.056657292 -0.056211587
0.061094627 -0.027697112 0.018496733 0.035438865 -0.03279039 -0.05803215 0.03015294 0.030215297
0.06282219 0.035502657 0.005345096 0.05391026 0.008977002 -0.011357573 -0.03199858 -0.020644203
-0.03852905 -0.0011158475 -0.0009966841 0.072483 -0.012023199 -0.05478889 -0.04537614 -0.04048168
-0.03925227 -0.0009158503 -0.023997959 0.0010182955 -0.032204714 0.008657733 -0.0228487 -0.004157328
0.015047714 -0.01895741 -0.025373405 0.01643259 0.04654343 -0.0047177877 -0.0032662142 0.01804699
0.039197672 -0.09026914 -0.02697755 -0.020947332 0.009274078 -0.036294427 0.0025792366 -0.025553912
0.0736401 -0.02240928 -0.048711307 -0.040534947 -0.048475534 0.02849748 -0.024231715 -0.018819282
0.044715773 0.028601883 0.02693977 0.038182292 0.027666902 -0.029182622 -0.018483222 0.029902183
0.017439205 -0.034904774 -0.005158658 -0.065174915 0.0028985953 -0.04557938 0.01779731 -0.008131425
-0.054234136 0.012455266 -0.012791028 -0.01927474 0.0009063692 -0.005880162 0.04616259 -0.047802433
-0.060104955 0.018444944 0.07101342 0.025232023 0.040790997 0.017226588 0.0003335665 -0.047846228
-0.023627123 -0.0007372312 -0.05062946 -0.044187564 0.019974519 0.0111036375 0.07778889 0.01337654
-0.057814132 0.056137234 -0.0015371256 0.0034574096 -0.015012052 -0.01012276 -0.015233625 0.015538791
00000000: 10ff f23c 210e 9e3c bfe4 173b 6902 e7bc
00000010: 33c0 fcbc 63c4 873d 4168 553d 09e1 ebbc
00000020: 65e7 7f3c 367c 2abd 90a1 fabc 39be 49bc
00000030: d1ee 103d c700 c23c 3e0f 4d3c 7213 24bc
00000040: 57bc 4b3d bceb 543d d293 c23b b1e9 0d3d
00000050: c715 f0bb b48b 173c 7a35 f73c 01c1 d0bc
00000060: 2e4b eb3c c512 533d 6d87 04bd 8a7b 3dba
00000070: e3ee 5ebc 7024 89bd 8f5b 473d 0958 d1bc
00000080: 315d bbbb f3dc 06bc ddb0 82bc 058a e03c
00000090: e123 bfbc a9e8 8c3d 5a9c 3cbd 5c1b cabc
000000a0: ad11 f3bc 2d98 49bc 52a5 f3bc 2cca fe3c
000000b0: c218 bb3c da0c 1a3d b9d1 0fbd 19ed d0bb
000000c0: 32b5 55bd eac8 053d 3d9f 0c3d cd6e 8a3d
000000d0: 6088 7b3d 0b0e c4bb a595 03bc ff09 2ebc
000000e0: 2efe 8b3c 70c8 c7bc ed49 1cbd 8387 ddb9
000000f0: 39f9 f9bc b152 cfbc edc1 e43b 6f6e 5fbd
00000100: c2e3 ea3c 5e28 d83c 4004 7abb 3717 debc
00000110: 7644 0d3d 906c a13c 5b6d 04bc 8943 723b
00000120: cb43 72bc 07f5 3bba 80be c5bb 8fc6 63b9
00000130: 5584 1b3d d510 423d 0f2f 06bc f9fc 263d
00000140: f22e 2c3b dad0 f7bb 4884 36bc 710b d93c
00000150: f774 3dbd 5dbc 6fbd cfc1 19bb 1c68 f3bc
00000160: 3244 f1bc 4401 02bd dfda 0bbd eae8 313d
00000170: 1ec4 cfbc 009a 583d 7e7a 3d3b 6e22 34bd
00000180: cb4a 353d ede3 a6bd 8e4c 1fbc 0aba c6bc
00000190: 18a7 b1bb 4df3 4f3d a12a 09bd 9cf5 9cb9
000001a0: b8eb b2ba 3ea3 f23a d7d9 1a3b 35ff 303d
000001b0: 0310 5c3c af76 9c3c 718f 7dbb 95ff 0f3c
000001c0: 1c0d a83c 3958 e03b 97b6 faba 9957 ddbc
000001d0: eaa5 273c 4c49 c03b 4c8d 1cbd d7b8 81ba
000001e0: 0464 823d 9772 8ebc d2ac bf3c af89 0e3d
000001f0: 08aa 30bd bc27 323c e9a6 b2bc b22e 543c
00000200: dc35 8fbd 3b6d 43bd af66 1dbd 1620 37bd
00000210: 6877 3e3d 90ce afbb a317 0bbd 210d d03c
00000220: a14f 823d 9e6e dabb bb78 733d 9846 1cbd
00000230: 62c8 3c3d d32b 12bd 7000 c03c 3548 363d
00000240: 13d0 4f3c 0bbf f9bc b108 cc3c fe43 1e3d
00000250: 1c62 94bc ec1d 583d 7a11 683d 1f3e 66bd
00000260: 5c3e 7a3d 0ee5 e2bc 7686 973c 5828 113d
00000270: 374f 06bd 1fb3 6dbd 4c03 f73c 1286 f73c
00000280: eca8 803d 3c6b 113d ea25 af3b 01d1 5c3d
00000290: 4714 133c 1d15 3abc f110 03bd 081e a9bc
000002a0: a3d0 1dbd a141 92ba 2ba3 82ba f871 943d
000002b0: f4fc 44bc 516a 60bd 55dc 39bd 1ed0 25bd
000002c0: fdc6 20bd ac15 70ba 5e97 c4bc 5478 853a
000002d0: 17e9 03bd 2ad9 0d3c 322d bbbc 323a 88bb
000002e0: b08a 763c 924c 9bbc e3db cfbc a49d 863c
000002f0: 53a4 3e3d ac97 9abb fb0d 56bb 48d7 933c
00000300: bd8d 203d 07df b8bd 0600 ddbc bd99 abbc
00000310: 4df2 173c 77a9 14bd 6908 293b 7056 d1bc
00000320: 9fd0 963d ab93 b7bc 8285 47bd f907 26bd
00000330: 488e 46bd 8c73 e93c 9781 c6bc e52a 9abc
00000340: e327 373d 7f4e ea3c cbb0 dc3c 0965 1c3d
00000350: b3a5 e23c 6510 efbc 206a 97bc 6cf5 f43c
00000360: aadc 8e3c 4ff8 0ebd f609 a9bb 6d7a 85bd
00000370: 5cf6 3d3b 72b1 3abd aacb 913c ab39 05bc
00000380: 9d24 5ebd 2c11 4c3c 7691 51bc 0fe6 9dbc
00000390: 6899 6d3a 60ae c0bb fc14 3d3d 7ccc 43bd
000003a0: 9d30 76bd da19 973c 7c6f 913d 63b3 ce3c
000003b0: 7614 273d c61e 8d3c 8ae2 ae39 68fa 43bd
000003c0: ab8d c1bc c042 41ba d660 4fbd 05fe 34bd
000003d0: 9aa1 a33c 08ec 353c c84f 9f3d 4629 5b3c
000003e0: 83ce 6cbd 28f0 653d 6079 c9ba b595 623b
000003f0: 1cf5 75bc efd9 25bc 7496 79bc 6a96 7e3c

action_model._continuous_distribution.mu.bias f4 [5]
0.0015107688 -0.022910913 0.0015831324 -0.010086823 0.025842361
00000000: fd04 c63a abaf bbbc 1c81 cf3a 3443 25bc
00000010: 5cb3 d33c

exp_avg f4 [128, 47]
3.6499634e-05 1.376497e-05 0.0 6.754622e-07 2.170227e-06 4.8234044e-05 0.0 1.5641852e-05
1.1296578e-05 3.896803e-05 0.0 1.6543954e-05 3.14766e-05 1.8788047e-05 0.0 6.172407e-06
2.5496773e-05 2.4767849e-05 0.0 1.0722454e-05 6.493031e-05 -1.4665689e-05 0.0 4.3641663e-07
3.455948e-05 1.5271891e-05 0.0 7.967184e-07 4.3001488e-05 7.2631406e-06 0.0 1.5898722e-05
3.9945415e-05 1.0267832e-05 0.0 3.9642302e-05 9.241652e-06 4.9132086e-05 2.549462e-05 -5.1679426e-06
3.2020362e-06 5.1629133e-05 5.9804916e-06 -4.9793045e-05 -3.2107146e-05 8.904949e-07 1.4433779e-05 6.0308208e-05
4.839349e-06 0.0 9.871231e-07 2.4258522e-06 6.0458966e-05 0.0 2.082031e-05 2.6123927e-05
3.9023664e-05 0.0 3.0524552e-05 8.929693e-05 -2.414907e-05 0.0 -8.355746e-06 5.42275e-05
1.0920067e-05 0.0 3.1753796e-05 0.0001658516 -0.00010070403 0.0 -1.6941925e-05 2.3708306e-05
4.1077532e-05 0.0 3.008067e-05 0.000103826875 -3.8679296e-05 0.0 2.9941928e-05 0.000108943335
-4.389544e-05 0.0 0.00010001545 5.642935e-07 5.2969135e-05 6.6676357e-06 1.888683e-05 4.144812e-05
9.330077e-05 -1.3365344e-05 -0.00016241855 -5.803677e-05 9.506183e-07 1.6468382e-05 6.0228882e-05 -2.545092e-06
0.0 1.2057591e-06 3.583483e-06 5.379666e-05 0.0 1.463842e-05 2.3688722e-06 5.531494e-05
0.0 1.4020359e-05 3.5707144e-06 5.4113116e-05 0.0 1.5262633e-05 7.250003e-06 5.0433802e-05
0.0 1.25365705e-05 4.1076837e-06 5.357614e-05 0.0 2.3883587e-05 2.0777972e-05 3.6440393e-05
0.0 -5.141407e-06 4.623231e-06 5.3060565e-05 0.0 3.4034678e-05 5.7648153e-06 5.1919636e-05
0.0 1.4407943e-05 -1.3518434e-05 3.6627254e-05 2.9831683e-05 1.1082744e-05 2.2433936e-05 3.3436143e-05
2.5114621e-05 -2.3016424e-05 -4.1416657e-05 1.5640175e-06 3.178886e-05 -2.7564332e-05 -3.241519e-06 0.0
-3.4315798e-07 -7.655734e-06 -2.2706616e-05 0.0 -7.6111533e-06 -9.241744e-06 -2.1564098e-05 0.0
-6.3257626e-06 -2.4745163e-05 -6.060772e-06 0.0 -3.0805145e-06 -1.7615255e-05 -1.3190597e-05 0.0
3.260727e-06 -4.424623e-05 1.3440376e-05 0.0 -2.769941e-06 -1.856934e-05 -1.238055e-05 0.0
1.6086218e-05 -1.8378267e-05 -1.2427574e-05 0.0 -2.5388472e-05 -1.2961668e-05 -1.7826009e-05 0.0
-2.5964679e-05 4.3644228e-05 -4.827324e-05 -3.19531e-05 -5.7962658e-05 1.203731e-05 -3.4505978e-05 -2.299415e-06
1.794696e-07 2.2817481e-05 7.98859e-08 -8.690448e-06 4.1295938e-05 -2.4890021e-05 0.0 -7.0156716e-07
3.36004e-06 1.2597605e-05 0.0 3.820091e-06 1.5894511e-06 1.4816491e-05 0.0 -5.4444195e-06
-1.4520418e-05 3.0926447e-05 0.0 1.034789e-05 3.577621e-05 -1.9370247e-05 0.0 -2.7630795e-05
-4.1891555e-05 5.829749e-05 0.0 2.2553726e-05 2.0509402e-05 -3.3443248e-06 0.0 -3.364578e-05
-4.9703824e-05 6.610976e-05 0.0 2.4580404e-05 -4.3856067e-05 6.0308033e-05 0.0 -5.59562e-05
-0.000105187224 1.8822411e-05 2.5533478e-05 0.00011314788 -8.752328e-06 -6.4024307e-06 2.4878495e-05 6.954677e-05
-2.583479e-05 9.663398e-07 4.4406684e-06 0.00012707317 6.0791886e-06 0.0 2.0157674e-06 2.101935e-06
0.00012937852 0.0 4.2298212e-05 2.5854373e-05 0.00010729798 0.0 4.7958307e-05 0.00010376014
2.9392548e-05 0.0 9.6083395e-06 7.738185e-05 5.5770484e-05 0.0 3.4168497e-05 0.00020107409
00000000: 2f17 1938 19f0 6637 0000 0000 6951 3535
00000010: 37a4 1136 e94e 4a38 0000 0000 9f36 8337
00000020: 6f86 3d37 9b71 2338 0000 0000 dfc7 8a37
00000030: be05 0438 069b 9d37 0000 0000 931c cf36
00000040: e7e1 d537 8dc4 cf37 0000 0000 97e4 3337
00000050: 322b 8838 a80c 76b7 0000 0000 a54c ea34
00000060: f6f3 1038 231c 8037 0000 0000 12de 5535
00000070: 7f5c 3438 e7b5 f336 0000 0000 3f5e 8537
00000080: 108b 2738 0144 2c37 0000 0000 9945 2638
00000090: 980c 1b37 2d13 4e38 48dd d537 4a68 adb6
000000a0: 90e2 5636 5c8c 5838 08ac c836 e0d8 50b8
000000b0: c9aa 06b8 580a 6f35 9c28 7237 72f3 7c38
000000c0: b161 a236 0000 0000 4b7d 8435 d3cb 2236
000000d0: 5295 7d38 0000 0000 46a7 ae37 b524 db37
000000e0: 57ad 2338 0000 0000 7d07 0038 ed44 bb38
000000f0: bc93 cab7 0000 0000 a82f 0cb7 5672 6338
00000100: 5535 3737 0000 0000 612f 0538 73e8 2d39
00000110: 1031 d3b8 0000 0000 821e 8eb7 33e1 c637
00000120: aa4a 2c38 0000 0000 bf55 fc37 a1bd d938
00000130: 943b 22b8 0000 0000 cd2b fb37 8278 e438
00000140: 5f1c 38b8 0000 0000 63bf d138 f479 1735
00000150: 2d2b 5e38 8eba df36 296f 9e37 94d8 2d38
00000160: 78aa c338 b73b 60b7 e64e 2ab9 826c 73b8
00000170: fe2d 7f35 9525 8a37 459e 7c38 59cc 2ab6
00000180: 0000 0000 91d5 a135 c57b 7036 b9a3 6138
00000190: 0000 0000 8997 7537 eaf8 1e36 f701 6838
000001a0: 0000 0000 fc38 6b37 68a0 6f36 84f7 6238
000001b0: 0000 0000 4108 8037 0d45 f336 e288 5338
000001c0: 0000 0000 2954 5237 bcd4 8936 f1b6 6038
000001d0: 0000 0000 9d59 c837 5b4c ae37 93d7 1838
000001e0: 0000 0000 5a84 acb6 4021 9b36 598d 5e38
000001f0: 0000 0000 75c0 0e38 636f c136 49c4 5938
00000200: 0000 0000 a5b9 7137 3bcd 62b7 37a0 1938
00000210: 0d3f fa37 06f0 3937 8330 bc37 c93d 0c38
00000220: 3dad d237 6513 c1b7 ccb6 2db8 3beb d135
00000230: 0755 0538 f439 e7b7 df88 59b6 0000 0000
00000240: 463b b8b4 2171 00b7 167a beb7 0000 0000
00000250: 4f63 ffb6 fd0c 1bb7 8ce4 b4b7 0000 0000
00000260: e341 d4b6 d593 cfb7 a35d cbb6 0000 0000
00000270: d6ba 4eb6 79c4 93b7 2f4d 5db7 0000 0000
00000280: ddd2 5a36 0795 39b8 fa7d 6137 0000 0000
00000290: 39e3 39b6 5bc5 9bb7 0fb6 4fb7 0000 0000
000002a0: e4f0 8637 072b 9ab7 0680 50b7 0000 0000
000002b0: 54f9 d4b7 f175 59b7 1089 95b7 0000 0000
000002c0: b9ce d9b7 a20e 3738 ff78 4ab8 6105 06b8
000002d0: ee1c 73b8 daf3 4937 83ba 10b8 a64f 1ab6
000002e0: 3ab4 4034 2b68 bf37 bd8d ab33 31cd 11b7
000002f0: 2d35 2d38 eaca d0b7 0000 0000 5453 3cb5
00000300: 0c7d 6136 4d5a 5337 0000 0000 552e 8036
00000310: 2055 d535 5894 7837 0000 0000 35af b6b6
00000320: b89c 73b7 05b7 0138 0000 0000 d99b 2d37
00000330: 6a0e 1638 4a7d a2b7 0000 0000 aec8 e7b7
00000340: b7b4 2fb8 7484 7438 0000 0000 c231 bd37
00000350: 9b0b ac37 106f 60b6 0000 0000 e21e 0db8
00000360: 1379 50b8 68a4 8a38 0000 0000 0432 ce37
00000370: 18f2 37b8 42f3 7c38 0000 0000 83b2 6ab8
00000380: f697 dcb8 d2e4 9d37 ba30 d637 ce49 ed38
00000390: f6d6 12b7 76d4 d6b6 29b2 d037 a3d9 9138
000003a0: cab7 d8b7 2fb3 8135 0d01 9536 f23e 0539
000003b0: d5fb cb36 0000 0000 9f46 0736 f80e 0d36
000003c0: c8a9 0739 0000 0000 5c69 3138 d8e1 d837
000003d0: 2a05 e138 0000 0000 d726 4938 cd99 d938
000003e0: 0490 f637 0000 0000 8133 2137 1048 a238
000003f0: 1aeb 6938 0000 0000 2550 0f38 6ad7 5239

exp_avg_sq f4 [128, 47]
2.5928053e-08 4.9164055e-09 0.0 5.0897002e-11 2.83517e-09 2.9156144e-08 0.0 2.1351645e-09
2.8852662e-09 2.9561845e-08 0.0 2.338737e-09 3.3068213e-09 2.8451387e-08 0.0 2.2974782e-09
5.3527627e-09 2.7108745e-08 0.0 2.9062888e-09 4.237817e-09 2.7350428e-08 0.0 2.8835878e-09
6.5961867e-09 2.5978057e-08 0.0 4.712272e-09 5.4134297e-09 2.6490119e-08 0.0 4.2882693e-09
1.09096385e-08 2.048649e-08 0.0 4.4628754e-09 6.427667e-09 9.268924e-09 6.215829e-09 9.59517e-09
9.125831e-09 1.1627899e-08 1.0195169e-08 8.39469e-09 1.798403e-08 6.510947e-11 1.2611245e-09 2.4169518e-07
2.2649004e-08 0.0 3.7276485e-10 3.7662996e-08 2.3102076e-07 0.0 1.8099199e-08 4.4085766e-08
2.1996094e-07 0.0 1.8865466e-08 2.5333588e-08 2.4192795e-07 0.0 2.0961183e-08 6.151326e-08
2.0801585e-07 0.0 2.3812946e-08 2.8451439e-08 2.3819986e-07 0.0 2.776576e-08 6.6682404e-08
2.0446964e-07 0.0 3.9068308e-08 4.0211514e-08 2.2496668e-07 0.0 4.0302456e-08 6.886955e-08
1.9644544e-07 0.0 4.0303267e-08 5.9253022e-08 7.282513e-08 4.8022436e-08 9.0347676e-08 6.488963e-08
1.1298864e-07 8.183678e-08 8.5069324e-08 1.4668377e-07 4.483161e-10 9.652921e-09 2.0220694e-08 3.6077987e-09
0.0 4.3746232e-11 1.3661547e-09 2.2537707e-08 0.0 1.7082662e-09 2.3041578e-09 2.1242752e-08
0.0 1.8043246e-09 1.8407887e-09 2.2535955e-08 0.0 1.8369197e-09 4.917668e-09 1.9032266e-08
0.0 2.1840116e-09 1.8963902e-09 2.2345748e-08 0.0 2.3962456e-09 5.934734e-09 1.7996287e-08
0.0 3.4407153e-09 2.2106112e-09 2.2280002e-08 0.0 3.4995775e-09 4.1218824e-09 1.876636e-08
0.0 4.3116253e-09 5.2439355e-09 6.840502e-09 4.423372e-09 8.0891684e-09 5.883584e-09 9.376087e-09
8.765187e-09 7.782985e-09 1.24380195e-08 4.6502514e-11 7.6853524e-10 3.258479e-08 3.4710537e-09 0.0
5.6389577e-11 5.126961e-09 3.1439043e-08 0.0 2.470984e-09 6.735304e-09 2.943033e-08 0.0
2.5848477e-09 3.7067485e-09 3.3329915e-08 0.0 2.7812666e-09 7.066203e-09 2.98826e-08 0.0
3.4499708e-09 2.8507694e-09 3.3638084e-08 0.0 3.7005874e-09 7.5958e-09 2.9931023e-08 0.0
6.0578627e-09 6.1023924e-09 3.1248057e-08 0.0 5.1898175e-09 1.4456914e-08 2.1766883e-08 0.0
3.9919965e-09 7.6935525e-09 1.0699967e-08 7.0755912e-09 1.1628639e-08 7.895873e-09 1.4657473e-08 1.3318105e-08
1.0655434e-08 2.0660048e-08 6.5395585e-11 8.2254914e-10 1.2460914e-07 2.7737675e-08 0.0 2.1338453e-10
9.675289e-09 1.3713806e-07 0.0 1.0169743e-08 1.5001904e-08 1.3265844e-07 0.0 1.0782389e-08
8.925063e-09 1.3900744e-07 0.0 1.1306807e-08 2.945127e-08 1.1465671e-07 0.0 1.2534323e-08
1.693348e-08 1.3130368e-07 0.0 1.4435429e-08 3.3777656e-08 1.1638337e-07 0.0 2.0798318e-08
2.4272556e-08 1.2099632e-07 0.0 1.9429372e-08 4.8255586e-08 9.702445e-08 0.0 2.4139409e-08
2.9302473e-08 4.6606985e-08 3.113126e-08 4.3789502e-08 3.5928704e-08 6.262863e-08 4.8708827e-08 4.73669e-08
8.165338e-08 2.5101493e-10 5.05645e-09 1.9360405e-07 1.965401e-08 0.0 2.9384745e-10 2.6301922e-08
1.8951957e-07 0.0 1.4806785e-08 2.6473913e-08 1.8620777e-07 0.0 1.5964012e-08 2.5104049e-08
1.9247666e-07 0.0 1.6431969e-08 3.763441e-08 1.8164044e-07 0.0 2.1097106e-08 4.038188e-08
00000000: 64b8 de32 29ed a831 0000 0000 eed8 5f2e
00000010: d7d4 4231 0a73 fa32 0000 0000 36ba 1231
00000020: 2446 4631 2fef fd32 0000 0000 7fb7 2031
00000030: 373e 6331 4365 f432 0000 0000 aae1 1d31
00000040: 66eb b731 c3dc e832 0000 0000 f9b7 4731
00000050: 3c9c 9131 3af0 ea32 0000 0000 9d28 4631
00000060: aca4 e231 5a26 df32 0000 0000 95e9 a131
00000070: 0801 ba31 638c e332 0000 0000 0458 9331
00000080: 196d 3b32 45fa af32 0000 0000 de57 9931
00000090: 5bda dc31 293d 1f32 0393 d531 01d8 2432
000000a0: d4c7 1c32 0ac4 4732 d426 2f32 3d38 1032
000000b0: 4d7b 9a32 602d 8f2e e053 ad30 55c2 8134
000000c0: b08d c232 0000 0000 fded cc2f e7c2 2133
000000d0: 810e 7834 0000 0000 8f78 9b32 d058 3d33
000000e0: 672e 6c34 0000 0000 990d a232 269d d932
000000f0: 53e2 8134 0000 0000 210e b432 4619 8433
00000100: f65a 5f34 0000 0000 398d cc32 6065 f432
00000110: e1c3 7f34 0000 0000 8d81 ee32 0a33 8f33
00000120: 308c 5b34 0000 0000 0fcc 2733 07b5 2c33
00000130: 5f8e 7134 0000 0000 0519 2d33 6fe5 9333
00000140: 83ee 5234 0000 0000 e919 2d33 637d 7e33
00000150: 0a64 9c33 3a41 4e33 2905 c233 7459 8b33
00000160: 29a4 f233 3fbe af33 5baf b633 2180 1d34
00000170: e276 f62f ffd5 2532 c7b1 ad32 11ed 7731
00000180: 0000 0000 e165 402e 4cc3 bb30 f198 c132
00000190: 0000 0000 46c8 ea30 2c57 1e31 4e79 b632
000001a0: 0000 0000 07fc f730 fffe fc30 1795 c132
000001b0: 0000 0000 de76 fc30 44f8 a831 657c a332
000001c0: 0000 0000 8a15 1631 a651 0231 d2f2 bf32
000001d0: 0000 0000 33ab 2431 79ea cb31 4196 9a32
000001e0: 0000 0000 b471 6c31 7ce9 1731 3e62 bf32
000001f0: 0000 0000 387d 7031 76a0 8d31 a933 a132
00000200: 0000 0000 7525 9431 252e b431 b109 eb31
00000210: 64fc 9731 8af8 0a32 8d28 ca31 7714 2132
00000220: b395 1632 eeb5 0532 fdae 5532 2d85 4c2e
00000230: dc40 5330 5bf3 0b33 6c87 6e31 0000 0000
00000240: 0501 782e 3a29 b031 9807 0733 0000 0000
00000250: 03ce 2931 5c6c e731 fbcd fc32 0000 0000
00000260: 1fa1 3131 cfb9 7e31 a126 0f33 0000 0000
00000270: 8f20 3f31 fbca f231 4458 0033 0000 0000
00000280: 8714 6d31 44e7 4331 7779 1033 0000 0000
00000290: 6c4d 7e31 af7e 0232 828d 0033 0000 0000
000002a0: 8625 d031 36ad d131 9a35 0633 0000 0000
000002b0: 1e52 b231 2e5e 7832 e2f9 ba32 0000 0000
000002c0: f929 8931 9a2c 0432 f4d2 3732 8f1d f331
000002d0: 4cc7 4732 6ba6 0732 3fd0 7b32 a5cd 6432
000002e0: 180f 3732 ed77 b132 71ce 8f2e c019 6230
000002f0: 4dcc 0534 cb43 ee32 0000 0000 689e 6a2f
00000300: 5f38 2632 3940 1334 0000 0000 01b7 2e32
00000310: 89dd 8032 e070 0e34 0000 0000 733d 3932
00000320: d854 1932 1342 1534 0000 0000 dd3f 4232
00000330: 07fc fc32 3139 f633 0000 0000 8956 5732
00000340: 1e75 9132 7bfc 0c34 0000 0000 b0ff 7732
00000350: ed12 1133 6fee f933 0000 0000 fca7 b232
00000360: ea7f d032 37eb 0134 0000 0000 a4e5 a632
00000370: 9441 4f33 c15b d033 0000 0000 1f5b cf32
00000380: d2b4 fb32 ec2c 4833 2fb5 0533 1113 3c33
00000390: 0750 1a33 747e 8633 ec33 5133 7570 4b33
000003a0: 6c59 af33 36ff 892f 01bd ad31 7ae1 4f34
000003b0: a0d3 a832 0000 0000 5a8b a12f 8aee e132
000003c0: be7e 4b34 0000 0000 ee60 7e32 c068 e332
000003d0: 67f0 4734 0000 0000 3c21 8932 63a4 d732
000003e0: 95ab 4e34 0000 0000 4826 8d32 79a3 2133
000003f0: f208 4334 0000 0000 0739 b532 5970 2d33

exp_avg f4 [128]
5.026463e-05 6.514757e-05 5.7683792e-05 -3.080585e-05 1.6405926e-05 0.00013315237 0.000112699796 -5.1009756e-06
4.501445e-05 1.2901071e-05 -4.393513e-05 -1.4329834e-05 -2.137997e-05 -6.2449976e-06 -1.471023e-05 1.3649203e-05
-5.536448e-05 5.8339534e-05 -6.5239547e-06 -4.0402323e-05 -6.8591355e-05 -3.926719e-05 -4.2582793e-05 8.146663e-05
4.0481373e-05 2.290657e-05 0.00015482404 -3.736099e-05 4.9653943e-05 -2.4141804e-05 1.8764193e-05 -3.0062214e-05
-9.759549e-05 4.2135765e-05 -5.292197e-05 9.749176e-05 2.9303994e-05 -2.7553466e-07 3.5653662e-05 4.8125552e-05
5.6475692e-05 0.000120003155 -2.9559947e-06 -3.8228558e-05 5.0246167e-06 -1.3457973e-05 -4.484313e-05 -9.3465125e-05
0.000119225966 5.8701167e-05 9.718711e-05 3.5107038e-05 1.2934929e-05 -1.1293264e-05 0.00016127265 -4.949443e-06
-1.631969e-05 0.00010029511 3.384995e-05 -3.5734877e-06 -3.423121e-05 -1.0532634e-05 6.376573e-05 -2.5021689e-05
1.9433684e-05 -4.5186964e-05 -2.724787e-05 -1.8877201e-05 -5.237525e-05 -2.766464e-06 5.622705e-05 6.9787807e-06
2.6924976e-05 -9.787175e-06 -2.920227e-05 -2.5801005e-06 0.00012913642 -2.3561573e-07 0.00010249561 -4.0985953e-05
-2.7013994e-07 1.9898267e-05 -3.307606e-05 0.00023556667 1.0557521e-05 9.724817e-05 -5.5492743e-05 0.00023761562
0.0002997767 -4.3501142e-05 -1.4397753e-05 6.0441716e-06 -4.682893e-05 0.0001285212 3.9625156e-06 9.7864155e-05
4.2188633e-05 3.8222963e-05 3.2949272e-06 -6.684868e-05 -2.96567e-05 -7.998462e-05 -7.201321e-05 -4.4070443e-05
-8.49027e-05 5.3101543e-05 -5.9911457e-05 -3.71557e-05 -2.6366337e-05 -1.8538143e-05 8.3242834e-05 0.00019079425
-2.8993738e-05 3.7005164e-05 2.0839789e-05 -5.7917117e-05 -2.355229e-06 0.00016804616 4.9579372e-05 8.609306e-05
9.302367e-05 -3.157483e-05 -7.849073e-06 -6.8384666e-06 2.5046149e-05 6.3178304e-05 8.247114e-05 4.730372e-05
00000000: 3cd3 5238 d69f 8838 80f1 7138 8835 01b8
00000010: 759f 8937 d19e 0b39 3e59 ec38 0c29 abb6
00000020: e6cd 3c38 ae71 5837 fd46 38b8 2b6a 70b7
00000030: 2359 b3b7 1f8c d1b6 f5cb 76b7 e1fe 6437
00000040: 2837 68b8 99b1 7438 58e8 dab6 aa75 29b8
00000050: b4d8 8fb8 d3b2 24b8 ed9a 32b8 10d9 aa38
00000060: 8bca 2938 7c27 c037 4358 2239 0fb4 1cb8
00000070: 8443 5038 2184 cab7 cc67 9d37 1d2e fcb7
00000080: 2eac ccb8 efba 3038 88f8 5db8 7d74 cc38
00000090: d9d1 f537 32ed 93b4 d48a 1538 6bda 4938
000000a0: 50e0 6c38 34aa fb38 9a5f 46b6 9a57 20b8
000000b0: 2199 a836 8ec9 61b7 f215 3cb8 b502 c4b8
000000c0: f408 fa38 e635 7638 efd0 cb38 e53f 1338
000000d0: 1903 5937 3378 3db7 4c1b 2939 6413 a6b6
000000e0: 44e6 88b7 8755 d238 1bfa 0d38 0dd0 6fb6
000000f0: 7b93 0fb8 52b5 30b7 f7b9 8538 abe5 d1b7
00000100: 8505 a337 2287 3db8 5b92 e4b7 7b5a 9eb7
00000110: 7fad 5bb8 7da7 39b6 56d5 6b38 452b ea36
00000120: f2dc e137 9933 24b7 66f7 f4b7 ca25 2db6
00000130: cb68 0739 8ffd 7cb4 e9f2 d638 55e8 2bb8
00000140: c007 91b4 34eb a637 26bb 0ab8 7202 7739
00000150: 3520 3137 b7f1 cb38 e1c0 68b8 7528 7939
00000160: 592b 9d39 ff74 36b8 e18d 71b7 0acf ca36
00000170: 2e6a 44b8 a6c3 0639 c0f5 8436 6b3c cd38
00000180: b3f3 3038 9851 2038 6b1e 5d36 1d31 8cb8
00000190: 47c7 f8b7 6abd a7b8 cc05 97b8 47d8 38b8
000001a0: ca0d b2b8 59b9 5e38 7049 7bb8 a1d7 1bb8
000001b0: 472d ddb7 5c82 9bb7 a892 ae38 f10f 4839
000001c0: 9437 f3b7 fe35 1b38 1bd1 ae37 08ec 72b8
000001d0: 870e 1eb6 8c35 3039 72f3 4f38 dc8c b438
000001e0: b415 c338 376f 04b8 83af 03b7 fb75 e5b6
000001f0: 321a d237 987e 8438 5bf4 ac38 fc67 4638

exp_avg_sq f4 [128]
3.1760695e-08 2.6344745e-07 2.3569203e-08 3.6412725e-08 1.4701276e-07 2.1340948e-07 1.6358281e-07 1.3701171e-08
3.821031e-08 7.0651076e-08 2.4377417e-08 9.632368e-09 1.6278983e-08 2.3506532e-08 7.3008145e-08 1.1598529e-07
3.169246e-08 1.842967e-07 2.3573101e-09 1.8627265e-08 1.945234e-08 3.731461e-08 1.6774134e-08 1.2088361e-07
9.0958615e-08 5.228011e-08 2.4262067e-07 1.026377e-07 2.1735745e-07 5.184686e-08 1.44223495e-08 3.9113914e-08
1.09388246e-07 5.4528623e-08 2.4275016e-08 1.3798564e-07 1.9966599e-08 2.3932635e-08 1.1912298e-08 6.750637e-08
4.34965e-08 1.0453988e-07 5.97798e-08 6.4026715e-08 1.704391e-08 8.222638e-08 1.7105897e-08 8.299493e-08
1.922996e-07 4.630137e-08 1.1078428e-07 3.73693e-08 1.6528846e-08 5.9681384e-09 2.0937115e-07 1.9371044e-10
1.837647e-08 7.979955e-08 1.3207246e-07 1.17669785e-07 1.3536733e-08 4.940166e-09 8.434528e-08 4.1540417e-08
3.2891453e-08 9.217653e-09 8.562429e-09 1.345742e-08 2.34985e-08 1.9533388e-08 3.1281605e-08 6.065184e-08
9.2811504e-08 2.8777853e-08 1.0720116e-08 2.1684096e-08 2.5713356e-07 1.0930741e-07 6.2733996e-08 1.5579774e-08
6.5689306e-08 2.0121604e-08 1.5764954e-08 2.2151022e-07 1.1213694e-08 1.9641242e-07 2.5776442e-08 3.0016062e-07
7.091191e-07 1.2761108e-08 9.38645e-09 5.829013e-08 5.9842144e-08 1.422204e-07 3.8516184e-08 1.5136942e-07
5.5119834e-08 7.8400866e-08 1.9116916e-08 1.9032363e-08 3.0950336e-08 4.3239783e-08 5.41864e-08 6.9974895e-08
4.1309207e-08 3.319079e-08 4.860992e-08 6.100038e-09 2.0041872e-08 3.0792986e-08 5.3615214e-08 5.563211e-07
2.6922017e-08 2.814072e-08 1.1794203e-08 3.9572527e-08 9.977715e-08 1.5918035e-07 8.342857e-08 1.490188e-07
6.4116705e-08 1.534403e-08 1.1460242e-07 9.503757e-10 5.4614343e-08 1.02260294e-07 8.7086164e-08 4.5023093e-08
00000000: 4169 0833 f16f 8d34 3a75 ca32 3764 1c33
00000010: 8fda 1d34 8d25 6534 4da5 2f34 6362 6b32
00000020: ae1c 2433 d7b8 9733 8266 d132 9a7b 2532
00000030: ddd5 8b32 69eb c932 a7c8 9c33 9613 f933
00000040: 3a1e 0833 17e3 4534 3dfe 2131 ca01 a032
00000050: 2618 a732 d943 2033 b616 9032 3ccc 0134
00000060: 0755 c333 978a 6033 8841 8234 ac69 dc33
00000070: c362 6934 3aae 5e33 2ac6 7732 34fe 2733
00000080: d3e8 ea33 db32 6a33 5385 d032 3429 1434
00000090: 0483 ab32 6c94 cd32 d7a6 4c32 05f8 9033
000000a0: e8d0 3a33 687f e033 4b60 8033 0f7f 8933
000000b0: f467 9232 6e94 b033 44f0 9232 f23a b233
000000c0: e97a 4e34 e5dc 4633 4de8 ed33 fb7f 2033
000000d0: 51fb 8d32 4d10 cd31 81cf 6034 a4fc 542f
000000e0: 49da 9d32 445e ab33 cdcf 0d34 a6b1 fc33
000000f0: 2e8f 6832 29be a931 4f21 b533 2c6a 3233
00000100: 8944 0d33 ab5b 1e32 f619 1332 5c32 6732
00000110: bfd9 c932 60ca a732 7d5a 0633 b43f 8233
00000120: aa4f c733 2b33 f732 922b 3832 d543 ba32
00000130: 2b0c 8a34 62bc ea33 61b8 8633 49d4 8532
00000140: 1411 8d33 e0d7 ac32 806b 8732 44d8 6d34
00000150: 59a6 4032 6fe5 5234 ff6a dd32 c325 a134
00000160: 4b5a 3e35 f23b 5b32 0b42 2132 ad5a 7a33
00000170: 9182 8033 3fb5 1834 fe6c 2533 1c88 2234
00000180: e6bc 6c33 555d a833 8b36 a432 9c7c a332
00000190: 41ee 0433 a5b6 3933 94ba 6833 1b45 9633
000001a0: f46b 3133 a98d 0e33 2cc7 5033 8098 d131
000001b0: 8b28 ac32 3f41 0433 8d46 6633 1856 1535
000001c0: 2442 e732 19ba f132 749f 4a32 74f6 2933
000001d0: 1145 d633 29eb 2a34 5729 b333 fa01 2034
000001e0: 88b0 8933 e1cd 8332 591b f633 5f9e 8230
000001f0: 1b91 6a33 319a db33 2004 bb33 6a5f 4133
