config/results/AgrConserv_Refactored_2M_Pre-Final_v3/Hummingbird_Conservative/Hummingbird_Conservative-499968.onnx (onnx, 97764 bytes, 7 tensors)

network_body._body_endoder.seq_layers.0.weight f4 [128, 47]
-0.15774365 -0.06915056 -0.14297916 0.049930427 0.15813184 0.11222718 0.043969586 -0.10424771
-0.09117823 0.117375195 -0.03968419 -0.3918538 0.09882908 -0.09166441 -0.16029285 0.01197128
0.0053009824 -0.023874875 -0.09396616 -0.043181222 -0.12673187 -0.11113323 0.21028209 -0.16841874
-0.06596655 0.07757109 0.10003583 0.19279966 -0.028806051 0.051126733 0.053012088 -0.0039587766
-0.011880446 -0.11204945 -0.15038441 0.12716961 0.23113653 -0.10643111 0.083321445 0.15794547
-0.27219957 -0.14115198 0.022431303 0.18752533 -0.15831833 0.2866704 0.110886246 0.23681997
-0.18735407 0.045772817 0.3020158 -0.0709012 -0.16858256 -0.27732664 0.024995493 0.12168249
-0.12965862 0.0511443 -0.05843628 0.13790368 0.06706158 0.057604484 -0.017909648 0.14944334
0.04135117 0.008260497 -0.15955009 -0.06888103 0.13661163 0.124454275 0.19453825 -0.02669927
0.17158686 -0.022251843 0.050575547 -0.07968185 0.084954105 -0.12148633 0.00047119806 -0.052066807
0.2801522 -0.05542309 0.09351144 -0.25702983 -0.056377172 -0.19457594 0.09027169 -0.1717696
0.1119841 -0.10589298 -0.004868324 0.10044759 0.25821027 0.02780135 -0.14172235 0.0019145708
0.103616275 0.07873552 -0.11495122 0.04069749 -0.2804792 0.14039855 -0.043252792 0.085757144
0.20960772 0.14462425 0.18944734 -0.09719265 -0.27516967 0.038819503 0.07559324 0.0484062
-0.09690678 0.25373778 0.15752693 0.12425253 0.3040356 0.0936499 -0.04570972 -0.23060516
0.113674104 -0.0005778782 -0.20050499 0.2457227 0.0005644219 -0.021668274 -0.1901456 0.22078983
-0.10689362 0.3392898 0.05180719 -0.030727206 0.08384215 -0.11549345 -0.089058876 -0.014347227
-0.047515757 -0.12822635 0.108057156 0.2099517 -0.007229753 -0.06867229 0.04512799 -0.30313972
-0.11141225 0.11689156 0.035175834 -0.021885557 -0.051029604 0.35917786 0.010243971 0.19780706
0.26535544 0.058381736 -0.09444394 -0.08894191 -0.08777631 -0.19794051 -0.05209476 -0.043575678
-0.012955345 -0.30617765 0.07283022 -0.11766004 0.0722408 0.039663594 0.14695606 0.25056097
-0.13405535 0.037907984 0.017703023 0.0103933 -0.24029355 0.072202735 -0.06872631 -0.061402973
-0.28959033 0.18659817 0.34731457 -0.18307908 -0.053590063 0.061515167 0.0907473 0.22204734
0.07636184 -0.223998 -0.0022591474 -0.27636316 -0.075277954 0.31770608 -0.22663182 0.09475911
0.10695286 0.111829564 -0.028130382 0.12666662 -0.056933235 0.026965328 0.14464583 -0.044337943
-0.17415158 0.09479672 0.2188893 -0.07965881 0.12521376 0.010523199 -0.28617004 -0.03641501
0.019494269 0.019552669 -0.014500261 -0.07276967 -0.023505913 0.0060926573 0.022810197 0.21207021
0.025705881 0.033314187 0.021643188 -0.046827704 -0.20690961 -0.16694856 -0.14229803 0.2023496
0.017776405 0.10450604 0.33433273 -0.19941704 0.13162531 0.1299266 -0.12816706 0.07054997
-0.088504925 0.036621224 -0.08739491 0.0928698 -0.18758157 -0.17416061 -0.012881645 0.18253434
0.15689468 -0.1576428 0.18833789 0.23558113 0.06983219 -0.4241675 0.03799891 0.18968467
0.1244964 -0.11871518 -0.2308639 -0.11040858 0.12440789 0.012228378 0.0047654207 0.19398437
00000000: 8d87 21be cf9e 8dbd 2169 12be d983 4c3d
00000010: 50ed 213e 5dd7 e53d 7419 343d d37f d5bd
00000020: a7bb babd 6862 f03d e48b 22bd 10a1 c8be
00000030: e766 ca3d 8dba bbbd cf23 24be 3023 443c
00000040: ddb3 ad3b 3e95 c3bc 5571 c0bd cbde 30bd
00000050: 00c6 01be d299 e3bd 3054 573e f675 2cbe
00000060: 7819 87bd 97dd 9e3d 96df cc3d 466d 453e
00000070: abfa ebbc 446a 513d 3423 593d a0b8 81bb
00000080: 34a6 42bc 2f7a e5bd 5ffe 19be c038 023e
00000090: 0eaf 6c3e 8ef8 d9bd 6fa4 aa3d 75bc 213e
000000a0: be5d 8bbe 258a 10be dac1 b73c a406 403e
000000b0: 331e 22be 76c6 923e 5418 e33d ef80 723e
000000c0: bfd9 3fbe 477c 3b3d d1a1 9a3e a634 91bd
000000d0: e8a0 2cbe c2fd 8dbe 59c3 cc3c ab34 f93d
000000e0: 3bc5 04be af7c 513d e15a 6fbd 9f36 0d3e
000000f0: 9557 893d aef2 6b3d 41b7 92bc ad07 193e
00000100: d85f 293d 0957 073c 1961 23be 7f11 8dbd
00000110: ebe3 0b3e e2e1 fe3d 0935 473e 6db8 dabc
00000120: 77b4 2f3e 7f49 b6bc 4e28 4f3d 3d30 a3bd
00000130: 6bfc ad3d d3cd f8bd 220b f739 0144 55bd
00000140: 1c70 8f3e 5203 63bd ed82 bf3d 6a99 83be
00000150: c0eb 66bd ea3e 47be 5de0 b83d 5fe4 2fbe
00000160: eb57 e53d 6bde d8bd 7686 9fbb 77b7 cd3d
00000170: 2334 843e a8bf e33c aa1f 11be 56f2 fa3a
00000180: c534 d43d 1740 a13d 8c6b ebbd 69b2 263d
00000190: f89a 8fbe a3c4 0f3e d729 31bd 71a1 af3d
000001a0: 68a3 563e 6118 143e 7cfe 413e f10c c7bd
000001b0: 0ae3 8cbe 3301 1f3d a1d0 9a3d 9445 463d
000001c0: 1077 c6bd ebe9 813e bd4e 213e 1c78 fe3d
000001d0: 8eaa 9b3e 85cb bf3d 1e3a 3bbd c223 6cbe
000001e0: f8cd e83d c07c 17ba 2e51 4dbe bb9e 7b3e
000001f0: b6f5 133a aa81 b1bc 87b5 42be bb16 623e
00000200: 0beb dabd 65b7 ad3e c733 543d 9fb7 fbbc
00000210: 6fb5 ab3d d487 ecbd 8064 b6bd a210 6bbc
00000220: e29f 42bd c54d 03be 124d dd3d 94fd 563e
00000230: 90e7 ecbb 0fa4 8cbd 21d8 383d 2135 9bbe
00000240: 1b2c e4bd d864 ef3d 8914 103d 5749 b3bc
00000250: 6b04 51bd 29e6 b73e 54d6 273c ef8d 4a3e
00000260: abdc 873e b021 6f3d d36b c1bd 2d27 b6bd
00000270: 11c4 b3bd ebb0 4abe 5161 55bd 697c 32bd
00000280: a842 54bc 51c3 9cbe 0328 953d bff7 f0bd
00000290: fcf2 933d 4b76 223d a67b 163e 8749 803e
000002a0: ce45 09be 6745 1b3d ee05 913c a948 2a3c
000002b0: 830f 76be 07df 933d 61c0 8cbd af81 7bbd
000002c0: 2f45 94be 9713 3f3e 37d3 b13e 1579 3bbe
000002d0: 4181 5bbd 54f7 7b3d b8d9 b93d 6160 633e
000002e0: 9963 9c3d bb5f 65be 340e 14bb 797f 8dbe
000002f0: 542b 9abd 5faa a23e 2c12 68be 1011 c23d
00000300: 1a0a db3d e606 e53d b071 e6bc e5b4 013e
00000310: d332 69bd 64e6 dc3c 091e 143e b49b 35bd
00000320: cb54 32be c824 c23d 8424 603e 2824 a3bd
00000330: 0938 003e 7f69 2c3c e184 92be e827 15bd
00000340: 72b2 9f3c eb2c a03c 8192 6dbc 4408 95bd
00000350: 798f c0bc eaa4 c73b 73dc ba3c ef28 593e
00000360: 2495 d23c 7574 083d 0e4d b13c 68ce 3fbd
00000370: 1de0 53be 90f4 2abe 93b6 11be bc34 4f3e
00000380: d39f 913c 4307 d63d a92d ab3e fb33 4cbe
00000390: c9c8 063e 7b0b 053e 3a3e 03be 817c 903d
000003a0: 1242 b5bd 2300 163d 1afc b2bd 8632 be3d
000003b0: 6215 40be 2957 32be 890d 53bc 48ea 3a3e
000003c0: 00a9 203e 1d6d 21be a6db 403e 2e3c 713e
000003d0: 2e04 8f3d 7c2c d9be bfa4 1b3d b33c 423e
000003e0: f8f7 fe3d f220 f3bd 9667 6cbe e51d e2bd
000003f0: 90c9 fe3d 8959 483c 3f27 9c3b d7a3 463e

network_body._body_endoder.seq_layers.0.bias f4 [128]
0.014090712 0.014596933 -0.024747517 -0.016780447 0.024701757 0.007900271 0.0069214604 0.012204334
-0.0053825234 0.007017514 0.01036353 -0.017376292 -0.010920922 -0.01972456 0.027219705 0.029881475
0.011181033 -0.003655733 -0.0006547747 0.026241535 0.0065595936 0.011820178 0.027600603 0.025511187
-0.00038367056 0.008460453 0.0028586942 0.020488989 0.0031101028 -0.013105443 -0.019355662 0.022285841
0.0033083702 -0.0051378915 0.012872209 0.0075437985 -0.0025401725 -0.0126175815 0.0014607066 -0.008954361
0.0151626365 0.03319907 0.012536697 0.008735043 0.020289816 -0.009085208 0.027509797 0.0087270085
-0.00034282988 0.011128713 0.0038331011 0.0064324117 -0.0059049195 0.01049537 0.016282111 -0.005451503
-0.0029782676 0.039586533 0.0071563013 0.01633837 0.008143439 0.0072526196 0.0032477626 0.0012303559
0.004065255 0.0038451038 -0.022052165 -0.009692826 0.0052879103 -0.010698976 0.0058018793 0.017893434
0.0074095656 -0.018691005 -0.0092075365 -0.025441866 0.0036661308 0.0039326167 0.008392755 -0.0011312698
0.0005208942 -0.0072651715 0.012555681 0.007666058 -0.020807063 0.012957624 0.01213484 0.011872408
0.021238992 0.033636987 0.0016473756 -0.02020873 0.012497328 0.0036062058 0.028829884 0.01920232
0.014590961 0.011308835 0.011521273 0.04022086 0.008906508 0.007699836 -0.003963391 0.00782099
0.015802262 0.006911017 -0.0016935999 0.007166448 -0.00043840607 -0.011637141 -0.031666595 0.0041738786
0.0040821726 0.030569011 0.018674716 0.014817654 0.00636787 0.012035744 0.025468623 0.002601519
-0.0011252073 0.008433126 -0.001934657 0.003079373 0.008024549 0.016282873 0.008116832 0.034695126
00000000: bbdc 663c f927 6f3c 4ebb cabc 2677 89bc
00000010: 575b ca3c 2370 013c 6bcd e23b b0f4 473c
00000020: e15f b0bb 2df3 e53b cccb 293c ba58 8ebc
00000030: abed 32bc 6795 a1bc dcfb de3c ffc9 f43c
00000040: a730 373c 0695 6fbb 30a5 2bba 7df8 d63c
00000050: dcf1 d63b 6ba9 413c a91a e23c d6fc d03c
00000060: 6427 c9b9 b69d 0a3c ee58 3b3b 86d8 a73c
00000070: ded2 4b3b 36b8 56bc c48f 9ebc cc90 b63c
00000080: 3ed1 583b c25b a8bb f5e5 523c f831 f73b
00000090: 0679 26bb f9b9 4ebc 2e75 bf3a 50b5 12bc
000000a0: b56c 783c bffb 073d b866 4d3c 6d1d 0f3c
000000b0: d436 a63c 20da 14bc 3a5c e13c bafb 0e3c
000000c0: d9bd b3b9 3555 363c c434 7b3b fbc6 d23b
000000d0: 0e7e c1bb c6f4 2b3c 1062 853c 86a2 b2bb
000000e0: 0a2f 43bb 7d25 223d 687f ea3b 0cd8 853c
000000f0: 0f6c 053c 62a7 ed3b 6ad8 543b e543 a13a
00000100: d535 853b 23fe 7b3b bea6 b4bc a9ce 1ebc
00000110: 3546 ad3b c24a 2fbc b11d be3b 4095 923c
00000120: f1cb f23b e11d 99bc 35db 16bc 766b d0bc
00000130: 7843 703b 2edd 803b c481 093c 1e47 94ba
00000140: 9e8c 083a ad10 eebb 58b6 4d3c 8e33 fb3b
00000150: 9373 aabc 374c 543c 35d1 463c 7d84 423c
00000160: 65fd ad3c f0c6 093d c1ec d73a c78c a5bc
00000170: 98c1 4c3c 1856 6c3b a62c ec3c 2f4e 9d3c
00000180: ed0e 6f3c b148 393c b9c3 3c3c a1be 243d
00000190: 9aec 113c e84e fc3b 55df 81bb 9c23 003c
000001a0: bf73 813c d075 e23b c8fb ddba 86d4 ea3b
000001b0: ded9 e5b9 b5a9 3ebc d5b4 01bd 08c5 883b
000001c0: bfc3 853b dd6b fa3c b8fb 983c bfc5 723c
000001d0: 91a9 d03b 9231 453c 93a3 d03c 3f7e 2a3b
000001e0: b17b 93ba 182b 0a3c 5194 fdba 4ecf 493b
000001f0: 6679 033c a963 853c 76fc 043c 7a1c 0e3d

network_body._body_endoder.seq_layers.2.weight f4 [128, 128]
-0.0013853335 0.016970389 -0.06442639 0.007866183 0.044190466 -0.0027941489 -0.020144492 0.022472728
0.046859294 -0.15345128 -0.030103814 -0.16289246 -0.115662985 -0.021900456 0.048823755 -0.063165925
0.05562004 0.05200688 -0.03829418 0.068770215 0.02245744 -0.12415957 0.15233275 -0.0022172108
0.06824547 0.00041374523 -0.047389783 0.03278871 -0.0038160675 -0.032558292 0.029139 0.00019457626
-0.07955382 -0.045429435 0.041925877 -0.039219655 0.0020841968 0.11059064 0.018659355 -0.11632158
-0.053850938 0.026069578 0.052571557 0.0055767116 0.0049498696 0.049322493 0.071853384 -0.11021311
-0.076950714 0.14495637 0.051811602 0.04755956 0.11587356 -0.031976845 0.12391237 0.12169553
-0.011465441 0.17236443 0.06571103 -0.09221782 -0.08726723 -0.05536326 -0.030176027 -0.14266005
-0.012448503 -0.0254341 -0.009634413 -0.09871956 0.04598414 -0.023017148 0.07895866 0.058015373
0.062483765 -0.037185214 0.1370056 -0.061304327 0.10313488 0.08474289 0.041568458 -0.15347655
0.10544617 -0.09824628 -0.04649499 -0.013778739 0.10013573 0.07791118 0.0014683933 -0.024981277
0.008005368 0.023142608 0.026472483 0.09028841 -0.09239536 0.05212605 -0.030798202 0.021028673
-0.07033582 0.05127719 -0.13851547 0.053671 0.09908955 -0.13834703 0.0067002685 -0.16536751
-0.11028693 0.1456957 -0.1298905 0.0780942 0.06378677 -0.05747991 0.04049625 0.15674545
-0.003297717 0.14627191 -0.10304269 -0.20051827 -0.01348079 -0.063922286 -0.005385325 0.03869312
0.09164519 0.08015703 -0.10341442 -0.018043669 -0.015453827 -0.035709087 0.16484907 -0.04521013
0.05391137 0.012353337 -0.068311974 -0.13672915 0.09335207 -0.007357442 0.094474964 -0.027266737
0.0065210713 0.1335862 -0.15766133 -0.11236401 0.11281012 -0.13642035 -0.03382236 0.074543744
-0.030815607 0.029233323 -0.037623197 0.050963785 0.05973765 0.06210752 -0.04847406 0.14759223
-0.083625495 -0.0014063201 0.113878176 0.034862228 -0.01846094 0.10894767 -0.032726582 -0.12830697
-0.079373665 -0.10637999 -0.021625012 -0.06982347 0.098417856 -0.12850814 0.15776078 -0.09555454
0.08811211 -0.065912075 0.000662024 -0.110060364 0.16354313 -0.06340648 0.021992018 0.0825333
0.08446164 0.101321466 -0.001710937 0.05361043 -0.029094456 0.075892724 0.0018065334 0.09788959
-0.17148235 0.058024857 0.035022248 0.08490408 -0.016984442 -0.12643825 0.07656414 -0.012791604
-0.11160321 -0.17091215 0.10250264 0.0059716552 0.18089803 -0.004741977 0.065621965 -0.008240904
0.11391837 -0.043264024 0.07199007 0.048570514 0.017361043 -0.026060218 -0.11370257 -0.15810438
0.012354095 0.034598347 0.014585497 0.14627473 0.051106587 -0.03352229 -0.17396778 0.14525373
-0.073535755 -0.1402554 -0.0076512676 -0.08320194 -0.006591852 0.19893093 0.06614181 0.123197295
-0.20277381 0.054129746 0.12998773 0.08934857 -0.06017694 -0.041918013 0.05974994 0.013659359
-0.104227245 -0.029046861 -0.08170071 -0.01514449 -0.14759341 -0.072590545 -0.101447485 0.038566608
-0.1107001 0.014411276 -0.1783427 0.14281538 0.066164486 0.028042523 0.08959146 0.014957762
-0.030293798 0.043058135 0.052541565 0.009316009 0.029699719 0.14265017 0.018067684 0.022072567
00000000: 1494 b5ba 7c05 8b3c fcf1 83bd 2ae1 003c
00000010: 1001 353d 0a1e 37bb 1006 a5bc ba18 b83c
00000020: 88ef 3f3d 5522 1dbe 469c f6bc 48cd 26be
00000030: b7e0 ecbd 9668 b3bc 6bfb 473d 235d 81bd
00000040: d7d1 633d 2b05 553d 5cda 1cbd 66d7 8c3d
00000050: aaf8 b73c 5f47 febd 1efd 1b3e a04e 11bb
00000060: 48c4 8b3d f2eb d839 ca1b 42bd 744d 063d
00000070: fd16 7abb d85b 05bd eab4 ee3c 2b07 4c39
00000080: 1ded a2bd 3714 3abd 78ba 2b3d caa4 20bd
00000090: 0597 083b 587d e23d 81db 983c 023a eebd
000000a0: cd92 5cbd de8f d53c 4655 573d d9bc b63b
000000b0: 8432 a23b 6206 4a3d de27 933d 69b7 e1bd
000000c0: 5698 9dbd 716f 143e 6738 543d d0cd 423d
000000d0: 1e4f ed3d 27fa 02bd c5c5 fd3d 823b f93d
000000e0: 8cd9 3bbc 4d80 303e 8193 863d b2dc bcbd
000000f0: 29b9 b2bd 96c4 62bd b733 f7bc 7a15 12be
00000100: cef4 4bbc 2c5b d0bc a8d9 1dbc 7b2d cabd
00000110: de59 3c3d 758e bcbc 14b5 a13d 87a1 6d3d
00000120: faee 7f3d 864f 18bd 324b 0c3e 3f1a 7bbd
00000130: 6138 d33d ae8d ad3d b043 2a3d f528 1dbe
00000140: 29f4 d73d 5835 c9bd 8871 3ebd 38c0 61bc
00000150: f613 cd3d e68f 9f3d 1a77 c03a 89a5 ccbc
00000160: f228 033c 9195 bd3c d2dc d83c 21e9 b83d
00000170: c739 bdbd 2082 553d 834c fcbc 5344 ac3c
00000180: 3a0c 90bd 0808 523d 00d7 0dbe 1fd6 5b3d
00000190: 76ef ca3d d8aa 0dbe ed8d db3b 1a56 29be
000001a0: 1dde e1bd 4131 153e 0402 05be daef 9f3d
000001b0: a3a2 823d 0e70 6bbd 65df 253d e181 203e
000001c0: 831e 58bb 4ec8 153e 0c08 d3bd a954 4dbe
000001d0: 88de 5cbc b0e9 82bd 6177 b0bb ad7c 1e3d
000001e0: 79b0 bb3d 5e29 a43d f0ca d3bd 51d0 93bc
000001f0: 0c32 7dbc b143 12bd 32ce 283e 422e 39bd
00000200: 2bd2 5c3d a765 4a3c 26e7 8bbd ba02 0cbe
00000210: 5f2f bf3d b216 f1bb 177c c13d 7e5e dfbc
00000220: b6ae d53b d2ca 083e f971 21be 1a1f e6bd
00000230: fe08 e73d c7b1 0bbe 5189 0abd 64aa 983d
00000240: 0371 fcbc b97a ef3c c81a 1abd 67bf 503d
00000250: 77af 743d 7464 7e3d bc8c 46bd 6b22 173e
00000260: d843 abbd 4654 b8ba f638 e93d b2cb 0e3d
00000270: 663b 97bc f51f df3d 4f0c 06bd e762 03be
00000280: a98e a2bd c1dd d9bd f026 b1bc 9cff 8ebd
00000290: 4d8f c93d a397 03be 0b8c 213e 19b2 c3bd
000002a0: 1f74 b43d e9fc 86bd ae8b 2d3a 5467 e1bd
000002b0: da77 273e 42db 81bd 9b28 b43c 3807 a93d
000002c0: 39fa ac3d a181 cf3d 8541 e0ba 9c96 5b3d
000002d0: 7f57 eebc a56d 9b3d 34c9 ec3a 567a c83d
000002e0: 1299 2fbe 79ab 6d3d 7d73 0f3d 31e2 ad3d
000002f0: f522 8bbc 0779 01be a9cd 9c3d e093 51bc
00000300: 3990 e4bd 9803 2fbe e7ec d13d e0ad c33b
00000310: 553d 393e 9662 9bbb cf64 863d db04 07bc
00000320: 094e e93d 9e35 31bd 886f 933d e0f1 463d
00000330: bf38 8e3c 3d7c d5bc e5dc e8bd 1de6 21be
00000340: d468 4a3c ffb6 0d3d 02f8 6e3c 0bc9 153e
00000350: 2455 513d ab4e 09bd 9c24 32be 65bd 143e
00000360: ea99 96bd 1d9f 0fbe 7cb7 fabb c765 aabd
00000370: 7600 d8bb 8db4 4b3e 5b75 873d dd4e fc3d
00000380: f0a3 4fbe 27b7 5d3d 811b 053e 62fc b63d
00000390: 187c 76bd 39b2 2bbd 5abc 743d 81cb 5f3c
000003a0: 1875 d5bd aff3 edbc b452 a7bd 9820 78bc
000003b0: ba22 17be 5aaa 94bd b3c3 cfbd 05f8 1d3d
000003c0: bcb6 e2bd 461d 6c3c 789f 36be 323e 123e
000003d0: 3f81 873d 6fb9 e53c ba7b b73d 6711 753c
000003e0: b32a f8bc ba5d 303d d335 573d 2ca2 183c
000003f0: d34c f33c e312 123e ae02 943c 87d1 b43c

network_body._body_endoder.seq_layers.2.bias f4 [128]
0.017457355 0.030692143 0.008267399 0.011515512 -0.008425959 0.0048871366 0.0043696202 -0.018579356
-0.009287438 -0.009746768 -0.010088615 0.010485097 0.009177525 -0.007118486 0.022082336 -0.006525868
0.01381453 0.008961388 0.001187982 -0.006663543 -0.00401671 -0.0047911666 0.012606259 0.015400198
-0.0042101876 0.013709689 0.012425965 -0.020506037 0.0286674 0.007238485 0.0074246814 -0.003789615
-0.0032917575 0.024212373 -0.0056459885 0.0030404509 -0.0067088585 -0.0033594752 0.0031372714 0.0045266934
-0.013770689 0.011897896 0.010966142 0.0027146556 0.010737402 -0.006522599 0.012386622 -0.001897519
0.0133512365 -0.009223171 0.013605746 -0.008543056 0.0038319244 0.017024562 -0.005712278 -0.0065252874
-0.007727835 -0.020321535 0.0012459294 -0.001281659 5.6785117e-05 0.003107611 0.0033679286 0.01125907
-0.0039044335 0.012347191 0.004635092 0.024082359 -0.0045574084 0.0179309 0.012119702 0.0071416493
-0.009041307 0.0010389476 0.01238207 0.014437272 0.01689709 0.0028682733 0.0009008261 0.025948653
0.0056782565 -0.003998144 0.014523108 -0.006103173 -0.00092929107 0.006909389 -0.0052969023 -0.01542107
-0.0061153537 0.010030736 -0.0006343463 0.020675637 0.0019308873 0.007822531 -0.0014383341 0.0038296778
0.00362943 -0.001825179 0.022357024 -0.009199443 -0.008516349 -0.0025483205 -0.0077174553 0.00071551965
0.011850912 0.002371328 0.0029751346 -0.00927687 0.014266593 -0.0013339359 0.0037886463 0.0023972453
0.013606893 -0.0069334456 0.017020622 0.0049452046 0.010135181 -0.014483036 0.01720749 -0.0059105414
0.017408514 0.00057578227 0.015337078 0.010757847 0.0073559904 0.00554198 -0.0006581359 -0.005381323
00000000: ba02 8f3c 176e fb3c fc73 073c 8fab 3c3c
00000010: 090d 0abc 4624 a03b 082f 8f3b bc33 98bc
00000020: 572a 18bc e8b0 1fbc b84a 25bc afc9 2b3c
00000030: 545d 163c 3042 e9bb 04e6 b43c f3d6 d5bb
00000040: 5756 623c c9d2 123c 10b6 9b3a da59 dabb
00000050: 9b9e 83bb 38ff 9cbb 7c8a 4e3c 1d51 7c3c
00000060: 9df5 89bb 9a9e 603c 4696 4b3c 47fc a7bc
00000070: e5d7 ea3c d030 ed3b be4a f33b 305b 78bb
00000080: 87ba 57bb 0759 c63c fc01 b9bb 4d42 473b
00000090: fcd5 dbbb a42a 5cbb ae9a 4d3b a854 943b
000000a0: 759e 61bc 65ef 423c 55ab 333c 5de8 313b
000000b0: eeeb 2f3c 87bb d5bb 42f1 4a3c 2cb6 f8ba
000000c0: 25bf 5a3c c81c 17bc a3ea 5e3c 2df8 0bbc
000000d0: 0621 7b3b 1877 8b3c 102e bbbb 14d2 d5bb
000000e0: c739 fdbb 5979 a6bc 744e a33a 57fd a7ba
000000f0: 8e2c 6e38 10a9 4b3b 77b8 5c3b f677 383c
00000100: 86e1 7fbb df4b 4a3c f8e1 973b 5e48 c53c
00000110: 5056 95bb d3e3 923c b791 463c 7f04 ea3b
00000120: fd21 14bc 4c2d 883a 2ade 4a3c 4f8a 6c3c
00000130: c46b 8a3c a4f9 3b3b 6b25 6c3a 4592 d43c
00000140: ab10 ba3b dd02 83bb 54f2 6d3c 20fd c7bb
00000150: ab9b 73ba 2868 e23b a391 adbb a8a8 7cbc
00000160: 4e63 c8bb f557 243c 424a 26ba f45f a93c
00000170: d415 fd3a 132a 003c 7c86 bcba 55fb 7a3b
00000180: bbdb 6d3b d83a efba 1426 b73c 43b9 16bc
00000190: 2888 0bbc b901 27bb b5e2 fcbb b691 3b3a
000001a0: 542a 423c 4868 1b3b 7afa 423b 03fe 17bc
000001b0: 6ebe 693c 76d7 aeba f04a 783b 1a1b 1d3b
000001c0: 72ef 5e3c f531 e3bb d56e 8b3c 620b a23b
000001d0: 080e 263c 414a 6dbc b9f6 8c3c 37ad c1bb
000001e0: 4d9c 8e3c 18f0 163a 5e48 7b3c ae41 303c
000001f0: 850a f13b 7f99 b53b c186 2cba cf55 b0bb

action_model._continuous_distribution.log_sigma f4 [1, 5]
0.02473074 0.05024727 0.05103413 0.033563208 0.017226335
00000000: 1f98 ca3c 15d0 4d3d 2a09 513d 9379 093d
00000010: 3e1e 8d3c

action_model._continuous_distribution.mu.weight f4 [5, 128]
0.020752994 0.012489291 0.006109309 -0.026281115 -0.018859105 0.045128677 0.04921278 -0.026132943
0.018493399 -0.041912045 -0.025244463 -0.010480732 0.028817074 0.014987354 -0.0028766508 -0.0076724817
0.048996698 0.035757385 -0.0068839975 0.029567929 -0.010420553 0.0063547017 0.01869953 -0.015465264
0.025599308 0.028567448 -0.0099549815 0.005612914 -0.017753128 -0.03997331 0.031948145 0.0056253476
-0.011700301 0.0019940862 -0.021711808 0.02887659 -0.023675893 0.058069848 -0.039190177 -0.020017019
-0.017198928 -0.017696632 -0.02355954 0.030078169 0.024087979 0.038854606 -0.028875005 -0.005028479
-0.03046919 0.01367556 0.030924954 0.040154465 0.038126245 0.0028907475 -0.011060176 -0.007746635
0.010275992 -0.016860088 -0.033644244 -0.0020499078 -0.02234648 -0.018551042 0.011907224 -0.046990845
0.02546809 0.027041746 -0.008877652 -0.015524825 0.017470673 0.007975364 -0.0071393554 0.0008471092
0.00859696 0.009267878 -0.017050512 -0.005427763 0.027280848 0.02350937 -0.008760344 0.03795502
0.009634207 -0.012799667 0.0049456405 0.019059239 -0.03271921 -0.035274375 -0.013374533 -0.006273721
-0.023110064 -0.028539233 -0.022467459 0.040082056 -0.017508084 0.03187551 -0.0048535066 -0.036764372
0.034491602 -0.047355887 -0.008524842 -0.024670428 -0.0089272 0.041090213 -0.0053847563 -0.0025384733
-0.003487643 0.0010316786 0.008532761 0.032875102 0.01677308 0.013323348 -0.011076169 -0.0107829375
0.01595006 0.0064055305 -0.009026797 -0.025558049 0.011971491 0.008010469 -0.011522574 -0.016674226
0.050071746 -0.016274607 0.022413539 0.012079542 -0.03932022 0.022811888 -0.01421769 0.012103445
-0.04843175 -0.024581654 -0.017479997 -0.025177771 0.027796937 0.0030810502 -0.012065116 0.004966118
0.044462997 0.0047964253 0.03028983 -0.017296497 0.029981196 -0.010805809 0.007517514 0.024256231
0.018088765 -0.022314133 0.0067152157 0.025616407 0.0024920458 0.034987397 0.037006583 -0.034959115
0.03723995 -0.012073577 0.018560514 0.013864961 -0.0052279867 -0.032081302 0.016137064 0.00852499
0.04450278 0.010311473 -0.010207668 0.030051256 0.015363463 -0.0033937448 -0.016762258 -0.008190292
-0.028330412 -0.005578061 9.335418e-05 0.05218548 0.0014773181 -0.047272556 -0.034302194 -0.01685115
-0.024363173 0.004783626 -0.0062861852 0.009601692 -0.013402982 -0.0026945544 -0.003614551 -0.00027468047
0.002813522 -0.0028956914 -0.0070245056 0.0023587327 0.019583475 0.001438857 -0.012900372 0.014686575
0.02398515 -0.06585402 -0.0047840266 -0.010940694 0.0034569253 -0.00949284 0.010570905 -0.0017728999
0.036229797 -0.026902717 -0.031421416 -0.020792738 -0.022878673 0.016173355 0.0003490751 0.0016490454
0.030161921 0.006180959 0.010304139 0.019794432 0.0038396295 -0.015316133 -0.013383487 0.008352615
0.022327865 -0.015676204 0.008718453 -0.047919936 0.0019903209 -0.019338863 0.028433843 0.0055578225
-0.027841501 -0.0018074457 0.0008539789 0.0020298855 -0.01096072 -0.011771332 0.010269454 -0.024496203
-0.035117436 -0.0013400576 0.04872752 0.015031143 0.029744826 0.00020425781 -0.005719699 -0.024828998
-0.007140791 0.009695473 -0.02670453 -0.01896667 0.021608284 0.011928739 0.053106878 0.0034330185
-0.035525333 0.037777357 0.016624305 -0.0021032041 0.0010078958 -0.01118416 -0.013965591 0.0061155744
00000000: 2f02 aa3c e29f 4c3c 9930 c83b 7e4b d7bc
00000010: 697e 9abc d9d8 383d 5793 493d c114 d6bc
00000020: 787f 973c f7ab 2bbd 7acd cebc 60b7 2bbc
00000030: c911 ec3c 858d 753c 3186 3cbb 7169 fbbb
00000040: c3b0 483d 5676 123d 2893 e1bb 7138 f23c
00000050: f8ba 2abc 1a3b d03b c22f 993c 0562 7dbc
00000060: a4b5 d13c 4806 ea3c 381a 23bc 89ec b73b
00000070: 026f 91bc 0ebb 23bd 0fdc 023d d654 b83b
00000080: 9fb2 3fbc 37af 023b f6dc b1bc 998e ec3c
00000090: f2f3 c1bc a6da 6d3d e185 20bd bbfa a3bc
000000a0: c4e4 8cbc 87f8 90bc f0ff c0bc 7e66 f63c
000000b0: 2754 c53c 0226 1f3d 468b ecbc f0c5 a4bb
000000c0: 869a f9bc 750f 603c 5456 fd3c 0279 243d
000000d0: 442a 1c3d b272 3d3b be35 35bc 7cd7 fdbb
000000e0: a25c 283c 2b1e 8abc 8cce 09bd bf57 06bb
000000f0: f70f b7bc 5bf8 97bc 8416 433c 7979 40bd
00000100: 75a2 d03c a786 dd3c 9273 11bc d65b 7ebc
00000110: a81e 8f3c 1aab 023c 41f1 e9bb 8910 5e3a
00000120: 44da 0c3c 4cd8 173c 84ad 8bbc 60db b1bb
00000130: 167c df3c b996 c03c 8c87 0fbc b976 1b3d
00000140: cbd8 1d3c b2b5 51bc 0a0f a23b 1f22 9c3c
00000150: 9404 06bd dd7b 10bd db20 5bbc c993 cdbb
00000160: 5151 bdbc 1ccb e9bc ad0d b8bc 152d 243d
00000170: 1d6d 8fbc e58f 023d 2a0a 9fbb 3d96 16bd
00000180: 1147 0d3d 3ff8 41bd c7ab 0bbc a319 cabc
00000190: 6443 12bc 364e 283d 9c72 b0bb 845c 26bb
000001a0: f190 64bb 6439 873a fecc 0b3c 0ba8 063d
000001b0: b367 893c 2c4a 5a3c d278 35bc ebaa 30bc
000001c0: b3a9 823c 7ce5 d13b 21e5 13bc 1d5f d1bc
000001d0: 1324 443c 583e 033c 2ec9 3cbc 6398 88bc
000001e0: 0818 4d3d 5352 85bc 999c b73c 45e9 453c
000001f0: 3d0e 21bd ffdf ba3c 50f1 68bc 874d 463c
00000200: 5f60 46bd 775f c9bc 3632 8fbc 9d41 cebc
00000210: 67b6 e33c 72eb 493b c4ac 45bc d1ba a23b
00000220: d51e 363d 552b 9d3b 6122 f83c 62b1 8dbc
00000230: 209b f53c d90a 31bc 7a55 f63b 01b5 c63c
00000240: e42e 943c 21cc b6bc 500b dc3b 80d9 d13c
00000250: 9751 233b f24e 0f3d 3794 173d 4a31 0fbd
00000260: eb88 183d 41d0 45bc 380c 983c dd29 633c
00000270: 884f abbb af67 03bd e031 843c 66ac 0b3c
00000280: 8c48 363d 74f1 283c 103e 27bc 0d2e f63c
00000290: 09b7 7b3c 9769 5ebb 0151 89bc 9330 06bc
000002a0: 2e15 e8bc 2bc8 b6bb 25c7 c338 71c0 553d
000002b0: 92a2 c13a dea0 41bd 7580 0cbd 6c0b 8abc
000002c0: 4795 c7bc f7bf 9c3b 58fc cdbb 6a50 1d3c
000002d0: 2e98 5bbc 1f97 30bb 1ae2 6cbb fd02 90b9
000002e0: 1163 383b a4c5 3dbb d32d e6bb f894 1a3b
000002f0: 866d a03c 0898 bc3a 155c 53bc f69f 703c
00000300: 817c c43c 79de 86bd 53c3 9cbb 9940 33bc
00000310: 958d 623b db87 1bbc 9731 2d3c a660 e8ba
00000320: b265 143d 1663 dcbc beb3 00bd 8855 aabc
00000330: 0e6c bbbc fc7d 843c 1104 b739 c824 d83a
00000340: 2216 f73c a489 ca3b b1d2 283c ef27 a23c
00000350: 4ba2 7b3b 85f0 7abc 6a46 5bbc 68d9 083c
00000360: ede8 b63c 626b 80bc d8d7 0e3c b247 44bd
00000370: 0b70 023b 896c 9ebc 17ee e83c 651e b63b
00000380: dc13 e4bc d0e7 ecba 8edd 5f3a d407 053b
00000390: 9794 33bc 8bdc 40bc 3641 283c 43ac c8bc
000003a0: 4dd7 0fbd dfa4 afba 8296 473d 2f45 763c
000003b0: 6cab f33c 0a2e 5639 506c bbbb 2f66 cbbc
000003c0: 4cfd e9bb c3d9 1e3c 75c3 dabc fd5f 9bbc
000003d0: db03 b13c c270 433c 9986 593d 7efc 603b
000003e0: 0383 11bd 6ebc 1a3d b22f 883c e9d5 09bb
000003f0: 5f1b 843a c43d 37bc efcf 64bc 2865 c83b

action_model._continuous_distribution.mu.bias f4 [5]
0.004926698 -0.00985021 -0.00032730776 -0.013649627 0.008034698
00000000: 2370 a13b c662 21bc 819a abb9 afa2 5fbc
00000010: f7a3 033c
