config/results/AgrConserv_Refactored_2M_Pre-Final_v3/Hummingbird_Conservative/Hummingbird_Conservative-999960.pt (torch, 574538 bytes, 36 tensors)

network_body._body_endoder.seq_layers.0.weight f4 [128, 47]
-0.13745362 -0.07174387 -0.14297916 0.05787461 0.14765257 0.13520777 0.043969586 -0.082420126
-0.079061195 0.13180831 -0.03968419 -0.37440303 0.10913754 -0.07669615 -0.16029285 0.030488174
0.017453076 -0.009597108 -0.09396616 -0.021195235 -0.10913352 -0.09959747 0.21028209 -0.15175046
-0.055938162 0.09258183 0.10003583 0.20941906 -0.018331513 0.0652069 0.053012088 0.017706404
0.009520082 -0.10447064 -0.15038441 0.14414747 0.23085122 -0.09493152 0.093720995 0.16134945
-0.2952701 -0.12707146 0.029551854 0.1857581 -0.17147273 0.3005304 0.14713946 0.25234678
-0.2048149 0.045772817 0.3131212 -0.06907519 -0.15715267 -0.27732664 0.03572513 0.13386284
-0.12297451 0.0511443 -0.050160028 0.16167343 0.070237696 0.057604484 -0.012766662 0.16626623
0.044276528 0.008260497 -0.15242025 -0.051808964 0.14288498 0.124454275 0.20104688 -0.009989482
0.17431337 -0.022251843 0.056168012 -0.06140626 0.08920798 -0.12148633 0.007791134 -0.030910978
0.28120688 -0.05542309 0.10119909 -0.24951585 -0.051946647 -0.18912739 0.084837005 -0.18414532
0.11927611 -0.0946985 -0.029929686 0.08767418 0.26720056 0.02250509 -0.14766964 0.023674391
0.103616275 0.079316445 -0.10615751 0.039813284 -0.2804792 0.14051624 -0.054993942 0.09122955
0.20960772 0.15052313 0.19784974 -0.09788945 -0.27516967 0.038205266 0.05959835 0.05915465
-0.09690678 0.26208195 0.15732135 0.12596634 0.3040356 0.092584595 -0.058174003 -0.22007842
0.113674104 0.0063273474 -0.20618118 0.24973272 0.0005644219 -0.021157807 -0.2003902 0.227817
-0.10689362 0.3498115 0.042908624 -0.017156778 0.096478425 -0.108179145 -0.0750788 -0.015310304
-0.044281814 -0.118497714 0.10470739 0.21076436 -0.003975577 -0.07774538 0.04154025 -0.30313972
-0.11857188 0.1229917 0.021891633 -0.021885557 -0.062266845 0.35398185 0.002155836 0.19780706
0.25589898 0.048881255 -0.101029515 -0.08894191 -0.09510957 -0.20504881 -0.059080634 -0.043575678
-0.02331034 -0.30781263 0.063231245 -0.11766004 0.062089644 0.03924927 0.13666706 0.25056097
-0.14255866 0.032610983 0.009819214 0.0103933 -0.2539974 0.057807114 -0.07076009 -0.061402973
-0.29903537 0.17869091 0.34498718 -0.18470894 -0.04829557 0.07892683 0.084674045 0.22923684
0.089147806 -0.21556269 -0.0063054934 -0.30437267 -0.08786486 0.34667033 -0.22663182 0.09769141
0.11140991 0.109526314 -0.028130382 0.123960204 -0.08227629 0.0341226 0.14464583 -0.03983656
-0.1797292 0.09500647 0.2188893 -0.08323483 0.10060181 0.023354791 -0.28617004 -0.03404355
-0.0048446897 0.026724258 -0.014500261 -0.07350945 -0.05250036 0.023249753 0.022810197 0.22008519
0.014867666 0.037271645 0.021643188 -0.052297 -0.22816488 -0.15312338 -0.14229803 0.2165108
0.004467684 0.11637159 0.34509993 -0.18684621 0.15324071 0.122932516 -0.13513644 0.075392224
-0.08808662 0.034301717 -0.062106915 0.11209942 -0.20543568 -0.17416061 -0.0018405328 0.18021426
0.1729923 -0.1576428 0.2030918 0.24459997 0.08122919 -0.4241675 0.050529227 0.21338822
0.1294877 -0.11871518 -0.22338374 -0.09702545 0.1335729 0.012228378 0.01689951 0.21293546
00000000: a4c0 0cbe 73ee 92bd 2169 12be ed0d 6d3d
00000010: 3c32 173e e873 0a3e 7419 343d e2cb a8bd
00000020: d6ea a1bd c2f8 063e e48b 22bd c1b1 bfbe
00000030: 8183 df3d df12 9dbd cf23 24be 56c2 f93c
00000040: c1f9 8e3c 303d 1dbc 5571 c0bd a1a1 adbc
00000050: 6581 dfbd c2f9 cbbd 3054 573e 7964 1bbe
00000060: 6a1f 65bd 8b9b bd3d 96df cc3d f371 563e
00000070: f82b 96bc 328b 853d 3423 593d 050d 913c
00000080: 1efa 1b3c b4f4 d5bd 5ffe 19be 659b 133e
00000090: 4364 6c3e 756b c2bd cbf0 bf3d ca38 253e
000000a0: a42d 97be 051f 02be bb16 f23c 5f37 3e3e
000000b0: 8c96 2fbe 1fdf 993e baab 163e 9933 813e
000000c0: ffba 51be 477c 3b3d 6c51 a03e 4b77 8dbd
000000d0: a1ec 20be c2fd 8dbe 8454 123d 5713 093e
000000e0: 0fda fbbd af7c 513d 9a74 4dbd b88d 253e
000000f0: c8d8 8f3d aef2 6b3d 432b 51bc b241 2a3e
00000100: 4e5b 353d 0957 073c 0e14 1cbe a335 54bd
00000110: 7150 123e e2e1 fe3d 3cdf 4d3e edaa 23bc
00000120: 347f 323e 7f49 b6bc 6e10 663d 2185 7bbd
00000130: acb2 b63d d3cd f8bd c54c ff3b 0539 fdbc
00000140: 59fa 8f3e 5203 63bd 7841 cf3d 1581 7fbe
00000150: 02c6 54bd 9caa 41be 06bf ad3d 9790 3cbe
00000160: 0847 f43d 4af1 c1bd 1a2f f5bc 858e b33d
00000170: 83ce 883e 985c b83c b636 17be ccf0 c13c
00000180: c534 d43d a970 a23d 1c69 d9bd 4113 233d
00000190: f89a 8fbe 7de3 0f3e 5441 61bd 8fd6 ba3d
000001a0: 68a3 563e bc22 1a3e 1f99 4a3e 447a c8bd
000001b0: 0ae3 8cbe 207d 1c3d 661d 743d 254c 723d
000001c0: 1077 c6bd 9b2f 863e d918 213e 52fd 003e
000001d0: 8eaa 9b3e fe9c bd3d dd47 6ebd 3d5c 61be
000001e0: f8cd e83d a355 cf3b 2921 53be efb9 7f3e
000001f0: b6f5 133a 2353 adbc 1733 4dbe dc48 693e
00000200: 0beb dabd 7e1a b33e f4c0 2f3d 5f8c 8cbc
00000210: 7b96 c53d 078d ddbd eac2 99bd 12d8 7abc
00000220: d960 35bd eeae f2bd d470 d63d 9dd2 573e
00000230: 8f45 82bb f838 9fbd 1c26 2a3d 2135 9bbe
00000240: d0d5 f2bd 13e3 fb3d 1556 b33c 5749 b3bc
00000250: 850b 7fbd 1c3d b53e ed48 0d3b ef8d 4a3e
00000260: 3105 833e b637 483d 90e8 cebd 2d27 b6bd
00000270: cec8 c2bd 51f8 51be 89fe 71bd 697c 32bd
00000280: 53f5 bebc 9e99 9dbe 627f 813d bff7 f0bd
00000290: b651 7e3d d8c3 203d 73f2 0b3e 8749 803e
000002a0: e6fa 11be 1893 053d c5e0 203c a948 2a3c
000002b0: f20b 82be 27c7 6c3d abea 90bd af81 7bbd
000002c0: 2a1b 99be c0fa 363e 29a2 b03e 5724 3dbe
000002d0: 93d1 45bd 64a4 a13d 9669 ad3d 10bd 6a3e
000002e0: 2093 b63d 77bc 5cbe 509e cebb bcd6 9bbe
000002f0: 7ef2 b3bd c67e b13e 2c12 68be 6f12 c83d
00000300: e12a e43d 554f e03d b071 e6bc d9de fd3d
00000310: 7980 a8bd 24c4 0b3d 091e 143e a92b 23bd
00000320: ee0a 38be c192 c23d 8424 603e 0677 aabd
00000330: 5208 ce3d 8c52 bf3c e184 92be 4071 0bbd
00000340: 34c0 9ebb d5ec da3c 8192 6dbc 1f8c 96bd
00000350: 9e0a 57bd 4476 be3c 73dc ba3c 035e 613e
00000360: 8397 733c 27aa 183d 0e4d b13c 6135 56bd
00000370: 0ea4 69be 60cc 1cbe 93b6 11be 02b5 5d3e
00000380: a665 923b 3a54 ee3d f0b0 b03e 9d54 3fbe
00000390: 22eb 1c3e 0bc4 fb3d 3561 0abe 3d67 9a3d
000003a0: c266 b4bd f57f 0c3d d263 7ebd 6194 e53d
000003b0: bb5d 52be 2957 32be 083e f1ba 168a 383e
000003c0: e524 313e 1d6d 21be 4cf7 4f3e 6a78 7a3e
000003d0: 7d5b a63d 7c2c d9be bcf7 4e3d 7182 5a3e
000003e0: 6c98 043e f220 f3bd b5be 64be 47b5 c6bd
000003f0: 56c7 083e 8959 483c d770 8a3c c10b 5a3e

network_body._body_endoder.seq_layers.0.bias f4 [128]
0.031836517 0.025731882 -0.022877919 -0.026235493 0.023649927 0.021858113 0.0211734 -0.00040754702
0.011865485 0.01977972 0.027517807 -0.014505277 -0.02804071 -0.006821239 0.026886012 0.03169568
0.0016831672 0.014981134 0.014387412 0.0068210843 -0.0073181675 -0.0049498165 0.040508714 0.04109156
-0.0035275714 0.015029064 0.018402021 0.015130927 0.007908971 -0.022704596 -0.020744437 0.022250107
-0.011814477 0.0015979917 0.0055292463 0.019329987 0.0050534937 -0.017666655 0.0058956468 -0.010975162
0.0238162 0.050555877 0.026540289 0.007123091 0.008342793 1.15990115e-05 0.023485184 -0.008178642
0.007764833 0.0007578615 0.015236595 0.014908345 -0.011047619 -0.001573839 0.030839799 -0.0007407322
-0.006689311 0.050315216 0.025826475 0.025568146 -0.0032865575 0.0010131181 0.015038874 0.0052946312
-0.0075206803 -0.0012194735 -0.034116257 -0.021649268 2.6435526e-05 -0.01682578 -0.0014677566 0.020389237
0.013259425 -0.037204348 -0.012515345 -0.034175202 0.014585679 0.012947313 0.027221287 0.0021748827
0.0054040775 -0.0075524366 0.030087175 0.029043714 -0.019604366 0.024394063 -0.0013716174 0.020634875
0.035134397 0.033737667 -0.004101921 -0.012209492 0.004306303 0.019348815 0.025608307 0.031749763
0.016794413 0.013095151 0.0064208563 0.027592933 0.0019536386 0.0073245573 -0.02174843 0.00826299
0.021897364 0.010091367 0.0011630432 0.0004331047 0.00058712997 -0.011785455 -0.015533651 0.018606674
-0.00041406538 0.044219453 0.036493924 0.0016742982 0.014835009 0.02420893 0.027540313 0.015863085
0.014004571 0.007644927 0.014021077 -0.0068837213 0.019074533 0.030008394 0.023832062 0.050157882
00000000: 0267 023d abcb d23c 796a bbbc d1eb d6bc
00000010: 7ebd c13c c90f b33c d773 ad3c 09ac d5b9
00000020: 7467 423c 1409 a23c 066d e13c 8ba7 6dbc
00000030: a2b5 e5bc b384 dfbb 0e40 dc3c 54d3 013d
00000040: b89d dc3a 6e73 753c 2eb9 6b3c 6783 df3b
00000050: 3dcd efbb 1232 a2bb 77ec 253d a04f 283d
00000060: d42e 67bb 773c 763c d6bf 963c b5e7 773c
00000070: a194 013c fdfe b9bc 3df0 a9bc db45 b63c
00000080: 8291 41bc b473 d13a ae2e b53b ec59 9e3c
00000090: c797 a53b a9b9 90bc 4530 c13b 2ad1 33bc
000000a0: 311a c33c ae13 4f3d 056b d93c d168 e93b
000000b0: 36b0 083c 6099 4237 0064 c03c b6ff 05bc
000000c0: 2470 fe3b 39ab 463a e9a2 793c 2242 743c
000000d0: 1301 35bc 4649 ceba bfa3 fc3c b22d 42ba
000000e0: 0232 dbbb 5417 4e3d 0b92 d33c 4a74 d13c
000000f0: 4963 57bb 9aca 843a 9c65 763c 967e ad3b
00000100: 0a70 f6bb bed6 9fba 7dbd 0bbd ce59 b1bc
00000110: dcc1 dd37 38d6 89bc bd61 c0ba 5407 a73c
00000120: 0f3e 593c 9663 18bd 290d 4dbc 4cfb 0bbd
00000130: c6f8 6e3c f720 543c 2dff de3c 7a88 0e3b
00000140: b014 b13b 6e7a f7bb 6179 f63c 15ed ed3c
00000150: 5699 a0bc 0fd6 c73c d8c7 b3ba 780a a93c
00000160: 16e9 0f3d 8230 0a3d 6869 86bb 520a 48bc
00000170: e31b 8d3b 6881 9e3c 83c8 d13c 0a0c 023d
00000180: 7094 893c 0b8d 563c 0c66 d23b 930a e23c
00000190: 9e08 003b d702 f03b c329 b2bc 7e61 073c
000001a0: 1a62 b33c 4356 253c 4171 983a 5412 e339
000001b0: a0e9 193a c817 41bc db80 7ebc 066d 983c
000001c0: ea16 d9b9 751f 353d a77a 153d 2074 db3a
000001d0: 8a0e 733c ce51 c63c 399c e13c 4df3 813c
000001e0: 6e73 653c 4c82 fa3b a9b8 653c d790 e1bb
000001f0: 3242 9c3c 2ad4 f53c 753b c33c 5a72 4d3d

network_body._body_endoder.seq_layers.2.weight f4 [128, 128]
-0.010967469 0.019986765 -0.05081146 0.016629193 0.048733316 0.0014453186 0.0018087557 0.033133
0.049236465 -0.1592415 -0.06563117 -0.15847233 -0.09881202 -0.010894219 0.04970572 -0.060400687
0.053592674 0.06480004 -0.05303956 0.068158075 0.016574064 -0.12911083 0.14665869 0.015696267
0.08055981 0.001457083 -0.038256373 0.020252628 0.023889117 -0.018644886 0.046115447 -0.03795935
-0.076920405 -0.01293105 0.03641025 -0.04892559 -0.0028300849 0.10985772 0.022015372 -0.10571891
-0.06020691 0.05137757 0.04107827 -0.02237521 -0.0002209823 0.06796332 0.05850321 -0.11761681
-0.0653111 0.15724953 0.062950425 0.05849175 0.12764011 -0.044486247 0.12883368 0.11079915
-0.0032487286 0.1773042 0.09637918 -0.114725985 -0.09737994 -0.068302795 -0.016616434 -0.12652864
0.009089813 -0.03615384 -0.0070678303 -0.10818623 0.030550607 0.0023526186 0.084099375 0.05773554
0.06685525 -0.011504552 0.12145144 -0.041512016 0.11204414 0.087836295 0.040907286 -0.17558075
0.10522342 -0.10331894 -0.056162793 -0.0012627845 0.12589419 0.085129425 -0.0095191775 -0.0025505251
0.027282525 0.02486473 0.03178688 0.09583742 -0.094254754 0.07159408 -0.024168815 0.02723457
-0.07335682 0.05206941 -0.15265381 0.04275812 0.08402305 -0.1594945 0.0047978377 -0.17488208
-0.12374599 0.15492164 -0.13609053 0.07113809 0.06309141 -0.04253639 0.05066522 0.17177504
-0.0008045187 0.13295321 -0.11072207 -0.1932576 -0.010177829 -0.054169167 0.02099574 0.054897808
0.10204679 0.07401123 -0.11622629 -0.032550845 0.010010806 -0.03130601 0.18808459 -0.033588912
0.0655139 0.011349569 -0.056307867 -0.13757916 0.10530126 -0.00894023 0.12465046 -0.028498538
0.00678565 0.14561957 -0.16387545 -0.10482129 0.118880816 -0.13177218 -0.055431604 0.07625184
-0.054374836 0.028326998 -0.03434001 0.03045305 0.055719703 0.051879052 -0.059835106 0.1646032
-0.091249205 -0.010898321 0.12084937 0.049615487 -0.008985908 0.10095237 -0.027451925 -0.15104136
-0.1028197 -0.077343404 -0.020709852 -0.061330162 0.08803131 -0.12873854 0.16534062 -0.07747328
0.09928845 -0.072519004 -0.017619437 -0.1282773 0.1680397 -0.05235469 0.005050711 0.07717371
0.0951969 0.097820945 0.009561868 0.08285041 -0.027829396 0.06849285 0.018301198 0.096048936
-0.18051419 0.06436207 0.023483017 0.08144955 -0.01825799 -0.13157013 0.0772318 0.003956581
-0.10714136 -0.18096827 0.11724408 0.0057140994 0.16907634 -0.014235842 0.05072916 -0.029021643
0.11105472 -0.04496885 0.06745434 0.051059667 0.014241708 -0.03021905 -0.09821994 -0.15882829
0.022933053 0.046301633 -0.008678393 0.16223638 0.06814193 -0.025801273 -0.18183696 0.16033418
-0.06130132 -0.1377661 -0.008619887 -0.07353702 -0.0032770275 0.21619469 0.052358318 0.12690416
-0.20305593 0.061490558 0.13002321 0.06756076 -0.0666125 -0.034111854 0.04019921 -0.019483365
-0.12016557 -0.027556408 -0.109037705 -0.027664771 -0.1587679 -0.06915889 -0.08614883 0.047260527
-0.108669996 0.014773875 -0.16388485 0.12703286 0.084124446 0.05352427 0.09644495 0.019455163
-0.014311537 0.03520597 0.05437052 0.006183419 0.039744858 0.14324452 0.042525396 0.010898676
00000000: e6b0 33bc 49bb a33c ad1f 50bd f239 883c
00000010: 969c 473d d870 bd3a c513 ed3a 78b6 073d
00000020: 2dac 493d 3410 23be a369 86bd 9246 22be
00000030: f55d cabd ab7d 32bc 3a98 4b3d b666 77bd
00000040: fe83 5b3d e2b5 843d 0240 59bd 7696 8b3d
00000050: 55c6 873c a135 04be b22d 163e 7595 803c
00000060: 8bfc a43d 98fb be3a b7b2 1cbd d7e8 a53c
00000070: 1cb3 c33c 29bd 98bc 8de3 3c3d 437b 1bbd
00000080: 7288 9dbd c1dc 53bc ea22 153d 3366 48bd
00000090: f278 39bb 16fd e03d 9559 b43c 2883 d8bd
000000a0: 859b 76bd 4971 523d b041 283d 374c b7bc
000000b0: 7cb7 67b9 5a30 8b3d 10a1 6f3d 15e1 f0bd
000000c0: d3c1 85bd 0506 213e 27ec 803d 0c95 6f3d
000000d0: 17b4 023e 3637 36bd faec 033e aaea e23d
000000e0: 9fe8 54bb 3b8f 353e 7362 c53d 75f5 eabd
000000f0: 226f c7bd 56e2 8bbd 301f 88bc b990 01be
00000100: 70ed 143c 0d16 14bd 4299 e7bb be90 ddbd
00000110: 4445 fa3c 642e 1a3b 4b3c ac3d 1a7c 6c3d
00000120: 68eb 883d 977d 3cbc 88bb f83d 8108 2abd
00000130: 6677 e53d 84e3 b33d 668e 273d 71cb 33be
00000140: 607f d73d e198 d3bd f50a 66bd 0484 a5ba
00000150: 68ea 003e 5658 ae3d 53f6 1bbc b626 27bb
00000160: 9a7f df3c 1eb1 cb3c f632 023d 6946 c43d
00000170: a308 c1bd eb9f 923d aefd c5bc 081b df3c
00000180: 1a3c 96bd bc46 553d 4851 1cbe 2323 2f3d
00000190: 4714 ac3d 8752 23be 2e37 9d3b 4a14 33be
000001a0: 8a6e fdbd c7a3 1e3e 515b 0bbe d9b0 913d
000001b0: 1236 813d a33a 2ebd 5586 4f3d cce5 2f3e
000001c0: 56e6 52ba e324 083e 41c2 e2bd 52e5 45be
000001d0: e9c0 26bc 7de0 5dbd 42ff ab3c 86dc 603d
000001e0: e8fd d03d 3393 973d 0d08 eebd 0954 05bd
000001f0: 5d04 243c bb3a 00bd 3f99 403e 8794 09bd
00000200: 272c 863d 8bf3 393c 14a3 66bd 8de1 0cbe
00000210: 30a8 d73d 0b7a 12bc be48 ff3d c475 e9bc
00000220: 285a de3b 4c1d 153e f7ce 27be 8bac d6bd
00000230: c977 f33d 49ef 06be 400c 63bd ed29 9c3d
00000240: 26b8 5ebd 050e e83c 1ca8 0cbd ad78 f93c
00000250: 583a 643d 217f 543d a815 75bd be8d 283e
00000260: dde0 babd df8e 32bc e07f f73d 9c39 4b3d
00000270: a139 13bc 1ec0 ce3d dce2 e0bc 96aa 1abe
00000280: 2393 d2bd 3866 9ebd b5a7 a9bc 5635 7bbd
00000290: c249 b43d 09d4 03be 0d4f 293e 50aa 9ebd
000002a0: be57 cb3d d884 94bd a356 90bc 205b 03be
000002b0: 9912 2c3e df71 56bd 6f80 a53b 400d 9e3d
000002c0: 98f6 c23d 5956 c83d 62a9 1c3c 7aad a93d
000002d0: 79fa e3bc fb45 8c3d 65ec 953c 4eb5 c43d
000002e0: b6d8 38be 43d0 833d 755f c03c 06cf a63d
000002f0: c891 95bc 52ba 06be b52b 9e3d 35a6 813b
00000300: ee6c dbbd bf4f 39be aa1d f03d 573d bb3b
00000310: 5922 2d3e 733d 69bc 61c9 4f3d ccbe edbc
00000320: a870 e33d 4231 38bd 8025 8a3d f123 513d
00000330: 0e56 693c f18d f7bc 8927 c9bd e2a3 22be
00000340: 19de bb3c c8a6 3d3d d22f 0ebc 4b21 263e
00000350: ff8d 8b3d 315d d3bc 7833 3abe a52e 243e
00000360: 1817 7bbd 8e12 0dbe 6d3a 0dbc 949a 96bd
00000370: 66c3 56bb 2462 5d3e ad75 563d 2af3 013e
00000380: e5ed 4fbe 86dd 7b3d ce24 053e 4c5d 8a3d
00000390: 226c 88bd dfb8 0bbd eda7 243d 949b 9fbc
000003a0: 5e19 f6bd fabd e1bc 294f dfbd 3ba1 e2bc
000003b0: 0d94 22be 2da3 8dbd cc6e b0bd 4194 413d
000003c0: 608e debd 1f0e 723c 6ed1 27be e714 023e
000003d0: 7049 ac3d 443c 5b3d ee84 c53d 6f60 9f3c
000003e0: f07a 6abc 2334 103d 9fb3 5e3d 479e ca3b
000003f0: 81cb 223d b1ae 123e 1c2f 2e3d 5c90 323c

network_body._body_endoder.seq_layers.2.bias f4 [128]
0.027561922 0.03306336 0.01714021 0.02235904 -0.015686797 0.007433993 0.0038391524 -0.022118423
-0.020740548 -0.0008851624 -0.0067733787 0.022564847 -0.0032045795 -0.00622498 0.0151801845 -0.0093785925
0.009254557 0.009638395 -0.006436411 -0.009145341 0.009785355 -0.020781709 0.00066022004 0.027938602
-0.009079698 0.015753923 0.013500183 -0.03132012 0.03585016 0.01710973 -0.003017984 -0.01518203
0.003151841 0.0074089644 -0.0070512737 -0.010906691 -0.0049314676 -0.0058725784 0.019738555 0.019913558
-0.0022379262 0.028924216 0.011658179 -0.007936334 0.018150162 -0.009790145 0.029933013 0.014846892
0.029334316 0.0010201038 0.022701735 -0.014598427 0.0030941782 0.01023932 0.0064447536 -0.0014633066
-0.009909314 -0.015365703 0.007867606 -0.0111305555 0.010426837 -0.0042088022 -0.00046778118 0.013064641
-0.022833023 0.02623085 0.015411698 0.029416034 -0.0063962014 0.03467353 0.012709679 0.017801998
-0.015231674 0.0076475064 0.027240131 0.02673632 0.032626495 0.0021900616 0.014863987 0.026784733
-0.005324377 -0.015616275 0.004518375 -0.01891309 -0.008378729 0.01886113 0.004686584 -0.021687392
-0.0051891888 0.01861863 0.009900094 0.028481884 -0.0014526463 0.02402831 0.0073954267 0.016399074
0.015857428 0.015059535 0.034830652 0.0050283736 -0.009180125 0.0003035984 -0.015541605 0.017006475
0.03079585 -0.013222797 0.010699151 -0.018351654 0.0082616685 -0.00713072 -0.0065046973 0.012972767
0.028552486 -0.002242753 0.02814209 0.01805356 0.0057469294 -0.022860684 0.022131206 -0.0010590091
0.028440004 0.004808293 0.014981905 0.012814755 0.020467147 -0.004362256 0.0048565255 -0.021398433
00000000: 8ac9 e13c 726d 073d a069 8c3c 4e2a b73c
00000010: 9981 80bc da98 f33b 4a9a 7b3b b231 b5bc
00000020: 15e8 a9bc 3e0a 68ba 38f3 ddbb ead9 b83c
00000030: ec03 52bb ebfa cbbb 4fb6 783c aba8 19bc
00000040: 6da0 173c 5cea 1d3c 87e8 d2bb 57d6 15bc
00000050: c152 203c 673e aabc 9e12 2d3a 7fdf e43c
00000060: 03c3 14bc 5f0e 813c df2f 5d3c 8749 00bd
00000070: 9ed7 123d b429 8c3c 5fc9 45bb 0dbe 78bc
00000080: 1e8f 4e3b e6c6 f23b 5f0e e7bb fab1 32bc
00000090: 2698 a1bb c26e c0bb c0b2 a13c c221 a33c
000000a0: 2caa 12bb 7af2 ec3c f201 3f3c 6607 02bc
000000b0: a6af 943c d866 20bc 1436 f53c 6140 733c
000000c0: 854e f03c 01b5 853a fdf8 b93c 3e2e 6fbc
000000d0: b2c7 4a3b d2c2 273c 832e d33b 6ccc bfba
000000e0: ad5a 22bc 6ec0 7bbc 22e7 003c ef5c 36bc
000000f0: 53d5 2a3c fee9 89bb 8740 f5b9 130d 563c
00000100: 520c bbbc 14e2 d63c 5981 7c3c e5f9 f03c
00000110: 3a97 d1bb d505 0e3d 423c 503c 7fd5 913c
00000120: 458e 79bc ef97 fa3b b226 df3c 2106 db3c
00000130: 5ca3 053d 2387 0f3b 1588 733c a86b db3c
00000140: 1d78 aebb 68db 7fbc e00e 943b a0ef 9abc
00000150: f046 09bc a882 9a3c eb91 993b c2a9 b1bc
00000160: 120a aabb 1986 983c 0134 223c d752 e93c
00000170: b966 beba 05d7 c43c 5655 f23b 5a57 863c
00000180: 70e7 813c 45bc 763c 96aa 0e3d 0ec5 a43b
00000190: 3c68 16bc 4a2c 9f39 37a2 7ebc 2a51 8b3c
000001a0: 9447 fc3c 6ea4 58bc 7e4b 2f3c 3556 96bc
000001b0: f35b 073c d1a8 e9bb 5b25 d5bb bb8b 543c
000001c0: e7e6 e93c 27fb 12bb 3e8a e63c 0fe5 933c
000001d0: bd50 bc3b 5446 bbbc 814c b53c 73ce 8aba
000001e0: 03fb e83c e38e 9d3b aa76 753c faf4 513c
000001f0: b8aa a73c 41f1 8ebb 7d23 9f3b c44b afbc

action_model._continuous_distribution.log_sigma f4 [1, 5]
0.03500225 0.065984905 0.04532966 0.05034968 0.024976365
00000000: 855e 0f3d 1823 873d 98ab 393d 773b 4e3d
00000010: 3c9b cc3c

action_model._continuous_distribution.mu.weight f4 [5, 128]
0.028358825 0.019505378 0.0031069121 -0.028107965 -0.02938952 0.06232069 0.05124652 -0.028351482
0.01652447 -0.03833558 -0.03123888 -0.0123147275 0.03491144 0.025216823 0.010184192 -0.010262628
0.047799923 0.04850744 0.0065435353 0.034297142 -0.0073667318 0.009486748 0.02843037 -0.024789363
0.028172432 0.048944175 -0.033812802 1.5626603e-05 -0.014298069 -0.06749883 0.045680247 -0.022978175
-0.006366343 -0.0074432446 -0.014734131 0.028071076 -0.021221586 0.06753558 -0.046312563 -0.024371007
-0.027029842 -0.012693598 -0.02820071 0.03136871 0.02228683 0.037745114 -0.035405695 -0.0051767947
-0.052502163 0.031041332 0.033360295 0.06546341 0.06208681 -0.0074240756 -0.007102069 -0.012368678
0.018208286 -0.023713062 -0.03823045 -3.165983e-05 -0.03218087 -0.02523099 0.0054841973 -0.055145
0.029800255 0.026318828 -0.0036020556 -0.029511373 0.034639046 0.018933447 -0.009145186 0.0034319602
-0.016099278 0.0019165634 -0.0058187954 -0.00093768665 0.037398808 0.042532723 -0.0079323435 0.039996233
0.00078950194 -0.0066707106 -0.009737558 0.02705018 -0.044526193 -0.05887943 -0.0025380289 -0.029345544
-0.028023178 -0.030441802 -0.033081025 0.043822095 -0.023773119 0.052296504 0.0029408988 -0.044028483
0.04419677 -0.08068983 -0.00964172 -0.02568168 -0.0053658294 0.050473403 -0.03224341 -0.00046372483
-0.001454531 0.0032308036 0.0028254136 0.043640874 0.012612769 0.020051545 -0.0036720235 0.009415469
0.02056333 0.0063030734 -0.0022035534 -0.026340336 0.009082393 0.0034140192 -0.0384505 -0.00014494086
0.0630808 -0.01750002 0.021851365 0.032653823 -0.04314138 0.010452207 -0.01951242 0.012509711
-0.06707268 -0.045938276 -0.034839436 -0.04437131 0.04356372 0.00066766475 -0.030776614 0.02206376
0.061574858 -0.0037264659 0.057606254 -0.036610708 0.04444252 -0.034947593 0.020391697 0.041919306
0.013332313 -0.029059255 0.022502834 0.03554207 -0.015887044 0.048150122 0.054694686 -0.054753765
0.060274124 -0.025587322 0.01609014 0.034057636 -0.032952692 -0.05732823 0.029237244 0.026661167
0.06107076 0.0323806 0.005466339 0.05215142 0.013275323 -0.0067040655 -0.02926609 -0.017660495
-0.036948748 0.0027079142 -0.0055423575 0.069231614 -0.010671855 -0.050102804 -0.043787338 -0.03833497
-0.0374632 0.0047274823 -0.020032529 0.00338972 -0.02646015 0.0070999493 -0.019491564 -0.0030909653
0.014803381 -0.020209648 -0.023993606 0.013317149 0.046309624 -0.0034905416 -0.0059212297 0.0191709
0.03669736 -0.08812275 -0.026447387 -0.022107592 0.0070771277 -0.033348944 -0.00070584874 -0.021428755
0.06975105 -0.023262717 -0.04853288 -0.03922227 -0.04664955 0.029470298 -0.023696499 -0.019009458
0.043112006 0.026884349 0.02410116 0.03628668 0.023708427 -0.029372076 -0.018112458 0.03030559
0.018610531 -0.03383513 -0.0031229944 -0.065513685 0.0022676473 -0.04353584 0.019191291 -0.007427857
-0.05137251 0.014207271 -0.01163232 -0.01602521 -1.4904748e-05 -0.003533121 0.043502375 -0.045160186
-0.057568703 0.01612707 0.068641685 0.024631314 0.040491797 0.015209112 -0.0022118106 -0.043652277
-0.022198794 -0.0011466675 -0.047726072 -0.043519184 0.01907205 0.01339612 0.07604448 0.011562621
-0.05385785 0.054045223 -0.002697631 0.0049417657 -0.012057693 -0.009995794 -0.017062217 0.014094692
00000000: c450 e83c bec9 9f3c 569d 4b3b ad42 e6bc
00000010: 4ac2 f0bc fb43 7f3d dfe7 513d 5e41 e8bc
00000020: 535e 873c c505 1dbd aee8 ffbc b6c3 49bc
00000030: 4cff 0e3d 8393 ce3c 99db 263c 9524 28bc
00000040: dac9 433d bdaf 463d 276b d63b 297b 0c3d
00000050: a064 f1bb 4e6e 1b3c cfe6 e83c 1013 cbbc
00000060: dfc9 e63c b079 483d 4b7f 0abd e015 8337
00000070: 7342 6abc d43c 8abd 361b 3b3d ba3c bcbc
00000080: c19c d0bb 76e6 f3bb 6d67 71bc 50f5 e53c
00000090: e4d8 adbc 1850 8a3d 3eb2 3dbd b5a5 c7bc
000000a0: b06d ddbc cff8 4fbc 2d05 e7bc 7a7c 003d
000000b0: df92 b63c 9f9a 1a3d 9005 11bd 1aa2 a9bb
000000c0: 820c 57bd 644a fe3c cea4 083d ae11 863d
000000d0: bd4e 7e3d a945 f3bb 79b8 e8bb ffa5 4abc
000000e0: 8b29 953c e541 c2bc 8897 1cbd 7cca 04b8
000000f0: 17d0 03bd 39b1 cebc c8b4 b33b b9df 61bd
00000100: aa1f f43c 959a d73c 7710 6cbb d6c1 f1bc
00000110: ace1 0d3d 511a 9b3c b1d5 15bc bdea 603b
00000120: a2e2 83bc 3235 fb3a 98ab bebb 16cf 75ba
00000130: 7e2f 193d cb36 2e3d a9f6 01bc 17d3 233d
00000140: 94f6 4e3a fa95 dabb 478a 1fbc 5798 dd3c
00000150: 1961 36bd 8f2b 71bd 0f55 26bb 1166 f0bc
00000160: dd90 e5bc 1661 f9bc f87f 07bd cc7e 333d
00000170: d8bf c2bc dc34 563d 18bc 403b 3657 34bd
00000180: ac07 353d b640 a5bd 4ef8 1dbc 6362 d2bc
00000190: d7d3 afbb 33bd 4e3d aa11 04bd 1820 f3b9
000001a0: f6a5 beba e4bb 533b 932a 393b c6c0 323d
000001b0: caa5 4e3c 2343 a43c 55a6 70bb 5743 1a3c
000001c0: 6e74 a83c 038a ce3b 7e69 10bb b0c7 d7bc
000001d0: 51ce 143c bdbd 5f3b 467e 1dbd 44fb 17b9
000001e0: 8230 813d 345c 8fbc a201 b33c 04c0 053d
000001f0: 04b5 30bd bc3f 2b3c 83d8 9fbc 88f5 4c3c
00000200: 675d 89bd c629 3cbd ccb3 0ebd b1be 35bd
00000210: df6f 323d 3906 2f3a 3d1f fcbc 0fbf b43c
00000220: eb35 7c3d b937 74bb 89f4 6b3d 1cf5 15bd
00000230: 5c09 363d 3525 0fbd 7d0c a73c 94b3 2b3d
00000240: c66f 5a3c ad0d eebc dd57 b83c 9094 113d
00000250: 8c25 82bc 1039 453d 8907 603d 7c45 60bd
00000260: 00e2 763d 819c d1bc 78cf 833c 0580 0b3d
00000270: 67f9 06bd 02d1 6abd f282 ef3c 8568 da3c
00000280: 5525 7a3d 85a1 043d fa1e b33b ba9c 553d
00000290: be80 593c c7ad dbbb 70bf efbc beac 90bc
000002a0: 9257 17bd 4377 313b aa9c b5bb 4ec9 8d3d
000002b0: 01d9 2ebc 9938 4dbd 5a5a 33bd 2105 1dbd
000002c0: 0373 19bd ffe8 9a3b 421b a4bc 1126 5e3b
000002d0: f5c2 d8bc b1a6 e83b c6ac 9fbc cb91 4abb
000002e0: e189 723c b48e a5bc 3d8e c4bc 2c30 5a3c
000002f0: 29af 3d3d 92c1 64bb e006 c2bb 4b0c 9d3c
00000300: f94f 163d b379 b4bd 31a8 d8bc fb1a b5bc
00000310: 40e7 e73b e798 08bd b508 39ba 5b8b afbc
00000320: a3d9 8e3d 7491 bebc 6aca 46bd 88a7 20bd
00000330: 9913 3fbd b26b f13c 291f c2bc b9b9 9bbc
00000340: 3796 303d 913c dc3c cc6f c53c 57a1 143d
00000350: 2d38 c23c b59d f0bc 9460 94bc 6e43 f83c
00000360: 1d75 983c b596 0abd 27ab 4cbb 0a2c 86bd
00000370: cf9c 143b a352 32bd 0e37 9d3c 6165 f3bb
00000380: fb6b 52bd 9dc5 683c 7c95 3ebc 4d47 83bc
00000390: 680f 7ab7 ef8b 67bb 8c2f 323d e3f9 38bd
000003a0: 29cd 6bbd eb1c 843c 0394 8c3d 9cc7 c93c
000003b0: bada 253d a42f 793c 06f4 10bb bbcc 32bd
000003c0: 3fda b5bc c74b 96ba 6a7c 43bd 2c41 32bd
000003d0: fd3c 9c3c 667b 5b3c 35bd 9b3d 2671 3d3c
000003e0: 0d9a 5cbd 865e 5d3d bdca 30bb 89ee a13b
000003f0: a18d 45bc 66c5 23bc 10c6 8bbc 6ced 663c

action_model._continuous_distribution.mu.bias f4 [5]
4.8890368e-05 -0.020584077 0.0014503016 -0.01220388 0.023738587
00000000: a20f 4d38 f09f a8bc 0c18 be3a c8f2 47bc
00000010: 6d77 c23c

exp_avg f4 [128, 47]
5.1089555e-05 -8.751202e-06 0.0 1.1693675e-06 3.000313e-07 4.2038322e-05 0.0 1.2051754e-05
-8.0041245e-06 5.034249e-05 0.0 1.3484043e-05 1.6424774e-07 4.217411e-05 0.0 1.256602e-05
-2.7712225e-05 7.005059e-05 0.0 1.7119486e-05 9.747585e-06 3.259078e-05 0.0 7.0634655e-06
-2.3170998e-05 6.498085e-05 0.0 2.4099494e-05 2.797298e-05 1.4294916e-05 0.0 -7.403427e-06
-1.5099295e-05 5.743765e-05 0.0 2.0710499e-05 -2.4024606e-05 2.4517987e-05 1.8693678e-05 2.7087775e-05
1.37345405e-05 2.073065e-05 2.0172913e-05 -3.1424403e-05 -3.9650015e-05 2.151877e-06 1.3184186e-05 0.00018135748
-4.6123372e-05 0.0 3.7103282e-06 1.082257e-06 0.00013415185 0.0 3.7252397e-05 1.6205855e-05
0.0001190283 0.0 3.7521222e-05 4.2956282e-05 9.2277856e-05 0.0 3.05149e-05 -2.651712e-05
0.00016175123 0.0 3.910499e-05 1.4503667e-05 0.00012073047 0.0 3.8153375e-05 -4.2117033e-05
0.00017613776 0.0 5.4014934e-05 1.621189e-05 0.00011975918 0.0 4.265479e-05 -5.4967462e-05
0.00019020154 0.0 7.573124e-05 -3.1329123e-06 0.00010807812 8.2234634e-05 5.868607e-06 3.540698e-05
7.5482545e-05 8.144105e-05 -0.000104917846 -5.8285703e-05 4.040277e-06 1.9728348e-05 -4.095798e-05 6.1140313e-06
0.0 -3.7421128e-07 -3.2226137e-07 -3.452169e-05 0.0 -1.1356254e-05 1.7206987e-06 -3.6564637e-05
0.0 -1.5107845e-05 -3.4384186e-05 -4.5976367e-07 0.0 -5.055431e-06 -2.9319315e-05 -5.524627e-06
0.0 -1.4818433e-05 -7.3839155e-06 -2.7460032e-05 0.0 -7.922148e-06 -1.4254881e-05 -2.0488038e-05
0.0 -2.2621034e-05 2.9074621e-05 -6.37936e-05 0.0 -1.834093e-05 -4.3180287e-05 8.336338e-06
0.0 1.7147524e-05 -5.648403e-05 -3.2618573e-05 -2.1580252e-05 6.707592e-05 -6.10565e-06 -2.1491758e-05
-5.647708e-06 1.3984857e-06 1.4294118e-05 5.3436665e-08 -9.100367e-06 -5.7314992e-05 1.7375845e-05 0.0
-1.5726756e-06 -2.0852217e-06 -3.7853915e-05 0.0 -1.0690653e-05 -6.0737293e-06 -3.3865403e-05 0.0
-1.0283649e-05 -2.6622884e-06 -3.7276855e-05 0.0 -1.0176696e-05 1.6096361e-05 -5.6035507e-05 0.0
-1.2666909e-05 7.718375e-07 -4.071097e-05 0.0 -9.740489e-06 1.20802315e-05 -5.1473133e-05 0.0
-1.0717593e-05 -6.424081e-05 2.4222349e-05 0.0 2.2705364e-05 4.1042073e-05 -8.0981205e-05 0.0
-2.0491208e-05 1.7410232e-05 -5.7008565e-06 -4.460084e-06 -1.7124032e-05 -1.821084e-05 -1.8832698e-05 -2.8362178e-05
4.318403e-05 2.1644199e-05 -2.104161e-06 -6.804187e-06 -0.00015531128 3.3381893e-05 0.0 -2.6568127e-06
-1.7614415e-06 -0.00012016798 0.0 -3.5368397e-05 1.8768993e-05 -0.00014069838 0.0 -4.4545606e-05
-5.5686996e-05 -6.62424e-05 0.0 -2.8133985e-05 2.6707588e-07 -0.00012219648 0.0 -5.4893804e-05
-3.9809605e-05 -8.211978e-05 0.0 -2.9219185e-05 9.301336e-06 -0.00012992021 0.0 -7.990382e-05
4.0056875e-05 -0.00016172427 0.0 -5.117093e-05 -7.452204e-05 -4.740737e-05 0.0 -1.7617029e-05
-6.688132e-05 -0.00011595022 -8.621782e-05 7.8916666e-05 -4.4473465e-05 -8.933739e-05 -2.5513844e-05 7.216054e-05
7.832191e-05 -1.6465464e-06 -3.175941e-05 0.00018380137 -4.5129054e-05 0.0 4.139492e-06 1.6852312e-06
0.00013698709 0.0 3.8609396e-05 1.640249e-05 0.00012226983 0.0 3.924986e-05 4.3709326e-05
9.4962954e-05 0.0 3.096111e-05 5.7214174e-06 0.0001329509 0.0 3.870784e-05 7.7599825e-06
00000000: fe48 5638 20d2 12b7 0000 0000 29f3 9c35
00000010: fd13 a134 4e52 3038 0000 0000 e431 4a37
00000020: 7449 06b7 d626 5338 0000 0000 8639 6237
00000030: 135c 3034 1be4 3038 0000 0000 a5d2 5237
00000040: 8d77 e8b7 20e8 9238 0000 0000 d19b 8f37
00000050: 8f89 2337 15b2 0838 0000 0000 b502 ed36
00000060: 575f c2b7 5446 8838 0000 0000 4529 ca37
00000070: 84a7 ea37 32d4 6f37 0000 0000 f46a f8b6
00000080: fa52 7db7 35e9 7038 0000 0000 75bb ad37
00000090: 7388 c9b7 faab cd37 5ed0 9c37 8e3a e337
000000a0: 676d 6637 bbe6 ad37 0039 a937 b2cd 03b8
000000b0: e14d 26b8 f768 1036 a631 5d37 c72a 3e39
000000c0: 9874 41b8 0000 0000 f4fe 7836 1142 9135
000000d0: 1dab 0c39 0000 0000 753f 1c38 cff1 8737
000000e0: d59e f938 0000 0000 1b60 1d38 f52b 3438
000000f0: 4c85 c138 0000 0000 40fa ff37 1571 deb7
00000100: c49b 2939 0000 0000 aa04 2438 c754 7337
00000110: ad30 fd38 0000 0000 e006 2038 d2a6 30b8
00000120: 9fb1 3839 0000 0000 188e 6238 c5fe 8737
00000130: 3827 fb38 0000 0000 3be8 3238 dd8c 66b8
00000140: d670 4739 0000 0000 e6d1 9e38 063f 52b6
00000150: 00a8 e238 6275 ac38 f3ea c436 f581 1438
00000160: 624c 9e38 55cb aa38 5707 dcb8 cc77 74b8
00000170: b791 8736 4e7e a537 4cca 2bb8 2127 cd36
00000180: 0000 0000 35e7 c8b4 4403 adb4 62cb 10b8
00000190: 0000 0000 bd86 3eb7 c2f2 e635 fb5c 19b8
000001a0: 0000 0000 b377 7db7 bd37 10b8 70d5 f6b4
000001b0: 0000 0000 d2a1 a9b6 c0f2 f5b7 2f60 b9b6
000001c0: 0000 0000 af9c 78b7 5ac3 f7b6 f859 e6b7
000001d0: 0000 0000 5ee9 04b7 3f28 6fb7 badd abb7
000001e0: 0000 0000 4dc2 bdb7 46e5 f337 eec8 85b8
000001f0: 0000 0000 d9da 99b7 7b1c 35b8 4ddc 0b37
00000200: 0000 0000 07d8 8f37 44e9 6cb8 edcf 08b8
00000210: 3d07 b5b7 1cab 8c38 22df ccb6 3349 b4b7
00000220: 7181 bdb6 9ab3 bb35 c5d0 6f37 3c82 6533
00000230: c7ad 18b7 8165 70b8 58c2 9137 0000 0000
00000240: b914 d3b5 d6ef 0bb6 55c5 1eb8 0000 0000
00000250: 015c 33b7 f0cc cbb6 b30a 0eb8 0000 0000
00000260: f087 2cb7 c4a9 32b6 b859 1cb8 0000 0000
00000270: 94bc 2ab7 ac06 8737 ab07 6bb8 0000 0000
00000280: f683 54b7 4530 4f35 12c1 2ab8 0000 0000
00000290: 156b 23b7 33ac 4a37 dbe4 57b8 0000 0000
000002a0: b6cf 33b7 06b9 86b8 1931 cb37 0000 0000
000002b0: 6677 be37 9724 2c38 74d4 a9b8 0000 0000
000002c0: 89e4 abb7 300c 9237 fc49 bfb6 d4a7 95b6
000002d0: 94a5 8fb7 7bc3 98b7 e9fa 9db7 50eb edb7
000002e0: 8020 3538 9090 b537 3635 0db6 854f e4b6
000002f0: 0edb 22b9 8903 0c38 0000 0000 b24b 32b6
00000300: ab6a ecb5 b102 fcb8 0000 0000 8758 14b8
00000310: 1b72 9d37 6f88 13b9 0000 0000 7bd6 3ab8
00000320: 7591 69b8 9eeb 8ab8 0000 0000 4601 ecb7
00000330: a162 8f34 de21 00b9 0000 0000 c63d 66b8
00000340: 3df9 26b8 b937 acb8 0000 0000 b91b f5b7
00000350: ef0c 1c37 313b 08b9 0000 0000 0992 a7b8
00000360: be02 2838 8794 29b9 0000 0000 5ea0 56b8
00000370: b748 9cb8 47d7 46b8 0000 0000 48c8 93b7
00000380: a342 8cb8 4d2a f3b8 d7cf b4b8 1080 a538
00000390: 0589 3ab8 a55a bbb8 9006 d6b7 e554 9738
000003a0: c140 a438 e7fe dcb5 6835 05b8 ceba 4039
000003b0: f448 3db8 0000 0000 f7e5 8a36 1a30 e235
000003c0: 31a4 0f39 0000 0000 86f0 2138 1498 8937
000003d0: 8f35 0039 0000 0000 37a0 2438 8854 3738
000003e0: d926 c738 0000 0000 3ddc 0138 9afa bf36
000003f0: bc68 0b39 0000 0000 3a5a 2238 df30 0237

exp_avg_sq f4 [128, 47]
2.3606873e-08 4.838244e-09 0.0 5.0979106e-11 2.9130787e-09 2.5925663e-08 0.0 1.8741735e-09
2.9629255e-09 2.605388e-08 0.0 2.0275617e-09 3.0615124e-09 2.5549976e-08 0.0 2.0653605e-09
5.015316e-09 2.435991e-08 0.0 2.5812577e-09 3.993634e-09 2.4802292e-08 0.0 2.6023093e-09
6.3704193e-09 2.3306333e-08 0.0 4.0537715e-09 4.9875024e-09 2.4079348e-08 0.0 3.891682e-09
1.0236024e-08 1.8084613e-08 0.0 3.953585e-09 6.097175e-09 8.221285e-09 5.5383276e-09 9.031214e-09
9.7426005e-09 1.0187535e-08 8.552285e-09 7.4242417e-09 1.6902543e-08 6.402601e-11 1.2307796e-09 2.2809438e-07
2.2434508e-08 0.0 3.8484518e-10 3.6580573e-08 2.1351879e-07 0.0 1.673681e-08 4.515222e-08
2.0347095e-07 0.0 1.7355978e-08 2.476093e-08 2.2470724e-07 0.0 1.9457849e-08 6.273069e-08
1.9288947e-07 0.0 2.1899789e-08 2.6982592e-08 2.2268303e-07 0.0 2.5637432e-08 6.522345e-08
1.8867921e-07 0.0 3.532768e-08 3.8888395e-08 2.087909e-07 0.0 3.674745e-08 7.0056934e-08
1.8079714e-07 0.0 3.5525904e-08 5.8715305e-08 6.731177e-08 4.424632e-08 8.837329e-08 6.801834e-08
1.0296101e-07 7.482678e-08 7.968147e-08 1.4009387e-07 4.5481907e-10 9.310141e-09 1.673017e-08 2.8447134e-09
0.0 4.3178888e-11 1.3550253e-09 1.833749e-08 0.0 1.38799e-09 2.1309687e-09 1.7439287e-08
0.0 1.4621476e-09 1.7808298e-09 1.8316397e-08 0.0 1.5008228e-09 4.3668567e-09 1.5060357e-08
0.0 1.7053652e-09 1.7652488e-09 1.8078124e-08 0.0 1.9407846e-09 5.537076e-09 1.4286204e-08
0.0 2.5913074e-09 1.8248584e-09 1.7981343e-08 0.0 2.8847038e-09 3.5938235e-09 1.553019e-08
0.0 3.3344398e-09 4.39192e-09 5.5782223e-09 3.5940437e-09 6.661577e-09 5.776498e-09 7.551466e-09
6.469677e-09 5.6920935e-09 1.0760898e-08 4.1574223e-11 6.303875e-10 2.6968417e-08 3.076381e-09 0.0
5.6267862e-11 4.747616e-09 2.6538142e-08 0.0 2.0551032e-09 6.7172414e-09 2.4065102e-08 0.0
2.060979e-09 3.2283831e-09 2.700401e-08 0.0 2.3005302e-09 6.7625354e-09 2.4783223e-08 0.0
2.7648248e-09 2.6228524e-09 2.7595581e-08 0.0 3.0950211e-09 7.3365625e-09 2.4599585e-08 0.0
4.711182e-09 5.1190465e-09 2.578474e-08 0.0 4.457885e-09 1.3973395e-08 1.742362e-08 0.0
3.1225535e-09 6.9361072e-09 8.452441e-09 5.580359e-09 1.0321492e-08 8.103489e-09 1.1847706e-08 1.022607e-08
9.062396e-09 1.7439586e-08 5.812501e-11 7.64004e-10 1.1719955e-07 2.5043805e-08 0.0 2.1506079e-10
9.731133e-09 1.2507577e-07 0.0 9.367857e-09 1.4790024e-08 1.2280272e-07 0.0 9.983865e-09
8.393883e-09 1.2931811e-07 0.0 1.0594052e-08 2.9295572e-08 1.0372583e-07 0.0 1.1553786e-08
1.619352e-08 1.2448525e-07 0.0 1.364774e-08 3.4536512e-08 1.05074115e-07 0.0 1.8845489e-08
2.3180773e-08 1.11806195e-07 0.0 1.783842e-08 4.723682e-08 8.8376915e-08 0.0 2.152537e-08
2.7602239e-08 4.1715953e-08 2.8046385e-08 4.0924686e-08 3.7740264e-08 5.6951396e-08 4.294589e-08 4.1335458e-08
7.973064e-08 2.4275104e-10 5.0508944e-09 1.8391849e-07 2.009873e-08 0.0 3.0450062e-10 2.5443171e-08
1.8001458e-07 0.0 1.3892914e-08 2.7016041e-08 1.7579255e-07 0.0 1.4857718e-08 2.403531e-08
1.8080554e-07 0.0 1.5431164e-08 3.778863e-08 1.7208158e-07 0.0 1.9756117e-08 3.912807e-08
00000000: 10c8 ca32 a53d a631 0000 0000 5f35 602e
00000010: 6c2f 4831 23b3 de32 0000 0000 cfca 0031
00000020: 569c 4b31 17cd df32 0000 0000 3e55 0b31
00000030: b262 5231 fe78 db32 0000 0000 35ee 0d31
00000040: 3053 ac31 0240 d132 0000 0000 f761 3131
00000050: 6038 8931 d10c d532 0000 0000 4fd4 3231
00000060: cde2 da31 2b33 c832 0000 0000 5a49 8b31
00000070: 895e ab31 0cd7 ce32 0000 0000 99b7 8531
00000080: 82da 2f32 7c58 9b32 0000 0000 1ad8 8731
00000090: 527f d131 983d 0d32 a54b be31 b327 1b32
000000a0: 6960 2732 4105 2f32 59ed 1232 5218 ff31
000000b0: 1631 9132 70cb 8c2e 3528 a930 1bea 7434
000000c0: 01b6 c032 0000 0000 2592 d32f c41c 1d33
000000d0: 9943 6534 0000 0000 a2c4 8f32 64ed 4133
000000e0: ab79 5a34 0000 0000 3316 9532 dcb1 d432
000000f0: 0e47 7134 0000 0000 4324 a732 90b6 8633
00000100: 0e1d 4f34 0000 0000 251e bc32 59c7 e732
00000110: a51a 6f34 0000 0000 4f39 dc32 f910 8c33
00000120: bf97 4a34 0000 0000 32bb 1733 3e06 2733
00000130: 0130 6034 0000 0000 40d4 1d33 3572 9633
00000140: 2421 4234 0000 0000 2595 1833 292e 7c33
00000150: 098d 9033 5809 3e33 bbc7 bd33 7a11 9233
00000160: 6a1b dd33 75b0 a033 5a1d ab33 b66c 1634
00000170: 180a fa2f 6ff2 1f32 08b6 8f32 ba7c 4331
00000180: 0000 0000 1be7 3d2e b73b ba30 9184 9d32
00000190: 0000 0000 8ec3 be30 6670 1231 66cd 9532
000001a0: 0000 0000 bff4 c830 61c1 f430 2f56 9d32
000001b0: 0000 0000 8245 ce30 470b 9631 135e 8132
000001c0: 0000 0000 3462 ea30 2c9d f230 374a 9b32
000001d0: 0000 0000 a55e 0531 a340 be31 646f 7532
000001e0: 0000 0000 c312 3231 7fce fa30 6475 9a32
000001f0: 0000 0000 3f3c 4631 36f7 7631 4067 8532
00000200: 0000 0000 1624 6531 bde7 9631 90aa bf31
00000210: 16fb 7631 dae3 e431 9d7a c631 b3bb 0132
00000220: e14b de31 2f94 c331 eede 3832 6ad8 362e
00000230: 9447 2d30 2da8 e732 4468 5331 0000 0000
00000240: fb77 772e 7920 a331 fef5 e332 0000 0000
00000250: c239 0d31 7bcd e631 b8b7 ce32 0000 0000
00000260: 20a1 0d31 51da 5d31 72f6 e732 0000 0000
00000270: 5b17 1e31 e45b e831 e2e2 d432 0000 0000
00000280: 50ff 3d31 b53d 3431 530b ed32 0000 0000
00000290: 30b0 5431 1615 fc31 0f4f d332 0000 0000
000002a0: ffdf a131 9ce3 af31 3e7d dd32 0000 0000
000002b0: f92b 9931 a40f 7032 f2aa 9532 0000 0000
000002c0: 8b94 5631 a552 ee31 3b36 1132 5bbd bf31
000002d0: 6752 3132 8637 0b32 c38a 4b32 bbae 2f32
000002e0: d7b0 1b32 0ece 9532 f1a2 7f2e 0102 5230
000002f0: 22af fb33 e91f d732 0000 0000 3b76 6c2f
00000300: fa2d 2732 914c 0634 0000 0000 45f0 2032
00000310: 3717 7e32 c1db 0334 0000 0000 8185 2b32
00000320: b034 1032 b1da 0a34 0000 0000 2201 3632
00000330: a5a5 fb32 e1bf de33 0000 0000 177e 4632
00000340: ed19 8b32 3faa 0534 0000 0000 6577 6a32
00000350: 4c55 1433 1ba5 e133 0000 0000 abe1 a132
00000360: 0f1f c732 1b1a f033 0000 0000 1a3b 9932
00000370: 6fe1 4a33 b9c9 bd33 0000 0000 cae6 b832
00000380: f719 ed32 2d2b 3333 a7ea f032 2bc5 2f33
00000390: dc17 2233 b99a 7433 8173 3833 d188 3133
000003a0: 6238 ab33 2c74 852f 238c ad31 217b 4534
000003b0: 93a5 ac32 0000 0000 a766 a72f 208e da32
000003c0: 084a 4134 0000 0000 afad 6e32 e710 e832
000003d0: 7dc1 3c34 0000 0000 ef40 7f32 3576 ce32
000003e0: 7323 4234 0000 0000 7d8d 8432 0a4d 2233
000003f0: 6dc5 3834 0000 0000 29b4 a932 c50d 2833

exp_avg f4 [128]
4.2338357e-05 0.00013523409 -3.4843953e-05 -3.9939143e-05 -0.0001219294 0.00013867235 7.107024e-05 5.306476e-06
3.4781406e-05 -2.5051091e-05 5.370278e-05 1.4645469e-05 1.0224501e-05 1.920794e-05 9.169159e-05 -5.188948e-06
5.14461e-06 8.340449e-05 -1.7350087e-05 1.6900447e-05 -3.1011106e-05 -7.1397076e-06 -2.8436878e-05 5.055789e-05
-6.536155e-06 4.842211e-05 9.2005284e-05 -8.835324e-05 -0.00012698479 3.0223006e-05 -2.0104444e-05 3.90487e-05
-3.145013e-05 -8.797447e-06 -3.6459347e-05 3.9356622e-05 2.9042496e-05 -2.8940263e-05 8.236696e-06 -5.77507e-05
-2.3652992e-05 4.9767936e-05 5.417444e-05 6.584594e-05 -3.0582367e-05 5.3414e-05 1.8386174e-05 -4.556246e-05
9.3959134e-05 -3.7809264e-06 2.8691522e-05 1.9074543e-05 -3.0393188e-05 -2.0345335e-06 3.7866516e-06 -7.625511e-07
-5.8104382e-05 7.555949e-05 3.2650558e-05 2.4411398e-05 4.4121384e-06 -1.8282612e-05 -1.7970004e-05 -1.45969e-05
1.6338403e-05 2.0086003e-05 8.673723e-06 -2.8309774e-05 3.498535e-05 3.2618034e-05 1.663303e-05 -7.3612064e-05
3.5042045e-05 -3.5438723e-05 1.663752e-05 -3.397716e-05 0.00013879962 3.3931312e-05 9.9093144e-05 -3.274942e-05
-5.3995358e-05 4.952533e-05 1.6032689e-05 3.7011036e-05 2.8441835e-05 5.4473137e-05 2.2642718e-05 1.961708e-05
0.00021124203 -1.6658818e-05 -9.052391e-06 -3.1475858e-05 -7.032808e-05 8.897468e-05 1.5068332e-05 4.0155865e-05
-1.138071e-05 -6.769763e-05 -2.6302918e-05 -1.496426e-05 -9.47801e-06 -2.9798863e-05 1.4772925e-05 4.0088806e-05
3.465349e-05 -8.072702e-06 -3.1130236e-05 -6.1813753e-06 -1.1460223e-05 -6.236398e-05 8.718086e-05 7.9738566e-05
-2.140401e-05 -4.1003674e-05 2.301491e-05 2.4171071e-05 6.1098144e-05 -3.7974585e-06 8.2851046e-05 7.31828e-05
-1.8568706e-05 -2.719494e-05 0.000114787574 -3.2353616e-06 4.3220352e-06 2.5408612e-05 -6.5891305e-05 2.5125595e-05
00000000: 7794 3138 a0cd 0d39 6925 12b8 5484 27b8
00000010: 59b4 ffb8 9368 1139 8b0b 9538 480e b236
00000020: 40e2 1138 cf24 d2b7 ec3e 6138 cfb5 7537
00000030: e689 2b37 bd20 a137 8c4a c038 b91c aeb6
00000040: dd9f ac36 72e9 ae38 078b 91b7 6fc5 8d37
00000050: ec11 02b8 9f91 efb6 bb8b eeb7 1f0e 5438
00000060: 2551 dbb6 d818 4b38 f6f2 c038 494a b9b8
00000070: 3827 05b9 6987 fd37 f7a5 a8b7 39c8 2338
00000080: 52e9 03b8 bf98 13b7 edeb 18b8 da12 2538
00000090: 49a0 f337 bec4 f2b7 5730 0a37 5839 72b8
000000a0: 6a6a c6b7 eabd 5038 5d39 6338 c516 8a38
000000b0: 9145 00b8 d908 6038 023c 9a37 521a 3fb8
000000c0: ed0b c538 d2bb 7db6 93ae f037 4502 a037
000000d0: e0f4 feb7 0589 08b6 2e1e 7e36 1db2 4cb5
000000e0: 1bb5 73b8 b175 9e38 45f2 0838 14c7 cc37
000000f0: fb0b 9436 9c5d 99b7 4abe 96b7 35e5 74b7
00000100: 740e 8937 5d7e a837 5b85 1137 c77a edb7
00000110: 3cbd 1238 59cf 0838 2987 8b37 2d60 9ab8
00000120: 1cfa 1238 0aa4 14b8 cd90 8b37 b382 0eb8
00000130: bd8a 1139 7851 0e38 3ad0 cf38 6c5c 09b8
00000140: 1379 62b8 6bb9 4f38 f07d 8637 4c3c 1b38
00000150: 6096 ee37 167a 6438 def0 bd37 5c8f a437
00000160: da80 5d39 8abe 8bb7 b9df 17b7 f204 04b8
00000170: 1a7d 93b8 eb97 ba38 fecd 7c37 086d 2838
00000180: c7ef 3eb7 e3f8 8db8 16a5 dcb7 020f 7bb7
00000190: be03 1fb7 92f8 f9b7 3bd9 7737 0725 2838
000001a0: e758 1138 fe6f 07b7 d691 02b8 9c69 cfb6
000001b0: 4845 40b7 68c9 82b8 ded4 b638 5139 a738
000001c0: c38c b3b7 5cfb 2bb8 2510 c137 fbc2 ca37
000001d0: d121 8038 d7d7 7eb6 51c0 ad38 b779 9938
000001e0: fec3 9bb7 b020 e4b7 1cba f038 171f 59b6
000001f0: 0006 9136 9424 d537 202f 8ab8 cec4 d237

exp_avg_sq f4 [128]
2.8632858e-08 2.4842552e-07 1.9228068e-08 2.9890643e-08 1.3716146e-07 2.0242548e-07 1.3732725e-07 1.2822952e-08
3.2298026e-08 6.159003e-08 1.93363e-08 9.734648e-09 1.550776e-08 2.0624197e-08 7.156047e-08 1.08563135e-07
2.891604e-08 1.6488988e-07 2.2043447e-09 1.993521e-08 1.8218413e-08 3.5506964e-08 1.6735127e-08 1.2055104e-07
7.612476e-08 4.8528936e-08 2.0270957e-07 9.575162e-08 1.7904851e-07 5.420154e-08 1.4625479e-08 3.8800668e-08
1.0797287e-07 4.785129e-08 2.223904e-08 1.3252928e-07 1.5572862e-08 2.428011e-08 1.15629675e-08 6.650847e-08
3.9132107e-08 1.0020815e-07 5.973842e-08 6.066046e-08 1.5038683e-08 7.419921e-08 1.628978e-08 8.304275e-08
1.6190417e-07 4.348571e-08 9.2986326e-08 3.166673e-08 1.5750992e-08 5.8174403e-09 1.7610233e-07 2.0013893e-10
1.5479044e-08 7.196753e-08 1.0881394e-07 1.0280826e-07 1.3699204e-08 4.3363166e-09 7.6067685e-08 3.8498086e-08
3.2360777e-08 8.883124e-09 7.2620256e-09 1.2166816e-08 2.3786779e-08 1.8707567e-08 3.0434776e-08 5.044302e-08
8.687018e-08 2.713266e-08 1.0046705e-08 2.1963e-08 2.359608e-07 9.213508e-08 5.3642697e-08 1.4436462e-08
5.7418518e-08 1.8797062e-08 1.4575254e-08 1.9119358e-07 1.0118647e-08 1.7612491e-07 2.4948944e-08 2.7361492e-07
6.463476e-07 1.1193595e-08 8.707939e-09 4.9409067e-08 5.6648236e-08 1.3045062e-07 3.8119378e-08 1.4185122e-07
4.938926e-08 7.285752e-08 1.729506e-08 1.8094099e-08 3.006921e-08 3.744977e-08 5.1181576e-08 6.733489e-08
3.972063e-08 3.0571318e-08 4.4459732e-08 5.9041043e-09 1.9239213e-08 2.6936723e-08 4.5649895e-08 4.7355925e-07
2.3861892e-08 2.3026553e-08 9.978003e-09 3.9282423e-08 8.914365e-08 1.3938225e-07 8.058349e-08 1.2942422e-07
5.2191574e-08 1.4551043e-08 9.74085e-08 8.205074e-10 4.472609e-08 1.0332502e-07 7.5656615e-08 4.4751253e-08
00000000: 52f4 f532 585f 8534 f82a a532 1c61 0033
00000010: a846 1334 4b5a 5934 3a74 1334 f04b 5c32
00000020: 0eb8 0a33 7a43 8433 f918 a632 6f3d 2732
00000030: ed35 8532 1729 b132 c9ac 9933 3723 e933
00000040: 0b63 f832 960c 3134 3e7b 1731 fe3d ab32
00000050: b77e 9c32 5280 1833 efc0 8f32 d170 0134
00000060: 087a a333 216e 5033 62a8 5934 03a0 cd33
00000070: 7b40 4034 39cb 6833 8943 7b32 c9a5 2633
00000080: b7de e733 0d85 4d33 2b08 bf32 5f4d 0e34
00000090: 16c5 8532 8790 d032 78a6 4632 6bd3 8e33
000000a0: 3512 2833 0332 d733 8b49 8033 7144 8233
000000b0: 6a2e 8132 7257 9f33 9bed 8b32 3c55 b233
000000c0: e1d7 2d34 0bc5 3a33 c6af c733 f001 0833
000000d0: cc4c 8732 bfe2 c731 a416 3d34 1a0e 5c2f
000000e0: c7f6 8432 918c 9a33 19ad e933 70c7 dc33
000000f0: bd59 6b32 a5fe 9431 a75a a333 1859 2533
00000100: 0dfd 0a33 649c 1832 7485 f931 3906 5132
00000110: ae53 cc32 60b2 a032 64b7 0233 b0a6 5833
00000120: 638d ba33 5a11 e932 e099 2c32 26a9 bc32
00000130: 695c 7d34 ccdb c533 c564 6633 3b04 7832
00000140: 549c 7633 2d77 a132 a566 7a32 e44a 4d34
00000150: 48d6 2d32 d91c 3d34 4f4f d632 59e5 9234
00000160: ab80 2d35 f44d 4032 ec99 1532 d835 5433
00000170: 654d 7333 fe11 0c34 b3b8 2333 c44f 1834
00000180: 1120 5433 d875 9c33 3d90 9432 586d 9b32
00000190: 7225 0133 75d8 2033 bdd2 5b33 bf99 9033
000001a0: 4b99 2a33 854d 0333 fef3 3e33 0ddd ca31
000001b0: 7a43 a532 7b62 e732 9710 4433 7d3d fe34
000001c0: dbf8 cc32 edcb c532 b96b 2b32 7bb7 2833
000001d0: 3d6f bf33 1aa9 1534 3e0d ad33 dcf7 0a34
000001e0: 3e29 6033 2afc 7932 e42e d133 138a 6130
000001f0: db18 4033 88e3 dd33 aa78 a233 8634 4033
