config/results/Curriculum_2M_v1/Hummingbird_Conservative/Hummingbird_Conservative-499968.onnx (onnx, 97764 bytes, 7 tensors)

network_body._body_endoder.seq_layers.0.weight f4 [128, 47]
0	0xbe3b12f8	-0.18268955
1	0xbd88ade5	-0.06673793
2	0xbe83d804	-0.25750744
3	0x3ea595be	0.32340807
4	0xbd86631f	-0.065618746
5	0x3e55a1ab	0.20862453
6	0x3dc4f0ea	0.09616263
7	0x3e0c7d5d	0.13719697
8	0xbe891096	-0.26770467
9	0xbe608af1	-0.21928002
10	0xbe14b385	-0.14521606
11	0xbe3376f2	-0.17525843
12	0x3d9973e1	0.07492805
13	0xbde6ecb6	-0.11275618
14	0xbe1931b3	-0.14960365
15	0x3db87415	0.09006516
16	0x3ca7e310	0.020494014
17	0x3eb56dc1	0.35435298
18	0xbeac58ea	-0.33661586
19	0xbcf06e70	-0.029349536
20	0x3e4b2c00	0.19841003
21	0xbddcbfaf	-0.10778748
22	0xbdaba67b	-0.08381363
23	0xbc7b0f35	-0.01532345
24	0xbd357d32	-0.04430885
25	0x3d123df9	0.035703633
26	0xbdc35523	-0.09537723
27	0xbdab0502	-0.083505645
28	0x3e460ad6	0.19340071
29	0x3e4e7975	0.2016352
30	0x3be735bd	0.0070559666
31	0xbe3e91f5	-0.18610366
32	0x3dfffb8d	0.124991514
33	0x3e43439d	0.19068761
34	0xbda6dab9	-0.08147187
35	0x3de9ecb2	0.11422099
36	0x3e90da41	0.28291515
37	0x3ea3c03c	0.319826
38	0xbe8a6e5c	-0.27037323
39	0xbe466824	-0.19375664
40	0xbd9168a1	-0.071000345
41	0x3e1e96e0	0.15487242
42	0x3e2a50e5	0.16632421
43	0xbdc34c35	-0.0953602
44	0xbe1d08d5	-0.153354
45	0x3e865bbf	0.26241872
46	0xbe0a9366	-0.1353279
47	0x3e2ac61a	0.16677132
48	0xbe59647c	-0.21229738
49	0x3cb91328	0.022592142
50	0xbe26a9ad	-0.16275664
51	0x3d8b8a34	0.068134695
52	0x3c30b86b	0.010786156
53	0xb907d414	-0.00012953609
54	0xbd8c57b5	-0.06852666
55	0x3e1aa59c	0.15102237
56	0xbdaefe6e	-0.08544622
57	0x3dde8592	0.1086532
58	0xbc08a63f	-0.008340417
59	0xbdc16bdf	-0.09444403
60	0xbd3bd0b5	-0.045853335
61	0xbdd43043	-0.10360768
62	0xbe0831b6	-0.13300213
63	0x3d8b544a	0.06803186
64	0x3e16a442	0.14711097
65	0xbe173a29	-0.1476828
66	0x3deadd5a	0.11468001
67	0x3e12cc5d	0.14335771
68	0xbd98a8a1	-0.074540384
69	0xbd8eaf2b	-0.069670044
70	0xbdee8d27	-0.116480164
71	0x3d6a0c13	0.05714042
72	0x3e430446	0.19044599
73	0x3e72e7ea	0.2372128
74	0x3ea4a88d	0.32159844
75	0x3e612146	0.21985349
76	0x3ddb835d	0.10718415
77	0x3da49027	0.080353074
78	0x3e54097e	0.20706746
79	0x3ef55d99	0.47922972
80	0xbd393f40	-0.045226336
81	0x3e4ce149	0.20007814
82	0xbe63253d	-0.22182174
83	0x3dad5340	0.08463144
84	0xbd2ed1cd	-0.04268055
85	0x3e201e6d	0.15636607
86	0x3d81162d	0.06303058
87	0xbe0b0373	-0.13575535
88	0xbe401c3a	-0.18760768
89	0x3e5b5797	0.21420132
90	0x3e04c217	0.12964664
91	0xbdabd578	-0.08390325
92	0x3d2a8ea4	0.04163994
93	0x3e3b0d73	0.18266849
94	0xbdc57e27	-0.09643202
95	0xbd84c0cf	-0.06482088
96	0xbe3c888d	-0.18411465
97	0x3e7e7974	0.24851018
98	0x3dc668c7	0.096879534
99	0xbd01e3fc	-0.031711563
100	0x3db23a47	0.08702522
101	0x3db5d726	0.08878927
102	0xbdfdcd58	-0.12392682
103	0x3dcc540d	0.09976969
104	0xbdcfaf1c	-0.10140821
105	0xbd47499a	-0.048654176
106	0x3e4da3f2	0.20082071
107	0x3d2be7ea	0.041969217
108	0xb9ad2129	-0.00033021838
109	0xbdb2a1ad	-0.087222435
110	0xbdbc8cdd	-0.09206555
111	0xbd8617f8	-0.065475404
112	0x3ea6a422	0.32547098
113	0xbc8926fb	-0.01674222
114	0xbcd363fb	-0.02580451
115	0xbe1f0d4e	-0.15532419
116	0xbdc94661	-0.09827877
117	0xbc3aee4f	-0.011409356
118	0xbd9e997a	-0.07744117
119	0x3c225878	0.009908788
120	0xbd21c983	-0.039498817
121	0xbe80fcb3	-0.25192794
122	0xbeb8758a	-0.36027175
123	0x3da4a771	0.080397494
124	0x3d230a88	0.039804965
125	0x3d93d53a	0.07218404
126	0xbcf123a8	-0.029435948
127	0xbd816c23	-0.063194536
128	0x3d993acf	0.0748192
129	0x3e422e9d	0.18963094
130	0xbda4024d	-0.08008251
131	0x3bb924e4	0.0056501497
132	0xbdd79d8f	-0.10528099
133	0xbb3ca923	-0.0028787337
134	0x3db5125e	0.08841394
135	0xbd971c6e	-0.073784694
136	0xbe2acc46	-0.16679487
137	0x3d9e4f46	0.07729964
138	0x3e799053	0.24371462
139	0x39ad7663	0.00033085336
140	0x3d4d84ef	0.050175603
141	0xbe80a144	-0.25123036
142	0x3e0e752c	0.13911885
143	0x3e1a2701	0.15053941
144	0x3d183020	0.03715527
145	0x3d468a9d	0.048472036
146	0x3e2bed3f	0.16789721
147	0x3c4670d9	0.012111866
148	0xbe0b47ea	-0.13601652
149	0xbea92efd	-0.33043662
150	0x3df5567b	0.119793855
151	0xbe9c34cd	-0.30509034
152	0xbd76d5bc	-0.060262427
153	0xbe13625c	-0.1439299
154	0x3e225db8	0.15856063
155	0xbe3d9587	-0.18514071
156	0x3da29c95	0.07940022
157	0xbe2f5e81	-0.17125894
158	0x3e1ba803	0.1520081
159	0x3e07b5f8	0.1325301
160	0xbd40922e	-0.047014408
161	0x3d85d774	0.06535235
162	0x3d9d570e	0.0768262
163	0x3db9dd36	0.09075396
164	0xbebff0d1	-0.37488416
165	0x3dde3ad8	0.10851067
166	0xbe3a1938	-0.18173683
167	0x3d5cfc78	0.05395171
168	0x3d5610cb	0.05226211
169	0xbc4c6bad	-0.012476844
170	0xbd27bbf8	-0.040950745
171	0xbd7290b2	-0.059220023
172	0x3eb1922f	0.34681842
173	0x3e0a7c43	0.13523965
174	0xbd9ea925	-0.077471055
175	0x3e26a2db	0.16273062
176	0xbdc20195	-0.09472958
177	0x3d25e83a	0.04050467
178	0x3dd1063b	0.102062665
179	0xbe79b2ee	-0.24384663
180	0x3d3ce7d7	0.046119537
181	0x3c0ab008	0.008464821
182	0x3e1e11e5	0.15436514
183	0xbe37746c	-0.17915505
184	0xbe2fc754	-0.17165881
185	0x3e57be83	0.21068768
186	0xbd9fd309	-0.07803924
187	0x3e47eff5	0.1952513
188	0x3d5f0977	0.054452386
189	0x3eccebcc	0.4002365
190	0xbdcf3478	-0.101174295
191	0x3d008a7c	0.03138207
192	0xbe798657	-0.24367653
193	0x3bb378c7	0.0054770443
194	0x3bf1117e	0.0073568216
195	0x3e050618	0.12990606
196	0xbde7ffee	-0.113281116
197	0x3cafb82d	0.021450127
198	0x3eada907	0.3391802
199	0xbe03e6ef	-0.12881063
200	0x3e07294f	0.13199352
201	0x3da7df6c	0.08196911
202	0x3d998af0	0.07497203
203	0x3e5c5482	0.21516612
204	0x3aa029d9	0.0012219503
205	0x3c1a4f78	0.009418361
206	0xba563836	-0.0008171828
207	0xbe707902	-0.23483661
208	0xbd736601	-0.05942345
209	0x3e41afc2	0.18914703
210	0x3c4fbda5	0.012679492
211	0x3c1d33cb	0.009594868
212	0x3e999b6a	0.30001384
213	0xbe83d656	-0.25749463
214	0x3e2e12c0	0.1699934
215	0xbdc97e8a	-0.098385885
216	0x3d8983ee	0.06714617
217	0x3d839299	0.06424446
218	0x3e068004	0.13134772
219	0xbe201070	-0.1563127
220	0xbce5ffa3	-0.028075999
221	0x3e054603	0.13014989
222	0x3c43e6b7	0.011956862
223	0x3de043b6	0.10950415
224	0x3d7813c8	0.06056574
225	0x3ea9430a	0.3305896
226	0xbd0b8e5f	-0.034071323
227	0x3a4c1dcc	0.00077864225
228	0x3d873289	0.06601436
229	0x3e59e7c5	0.2127982
230	0x3d6df4f4	0.058094934
231	0x3b641d86	0.0034807636
232	0x3ca57bf7	0.020200713
233	0x3e2e09ec	0.16995972
234	0xbe22bfac	-0.1589343
235	0x3dd09223	0.10184123
236	0xbdf7075b	-0.1206195
237	0xbb2cb953	-0.002635558
238	0xbe22e5cf	-0.15907978
239	0xbe1152bb	-0.14191715
240	0xbe1deae3	-0.15421633
241	0x3d8ae20c	0.06781396
242	0xbd2f5799	-0.04280815
243	0xbd0fb792	-0.035087176
244	0x3c5a96f9	0.013341659
245	0xbe00f1ab	-0.12592189
246	0xbe53635d	-0.20643373
247	0xbe8e4959	-0.27790335
248	0xbdbd8a46	-0.09254889
249	0x3d6bc0f8	0.057557076
250	0x3e35e4bf	0.17763041
251	0x3e5317d6	0.20614561
252	0x3e843bb9	0.25826815
253	0x3e03ad10	0.12858987
254	0xbbd6046b	-0.0065312884
255	0x3e351617	0.17684208

network_body._body_endoder.seq_layers.0.bias f4 [128]
0	0x3c55f240	0.013058245
1	0x3c6ad96a	0.014334062
2	0x3c8c12dd	0.017098838
3	0x3bc79b4e	0.006091512
4	0xbc096022	-0.008384736
5	0x3cb82f4e	0.022483494
6	0x3d0664a8	0.032810837
7	0x3c120385	0.008911972
8	0x3bdd1a00	0.006747484
9	0x3c217ec9	0.009856888
10	0xbbf7ce30	-0.0075624213
11	0x3b473292	0.0030395132
12	0x3c981c3a	0.018568147
13	0x3ae51b16	0.0017479386
14	0x3c3da9de	0.011576144
15	0xbab209ac	-0.0013583205
16	0x3ce81221	0.028328957
17	0xb9f640b4	-0.00046968984
18	0x3bcf1ea1	0.00632079
19	0x3b3d6f4c	0.002890545
20	0xba675a4b	-0.00088254054
21	0xbc27bd12	-0.010237949
22	0x3c85f0fa	0.016350258
23	0xbc14fad5	-0.009093006
24	0x3c1253c1	0.008931101
25	0xbb756256	-0.0037442646
26	0x3b5bb051	0.003352184
27	0x3c47bdd9	0.012191259
28	0x3ba8d55d	0.005152388
29	0x3bcb16b6	0.0061977757
30	0x3cb7f61b	0.02245622
31	0x3b956325	0.004558938
32	0xbc565d02	-0.013083698
33	0x3cce7813	0.02520374
34	0xbc8f1cc7	-0.017469777
35	0xbc2d86e9	-0.010591247
36	0xbc369d16	-0.011145851
37	0x3c5375cd	0.012906504
38	0xbbb4d97d	-0.0055190907
39	0xbc668ec3	-0.014072123
40	0xbc65b2e0	-0.014019698
41	0x3b022799	0.0019860028
42	0xbcafcba6	-0.021459412
43	0x3a6968cf	0.00089038623
44	0xbc1abb5d	-0.009444085
45	0x3c1875b2	0.0093054045
46	0x3c80006b	0.0156252
47	0x3b654768	0.0034985188
48	0xba38adc5	-0.00070449366
49	0xbc28079a	-0.010255719
50	0xbbfc7fc8	-0.0077056624
51	0x3c9f7685	0.019465694
52	0xbb701873	-0.0036635667
53	0xbc858789	-0.01629998
54	0x3c1543b8	0.009110384
55	0x3c1adeaa	0.009452501
56	0xbaf58230	-0.0018730816
57	0xbba04ed4	-0.0048922095
58	0x3ad8b986	0.0016534782
59	0x3cb2e03e	0.021835443
60	0x3c0e542f	0.008687063
61	0x3b90597e	0.0044051996
62	0x3b9a67af	0.004712067
63	0xba81625d	-0.0009871233
64	0x3b60da21	0.0034309702
65	0x3c702954	0.014658291
66	0xbc0bfa50	-0.008543566
67	0x3b6a0033	0.0035705685
68	0x3c1b97c7	0.009496636
69	0x3c9970c6	0.018730532
70	0xbbe0a9a5	-0.0068561607
71	0xbc4684f6	-0.012116661
72	0xbad8f5f6	-0.0016552794
73	0x3cdc7f79	0.026916252
74	0xbbdc8705	-0.006729963
75	0x3cf208e5	0.029545257
76	0x3aab9586	0.0013090826
77	0xbc81cf43	-0.0158459
78	0xbb418970	-0.0029531382
79	0xbc116925	-0.008875166
80	0x3c1ef7e0	0.009702653
81	0xba676863	-0.00088275055
82	0xba35dbdf	-0.00069373654
83	0xbbcbcb41	-0.006219298
84	0x3c7d34bd	0.015454468
85	0x3c80429c	0.015656762
86	0xbb87c1a3	-0.0041429563
87	0x3c40ac4a	0.011759827
88	0x39ae4c1c	0.00033244572
89	0xbb946fc1	-0.0045299237
90	0xbb7b6358	-0.0038358774
91	0x3c9606e9	0.018313842
92	0xbb19314b	-0.0023375328
93	0xbc11a11b	-0.008888508
94	0xbbd8dfc0	-0.00661847
95	0x3be1e365	0.0068935626
96	0x3c1dfe76	0.009643188
97	0x3b4da231	0.0031377191
98	0x3bff1e90	0.0077856258
99	0xbba0e8fe	-0.0049105873
100	0x3c471b63	0.012152526
101	0x3bece8e1	0.0072299098
102	0xbca543d3	-0.020173943
103	0x3cafdd22	0.021467749
104	0xbb7150ff	-0.003682196
105	0xbc19c14d	-0.009384465
106	0x3c964409	0.018342989
107	0xbc0fb3ac	-0.008770864
108	0x3b66faaa	0.0035244622
109	0xb74637f0	-1.1814744e-05
110	0x3cbb769d	0.022883708
111	0x3c2ca6b7	0.010537795
112	0x3cbb3056	0.022850197
113	0x3b633326	0.0034667938
114	0x3ca48952	0.02008501
115	0x3c078ea4	0.008273754
116	0xbc6ecd20	-0.014575273
117	0x3bda46bf	0.0066612656
118	0xbae279bd	-0.0017278712
119	0xbc7eccdf	-0.015551775
120	0xbc2a7573	-0.010403979
121	0x3c6e9397	0.014561555
122	0xbbd718f4	-0.006564254
123	0x3b36443d	0.002781167
124	0xbc0b5dc7	-0.008506245
125	0x3c135347	0.008992023
126	0x3bb7435e	0.0055927476
127	0x3caebbce	0.021329787

network_body._body_endoder.seq_layers.2.weight f4 [128, 128]
0	0x3e9102ec	0.28322542
1	0x3e239a8a	0.1597692
2	0xbd212af4	-0.039347604
3	0x3d94c4cc	0.072640985
4	0x3b49951c	0.0030759042
5	0xbb5fdb40	-0.0034157783
6	0x3c295a70	0.010336503
7	0x3d821ec6	0.06353526
8	0x3d5b9348	0.053607255
9	0x3e08ccc4	0.13359362
10	0x3c9d5da9	0.0192097
11	0x3d21b46a	0.039478697
12	0xbdc08112	-0.09399618
13	0xbc612641	-0.013742031
14	0x3ccad8a2	0.024761502
15	0xbd9cd7c9	-0.07658345
16	0x3e531a1d	0.2061543
17	0x3d9aa256	0.075504944
18	0xbc804d86	-0.015661966
19	0x3c65539d	0.013996986
20	0xbe0378d7	-0.12839065
21	0xbddf44d9	-0.109018035
22	0xbd324101	-0.043519024
23	0x3c985059	0.018593
24	0xbd6e5a6c	-0.0581917
25	0xbc16356f	-0.009168013
26	0x3dd6d735	0.10490266
27	0x3d4aabe3	0.04948033
28	0x3ca6c814	0.020359077
29	0x3d38bd0b	0.04510216
30	0x3e04d0c0	0.12970257
31	0xbb5fbe0b	-0.0034140374
32	0xbd16d840	-0.036827326
33	0xbd116232	-0.035494037
34	0xbd6627a2	-0.05619014
35	0xbba9f647	-0.0051868293
36	0xbe030747	-0.12795745
37	0xbb3d6296	-0.0028897873
38	0x3d0ab4c9	0.033863816
39	0xbc2afc6f	-0.010436161
40	0x3cb057ae	0.021526184
41	0xbd4f29b5	-0.050576884
42	0xbd5253af	-0.05134934
43	0xbc963a2a	-0.018338282
44	0xbd8cfc95	-0.06884114
45	0xbdb306ff	-0.08741569
46	0x3ce718c0	0.028210044
47	0x3d54906c	0.051895544
48	0xbcbdf400	-0.023187637
49	0x3e2b43bb	0.16725056
50	0xbd35358d	-0.044240523
51	0xbcdd6703	-0.027026659
52	0x3d842aa4	0.064534456
53	0xbcd591d7	-0.026070518
54	0xbd36f89a	-0.04467068
55	0xbc81a9bf	-0.015828012
56	0xbc66f65a	-0.014096821
57	0xbe70e635	-0.23525317
58	0xbb6c4f4b	-0.0036058004
59	0x3e2295ea	0.158775
60	0x3d06d661	0.03291929
61	0x3e148d54	0.14507037
62	0xbc9454d2	-0.018106852
63	0x3e12fd89	0.14354528
64	0x3d3227dd	0.043495048
65	0x3da45d9f	0.08025669
66	0xbdba43bf	-0.09094953
67	0x3d144d70	0.036206663
68	0x3c5b989e	0.013403086
69	0x3d336184	0.04379417
70	0xbdb4b50b	-0.08823594
71	0xbb9e5ec4	-0.0048330743
72	0x3d8f5456	0.06998508
73	0x3e0fad55	0.14030965
74	0xbe194d62	-0.14970925
75	0xbc23086f	-0.009950741
76	0xbe0310b4	-0.1279934
77	0xbde976c5	-0.113996066
78	0xbe196094	-0.14978248
79	0xbd94bf00	-0.07262993
80	0x3e1ec6a2	0.1550546
81	0x3d332728	0.043738514
82	0x3dd3c503	0.103403114
83	0xbdc4bf20	-0.09606767
84	0x3e1493fe	0.1450958
85	0x3e32cfe0	0.1746211
86	0xbd4d9eca	-0.05020026
87	0xbd1b8dfa	-0.037977196
88	0x3df7e59a	0.1210434
89	0x3cf5d442	0.030008439
90	0xbd274dc8	-0.040845662
91	0x3bfbd88e	0.0076857274
92	0xbd57de82	-0.052702434
93	0xbd2940fa	-0.041321732
94	0x3c8d8be2	0.017278615
95	0xbcd2505c	-0.025673084
96	0xbca60874	-0.020267703
97	0x3d742366	0.05960407
98	0x3c8bd274	0.017068125
99	0xbdfd1817	-0.123581104
100	0x3b8e2bff	0.004338741
101	0x3c93542b	0.01798447
102	0xbcdf5952	-0.027264271
103	0x3de92a9e	0.11385082
104	0xbd0cb45a	-0.034351684
105	0x3b13d3cd	0.0022556663
106	0x3df2f4cd	0.11863098
107	0x3b0ffddf	0.0021971387
108	0xbc70965e	-0.014684288
109	0x3e02d250	0.1277554
110	0xbcede2d2	-0.02903882
111	0x3e201b80	0.1563549
112	0x3dafa3f7	0.08576196
113	0xbdab2c78	-0.08358091
114	0x3cc708aa	0.024296124
115	0xbd78a311	-0.060702387
116	0xbe3e6bb2	-0.1859577
117	0x3e2e9b64	0.17051464
118	0x3bade434	0.005306745
119	0x3c2e1728	0.010625638
120	0xbd4eb2a9	-0.050463352
121	0x3d36f7cf	0.044669922
122	0x3c7a5c0c	0.015280735
123	0x3cbea443	0.023271685
124	0x3d92cef2	0.07168378
125	0xbdcb857e	-0.09937571
126	0xbdfa1e84	-0.12212852
127	0x3cdffa6c	0.02734109
128	0x3d603659	0.05473933
129	0x3dd99a7c	0.10625169
130	0xbd233aa3	-0.039850842
131	0xbda3809c	-0.07983515
132	0x3ced3a55	0.028958479
133	0x3d3ef8ac	0.04662387
134	0xbd886a23	-0.06660869
135	0x3de2f076	0.110810205
136	0xbb0470b8	-0.0020208787
137	0xbc8a5ddb	-0.016890457
138	0xbde39dbd	-0.111140706
139	0x3d98eff0	0.074676394
140	0xbdc693cf	-0.09696161
141	0xbd072273	-0.032991838
142	0x3e3a8aca	0.18217006
143	0xbd16dcf3	-0.036831807
144	0x3d517533	0.05113716
145	0x3dc421e4	0.095767766
146	0xbd96bee4	-0.07360628
147	0xbe142e25	-0.14470728
148	0x3d045807	0.032310512
149	0x3d878470	0.06617057
150	0x3cbcea61	0.02306098
151	0xbdc1d9e7	-0.0946539
152	0x3dfcb633	0.12339439
153	0x3caa77e6	0.020809125
154	0xbdad32e2	-0.08456971
155	0x3d6362a3	0.05551399
156	0xbce059db	-0.027386596
157	0x3d1dc8b7	0.038521495
158	0xbe2ec003	-0.17065434
159	0x3d61fe27	0.05517402
160	0xbd8c1ace	-0.0684105
161	0x3da60907	0.081071906
162	0xbcc47676	-0.023982268
163	0xbd13d476	-0.03609129
164	0xbca4d33c	-0.020120256
165	0x3db13f1c	0.08654615
166	0x3ccf0462	0.025270645
167	0xbe100e00	-0.1406784
168	0xbb85e5a6	-0.004086214
169	0xbd3544e4	-0.044255152
170	0xbba22a45	-0.0049488866
171	0xbcb73776	-0.022365313
172	0x3c0f6eab	0.008754413
173	0x3bbfb866	0.0058508394
174	0x3c80e816	0.015735667
175	0xbd6208ff	-0.05518436
176	0x3d0b8f22	0.03407205
177	0xbd4bfe8f	-0.049803313
178	0x3bf8e3da	0.0075955214
179	0x3df530b4	0.1197218
180	0x3e5c8e3a	0.2153863
181	0x3de50aae	0.111836776
182	0x3d9e85aa	0.07740338
183	0xbe9c4a9d	-0.30525675
184	0xbc7656bd	-0.015035328
185	0xbcb513e1	-0.022104206
186	0x3d04c329	0.03241268
187	0x3e18dda4	0.14928299
188	0xbd2cf65e	-0.04222714
189	0xbe60460c	-0.21901721
190	0x3d0eb5f8	0.034841508
191	0x3d89af61	0.06722904
192	0x3d281748	0.041037828
193	0x3dea1e4a	0.114315584
194	0x3d6f773c	0.05846332
195	0x3c736aea	0.014857033
196	0x3e683127	0.22675
197	0x3de8e934	0.11372605
198	0x3cee7789	0.029109733
199	0x3cc9b304	0.024621494
200	0x3d8c0711	0.06837285
201	0x3da76fa2	0.08175589
202	0x3d975b84	0.07390502
203	0xbe01f49f	-0.12690972
204	0xbe047726	-0.12936077
205	0xbd5af0b5	-0.053452212
206	0x3d330986	0.043710254
207	0xbce3398e	-0.027737405
208	0x3dd9de34	0.10638085
209	0xbe01ab97	-0.12663113
210	0xbccb0c04	-0.024786003
211	0x3bfd4d9a	0.007730198
212	0xbcf86e5f	-0.030326067
213	0x3dc4ff87	0.096190505
214	0x3b1cbedd	0.0023917474
215	0x3cef5ea2	0.02921993
216	0xbb3d1992	-0.0028854352
217	0x3d7a8738	0.06116411
218	0x3dce328b	0.10068234
219	0xbc745512	-0.0149128605
220	0x3d9e2cb2	0.07723369
221	0x3d7cac9b	0.061688047
222	0x3b091d27	0.0020921917
223	0xbd362f55	-0.044478733
224	0x3db7002c	0.0893558
225	0x3ba1ac1b	0.0049338466
226	0x3d820e47	0.063503794
227	0x3d73b27b	0.059496384
228	0x3db0aa22	0.086262
229	0x3d2d9ec4	0.04238774
230	0x3d08b0c9	0.03337172
231	0x3de0344e	0.10947476
232	0xbe02de63	-0.12780146
233	0xbd86ff82	-0.06591703
234	0x3db30a28	0.087421715
235	0xbdc09e35	-0.094051756
236	0xbe1000e4	-0.1406284
237	0x3d69b192	0.05705411
238	0x3d94af7c	0.072600335
239	0xbe19eb15	-0.15031083
240	0xbdfa33ca	-0.12216909
241	0xbdd9e9c1	-0.10640288
242	0xbd9f1ba1	-0.07768942
243	0x3e060cb7	0.13090788
244	0xbcc21eb6	-0.023696285
245	0x3e0b8b60	0.13627386
246	0xbc6a75b5	-0.01431029
247	0x3cd5c434	0.026094534
248	0xbd38fde8	-0.04516402
249	0xbdbc32f9	-0.0918941
250	0x3d4952f5	0.04915138
251	0x3d64aaf1	0.055827085
252	0xbda493d2	-0.08036007
253	0x3da29f9a	0.07940598
254	0xbdb6ac69	-0.089196034
255	0x3d173b56	0.03692182

network_body._body_endoder.seq_layers.2.bias f4 [128]
0	0x3c8c79cc	0.017147921
1	0x3aa26658	0.001239012
2	0x3a6ee95a	0.00091137516
3	0x3c5c8f85	0.013461952
4	0x3c8530b4	0.016258575
5	0x3a787add	0.0009478757
6	0x3bd99e72	0.0066412026
7	0xbc86dc07	-0.01646234
8	0x3baf5c21	0.005351559
9	0x3bc0b10b	0.00588048
10	0xbb7843a2	-0.003788211
11	0x38511e10	4.985748e-05
12	0xbb8e0582	-0.0043341527
13	0xbc2635b3	-0.010144639
14	0x3c6541a2	0.013992699
15	0xbadb3b1c	-0.001672599
16	0x3a37f0f4	0.0007016801
17	0xbc61fa56	-0.013792595
18	0x3ca216dc	0.01978629
19	0x3c8c6635	0.01713858
20	0x3c467b8c	0.012114417
21	0xbb63e240	-0.0034772307
22	0x3c631cac	0.013861816
23	0xbbc58772	-0.006028109
24	0xba3f5a33	-0.00072995125
25	0x3c573aaa	0.013136545
26	0x3c3ceeec	0.011531573
27	0xb92454b6	-0.00015671816
28	0x3c46b2c1	0.012127579
29	0x3c5fc154	0.013656933
30	0x39b3931e	0.0003425115
31	0x3c9c66d1	0.019091995
32	0x3bd25e26	0.006419915
33	0xbc2d955a	-0.01059469
34	0x3c6eb1dc	0.014568772
35	0xbc2700aa	-0.010193029
36	0xbc3a30e9	-0.0113642
37	0x3c4a1f8c	0.012336623
38	0x3cab0dc3	0.020880586
39	0x3b4d341b	0.0031311575
40	0x3c50a027	0.012733496
41	0x3c7f981a	0.015600229
42	0x3c74841d	0.014924076
43	0x3b7a9291	0.0038234333
44	0xbc858226	-0.016297411
45	0x3af877aa	0.0018956561
46	0xbba1b037	-0.0049343365
47	0x3c07fbae	0.008299751
48	0xb95fa8d3	-0.00021329829
49	0x3c8581b3	0.016297197
50	0x3c16da4c	0.0092073195
51	0xbc7a94b8	-0.015294246
52	0x3c10190c	0.008795034
53	0xbbe0b037	-0.006856944
54	0x3c1f3f5e	0.009719698
55	0xbc739695	-0.0148674445
56	0xbc3befce	-0.011470748
57	0x3bc53e48	0.0060193874
58	0x3bf52c4f	0.0074820886
59	0x3c235695	0.009969373
60	0xbbf7d897	-0.0075636613
61	0xbbfb6b65	-0.0076727145
62	0x3b0949cd	0.002094853
63	0x3c315c79	0.01082527
64	0xb76c8428	-1.4097466e-05
65	0xbc01a007	-0.007911689
66	0x3c4853b1	0.012226985
67	0xbb7b6408	-0.0038359184
68	0xbc829f0e	-0.015944984
69	0xbc1b2f58	-0.009471737
70	0x3ba2a24f	0.0049631963
71	0x3ca10eb9	0.01966034
72	0x3cd98956	0.026554745
73	0x3c735fb0	0.014854357
74	0xbc87756a	-0.01653548
75	0x3c85f6c6	0.016353022
76	0xbc01ab96	-0.007914444
77	0x3c5eaf27	0.013591564
78	0xbb787cc8	-0.0037916172
79	0xbb82c5a0	-0.003990844
80	0x3b6a10bf	0.0035715548
81	0x3c20172f	0.009771152
82	0x3894ec43	7.101197e-05
83	0xba8c79b9	-0.0010717429
84	0x3c4b1308	0.012394674
85	0x3c7a1d95	0.015265842
86	0x3aedb1b1	0.0018134621
87	0xbc5c288a	-0.0134374
88	0x3b8160e1	0.0039483164
89	0x3bf401c4	0.0074464995
90	0x3c473f40	0.012161076
91	0x3c0b48a3	0.008501205
92	0xbb3aedc1	-0.002852306
93	0xbc2cdb66	-0.010550356
94	0xbbf1c241	-0.007377893
95	0x3b66ae60	0.003519915
96	0xbbd7eacc	-0.0065892693
97	0x3c924c7a	0.017858732
98	0x3aae7a68	0.0013311626
99	0x3bc5e53e	0.0060392907
100	0x3c40c342	0.011765303
101	0x3c396dec	0.011317711
102	0xbba7142e	-0.005098841
103	0xbc656042	-0.014
104	0xba7a27e2	-0.0009542686
105	0x3ac2676b	0.0014831846
106	0xbc45e19b	-0.012077714
107	0x3c34f3e4	0.011044476
108	0x3c0a04f4	0.0084240325
109	0xbae9e9e9	-0.00178462
110	0x3ca2a552	0.019854221
111	0x3b8bdaca	0.004268025
112	0xbb9bfab0	-0.004760109
113	0x3c92b412	0.01790813
114	0xbbd9fd08	-0.006652478
115	0xbc3b4776	-0.011430612
116	0x3ad512be	0.0016256196
117	0x3beedbdb	0.0072893924
118	0x3a6cb40e	0.0009029516
119	0xba856c07	-0.0010179289
120	0x3c05d6c0	0.008168876
121	0x3a777a01	0.0009440482
122	0xbb8ba25c	-0.004261298
123	0xbc272e30	-0.010203883
124	0x3c47189a	0.012151862
125	0xbc0d5e3a	-0.008628422
126	0xbb1cc6f6	-0.00239223
127	0x3c3ae5b2	0.011407303

action_model._continuous_distribution.log_sigma f4 [1, 5]
0	0x3d5d1b6f	0.05398124
1	0x3d0a38f9	0.03374574
2	0x3d0cf1e5	0.034410376
3	0x3d36efe6	0.04466238
4	0x3d04136d	0.03224509

action_model._continuous_distribution.mu.weight f4 [5, 128]
0	0xbb1276a6	-0.0022348552
1	0xbcd4a347	-0.025956763
2	0x3c86624b	0.016404292
3	0xbc087af2	-0.008330094
4	0xbd1d1af9	-0.0383558
5	0x3d0afd84	0.033933178
6	0xbbb83197	-0.005621146
7	0x3b07a745	0.0020699066
8	0xbc8dc4dc	-0.017305784
9	0xbc8d5ec2	-0.017257098
10	0x3c64ac8f	0.013957157
11	0xbd836338	-0.06415409
12	0xbcca08af	-0.024662344
13	0xbc1198a0	-0.008886486
14	0x3cadf3b9	0.02123438
15	0xbc25dda5	-0.010123645
16	0xbb1be187	-0.0023785548
17	0x3cfa42ac	0.03054937
18	0xbd48ce7a	-0.049025036
19	0x3ca567ae	0.02019104
20	0xbcafe040	-0.021469235
21	0x3d40bea2	0.0470568
22	0x3c84183d	0.016124839
23	0x3c32c305	0.010910754
24	0x3cf48d51	0.029852541
25	0x3c5c58e5	0.0134489285
26	0x3d1b392f	0.03789633
27	0x3caa6df3	0.020804381
28	0x3d392bce	0.04520779
29	0x3caadeef	0.020858256
30	0x3ca6f861	0.020382108
31	0xbc35c3ac	-0.011094015
32	0x3d11353c	0.03545116
33	0xbc08054d	-0.008302045
34	0xbcf79362	-0.030221645
35	0xbc80a376	-0.015702944
36	0xbb0dbcf4	-0.0021627517
37	0xbd5ecd02	-0.05439473
38	0xbcec8786	-0.028873216
39	0xbc2fa085	-0.010719423
40	0x3caa6caa	0.020803768
41	0xbc2a31c3	-0.010387841
42	0xbca75266	-0.020425033
43	0x3a9b1890	0.0011832882
44	0xbbd13767	-0.0063847783
45	0x3cb1e26e	0.021714415
46	0x3ca09f3f	0.019607184
47	0xbce3b12d	-0.027794445
48	0xbc4f2111	-0.012642161
49	0xbd0338fd	-0.03203677
50	0x3cfdec75	0.03099654
51	0x3c885ef8	0.016646847
52	0xbc858a6c	-0.016301356
53	0xbcf72024	-0.030166693
54	0x3cc66ea3	0.024222678
55	0x3ce17740	0.027522683
56	0x3c3831d5	0.01124235
57	0xba829681	-0.0009963067
58	0x3d1d65c6	0.038427137
59	0xbc3242d1	-0.010880188
60	0xbc1ce6d3	-0.009576517
61	0x3cb466f2	0.022021744
62	0x3c738dfa	0.014865393
63	0xbca53a55	-0.020169416
64	0x3cb4efd2	0.022087011
65	0x3cacad1e	0.021078642
66	0x3ceefb31	0.029172512
67	0xb9b26d59	-0.00034032276
68	0x3d141860	0.03615606
69	0xbbeb73fc	-0.0071854573
70	0x3ce8e252	0.02842823
71	0xbd671d72	-0.056424566
72	0xbc97d6ff	-0.018535135
73	0xbbb39f42	-0.0054816315
74	0xbbe90c1c	-0.0071120393
75	0xbc9c1705	-0.019053945
76	0x3bb7e3a7	0.005611855
77	0xbc9090d6	-0.017647188
78	0x3c88a6e3	0.01668114
79	0xbd119b00	-0.03554821
80	0xbb0ded0d	-0.0021656186
81	0xbbba6530	-0.005688332
82	0x3d17e306	0.03708174
83	0x3c4f9f1c	0.012672212
84	0x3bf02037	0.007328059
85	0xbd038507	-0.032109287
86	0xbd48472c	-0.048896
87	0x3bda12c0	0.006655067
88	0xbc239dff	-0.0099864
89	0xbc96eb7f	-0.01842284
90	0x3ca32569	0.0199153
91	0xbbe5ee67	-0.007016945
92	0x3c94bc6f	0.018156258
93	0x3ca8434c	0.020539902
94	0xbb9396a2	-0.004504041
95	0x3cb108f7	0.02161072
96	0x3d305045	0.0430453
97	0xbc66aba6	-0.01407901
98	0x3d0e3d88	0.03472665
99	0x3d4bf8ed	0.04979794
100	0xbba2d006	-0.004968646
101	0x3cc88872	0.024479125
102	0x3cf360dd	0.029709274
103	0xbd18d6d9	-0.03731427
104	0xbb347f41	-0.002754167
105	0xbc72023a	-0.014771039
106	0x3c7a9a6b	0.015295605
107	0xbc86536e	-0.016397204
108	0xbca7ffbe	-0.02050769
109	0x3d5dd93e	0.054162256
110	0x3b20b98e	0.0024524662
111	0xbce82741	-0.02833903
112	0x3c1c7bc2	0.009550991
113	0xbb760887	-0.0037541704
114	0x3cc41698	0.023936555
115	0x3bcae533	0.0061918735
116	0xbb50d52f	-0.0031865349
117	0x3c013117	0.007885239
118	0xbc940a6d	-0.018071378
119	0xbc3b8755	-0.01144584
120	0xbceef988	-0.02917172
121	0x3b3002be	0.0026857103
122	0xbb2b91ea	-0.00261795
123	0x3be2add9	0.006917697
124	0x3caa0c92	0.020757947
125	0x3cb2c196	0.021820825
126	0x3cd8734b	0.026422163
127	0xbafae10c	-0.0019140556
128	0x3c57c2f3	0.013169038
129	0x3cbb9c63	0.02290172
130	0x3c929293	0.017892158
131	0x3d5a08a5	0.0532309
132	0x3c203ff5	0.009780874
133	0xbce7c58d	-0.028292442
134	0x3bfda31c	0.0077403914
135	0xbcc1df10	-0.023665935
136	0xbc52c969	-0.012865403
137	0xbb845800	-0.0040388107
138	0xbcf9996e	-0.030468669
139	0x3c62721f	0.013821154
140	0xbc7c3ed5	-0.01539584
141	0xbc21eedc	-0.009883609
142	0x3d7c165c	0.06154476
143	0x3ce27996	0.027645867
144	0xbcad22f1	-0.021134825
145	0xbc8daba9	-0.017293768
146	0x3cdb4633	0.026766872
147	0x3c1e483c	0.009660777
148	0x3c7ec4ea	0.015549878
149	0x3c097ad3	0.0083911
150	0xbcab0f0b	-0.020881196
151	0x3c4d3724	0.012525354
152	0xbc5c46fd	-0.013444659
153	0xbd41b03f	-0.047287222
154	0xbc639614	-0.013890762
155	0xbc3c79e5	-0.011503671
156	0xb99c4120	-0.0002980316
157	0x3d27a525	0.04092898
158	0xbcb0bf9c	-0.021575741
159	0x3cbf235f	0.023332296
160	0xbd192278	-0.037386388
161	0xbc19a2fe	-0.009377239
162	0x3c882fd5	0.01662437
163	0x3bda54d6	0.0066629453
164	0x3b81c9d9	0.0039608297
165	0xbb73b742	-0.0037188088
166	0x3cb4abed	0.022054637
167	0xbd0f56a5	-0.03499474
168	0xbd449742	-0.047995813
169	0x3b90911d	0.00441183
170	0xbc47ec10	-0.012202278
171	0xbc20ea0b	-0.009821425
172	0x3c72b005	0.014812474
173	0xbcfd234e	-0.030900624
174	0x3bf96010	0.0076103285
175	0x3cbf9265	0.023385236
176	0xbccff7db	-0.025386741
177	0x3d43a3c8	0.047763616
178	0x3c7a5d4c	0.015281033
179	0xbcae76b2	-0.021296833
180	0x3c87a9ca	0.016560454
181	0xbd436687	-0.0477052
182	0x3b2e908e	0.0026636454
183	0x3caceeb7	0.021109922
184	0x3a344d08	0.00068779336
185	0x3c5c4ddf	0.0134463
186	0xbc9a7450	-0.01885429
187	0x3b0de349	0.0021650365
188	0xbb8d756d	-0.0043169768
189	0x3be8ee0c	0.0071084555
190	0xbce1b218	-0.027550742
191	0x3bee56b2	0.0072735185
192	0xba91eb75	-0.0011132794
193	0x3bada098	0.0052986853
194	0x3d097a9a	0.033564188
195	0x3b089210	0.0020839013
196	0xbd023081	-0.03178454
197	0xbc4aab4c	-0.012369942
198	0x3cf6f9de	0.030148443
199	0x3ceee70f	0.029162912
200	0x3cdaafb5	0.026695112
201	0xbbc3753a	-0.005964902
202	0x3b56b983	0.0032764382
203	0xbbe66973	-0.0070316135
204	0xbc342180	-0.010994315
205	0x3c62363b	0.013806875
206	0x3c450aae	0.012026472
207	0xbab70578	-0.0013963422
208	0x3d161ecc	0.036650464
209	0x3b9889ca	0.0046550976
210	0xbbc5bf8c	-0.006034797
211	0x3bf0f23e	0.0073530963
212	0x3beffab9	0.0073235896
213	0xbc9751e5	-0.018471668
214	0x3ca79cde	0.020460542
215	0xbcf5cb77	-0.030004246
216	0xbb059280	-0.002038151
217	0x3d406bb9	0.046977732
218	0x3c24fc7b	0.010069962
219	0x3cf5f7a6	0.030025315
220	0xbb7b079a	-0.0038304091
221	0xbc540095	-0.012939592
222	0xbc1ddaf8	-0.009634726
223	0x3c81b05e	0.015831169
224	0xbd29c117	-0.04144391
225	0x3bd87709	0.006605987
226	0xbc6dd70d	-0.014516604
227	0xbd16ff22	-0.036864407
228	0xbca55c5b	-0.02018564
229	0x3c54d06c	0.012989145
230	0xbcfce08a	-0.030868787
231	0x3ba31172	0.004976445
232	0xbcf66e04	-0.030081756
233	0x3c487615	0.012235184
234	0xbc8c2a4f	-0.017110018
235	0xbc74b0dc	-0.014934745
236	0x3cac7c49	0.021055358
237	0xbbde8bd8	-0.006791573
238	0x3c9d706b	0.019218644
239	0x3b8f4965	0.004372763
240	0x3b52fa4b	0.0032192643
241	0x3b93aecf	0.004506923
242	0x3c86b97c	0.016445868
243	0xbc60344a	-0.013684342
244	0xbc4e3f3d	-0.012588319
245	0x3d3c8da2	0.04603351
246	0x3cd1163e	0.025523301
247	0x3c84595e	0.016155895
248	0x3cc94d84	0.024573095
249	0xbc14bd11	-0.00907828
250	0xbc9ea997	-0.019367976
251	0xbbdaeab5	-0.0066808113
252	0xbcc8877c	-0.024478666
253	0xbbaf5d08	-0.0053516664
254	0x3b529246	0.0032130643
255	0xbba1e2b7	-0.0049403566

action_model._continuous_distribution.mu.bias f4 [5]
0	0x3b0f640f	0.0021879708
1	0x3bc1b807	0.0059118303
2	0x3c3ac102	0.011398556
3	0x3c931029	0.017952042
4	0xbc20d4dd	-0.009816376
