config/results/AgrConserv_Refactored_2M_V2/Hummingbird_Conservative/checkpoint.pt (torch, 573045 bytes, 36 tensors)

network_body._body_endoder.seq_layers.0.weight f4 [128, 47]
00000000: e8c0 04bd 60e2 53be 6455 9dbd fe11 443d
00000010: 12cb 45be cdd2 24be 6e0f ecbd d060 cfbe
00000020: cd34 b1bd 685c 7bbe 78be c73d a4d5 383e
00000030: f032 b6bd edad 68be 28c9 e73c 915c 373e
00000040: 2251 9ebd d0a6 bbbd 3d68 cc3c 4048 d73d
00000050: 0149 a53e 713a 2ebd 5824 a53e e1fd 3dbd
00000060: 1b4d c7bd fc93 54be b944 28be 27b0 3b3d
00000070: 984e 793d 5b06 a1be 8b1a c0bb 8a74 a83d
00000080: 9af0 123d 750b 8ebe 7a88 ad3d 6d7e 603d
00000090: 8c6f 05be fc51 8b3e 577b d13d ae6f 0c3e
000000a0: 6963 383e 0553 16bc e9bd d0bd ab39 38be
000000b0: f193 e2bd f056 be3c bf7b 4e3d e9a1 433e
000000c0: aee3 6c3c f0ad b53e 7c86 15bc 4289 903d
000000d0: 4cd8 a6bb e9d7 ae3d fbe1 e5bc 5249 683e
000000e0: e766 5cbd 7a69 f73b 2603 c73d 0c51 de3c
000000f0: f217 81be 6ef8 053e 86ef 08be 846e 713e
00000100: e39f 57be 9368 bc3d 1b52 2f3d 2cbe 8dbe
00000110: a9b7 8f3d deb8 82be 82f2 90bd f7dd a8bc
00000120: f1be bb3d 0834 0cbe b58d 0b3e baae e33d
00000130: e5ba 63bc 6788 c3bd 79b6 cc3e df5f dc3d
00000140: bb75 21be f6c4 62bd 6830 1bbe bd11 ba3d
00000150: 1149 a9bc 0f37 15be 79a2 dc3d 9f90 bebe
00000160: b768 08bd b323 5e3d 0574 17be b572 ca3d
00000170: 821e 983e e9b8 d93d 32a7 41bd e01f 9dbd
00000180: fa5d 74bb fa29 9c3d 7c12 b13d 72e6 903d
00000190: f2f1 a8bd 6b5f 8cbe 5db2 183e 8cb8 dd3c
000001a0: 7a42 5d3d 2745 a7bc 7671 81be 8ef2 68be
000001b0: 38d8 4b3c 4787 35bd 955a cbbc b55e ebbe
000001c0: 109d e93d 7452 a1bd cf4d 923d dcf9 433e
000001d0: 633b 183d b86c e8bd 074e 273e b5a3 003d
000001e0: ef90 55be 7fb4 7abd 3007 a6bb 6c63 5e3b
000001f0: ec5f 01be d0c3 e33b ae1b 8f3e f9cd f33d
00000200: 3391 1b3e bbfb ab3e c746 233d a9b9 50be
00000210: feb3 aebd 4ba3 47be 4022 1dbe bc67 ea3e
00000220: 7325 143e fc5a 90be c689 2bbe e8de a73e
00000230: 4ac4 483e 6946 563e 6c1e cfbd f933 e63d
00000240: a38f 843c d4cc b7bd 79dd babd c73a 4a3d
00000250: cc88 e3bd 2731 7fbe a891 ad3e 6102 fb3d
00000260: 32ec c43b 51f4 28be b773 15bd 70f9 a9bd
00000270: d6d9 89bd 2295 2d3e 9943 0bbd d50c 0c3e
00000280: 90f0 dfbc a812 5ebe c6a1 283e 337d 2ebe
00000290: 7ecb a13d 8c65 48be 2c36 8539 28c7 69be
000002a0: b7e1 0abb 6495 303d 034e 52bd 8c52 dcbd
000002b0: bf1c bb3d 5989 473e f4bb 62bd a185 bf3d
000002c0: c0e3 de3c 7682 953d 9165 7bbe fd5e ae3e
000002d0: cbb4 04bc 3d10 b1bc 8abc 38be 5ffc 613d
000002e0: 0b28 3cbe 7662 14be 3caf 163c 04b9 1abe
000002f0: c453 a03e 9f91 37bc fb73 993d 00c5 0bbe
00000300: 9d82 643e d837 35be 69b0 01bd dab3 ebbb
00000310: ca80 213d b1ed e63c 98a9 6a3e 65c2 ad3d
00000320: 6cf4 03be 8fd4 bcbd 56cb dbbd 8517 093e
00000330: 69a3 883d 976e febb 6747 05be 1482 0f3e
00000340: b891 bd3d 294e 75be ef6a 7a3c 658d 553e
00000350: ea78 0d3e 1347 d0be 6f06 4dba c968 e9bc
00000360: fb93 a0be 2f03 163d 283f 25be 39fe b93d
00000370: 56fb 103d ed2a 04bd 9334 1f3e 865a 093e
00000380: b728 4f3d 87a3 093e 142f 203e 4443 2c3e
00000390: a78c eabc 6fe8 d53d 6950 cebd 6acc ae3b
000003a0: cb8c 76be 115e 1e3e 53de 353e 374d 233e
000003b0: c022 853d 1848 c13d c3d3 383e e6d6 93bd
000003c0: b640 ec3d 0dc2 c6bd 5fbf a7bd 1fb9 863d
000003d0: 23b8 9fbe ca15 38be d45e 3a3e 8f8f 57be
000003e0: 8e43 bc3d 6480 bd3e 6efa cb3e aa13 3abe
000003f0: 7c0e c4bd c192 16bc e072 00bd 3305 5039
-0.032410532 -0.20691824 -0.076823026 0.04786872 -0.19315746 -0.16096039 -0.115263805 -0.4050355
-0.08652649 -0.24546969 0.09753126 0.18050247 -0.08896434 -0.22722597 0.028294161 0.17906405
-0.077303186 -0.09162676 0.024952048 0.105118275 0.3228226 -0.042536203 0.3225429 -0.046384696
-0.097315036 -0.20759577 -0.16432466 0.04582229 0.06086597 -0.3145016 -0.005862539 0.08225353
0.035873987 -0.27743116 0.084732965 0.05480807 -0.13030833 0.27210987 0.10228603 0.13714477
0.18006672 -0.009175067 -0.101924725 -0.17990749 -0.11063374 0.023234814 0.050410982 0.19104733
0.01445858 0.35484266 -0.009126302 0.0705743 -0.0050917026 0.08537275 -0.028061857 0.2268422
-0.053809073 0.0075504156 0.097173974 0.027138256 -0.2521358 0.1308305 -0.13372621 0.23577315
-0.21057086 0.091996334 0.04280291 -0.27684152 0.07017452 -0.25531667 -0.07077505 -0.020613654
0.091672786 -0.13691723 0.13628276 0.11117311 -0.01389954 -0.09547501 0.39982966 0.107604735
-0.15767567 -0.055363618 -0.15155184 0.090854146 -0.020664724 -0.14571784 0.10773177 -0.37219712
-0.03330299 0.054233264 -0.14790352 0.0988516 0.29710776 0.10630972 -0.04727859 -0.07672095
-0.003728746 0.07625194 0.08646104 0.07075204 -0.082492724 -0.27416548 0.1491179 0.027065538
0.054018475 -0.020418717 -0.25281876 -0.22748777 0.012441687 -0.044318464 -0.024823466 -0.45970693
0.114069104 -0.07877055 0.07143747 0.19138283 0.03716601 -0.113488615 0.16338359 0.031406123
-0.20856069 -0.06120729 -0.005066775 0.0033933772 -0.12634248 0.006950833 0.27950805 0.119045205
0.15192108 0.33590493 0.03986242 -0.20383324 -0.085304245 -0.19495885 -0.15345097 0.45782268
0.1446741 -0.28194416 -0.16751775 0.3278725 0.19606128 0.20925297 -0.101132244 0.11240382
0.016181773 -0.08974615 -0.09124274 0.04937246 -0.11110076 -0.24921094 0.3390019 0.12256313
0.006009602 -0.1649945 -0.036487307 -0.082995296 -0.06731002 0.16951421 -0.034000013 0.1367677
-0.027336389 -0.21686804 0.16467962 -0.17039947 0.07900141 -0.19569987 0.00025408098 -0.22829878
-0.0021191665 0.04311122 -0.05134393 -0.10757932 0.09136342 0.19485988 -0.055355027 0.093516596
0.027208209 0.07300274 -0.24550463 0.34056845 -0.008099745 -0.021614188 -0.18040672 0.05517232
-0.1837465 -0.14490685 0.009197053 -0.1510964 0.31313908 -0.011204152 0.07492825 -0.13649368
0.2231545 -0.17697084 -0.03166238 -0.007193071 0.039429463 0.028189512 0.22916257 0.084843434
-0.12886208 -0.0922023 -0.107321426 0.13387878 0.06671793 -0.007764648 -0.13015519 0.14014465
0.09256309 -0.23955597 0.015284284 0.20854719 0.13815656 -0.40679225 -0.0007821088 -0.028492348
-0.313629 0.03662413 -0.16137373 0.09081692 0.035395943 -0.0322675 0.15547399 0.13413438
0.050575938 0.13441287 0.15642959 0.16822535 -0.028631521 0.10444724 -0.10073931 0.0053344266
-0.24077146 0.15465571 0.17760591 0.15947424 0.06500769 0.09437579 0.1804953 -0.07218723
0.1153578 -0.09704981 -0.08190798 0.06578278 -0.31195173 -0.17977062 0.18200237 -0.21050857
0.091925725 0.37012017 0.398395 -0.18171564 -0.09573075 -0.009190262 -0.031359553 0.00019838363

network_body._body_endoder.seq_layers.0.bias f4 [128]
00000000: 1404 04bd cc78 903c d816 81bb 53bc 79bc
00000010: 4608 273d d375 86bc 5c59 81bb 0a88 e6bb
00000020: 4097 ee3c 14a6 0cbc d59d 383c 42fd 993b
00000030: 3e70 583c 1f29 34bb e371 c03b c4d1 203b
00000040: 676d 0ebd b03b b13c ffb1 35bc b3db b2bb
00000050: 3cc8 a3bc aeb2 b0bc 9725 a6bc 48b0 213c
00000060: c193 883c 37ce bf3a 69a1 ff3c ab4e 843c
00000070: 653b 6c3d 9d22 18bd d7ba c6bc 2cb0 b0bc
00000080: 9e6a 213d 7dae 8c3b e9c8 863c 3560 62ba
00000090: 8878 90bc 424c a7bb 3c61 0e3c 3094 ff3c
000000a0: 6b09 1e3c f570 813c f4f3 ae3c 82b7 333b
000000b0: 20f9 753b 71ed 5cbc 2d6d 0c3d 7b24 03bd
000000c0: 8497 803c a261 fbbb 9c81 f93b e466 273c
000000d0: df59 093c 8753 423c 9691 efbc 254f b73c
000000e0: 07b5 213d 8010 a1bb 435a 123a e7cf aabc
000000f0: 4979 3c3c 84b3 a03c 6910 7b3c a3bd 3e3d
00000100: 2588 ff3c 51ef 2f3b 83a5 983c 4217 873a
00000110: 6e75 703b 9db8 8f3b 7718 183c bdae 1b3d
00000120: 7f89 d8ba 8b4d f63c c7a1 4abb 8daf a2bc
00000130: 7934 8cbc 10b5 e33c 0b4f ad3b 3921 35bb
00000140: 0e4d 913b 58ee 68bc 0eec 573c 4dc5 b93c
00000150: 72b8 a4bb d3ef 473c 39d5 443c 0c8b a43c
00000160: 1e67 c4bc 4cc6 b43b e504 6d3c f587 5bbb
00000170: 972e 1e3d 2a2e 8b3c 7650 34bc 2514 ac3c
00000180: 6341 97b9 c0a2 c93a c6e0 7c3c 26c6 b33c
00000190: f7a3 cabb d21d 743c ee5e 9f3c 4389 abbc
000001a0: e6da f63c 1820 bf3c 3105 e73b c92e febc
000001b0: 6afe 2f3c dc38 9cbc 304d 8d3c 9516 c1ba
000001c0: b530 bcbc 42a8 80bc a4b8 18bc 7e3c cb3c
000001d0: 8b34 88bc d689 b63c eb33 883b 05f6 2c3c
000001e0: 11c6 2c3d 9efc e53c 2c64 5c3c b8d3 fc3c
000001f0: 6d10 273c c924 b53b 62df 87bc 62ed 4e3c
-0.03223045 0.017635725 -0.0039394908 -0.015242654 0.040779375 -0.016413605 -0.00394742 -0.00703526
0.029124856 -0.008584518 0.011268099 0.00469938 0.013210354 -0.002749033 0.0058729514 0.0024539093
-0.034772303 0.021634907 -0.011089801 -0.005458319 -0.01999294 -0.021569576 -0.020281596 0.009868689
0.016672017 0.00146336 0.031204896 0.016150793 0.05767383 -0.037142385 -0.024259014 -0.02156838
0.03940832 0.0042932616 0.016453223 -0.0008635552 -0.017635599 -0.005105526 0.008690175 0.031198591
0.0096458 0.015800932 0.02135656 0.0027422612 0.0037532523 -0.013484345 0.034283806 -0.032017212
0.015697248 -0.007671551 0.0076143276 0.010217402 0.008383243 0.011860735 -0.029244225 0.022376606
0.03947928 -0.004915297 0.0005582908 -0.020851089 0.011503526 0.01961685 0.015323737 0.04656757
0.031192848 0.0026845525 0.01863361 0.0010306614 0.0036691087 0.0043860213 0.009283177 0.03800844
-0.0016520469 0.030066272 -0.003091918 -0.0198591 -0.017114865 0.027796298 0.0052889637 -0.002763821
0.0044342345 -0.014216982 0.013178838 0.022677088 -0.0050268704 0.012203175 0.012013727 0.020085834
-0.023974951 0.005516803 0.014466499 -0.0033497785 0.03861865 0.016989786 -0.0110055115 0.0210057
-0.0002884968 0.0015383586 0.01543445 0.02194507 -0.006184097 0.014899688 0.019454446 -0.020939475
0.030133676 0.023330733 0.0070501794 -0.031028168 0.010741809 -0.019070081 0.01724872 -0.0014731461
-0.022972444 -0.015705232 -0.0093213655 0.024809118 -0.016626617 0.022282522 0.0041565797 0.0105567025
0.04218108 0.028074559 0.013451617 0.030862674 0.010196787 0.005528067 -0.01658601 0.012629839

network_body._body_endoder.seq_layers.2.weight f4 [128, 128]
00000000: 7c5f 293d c32f 9bbc aebe ff3d 2a72 303e
00000010: 69ba 843c de67 3d3e 1e8a 583c 6d46 263d
00000020: f7bc 623d 330e fabd 07a4 b93b 47eb 41bd
00000030: 8fed 90bd 49b2 a0bc 107d a6bd e6ef cabc
00000040: 1f96 67bd fe2d 0ebe 5697 30be e9f8 d53d
00000050: c1dd 02bd 4e6d 14bc 0412 913e 0bab b2bd
00000060: b5f9 dfbd a095 01be 349d 3d3d 0f6c 293d
00000070: 5ce5 263e 27cd 62be a1bc eabc 5cf2 e7bd
00000080: 271c 9d3d 663b 8a3c c116 f13d 849f 97bc
00000090: c219 673d d341 833c 8a68 753c 457e 033d
000000a0: e720 9d3d e1e4 233d db17 2f3e 3d2c af3d
000000b0: d292 0b3e 0e2b 2ebe bc3c 683e 51b0 16bd
000000c0: 6fde c0bd 7733 8e3d 1771 9bbd c097 a33d
000000d0: d34f c23d db4a 263d f569 81ba cc63 303e
000000e0: eccc 493d 4bb2 c3bd e50a 8b3d 69f6 703d
000000f0: fc31 6fbd fd65 07bd 1704 bdbd f5db 173e
00000100: d942 2c3e b9e3 d73d 5d16 f0bd a8c1 013e
00000110: d97f c3bb 2490 ac3d 194b 80bc 0714 7b3d
00000120: d9d0 1bbc f70a 20be ec0d 1cbe 4883 003e
00000130: de01 2dbe 8c2c eaba 1190 8b3d ee7f 4c3d
00000140: d03b cbbd 6f88 b03c 9797 1bbe 5855 f8bc
00000150: 4bb0 36be f342 be3c 5c1f 763e bd9c 9b3d
00000160: 1009 1bbc 0827 8ebd 60d0 243d df35 523c
00000170: 9261 22bd 7c4d c33d 6992 28be 0f2b 1ebd
00000180: 6665 a03d f4cd 8abd bc4f f43d 46ec 323e
00000190: a99d 1e3d c1e1 013d 5fb8 2fbd 9866 c63d
000001a0: 5824 d93c d266 0e3e ae50 e1bc 7d77 bdbb
000001b0: db85 a4bd 4da8 143e f5c3 a7bc 1ee3 db3d
000001c0: e420 d6bd dcc3 88bd d155 8b3d 1597 ec3d
000001d0: 0249 1dbd 3c02 213e 6930 983d 32f9 e63c
000001e0: 7c0c 01be 3bbb ac3d 44b2 183d f17c 353e
000001f0: 778f 87bd 0f74 1abe d402 063c e4dc 3b3d
00000200: 6efe 2cbd df26 7bbc b53d 82bd 1f31 89bd
00000210: ccc1 71bd 985a bb3d b64b 52bd 111a d8bd
00000220: 7955 803d 4fb4 88bd c94f a5bd 907b b4bc
00000230: bfe6 7dbd d32f 06be 0a70 5c3d eb68 ae3d
00000240: 82e9 a13d 3513 0d3d a14a c33d f16a d7bd
00000250: 6bb2 df3d c674 4b3c e8ae 273e e316 573b
00000260: 7ed4 0fbe 8652 19bc edab 123d eeed 043e
00000270: 0b5b 8fbd ddbe 2ebe 2bb4 e0bd e694 10bd
00000280: 9eef ccbd 43c0 bc3d 051d dc3d 0d0e cdbd
00000290: 9d61 d03d 4535 0cbe 9be3 b3bd cd2a 58bd
000002a0: 081c 0d3a 31e1 533c 6953 083e 45b5 88bd
000002b0: 4c37 41be 1d5e 0b3e b4cd 283e df92 60be
000002c0: ffbe 9f3d c74e a03c 4c45 d43c 2f44 f23d
000002d0: 9a45 013d 7d2a 6abd 681f 3ebd 4a52 bebd
000002e0: 98bd 25be fdc8 123d 90af f93d f049 13bd
000002f0: 73c9 24bc 94c6 293e 8c09 3e3d 4573 9c3d
00000300: 4265 29bd 8c37 00be c21b 17be 6556 79be
00000310: 58f2 883b db6e 81bd 27ee 4a3e ac9f 023e
00000320: a8ea 353d 18ec 16bd f0ea 0abe 2233 88bc
00000330: 277f adbd 15e5 5e3d 50c6 de3d 7bf4 20bd
00000340: 7b68 a8bd a60b bd3c 87df 26bd 9cf5 15be
00000350: 4a93 0a3c 13bc fd3d ae59 f4bc f957 493d
00000360: 3ca6 4cbe df74 da3d bdd6 033e aeff abbd
00000370: d07e 773d 0e8d 9fbd 7358 6e3d a245 68bd
00000380: 948c 06be 6f62 59bd 0f87 ad3d 2778 513d
00000390: 3623 02be 6318 17be 5618 12bc bf09 04be
000003a0: 1007 33bd 2c39 9bbd 8f70 1b3c 21b5 ba3b
000003b0: a4e3 a13c 6538 223d fb45 d9bc 0c5b b03c
000003c0: 4871 823e 08de 733d 77b1 5e3d 94aa 923d
000003d0: 7623 6b3d a6fe e83c 7c73 863d 7730 673d
000003e0: 27bd adbd 70a9 153e 4b68 8fbd 505a ce3d
000003f0: 82dc 5b3d d146 e83b 78b2 85bd 5890 843d
0.041350827 -0.018943673 0.12487541 0.1723105 0.016202169 0.18496653 0.013216523 0.040594507
0.055355992 -0.122097395 0.0056653055 -0.04734352 -0.07076561 -0.019616263 -0.081293225 -0.024772596
-0.05653965 -0.13884732 -0.1724523 0.104478665 -0.031949762 -0.009059263 0.28334057 -0.0872403
-0.109363 -0.12654734 0.0462925 0.04136282 0.16298431 -0.22148572 -0.028654398 -0.11325523
0.07671385 0.016874027 0.11771918 -0.01850868 0.05642105 0.016022598 0.014978537 0.032102842
0.07672291 0.040013198 0.17098944 0.0855336 0.13630226 -0.17008612 0.22679418 -0.036789242
-0.09417426 0.0694341 -0.075899296 0.079879284 0.094878815 0.04059873 -0.0009873497 0.1722557
0.049267694 -0.09555491 0.06789187 0.058828745 -0.05839728 -0.033056248 -0.09229296 0.1483
0.16822375 0.105414815 -0.117230155 0.1267153 -0.0059661684 0.0842593 -0.01566081 0.061298396
-0.009510242 -0.15629183 -0.15239686 0.1255008 -0.16895244 -0.0017866059 0.06814588 0.04992669
-0.09923518 0.021549432 -0.15194546 -0.030314133 -0.17840688 0.023225283 0.240354 0.07598255
-0.00946261 -0.06941038 0.040237784 0.012830227 -0.03964383 0.09536263 -0.16462101 -0.038615283
0.0783184 -0.06777564 0.119292706 0.17472944 0.038724575 0.031709436 -0.04290044 0.09687537
0.026506588 0.1390641 -0.027504291 -0.0057820664 -0.080333434 0.14517327 -0.020479182 0.107366785
-0.10455492 -0.06677982 0.068034776 0.11552254 -0.038399704 0.15723509 0.074311085 0.028194997
-0.12602419 0.08434149 0.037279382 0.17723443 -0.066191606 -0.15083335 0.008179385 0.045864955
-0.04223483 -0.015329092 -0.06359426 -0.06698822 -0.05902271 0.09148139 -0.051341735 -0.10551847
0.062663026 -0.06675016 -0.080718584 -0.022031575 -0.061987635 -0.13104181 0.053817786 0.08516105
0.07905866 0.034442145 0.09535719 -0.10518444 0.109227024 0.012417978 0.16375315 0.0032820038
-0.14045903 -0.009358054 0.035808492 0.12981388 -0.06999787 -0.17064996 -0.10971864 -0.03529825
-0.10006641 0.092163585 0.107477225 -0.100124456 0.10174868 -0.13692196 -0.08783647 -0.052775193
0.00053829 0.012932108 0.13313068 -0.066751994 -0.1886875 0.1361012 0.1648472 -0.21931027
0.078001015 0.019568814 0.02591195 0.11829411 0.031560518 -0.057169426 -0.04641667 -0.09293039
-0.16185606 0.03583621 0.12191689 -0.035959184 -0.010057795 0.16579658 0.046395823 0.076391734
-0.041356333 -0.1252119 -0.14756683 -0.24349363 0.0041792803 -0.06319972 0.1981741 0.12756222
0.04441324 -0.03684625 -0.13566184 -0.016625945 -0.08471518 0.05441769 0.10877669 -0.039295655
-0.08223053 0.023076843 -0.040740516 -0.14644474 0.008457968 0.12389388 -0.029827919 0.049156163
-0.19985288 0.10666823 0.12874885 -0.083983764 0.060423672 -0.07790576 0.05818982 -0.056707032
-0.13139564 -0.05307239 0.08473026 0.051139977 -0.12708744 -0.14755397 -0.008916935 -0.12894343
-0.043707907 -0.07579264 0.009487285 0.005697862 0.019761868 0.039604563 -0.026522627 0.02152779
0.25477052 0.059537917 0.054368462 0.071614414 0.057406865 0.028441738 0.06564996 0.056442704
-0.084833436 0.14615417 -0.07002314 0.100758195 0.05367709 0.00708852 -0.06528181 0.06472844

network_body._body_endoder.seq_layers.2.bias f4 [128]
00000000: 1c30 bb3c 58c6 823c a838 57bc 1431 c83c
00000010: 1510 f13b 2f0a f0ba 53b8 86bc f415 993c
00000020: 435f 233c c3d8 ba3b 52b2 973c 15fb a2bb
00000030: 974d 2a3b d566 5d3c d51d 6fbc d187 ba3c
00000040: 5d3f 043c 83d2 16bc eb93 273c bb9b fb3c
00000050: 80ea c93b d991 7abb 141a ce3c ed54 13bc
00000060: 0cd5 fa3b a919 92bc 2989 dab9 a38c 0b3d
00000070: e916 d23c 9dc2 e73c 6794 503c 8c3b 33bc
00000080: 0620 c43c 3f29 e23b 0c24 8d3c a9d8 53bb
00000090: cac6 76bc 806e 073c 5a05 733c 8754 773c
000000a0: 39f4 8cbb 4f95 943c 2832 4f3c 75d8 083d
000000b0: 1182 b03b f8f8 cdbb 6d2d bf3c 514c 8fbc
000000c0: 7b25 c5ba 3331 4bbc a694 61bb 65b1 cc3c
000000d0: dc9c 08bc 5f18 273c f6e6 f63b 6796 daba
000000e0: fddc 253d d649 b1bc 8309 ab3b cd8e 82bc
000000f0: ba07 043d bbe3 34bc ef18 df3c cc9f 853c
00000100: 1956 2c3c 7c37 8cbb 9f0b 5b38 c663 623c
00000110: 4c2f 99bc b5e1 13ba d8e1 0cbc 3fe8 6ebc
00000120: 0431 3bbc ffe2 f6bb 1b34 c0bc 3472 53bc
00000130: fcf1 813c caae d03a 010b 0d3b 2e91 49bb
00000140: 6a05 123d 0802 05bc dd0e 403c 40a4 cb3c
00000150: e040 36bb ade9 713c d4d4 ca3c e5fd 553c
00000160: a4aa 50bc f913 5a3c 16d5 8f3b ce65 1f3c
00000170: 2dba 893c 4c4c f83c 7e53 73bc c376 b0bb
00000180: 4d6c 4b3c 460e 0bbc 48fe adbc 8a54 39bb
00000190: 3352 9abc 8347 62bb 6c31 1c3b 0f40 2e3c
000001a0: b0a2 2ebc 9cfc abbc cf81 a03c 3fbb 573c
000001b0: 4aa5 9f3c 30c0 d13c 7f4b 95bc 7f74 333c
000001c0: 874c 8bbc 7b11 9cbc bbef 48bc 7f8d e8bb
000001d0: ca54 d83c 5a44 a4bc 4d53 3c3b 66bd 5ebc
000001e0: aea1 083c de2e 29bc ed05 843c 656e c73c
000001f0: c07f e03c 4ebe 8dbc 3fd0 d63c cf3e d0bb
0.022850089 0.015963718 -0.0131360665 0.024437465 0.0073566535 -0.0018313582 -0.016445315 0.018687226
0.009971443 0.0057021095 0.018517647 -0.004973779 0.0025986189 0.013513287 -0.014594515 0.02276984
0.008071748 -0.009205463 0.0102281375 0.030713907 0.006161988 -0.0038233905 0.02515892 -0.008992416
0.0076547917 -0.017834501 -0.00041682392 0.03406967 0.02564569 0.028291041 0.012730694 -0.01093949
0.023941051 0.0069018896 0.017229103 -0.0032325184 -0.015062043 0.008266091 0.014832819 0.0150958365
-0.0043015745 0.018137602 0.0126462355 0.033409555 0.005386599 -0.006285783 0.02333709 -0.017492445
-0.0015041077 -0.012401867 -0.0034420877 0.024986932 -0.008338179 0.010198682 0.007534857 -0.0016676903
0.040493954 -0.021641653 0.0052196397 -0.015937233 0.03223393 -0.011040623 0.027233569 0.016311549
0.010518574 -0.004279075 5.222449e-05 0.013817733 -0.01869931 -0.0005641238 -0.008598767 -0.014581739
-0.01142526 -0.0075343843 -0.023462346 -0.012905646 0.015862457 0.0015921232 0.0021521451 -0.00307567
0.035649695 -0.00811816 0.011722294 0.024858594 -0.0027809665 0.014765185 0.024759687 0.013061021
-0.012735996 0.013310426 0.0043894155 0.009728862 0.016812408 0.030309819 -0.014851449 -0.0053852513
0.012415958 -0.00848729 -0.021239415 -0.002827915 -0.018838024 -0.0034527488 0.0023833169 0.01063539
-0.010658905 -0.020994477 0.019593148 0.013167202 0.019487996 0.025604337 -0.018224476 0.010953068
-0.017004265 -0.019051304 -0.012264187 -0.007096946 0.026407618 -0.020052124 0.0028736175 -0.013594961
0.008339329 -0.010326115 0.016116107 0.024344632 0.027404666 -0.017302658 0.026222346 -0.0063551436

action_model._continuous_distribution.log_sigma f4 [1, 5]
00000000: 5757 173d c6de 6bbc f5b6 e33b 09dc 203d
00000010: 93d4 5b3d
0.03694853 -0.014396375 0.0069493004 0.039272342 0.053669523

action_model._continuous_distribution.mu.weight f4 [5, 128]
00000000: db00 a0bc da9f d3bc 8c99 f63c 2ddb 9abc
00000010: 94f1 bd3a dd61 8abb b34c 86bc 72dc 0c3d
00000020: 5537 383c 0f65 50bc 0ce5 0a3d 5f63 7fbd
00000030: ea96 29bd 4763 123d e6ef b53c 74f2 993c
00000040: b175 7cbc 0fb9 8ebd c257 1ebd 7c8d 7b3c
00000050: b602 fa3c bcfa 183d e084 03bd b41e 703c
00000060: ba7f 313c 926f 00bc f1dc 1f3c 1994 5d3c
00000070: d0dd 9e3c 3e09 01bc 5c39 193a eef6 4fb7
00000080: 44bb e8bc 948e 74bc 60c4 453c 2332 beba
00000090: 038e 00bb b01e b6bc 3f8d 78bd 4b10 b9bb
000000a0: a7b9 ee3c d124 b43d 8818 073d 2da7 353d
000000b0: dfa8 8cba 6f96 2d3c fe2f 663c 2712 043c
000000c0: ebdf 3b3c f523 a7bc 27d4 bf3b 43c5 aeba
000000d0: f4b2 32bd b0be bc3c f3c9 cb3c fbce c33c
000000e0: 7221 623c 435c bbbc ebe8 913c c92a 95bc
000000f0: b96b 083d b7f6 50bd e91d 283d 5ac9 03bd
00000100: 307a 433d 5430 76bd 5b1e e53a 3ef0 80bc
00000110: e54a 5d3b 3951 04bd 77df 043d 24cc d7bc
00000120: 3e73 23bd f01c eabc 81d1 ce3b 5a32 5cbd
00000130: b151 743b a2e4 24bd 518a 713d 11d3 c5bd
00000140: f18b 7b3c 915c 71bc 679e 4c3c 8f22 1bbd
00000150: 1183 7bba c048 383c 37e1 62bd 00f7 793b
00000160: b888 433b 0001 3dbc d59b 013d 6162 db3c
00000170: 34c3 0b3c 748c 163d bb32 bbbb eb07 29bd
00000180: a430 343c abdf 103c bdd5 253c 3318 1e3c
00000190: aacd 2dbc fb53 663d 5f49 803d 9d99 f93c
000001a0: 70b2 78bd 6167 71bb 839b 99bb 6e93 f23b
000001b0: 7749 4ebc 68c0 48bd 9944 ae3c 4d59 8dbc
000001c0: 7621 a1bc feec 0abd 2270 9abc d9d7 2fbd
000001d0: 1869 22ba 5a2e 27bc ceeb 56bc 5ae5 0fbc
000001e0: de1f 033d 8228 50bd 8678 a83a f7d3 48bc
000001f0: 53ac 133d 84cb 9a3c 469f 8b3d 5b57 943c
00000200: dc2b 53bd a9ed 33bd 88aa 303d 0cda 7dbd
00000210: 6b3e f1bb 7dd8 ebba 352b 763d 5008 3cbd
00000220: 58cc d0b9 5ef3 8abc 27d8 7cbd 41e2 693c
00000230: 1824 9fbc 7604 04bd 24f6 7b3d ef9e 84bd
00000240: a7ed 86bc 30be 813d bd53 543c f9db 87bd
00000250: 56ee 3d3d 3051 753d 8619 87bd 8c63 173d
00000260: 5bb7 923b c5c6 333d 348e 923d 5a3a babd
00000270: dd77 5cbd 329b aebd d604 60bb 92fb cf3c
00000280: 65d2 82bd dd55 7a3c c31d 88bd 26f4 64bc
00000290: a6ba a43d af95 ee3c aaa8 6dbd ba68 7bbd
000002a0: 11d9 963d 1f21 8f3b 4992 4d3d 176b 0dbd
000002b0: fbfe cebc 3cac 273c bcda 8bbd fab5 5a3d
000002c0: 689a 343c f6c1 c83c a6dc 403d a3ef 8cbd
000002d0: 43dc 87bc cf82 5abc c4cc 1fbd 1b22 8f3a
000002e0: 80f9 7cbd 4c85 8c3d 5bb0 803b 0610 563d
000002f0: 7f1a 9dbd 2cc1 353d b561 9bbd e15d ddbc
00000300: 4d3e 89bc 433f 8c3c dc7c c43c f362 34bc
00000310: ed87 993d 4e22 49bc b417 c13d 73db 0d3d
00000320: 2d60 543d 1148 623d 5d5c 543d 735b 793c
00000330: 66ca 61bd b1e8 a43c e2b8 4b3b 6a12 8d3b
00000340: 81f5 8abd be1b 803d cca5 0ebd ef7f 8bbd
00000350: 5ba5 883d ed8c 13bd 563d 59bd 975a 0fbd
00000360: e644 393d ea18 09bd e252 703c c2d4 303d
00000370: c5fc 1fbd 9e11 9bbd b067 e43c 6c46 5d3b
00000380: 1062 963c e425 8f3c 7964 d63b 6d8e cb3c
00000390: feab 063d 85f4 d13c b020 843d 1ade 1ebd
000003a0: ddd2 cf3c c520 b33d 106e 66bd 96c1 883c
000003b0: bd8c 25bd 0035 89bd f102 253d 45b6 2fbd
000003c0: 7c98 993d a4c0 843d 1e64 b53d 9768 153d
000003d0: d47e 8abd af6a 313d 5340 c4bb 7ca1 553c
000003e0: 5c80 5fba 216c 8d3d 9640 2cbd 0468 87bd
000003f0: 81a8 6dbd c5b5 493d 18da 36bc 2841 263d
-0.019531658 -0.02583306 0.030102514 -0.01890334 0.0014491552 -0.004223092 -0.016393995 0.03438992
0.011243661 -0.012719407 0.033909842 -0.062350627 -0.04140369 0.03573921 0.022209119 0.018792368
-0.015408919 -0.06968891 -0.03865791 0.015353557 0.03051887 0.037348494 -0.03210914 0.014655758
0.010833675 -0.0078391 0.009757266 0.013524079 0.019392878 -0.007875739 0.0005845034 -1.2395654e-05
-0.028409608 -0.014926571 0.012070745 -0.0014510792 -0.0019615896 -0.02223143 -0.060681578 -0.005647694
0.02914126 0.08796085 0.03298238 0.044348884 -0.001073148 0.010594948 0.014049528 0.0080609685
0.01146696 -0.020402888 0.005854148 -0.0013333935 -0.043627694 0.023040146 0.02487657 0.023902407
0.013801919 -0.022871142 0.01781126 -0.018208878 0.033305857 -0.051016536 0.04104415 -0.032174446
0.04772395 -0.060104683 0.001748036 -0.015739556 0.0033766564 -0.032304022 0.032439675 -0.026342459
-0.039904825 -0.028578252 0.006311596 -0.053758956 0.0037280137 -0.040257104 0.0589698 -0.09659398
0.015353189 -0.014731542 0.012488938 -0.037874755 -0.00095944206 0.011247814 -0.055390563 0.0038141608
0.002983613 -0.011535883 0.031642754 0.02678031 0.008530427 0.03675504 -0.0057128347 -0.041267317
0.010997925 0.008842389 0.01012176 0.009649324 -0.010608116 0.056232434 0.062639944 0.030468756
-0.060717046 -0.00368353 -0.004687728 0.007402829 -0.012590758 -0.049011618 0.021272944 -0.017254496
-0.019669276 -0.03391742 -0.018852297 -0.042930458 -0.000619547 -0.010203922 -0.013117744 -0.008782709
0.032012813 -0.05081988 0.0012853302 -0.012257568 0.036053013 0.018895872 0.06817488 0.01810806
-0.0515555 -0.043927822 0.04313138 -0.061975524 -0.007362177 -0.0017993596 0.0600998 -0.045906365
-0.000398251 -0.01696175 -0.061729576 0.014275135 -0.01942639 -0.032230817 0.061514035 -0.06475627
-0.016470743 0.063351035 0.012959418 -0.06633753 0.046369873 0.05989188 -0.06596665 0.03696017
0.004477424 0.043890733 0.07156029 -0.09093161 -0.053825248 -0.08525695 -0.003418257 0.025388513
-0.06387786 0.01527926 -0.066463016 -0.013974225 0.08043413 0.02912411 -0.05802218 -0.061379172
0.07365621 0.004367962 0.050188337 -0.034525957 -0.025268069 0.010233935 -0.0682883 0.053396203
0.011023141 0.02450655 0.047085427 -0.068816446 -0.016584521 -0.013336851 -0.03901364 0.0010920198
-0.06176138 0.06861362 0.003927273 0.052261375 -0.07671069 0.044373676 -0.075869955 -0.027022304
-0.01675334 0.01712001 0.023985319 -0.011009919 0.07496629 -0.012276245 0.09428349 0.03463311
0.051849533 0.05524451 0.051845897 0.015219557 -0.055124663 0.020130487 0.003108554 0.0043051736
-0.067851074 0.062552914 -0.034826085 -0.06811511 0.06672164 -0.03602307 -0.05303701 -0.034998503
0.045231722 -0.033471026 0.014668198 0.04317165 -0.03905942 -0.075717196 0.027881473 0.0033763899
0.018357307 0.017474122 0.006542739 0.024848187 0.03287887 0.025629291 0.06451547 -0.03878603
0.025369102 0.08746485 -0.056257308 0.016693871 -0.04041742 -0.06699562 0.04028601 -0.042898435
0.07499787 0.06482056 0.088569865 0.036476698 -0.06762472 0.043314632 -0.0059891134 0.013038989
-0.0008525902 0.069053896 -0.04205378 -0.06611636 -0.058022026 0.049245615 -0.011160396 0.04058948

action_model._continuous_distribution.mu.bias f4 [5]
00000000: f5ff 923b 2951 0abd b857 bdb9 abc9 0cbc
00000010: 599b 143c
0.004486079 -0.033768807 -0.00036114245 -0.008593003 0.009070241

exp_avg f4 [128, 47]
00000000: 765b 2837 c637 8734 0000 0000 7cfa 1e34
00000010: 7194 d8b7 846f 1738 0000 0000 08fd 0037
00000020: a3dd c9b7 1e14 1038 0000 0000 8be1 fe36
00000030: 770d 04b8 c432 2f38 0000 0000 6e27 2c37
00000040: 7d4a 9f36 ebdf b936 0000 0000 9fc7 7036
00000050: c9e1 da37 2f97 84b7 0000 0000 75ea 48b5
00000060: 4d28 25b7 bfde a837 0000 0000 132c 9c36
00000070: fda8 bd37 1abc 4eb7 0000 0000 fc82 4bb6
00000080: 7b57 b837 c319 44b7 0000 0000 52ee 2fb6
00000090: 083e 8337 38ac 3737 82b0 0c37 ac21 98b7
000000a0: b22a b137 ca48 9ab5 af0d f0b6 2ce0 1936
000000b0: 38e1 12b7 f9d0 1135 c832 9235 a2ae c538
000000c0: e30d 7336 0000 0000 a726 4136 ebae 3c38
000000d0: 35df 5d38 0000 0000 a59d a237 e32d 6c38
000000e0: 3c60 2e38 0000 0000 52f8 9f37 37a1 8738
000000f0: b34b 0b38 0000 0000 c764 8337 fbe3 ad36
00000100: cd68 c238 0000 0000 fa15 ed37 ca66 0438
00000110: ac13 8b38 0000 0000 f1e5 e737 adbe 3cb7
00000120: e4de e438 0000 0000 90f3 1938 cdb2 f137
00000130: b4da 9038 0000 0000 dded 4e38 6d6a 0338
00000140: e691 8b38 0000 0000 352d 9937 7ba9 bbb7
00000150: 1a2b 6938 0d75 4238 9c42 e537 367d ddb7
00000160: 36f8 a638 5445 0537 53f1 a6b8 767e c0b8
00000170: bbd1 4536 d4a1 ee36 2d70 b438 f4f0 e9b5
00000180: 0000 0000 94c8 5036 4a26 3138 866a 3038
00000190: 0000 0000 fc75 8437 ed28 5738 e667 0a38
000001a0: 0000 0000 0818 7337 67d6 7738 d874 d337
000001b0: 0000 0000 2bd4 4c37 619c 0637 daf4 9f38
000001c0: 0000 0000 89c0 8f37 b7c7 4d38 14c9 1338
000001d0: 0000 0000 f32a a837 a159 2f36 994d ab38
000001e0: 0000 0000 6420 7b37 f673 5137 c299 9638
000001f0: 0000 0000 b4c9 7038 0b18 d7b7 708e e638
00000200: 0000 0000 4b3b 2e38 d05e cab7 354b 5f38
00000210: 2f1f 3d38 1fdf fa37 89ae 28b8 6ccf ac38
00000220: 4b1a 09b8 97b1 beb8 5109 a8b8 90da ac35
00000230: 33c6 b1b6 4d55 0738 a7eb 8536 0000 0000
00000240: 97c0 fc35 461e 8834 8202 1738 0000 0000
00000250: 66d6 2e37 df89 19b6 5fab 2138 0000 0000
00000260: 9831 5437 ea7f 8037 98a5 af37 0000 0000
00000270: f7f7 f736 9275 3b37 c36a d237 0000 0000
00000280: 4998 8537 0c09 d838 abff 8bb8 0000 0000
00000290: b90c 0db7 7a00 a0b7 0113 6838 0000 0000
000002a0: 1b22 cd37 69f5 5138 bc87 67b7 0000 0000
000002b0: be4b 8636 c7dd 5036 bd04 0b38 0000 0000
000002c0: 94d7 a437 4c09 9f37 a482 f037 b40d c037
000002d0: c04a bab7 cb75 0538 a05c 4138 f2a7 30b8
000002e0: c398 66b8 9c75 14b8 2e4f 3fb5 fc06 8337
000002f0: 51fb 4238 3138 c3b6 0000 0000 2101 8835
00000300: 1fcf bf38 ec09 55b8 0000 0000 e96a 9bb6
00000310: 9329 e338 6adf 8db8 0000 0000 c9ff 20b7
00000320: 6eed dc38 44a3 87b8 0000 0000 ddd9 30b7
00000330: 1ed7 5a37 07bd e737 0000 0000 0809 deb6
00000340: 391a 51b8 4ad7 bd38 0000 0000 6f73 f337
00000350: c622 7f37 2697 d537 0000 0000 90d3 81b7
00000360: 9547 8db7 6036 7138 0000 0000 1588 7538
00000370: d6ce 84b8 1d19 da38 0000 0000 e456 c837
00000380: 8620 dfb8 a99f 8a37 6b2d 8637 6e12 0739
00000390: 8899 d0b8 000b 9538 7724 0fb8 99c7 b8b8
000003a0: 78cb 2ab8 9a69 deb5 6206 b0b7 5ab1 40b6
000003b0: 4544 2935 0000 0000 82fe 0cb5 e30e 0bb7
000003c0: b2ed ca36 0000 0000 bbcd 5635 049c a1b6
000003d0: dad7 2c36 0000 0000 3d70 89b4 b75a aab7
000003e0: b08e 9737 0000 0000 927d 8136 76be 08b6
000003f0: e71e 5ab4 0000 0000 a9b8 f435 8715 08b8
1.0034875e-05 2.518629e-07 0.0 1.4806022e-07 -2.581833e-05 3.6105062e-05 0.0 7.688308e-06
-2.4064275e-05 3.435101e-05 0.0 7.5960465e-06 -3.1483793e-05 4.177053e-05 0.0 1.0261179e-05
4.747241e-06 5.539497e-06 0.0 3.5878982e-06 2.6092765e-05 -1.5806027e-05 0.0 -7.4846986e-07
-9.84415e-06 2.0130885e-05 0.0 4.654293e-06 2.2609247e-05 -1.2322353e-05 0.0 -3.03256e-06
2.1975246e-05 -1.16885085e-05 0.0 -2.6215753e-06 1.5645302e-05 1.0947748e-05 8.385747e-06 -1.8135492e-05
2.1119926e-05 -1.1495079e-06 -7.1541504e-06 2.2929262e-06 -8.754716e-06 5.4320805e-07 1.0892627e-06 9.42622e-05
3.6217905e-06 0.0 2.878174e-06 4.4985598e-05 5.2898384e-05 0.0 1.9385314e-05 5.630952e-05
4.1574458e-05 0.0 1.906991e-05 6.46733e-05 3.3210683e-05 0.0 1.5663345e-05 5.182342e-06
9.2701615e-05 0.0 2.8262835e-05 3.1566982e-05 6.631701e-05 0.0 2.764442e-05 -1.1250068e-05
0.00010913404 0.0 3.6704878e-05 2.88127e-05 6.907192e-05 0.0 4.9335755e-05 3.133195e-05
6.655212e-05 0.0 1.8260072e-05 -2.2371058e-05 5.559167e-05 4.6362216e-05 2.7329945e-05 -2.6403559e-05
7.96173e-05 7.9435595e-06 -7.960447e-05 -9.1788286e-05 2.9477367e-06 7.111792e-06 8.603963e-05 -1.7429979e-06
0.0 3.1111167e-06 4.2235748e-05 4.2060878e-05 0.0 1.5790567e-05 5.129811e-05 3.2998527e-05
0.0 1.4489524e-05 5.9089067e-05 2.520757e-05 0.0 1.2208747e-05 8.023432e-06 7.627318e-05
0.0 1.7136585e-05 4.9061808e-05 3.52348e-05 0.0 2.004716e-05 2.6129203e-06 8.168369e-05
0.0 1.4968307e-05 1.248437e-05 7.181197e-05 0.0 5.740831e-05 -2.5641193e-05 0.00010993786
0.0 4.1540054e-05 -2.4124427e-05 5.3237385e-05 4.5090153e-05 2.9906221e-05 -4.021687e-05 8.2402345e-05
-3.2687833e-05 -9.092985e-05 -8.0125996e-05 1.2878609e-06 -5.2980845e-06 3.226595e-05 3.9911424e-06 0.0
1.8831514e-06 2.5354e-07 3.600354e-05 0.0 1.0421127e-05 -2.2879028e-06 3.8544993e-05 0.0
1.2647732e-05 1.5318354e-05 2.0938736e-05 0.0 7.3900405e-06 1.11734425e-05 2.5083666e-05 0.0
1.5925749e-05 0.00010301368 -6.6756584e-05 0.0 -8.407217e-06 -1.9073708e-05 5.533081e-05 0.0
2.4453786e-05 5.005804e-05 -1.3800276e-05 0.0 4.0023288e-06 3.1123507e-06 3.3144595e-05 0.0
1.965071e-05 1.8958606e-05 2.8671064e-05 2.2894565e-05 -2.2207736e-05 3.1819374e-05 4.610105e-05 -4.211808e-05
-5.4978544e-05 -3.5395482e-05 -7.1268266e-07 1.561967e-05 4.648726e-05 -5.8179944e-06 0.0 1.0133118e-06
9.146169e-05 -5.0792398e-05 0.0 -4.631806e-06 0.00010831947 -6.765018e-05 0.0 -9.596298e-06
0.00010534642 -6.467712e-05 0.0 -1.0541143e-05 1.3043898e-05 2.7625369e-05 0.0 -6.617167e-06
-4.9853905e-05 9.052323e-05 0.0 2.902161e-05 1.5207281e-05 2.5461963e-05 0.0 -1.5476515e-05
-1.6841843e-05 5.750952e-05 0.0 5.8539288e-05 -6.332777e-05 0.00010399728 0.0 2.388232e-05
-0.000106395266 1.652523e-05 1.5995194e-05 0.00012881469 -9.94681e-05 7.1069226e-05 -3.4127817e-05 -8.810982e-05
-4.0720653e-05 -1.6571023e-06 -2.0983807e-05 -2.8713462e-06 6.305675e-07 0.0 -5.252442e-07 -8.288512e-06
6.0477405e-06 0.0 8.002059e-07 -4.8163365e-06 2.575564e-06 0.0 -2.5599903e-07 -2.0307822e-05
1.8067047e-05 0.0 3.859118e-06 -2.0376442e-06 -2.0314074e-07 0.0 1.823316e-06 -3.2444976e-05

exp_avg_sq f4 [128, 47]
00000000: a1f2 d531 131e 3e2e 0000 0000 ba87 062d
00000010: 6307 1631 b120 9631 0000 0000 f0b4 c32f
00000020: bd3e a430 1078 b731 0000 0000 8a37 0230
00000030: abd3 5631 66aa 7131 0000 0000 3eb8 b12f
00000040: 34d6 ea30 dada aa31 0000 0000 47e2 3130
00000050: 5b15 9a31 65d0 1531 0000 0000 d9d3 ad2f
00000060: c2a4 2131 465d 8f31 0000 0000 d019 6b30
00000070: 3b77 aa31 306a e830 0000 0000 b5b3 ee2f
00000080: e67a 9631 94a2 1931 0000 0000 f2f7 0730
00000090: e773 8930 e9ce 2231 5e81 de30 e2b2 c830
000000a0: 48fc bf30 2f30 6b31 d418 e730 0089 3131
000000b0: c0a5 6831 75aa 2a2d 3e19 742f be92 9a33
000000c0: c697 7831 0000 0000 e633 b32e af31 3832
000000d0: 3fea 8c33 0000 0000 f615 b131 9e27 8432
000000e0: 5daa 8133 0000 0000 3e54 a931 deb4 3d32
000000f0: 3348 8933 0000 0000 15c7 be31 8b6c af32
00000100: a480 6733 0000 0000 4a3d c631 43c5 1a32
00000110: e8e2 8f33 0000 0000 3bdb 0932 82d9 8132
00000120: 463d 7a33 0000 0000 a239 3132 700b 8b32
00000130: 1d72 8033 0000 0000 3401 5032 ba0b 1733
00000140: e907 3333 0000 0000 3a0e cf31 9769 7e32
00000150: a82a b432 fae5 7632 67da b932 0f56 b032
00000160: 858b 1b33 acd2 9a32 5d96 e532 9c88 3a33
00000170: f31c 3c2f 227a 1931 535c b133 1a5e f831
00000180: 0000 0000 b7ec d42e 84b0 0132 68ad b033
00000190: 0000 0000 81a0 d931 95ae 7c32 fefd 9f33
000001a0: 0000 0000 0594 ce31 1b1a 1832 d38e ad33
000001b0: 0000 0000 c5e2 ec31 1e09 c132 fbb8 8f33
000001c0: 0000 0000 5370 fa31 48ef 6432 52ad a433
000001d0: 0000 0000 d894 1932 6f56 dc32 55b4 8933
000001e0: 0000 0000 c473 3d32 9a35 b432 f0c0 9433
000001f0: 0000 0000 41d8 5d32 a576 1b33 a8c5 7933
00000200: 0000 0000 5072 3032 d971 a432 cb03 d132
00000210: 5291 8f32 4971 f132 6217 a932 ada3 5633
00000220: 2a29 9d32 0652 1a33 9fdb 6033 d1c2 232f
00000230: 4704 3e31 aa41 9433 5334 ab31 0000 0000
00000240: 3f87 af2e fece 5b31 018b 9b33 0000 0000
00000250: 9cca be31 c21b 5f31 f6f9 9b33 0000 0000
00000260: f686 ca31 8c84 ce31 de42 9533 0000 0000
00000270: bd93 c731 d861 3232 cdc5 8833 0000 0000
00000280: cce8 f131 be63 3832 9f9c 9033 0000 0000
00000290: 1a2c 0232 e872 4632 613a 8633 0000 0000
000002a0: 74ed 3b32 bea1 a232 96bb 6a33 0000 0000
000002b0: 05dd 2d32 6733 f932 37ed 4733 0000 0000
000002c0: 0716 0732 2343 8332 3e40 ba32 3ba4 7d32
000002d0: 8697 c332 c2e4 ae32 2c24 1733 51e2 a332
000002e0: 4d0b e732 8654 3633 49b0 4e2f ec97 f730
000002f0: 99bb 8934 3bb8 3332 0000 0000 1c7f 9e2f
00000300: c618 3133 8c4c 7334 0000 0000 60e9 9a32
00000310: a76e 2e33 bab8 7334 0000 0000 94ce a532
00000320: 02af 3e33 20ac 6c34 0000 0000 9565 a732
00000330: aee6 8233 7b3c 6034 0000 0000 b42c d332
00000340: cc78 8133 14bf 6634 0000 0000 f98d da32
00000350: afa5 d033 604d 3b34 0000 0000 bff4 0c33
00000360: d70b 6f33 4908 6634 0000 0000 960e 3033
00000370: 8ae9 e733 1cb4 3734 0000 0000 834d 0233
00000380: 0fc3 5b33 57ed ae33 7652 6f33 feb0 a133
00000390: 01c9 9133 4052 0d34 2957 8a33 f7aa bd33
000003a0: a8ce 2234 0100 2830 02b9 2532 fc51 b532
000003b0: df7f cb30 0000 0000 c7e8 c82d 3128 5930
000003c0: a38a b932 0000 0000 f492 ea30 abcb 1231
000003d0: bacc b332 0000 0000 8455 eb30 0199 ad30
000003e0: 6f04 b532 0000 0000 a1f8 fc30 ac42 1531
000003f0: f800 b132 0000 0000 0199 1631 ba79 8531
6.2266996e-09 4.322771e-11 0.0 7.6471555e-12 2.1832072e-09 4.369291e-09 0.0 3.5598857e-10
1.1950402e-09 5.3396505e-09 0.0 4.737265e-10 3.1261418e-09 3.5166976e-09 0.0 3.2327024e-10
1.7086621e-09 4.9725317e-09 0.0 6.4713784e-10 4.4844177e-09 2.1800812e-09 0.0 3.1619043e-10
2.3522237e-09 4.1724517e-09 0.0 8.5529184e-10 4.961206e-09 1.6910402e-09 0.0 4.3419637e-10
4.3795465e-09 2.2356845e-09 0.0 4.9465065e-10 1.0001003e-09 2.3691717e-09 1.6189394e-09 1.4602757e-09
1.3968782e-09 3.422439e-09 1.6814519e-09 2.5834765e-09 3.3854661e-09 9.70123e-12 2.2200639e-10 7.197876e-08
3.6175023e-09 0.0 8.1491966e-11 1.0721506e-08 6.561867e-08 0.0 5.1538747e-09 1.5384838e-08
6.0380195e-08 0.0 4.9281246e-09 1.1042372e-08 6.3926926e-08 0.0 5.552361e-09 2.0422041e-08
5.3900877e-08 0.0 5.769526e-09 9.008832e-09 6.7002304e-08 0.0 8.024297e-09 1.5116488e-08
5.826339e-08 0.0 1.031586e-08 1.6186931e-08 5.9812216e-08 0.0 1.2107467e-08 3.5168092e-08
4.168388e-08 0.0 6.0261103e-09 1.4808754e-08 2.0974156e-08 1.4371375e-08 2.1636152e-08 2.0528232e-08
3.6215642e-08 1.8023762e-08 2.6727486e-08 4.3430745e-08 1.7108785e-10 2.2333855e-09 8.2589985e-08 7.228448e-09
0.0 9.682693e-11 7.548923e-09 8.227181e-08 0.0 6.3337784e-09 1.4708026e-08 7.4502154e-08
0.0 6.012217e-09 8.8535e-09 8.08192e-08 0.0 6.8942847e-09 2.2472303e-08 6.692604e-08
0.0 7.2887274e-09 1.3325753e-08 7.668372e-08 0.0 8.939615e-09 2.5650676e-08 6.412362e-08
0.0 1.102757e-08 2.0979133e-08 6.926882e-08 0.0 1.29130635e-08 3.6196656e-08 5.8154598e-08
0.0 1.027054e-08 1.9143885e-08 2.4332527e-08 1.6713475e-08 2.8107609e-08 1.9684823e-08 4.997462e-08
1.8295925e-08 3.593052e-08 5.235381e-08 1.4893976e-10 2.765107e-09 6.903731e-08 4.9827036e-09 0.0
7.982103e-11 3.1986356e-09 7.2430346e-08 0.0 5.552762e-09 3.246655e-09 7.2632176e-08 0.0
5.894317e-09 6.010458e-09 6.950516e-08 0.0 5.808458e-09 1.0383211e-08 6.368973e-08 0.0
7.040489e-09 1.0732888e-08 6.734012e-08 0.0 7.5770235e-09 1.15512435e-08 6.25048e-08 0.0
1.0938823e-08 1.8932834e-08 5.465298e-08 0.0 1.0120179e-08 2.901079e-08 4.6549044e-08 0.0
7.863043e-09 1.5280937e-08 2.1682464e-08 1.476388e-08 2.2769893e-08 2.0360293e-08 3.5190325e-08 1.9078614e-08
2.6897078e-08 4.245205e-08 1.879822e-10 1.8014794e-09 2.5654734e-07 1.04610605e-08 0.0 2.883035e-10
4.1233555e-08 2.2658986e-07 0.0 1.8034086e-08 4.061317e-08 2.2698342e-07 0.0 1.9302469e-08
4.439699e-08 2.2041831e-07 0.0 1.9487553e-08 6.095557e-08 2.0883628e-07 0.0 2.4583962e-08
6.0290034e-08 2.1489933e-07 0.0 2.5443102e-08 9.7158924e-08 1.7443881e-07 0.0 3.2818885e-08
5.5657292e-08 2.1423433e-07 0.0 4.099146e-08 1.0799256e-07 1.7108727e-07 0.0 3.033848e-08
5.1167316e-08 8.145678e-08 5.572152e-08 7.5293414e-08 6.788651e-08 1.316157e-07 6.44198e-08 8.832097e-08
1.5162607e-07 6.111805e-10 9.64633e-09 2.1108455e-08 1.4806537e-09 0.0 2.2840741e-11 7.9001256e-10
2.159988e-08 0.0 1.7067507e-09 2.1361568e-09 2.0931441e-08 0.0 1.7122805e-09 1.2630893e-09
2.107319e-08 0.0 1.8406078e-09 2.1720252e-09 2.0605952e-08 0.0 2.1914845e-09 3.884648e-09

exp_avg f4 [128]
00000000: 3195 2c37 0f47 cd38 67c8 b038 c312 1838
00000010: 5294 2a38 4160 16b6 da78 40b7 fe4a 2c38
00000020: aaa7 67b8 f2d8 c337 a2a4 7437 a9bd 41b7
00000030: 2b6a 8eb6 9b5f 55b7 3e9f 0e35 d1f8 21b8
00000040: 84e0 ccb6 ee7b 4037 f1f0 9d36 2b55 7b38
00000050: 4984 97b7 e1bb 8cb7 6c58 b236 c2f1 a4b7
00000060: 419d 01b9 49d7 e035 788e fcb8 2b0b 0939
00000070: 1825 21b8 5e5f 8438 c8a7 9a36 9a7a d337
00000080: 9226 1f38 1af9 e038 85bd c138 555a 5336
00000090: 765c 43b8 e12d 6838 1d8b 3437 c65e 67b7
000000a0: 23d8 ac38 70fc ccb8 262e 0739 1db0 ac38
000000b0: 8eba 6238 8815 2cb6 8286 c436 99c6 adb6
000000c0: 7c9b 09b8 3dc2 9138 9aa7 9b37 6f2d 29b8
000000d0: 21bb a038 0452 9838 d3b8 9137 01e5 ffb7
000000e0: 76b1 9538 0315 69b7 35d7 c4b6 73ba 24b7
000000f0: 86cf 79b7 53be aeb8 0dab cdb8 5d3e d838
00000100: ac52 a838 9bb8 7838 ebd9 5eb8 e791 ef38
00000110: 192e 1eb6 2c0f ab38 c82b e238 6790 da37
00000120: 42aa 14b8 a62e dcb8 8eeb 9b38 a0ef 02b6
00000130: 234d 28b8 db71 4e37 75e3 3cb8 5754 c8b6
00000140: f0d1 fbb7 b419 12b8 119d 08b9 038e 29b8
00000150: e72a e9b8 f767 91b8 2bd1 3b39 7a42 55b7
00000160: c4ff 4c35 1aee 7eb8 f61b adb8 619a 5a35
00000170: 74b6 2e37 d7a7 ed37 3158 48b8 eba4 4536
00000180: e0a9 1438 9eaf 2db5 9752 7638 e894 e6b7
00000190: e488 5e37 bbdd 1eb4 c252 a537 0a72 d8b6
000001a0: fa62 dbb6 05fb b138 8f32 b837 83ca 1737
000001b0: 3ce1 33b9 a583 b138 a58a 4d38 2a54 8737
000001c0: 87f1 0a38 ceeb 1e37 4278 d3b7 fc17 9438
000001d0: 8cac ae38 5f40 9eb7 b744 dfb7 c1eb 1738
000001e0: 9ec6 d1b8 8789 88b8 1d70 46b7 ebb5 ab37
000001f0: 48bf e737 ce6b 9638 b210 9837 1fb4 9b38
1.0286735e-05 9.7883974e-05 8.429662e-05 3.6257097e-05 4.0669293e-05 -2.240777e-06 -1.147223e-05 4.1077838e-05
-5.523084e-05 2.3346834e-05 1.4581865e-05 -1.1547855e-05 -4.2442894e-06 -1.2718049e-05 5.313085e-07 -3.861712e-05
-6.105811e-06 1.1472946e-05 4.707014e-06 5.9922382e-05 -1.8062203e-05 -1.6776788e-05 5.315107e-06 -1.96629e-05
-0.0001236098 1.6751957e-06 -0.00012042833 0.00013069499 -3.8419937e-05 6.312014e-05 4.60909e-06 2.521025e-05
3.7944475e-05 0.00010727551 9.238258e-05 3.149403e-06 -4.6577734e-05 5.535584e-05 1.0761226e-05 -1.3790739e-05
8.241858e-05 -9.774498e-05 0.00012891795 8.234403e-05 5.405634e-05 -2.564253e-06 5.856914e-06 -5.1789216e-06
-3.280815e-05 6.9503185e-05 1.8555485e-05 -4.0335053e-05 7.66425e-05 7.2632014e-05 1.7371412e-05 -3.0505007e-05
7.137928e-05 -1.3892774e-05 -5.8663086e-06 -9.818573e-06 -1.4889874e-05 -8.332417e-05 -9.8070224e-05 0.00010311299
8.026263e-05 5.9299735e-05 -5.3131876e-05 0.000114235845 -2.3570667e-06 8.1567414e-05 0.00010784675 2.6054868e-05
-3.5444515e-05 -0.000104991064 7.4348514e-05 -1.951099e-06 -4.012616e-05 1.2305066e-05 -4.503453e-05 -5.970283e-06
-3.0019291e-05 -3.483305e-05 -0.00013028482 -4.0425e-05 -0.00011118297 -6.933504e-05 0.00017911631 -1.2711267e-05
7.636811e-07 -6.078007e-05 -8.254491e-05 8.143598e-07 1.0413689e-05 2.8330758e-05 -4.776585e-05 2.9451282e-06
3.5444158e-05 -6.470308e-07 5.872789e-05 -2.7487476e-05 1.32641035e-05 -1.4795562e-07 1.970807e-05 -6.4505775e-06
-6.538231e-06 8.486774e-05 2.1958052e-05 9.047452e-06 -0.00017154677 8.4645384e-05 4.900493e-05 1.6132446e-05
3.3126704e-05 9.472436e-06 -2.520916e-05 7.0616574e-05 8.329106e-05 -1.8865043e-05 -2.661567e-05 3.622077e-05
-0.00010002892 -6.510602e-05 -1.1827823e-05 2.04695e-05 2.7626418e-05 7.1726376e-05 1.8127586e-05 7.424526e-05

exp_avg_sq f4 [128]
00000000: 655b d731 7ad8 a333 ae39 c033 c044 a133
00000010: a4dd 8f34 725f c232 5e65 8333 ff4a b833
00000020: 4445 e634 025c 8033 f79d c332 944f 9c32
00000030: 1f6d c532 4f65 0533 7127 d930 5f09 8b34
00000040: 8ff2 8b32 ba58 8032 6b6f ce30 2632 8433
00000050: 220b 7031 2472 b632 eecb 0232 b6b3 c533
00000060: 270e 4734 ebf5 3f33 8745 0535 aaf4 8d34
00000070: ab15 ac35 6df9 1533 19d5 4333 7b52 dc32
00000080: 56ed 1535 0c83 8234 05fd 9e33 d42f 0a32
00000090: d215 3432 4a80 4f33 9621 1a32 4bf2 b634
000000a0: 5e54 a134 b3ea 0134 f7d5 1634 059d af33
000000b0: bc55 1634 4860 3b33 ace6 4e35 9b8d c731
000000c0: 3336 0434 d08e 8533 f5c2 2934 378f d233
000000d0: f91e 7a34 c02b 2933 12b0 6834 0206 9a34
000000e0: 7dee 9433 8216 7c32 4584 b431 6ce7 8632
000000f0: 76dd c430 a7c5 5134 595e 3434 7118 a335
00000100: 53cd 3935 c410 fe33 f587 d633 c2d1 1c34
00000110: 364c 9032 2d2e af33 d0ff d034 622c 3934
00000120: 9f1f 1933 2777 b933 8c5d 9a33 392f 1733
00000130: db21 2134 8bea 9833 3456 1134 1d6c b332
00000140: 086e 9b33 5681 8433 69c3 9033 fd32 ae32
00000150: 6fcc 8034 6b4f 5533 5f50 8e34 888a 2c34
00000160: 2861 5d33 91be 6434 2108 c333 c083 aa32
00000170: bebd a632 60cc 0334 3df7 ff32 52f9 4d33
00000180: 2eba ce33 c829 d633 89d7 4433 dd4b c134
00000190: b0f1 0f32 45b5 dc31 7263 1033 6806 a131
000001a0: 66b1 9c34 d48f cf34 e738 5032 b86d 1833
000001b0: 126e 8534 bf05 af33 f41b 1433 96d3 9f33
000001c0: 3cc2 d731 eb80 6d32 bdfe c231 0198 fb34
000001d0: 948f 8433 51e8 8634 6838 8433 2119 a833
000001e0: cea6 3c34 45dd 8534 0166 5633 a22e 6435
000001f0: cee0 2633 49f0 0f33 8e67 9c32 e383 d233
6.267714e-09 7.629656e-08 8.9511886e-08 7.509652e-08 2.679709e-07 2.2627976e-08 6.1186014e-08 8.5818094e-08
4.2891236e-07 5.9772006e-08 2.2772822e-08 1.8196978e-08 2.2983441e-08 3.1058615e-08 1.5800038e-09 2.5897586e-07
1.6292033e-08 1.494151e-08 1.502014e-09 6.155851e-08 3.4930925e-09 2.1239494e-08 7.613364e-09 9.2062166e-08
1.8538468e-07 4.4694314e-08 4.9647537e-07 2.6441313e-07 1.2821305e-06 3.4918617e-08 4.5595787e-08 2.5648879e-08
5.5852195e-07 2.4309736e-07 7.403472e-08 8.043532e-09 1.048234e-08 4.831262e-08 8.971616e-09 3.4076433e-07
3.0049972e-07 1.2099444e-07 1.4047679e-07 8.177634e-08 1.4001029e-07 4.3626898e-08 7.707665e-07 5.807761e-09
1.2313176e-07 6.2192726e-08 1.5810276e-07 9.804938e-08 2.3294332e-07 3.938817e-08 2.1670738e-07 2.8689107e-07
6.935168e-08 1.4673448e-08 5.253727e-09 1.5704892e-08 1.432382e-09 1.9536547e-07 1.679813e-07 1.215156e-06
6.9216657e-07 1.1830846e-07 9.989882e-08 1.4604942e-07 1.6798463e-08 8.157472e-08 3.8929147e-07 1.7245614e-07
3.5651848e-08 8.6364075e-08 7.1882e-08 3.5200376e-08 1.500661e-07 7.120715e-08 1.3535538e-07 2.0887507e-08
7.2377645e-08 6.170255e-08 6.7410674e-08 2.0279453e-08 2.3990603e-07 4.9665157e-08 2.650804e-07 1.6069146e-07
5.1543935e-08 2.1303482e-07 9.081874e-08 1.9850518e-08 1.9411228e-08 1.2274677e-07 2.9798338e-08 4.7957037e-08
9.6264884e-08 9.9727515e-08 4.5830834e-08 3.600425e-07 8.378649e-09 6.4234507e-09 3.3618058e-08 4.686445e-09
2.918634e-07 3.8661403e-07 1.2120132e-08 3.5490046e-08 2.4853267e-07 8.150118e-08 3.448436e-08 7.442502e-08
6.2794054e-09 1.3824528e-08 5.6751035e-09 4.686299e-07 6.172846e-08 2.5128477e-07 6.156989e-08 7.8276805e-08
1.7569548e-07 2.4934175e-07 4.991853e-08 8.500448e-07 3.8854346e-08 3.351332e-08 1.8207881e-08 9.802877e-08
