config/results/AgrConserv_Refactored_2M_V2/Hummingbird_Conservative/Hummingbird_Conservative-499968.pt (torch, 574538 bytes, 36 tensors)

network_body._body_endoder.seq_layers.0.weight f4 [128, 47]
-0.037450332 -0.22719689 -0.076823026 0.02876184 -0.18958345 -0.17646192 -0.115263805 -0.4148736
-0.08564945 -0.2572787 0.09753126 0.16895807 -0.1004932 -0.2263084 0.028294161 0.1809697
-0.06342242 -0.110346206 0.024952048 0.09092637 0.3064076 -0.026510911 0.3225429 -0.036713947
-0.076476716 -0.23436958 -0.16432466 0.026038937 0.059888277 -0.32828593 -0.005862539 0.060891166
0.035956047 -0.2898484 0.084732965 0.03651871 -0.12693243 0.27048615 0.099577166 0.13735051
0.19719774 -0.01679918 -0.096412055 -0.1542463 -0.10275213 0.013759375 0.09256126 0.17132019
-0.007434295 0.35484266 -0.0281856 0.05698334 -0.023616431 0.08537275 -0.039508123 0.20244804
-0.065840594 0.0075504156 0.08122883 0.021540612 -0.27869502 0.1308305 -0.15386742 0.21195786
-0.22088058 0.091996334 0.02463404 -0.28830716 0.05058599 -0.25531667 -0.08251066 -0.04760347
0.079525426 -0.13691723 0.11440656 0.082339 -0.024944158 -0.09547501 0.40202683 0.09353627
-0.17699754 -0.055363618 -0.18394563 0.08817305 -0.041580386 -0.16849625 0.107229166 -0.33118638
-0.052547563 0.018510185 -0.13418873 0.12219304 0.28461692 0.044097863 -0.049823884 -0.07676808
-0.003728746 0.08753751 0.0908675 0.067062125 -0.082492724 -0.27546936 0.13619429 0.03196778
0.054018475 -0.023890968 -0.24808815 -0.2320278 0.012441687 -0.057160888 -0.04981672 -0.4469689
0.114069104 -0.078663476 0.08384376 0.18374568 0.03716601 -0.12809739 0.128692 0.051359635
-0.20856069 -0.05845932 -0.0062305233 0.0022468513 -0.12634248 0.009650938 0.27544215 0.11867667
0.15192108 0.3266459 0.039512016 -0.20430353 -0.084064126 -0.19885473 -0.11189436 0.46221495
0.11684684 -0.2877304 -0.16671267 0.32466152 0.14640938 0.21400718 -0.09398851 0.11240382
0.014355812 -0.088346355 -0.0850331 0.04937246 -0.105003834 -0.28059882 0.35242158 0.12256313
0.015098714 -0.18335253 -0.023728294 -0.082995296 -0.060177296 0.16400509 -0.025926998 0.1367677
-0.024595348 -0.2447975 0.18316518 -0.17039947 0.08567179 -0.1728112 -0.0019166063 -0.22829878
-0.010213932 0.021149917 -0.032598283 -0.10757932 0.09397038 0.1912961 -0.044876173 0.093516596
0.028636629 0.078418605 -0.23939425 0.3437682 -0.014275084 -0.0118633285 -0.18383884 0.03603772
-0.1840825 -0.15153822 0.010997948 -0.10186606 0.29790893 -0.0302891 0.07492825 -0.14879929
0.22059427 -0.19610517 -0.03166238 -0.024317203 0.040522877 0.0075183026 0.22916257 0.063982114
-0.11032198 -0.12625754 -0.107321426 0.10484956 0.04382579 -0.014411834 -0.13015519 0.12829192
0.12044874 -0.2829304 0.015284284 0.182332 0.09839651 -0.3955011 -0.0007821088 -0.03275012
-0.30230054 0.007497579 -0.16137373 0.091220975 0.025144234 -0.047570463 0.15547399 0.11457645
0.047878433 0.11748621 0.1417296 0.16692688 -0.041188136 0.090664364 -0.1147184 0.008644674
-0.22386777 0.14885703 0.11004351 0.16142672 0.06577256 0.09437579 0.16993935 -0.07691515
0.11889994 -0.09704981 -0.08065038 0.08196948 -0.315286 -0.17977062 0.18835728 -0.2130733
0.093983844 0.37012017 0.39992043 -0.16305062 -0.10060481 -0.009190262 -0.025053905 0.0016838852
00000000: 8565 19bd 4da6 68be 6455 9dbd f39d eb3c
00000010: 2a22 42be 6fb2 34be 6e0f ecbd 506a d4be
00000020: fb68 afbd 09ba 83be 78be c73d 5803 2d3e
00000030: 61cf cdbd 64bd 67be 28c9 e73c 1f50 393e
00000040: 9de3 81bd 31fd e1bd 3d68 cc3c 9b37 ba3d
00000050: 75e1 9c3e 692d d9bc 5824 a53e 5d61 16bd
00000060: d39f 9cbd 94fe 6fbe b944 28be 9c4f d53c
00000070: 694d 753d 1815 a8be 8b1a c0bb 0469 793d
00000080: a646 133d 0267 94be 7a88 ad3d a594 153d
00000090: 93fa 01be 297d 8a3e 1def cb3d 9da5 0c3e
000000a0: 34ee 493e 6f9e 89bc af73 c5bd bef2 1dbe
000000b0: b56f d2bd 006f 613c c290 bd3d 8f6e 2f3e
000000c0: 639b f3bb f0ad b53e 7de5 e6bc 5d67 693d
000000d0: 3f77 c1bc e9d7 ae3d 45d3 21bd 8a4e 4f3e
000000e0: 6fd7 86bd 7a69 f73b 4d5b a63d f075 b03c
000000f0: 1db1 8ebe 6ef8 053e 6c8f 1dbe 7b0b 593e
00000100: 852e 62be 9368 bc3d 54cd c93c ff9c 93be
00000110: 4133 4f3d deb8 82be 59fb a8bd dbfb 42bd
00000120: 3ade a23d 0834 0cbe fd4d ea3d 5aa1 a83d
00000130: b157 ccbc 6788 c3bd 76d6 cd3e f28f bf3d
00000140: d83e 35be f6c4 62bd 3e5c 3cbe 1294 b43d
00000150: 3250 2abd 488a 2cbe f79a db3d 4391 a9be
00000160: 1d3c 57bd aca2 973c c568 09be 5840 fa3d
00000170: 4fb9 913e f69f 343d 2114 4cbd 9538 9dbd
00000180: fa5d 74bb de46 b33d bd18 ba3d de57 893d
00000190: f2f1 a8bd 520a 8dbe 8476 0b3e a6f0 023d
000001a0: 7a42 5d3d feb6 c3bc d20a 7ebe b298 6dbe
000001b0: 38d8 4b3c 8921 6abd 9e0c 4cbd 1cd9 e4be
000001c0: 109d e93d 511a a1bd 47b6 ab3d d427 3c3e
000001d0: 633b 183d f62b 03be d6c7 033e 7b5e 523d
000001e0: ef90 55be 0a73 6fbd 6b29 ccbb e93f 133b
000001f0: ec5f 01be f81e 1e3c c106 8d3e c10c f33d
00000200: 3391 1b3e 223e a73e 5ad7 213d f234 51be
00000210: d029 acbd 93a0 4bbe df28 e5bd 70a7 ec3e
00000220: 654d ef3d 6651 93be bab6 2abe 093a a63e
00000230: 57ec 153e b324 5b3e 0c7d c0bd f933 e63d
00000240: a434 6b3c efee b4bd d525 aebd c73a 4a3d
00000250: 400c d7bd a6aa 8fbe 9a70 b43e 6102 fb3d
00000260: 9960 773c c4c0 3bbe d761 c2bc 70f9 a9bd
00000270: 787c 76bd f3f0 273e db64 d4bc d50c 0c3e
00000280: 2f7c c9bc 32ac 7abe a78f 3b3e 337d 2ebe
00000290: b174 af3d 6bf5 30be a336 fbba 28c7 69be
000002a0: 5658 27bc 9742 ad3c c785 05bd 8c52 dcbd
000002b0: 8b73 c03d 20e3 433e 14d0 37bd a185 bf3d
000002c0: 5d97 ea3c ef99 a03d c423 75be 6302 b03e
000002d0: 0be2 69bc 685e 42bc 4040 3cbe 4a9c 133d
000002e0: 1f80 3cbe d62c 1bbe bd30 343c 279f d0bd
000002f0: 8587 983e d920 f8bc fb73 993d d75e 18be
00000300: 77e3 613e cbcf 48be 69b0 01bd df34 c7bc
00000310: 51fb 253d 185c f63b 98a9 6a3e 0e09 833d
00000320: 7ef0 e1bd a849 01be 56cb dbbd 5ebb d63d
00000330: ac82 333d 9d1f 6cbc 6747 05be f55e 033e
00000340: d4ad f63d 41dc 90be ef6a 7a3c 3db5 3a3e
00000350: 1c84 c93d 1f7f cabe 6f06 4dba fd24 06bd
00000360: 23c7 9abe 40ae f53b 283f 25be 10d2 ba3d
00000370: 48fb cd3c 3fd9 42bd 9334 1f3e 0fa7 ea3d
00000380: 2d1c 443d 9c9c f03d 9021 113e e1ee 2a3e
00000390: e4b4 28bd 3dae b93d 7bf1 eabd 64a2 0d3c
000003a0: 983d 65be fa6d 183e 7e5e e13d 0c4d 253e
000003b0: c4b3 863d 1848 c13d 9504 2e3e b185 9dbd
000003c0: d081 f33d 0dc2 c6bd 072c a5bd 9ddf a73d
000003d0: 2b6d a1be ca15 38be bbe0 403e e32f 5abe
000003e0: 9a7a c03d 6480 bd3e 5fc2 cc3e bef6 26be
000003f0: e509 cebd c192 16bc d93d cdbc d0b5 dc3a

network_body._body_endoder.seq_layers.0.bias f4 [128]
-0.03956587 -0.0057751155 -0.0056047537 -0.008607284 0.022668486 -0.014492198 -0.0072727506 -0.0016349675
0.025189131 0.004668399 -0.014002585 -0.0026252887 0.015019733 -0.007901868 0.010073889 -0.0051208287
-0.022946827 -0.00012693132 0.0037512411 0.0067424006 -0.0047705085 -0.019942284 -0.013508395 0.0060138158
0.0177232 0.0065451222 0.014947185 0.008288194 0.033356767 -0.024881734 -0.011257803 -0.011937125
0.03228754 0.012703035 0.02023729 -0.004911994 -0.030675698 0.01204896 0.0035875118 0.025777139
0.001339355 -0.006980594 0.021552747 -0.0010851325 0.0054482333 -0.00866808 0.018942652 -0.018962918
0.011972601 -0.0064731147 0.013160996 0.008240608 -0.0049457215 0.020068675 -0.017654674 0.011387277
0.02132015 -0.0029460639 -0.025716715 -0.024867138 -0.0021989045 0.003215235 0.008622519 0.027636886
0.02607335 -0.0061569107 0.006837423 -0.0008235715 -0.004400185 -0.008314139 0.0016452487 0.0336337
-0.018330598 0.019142605 0.011793417 -0.013565479 -0.006630064 0.014684155 0.0070138476 0.0077221403
0.007168094 -0.017218426 0.0024371513 0.03344366 -0.02616662 0.00889634 -0.004717172 0.01628258
-0.013945876 0.012499403 0.0052996594 0.0037254156 0.039275106 0.017453197 -0.005295593 0.02003012
-0.008573111 -0.0049212677 -0.006046741 0.0043876143 -0.0009397727 0.022266798 0.039256506 -0.007154654
0.021243706 0.0014942173 -0.0042503634 -0.019162063 0.012638089 -0.026169859 0.019426974 0.0004728907
-0.01069338 -0.007034642 -0.01782185 0.016544763 -0.014084504 0.0096154455 -0.006057928 -0.008427159
0.014580139 0.025206711 0.00023738007 0.016617231 0.008005561 0.014045909 0.002419144 0.022700505
00000000: d20f 22bd 2e3d bdbb 15a8 b7bb 9105 0dbc
00000010: 43b3 b93c af70 6dbc 4150 eebb 684c d6ba
00000020: 7059 ce3c 5ff9 983b 196b 65bc 090d 2cbb
00000030: 5415 763c d676 01bc f40c 253c a0cc a7bb
00000040: fcfa bbbc de18 05b9 62d7 753b 5bef dc3b
00000050: ed51 9cbb 005e a3bc 5152 5dbc 8b0f c53b
00000060: 3f30 913c 7778 d63b 0ae5 743c 35cb 073c
00000070: 1ba1 083d c7d4 cbbc a672 38bc ee93 43bc
00000080: f13f 043d 6420 503c acc8 a53c cbf4 a0bb
00000090: 9a4b fbbc 0069 453c 761c 6b3b 942a d33c
000000a0: 4c8d af3a 77bd e4bb 638f b03c 013b 8eba
000000b0: 1887 b23b 9004 0ebc 9f2d 9b3c 1f58 9bbc
000000c0: ba28 443c 6c1c d4bb 38a1 573c 9d03 073c
000000d0: b80f a2bb 1067 a43c 89a0 90bc b491 3a3c
000000e0: 98a7 ae3c c012 41bb dcab d2bc 2bb6 cbbc
000000f0: 7f1b 10bb b1b6 523b 7745 0d3c c066 e23c
00000100: c797 d53c e9bf c9bb 760c e03b f3e4 57ba
00000110: 6d2f 90bb 0738 08bc 63a5 d73a 7ec3 093d
00000120: 0d2a 96bc f4d0 9c3c 2d39 413c be41 5ebc
00000130: 0241 d9bb cf95 703c 6bd4 e53b 020a fd3b
00000140: 55e2 ea3b a80d 8dbc 9db8 1f3b 38fc 083d
00000150: 615b d6bc f4c1 113c 8292 9abb 0c63 853c
00000160: 3e7d 64bc 4cca 4c3c c4a8 ad3b 1a26 743b
00000170: efde 203d 02fa 8e3c a786 adbb 3516 a43c
00000180: 3c76 0cbc 9642 a1bb bd23 c6bb fac5 8f3b
00000190: 145b 76ba dc68 b63c 6ecb 203d 9671 eabb
000001a0: 4807 ae3c 9dd9 c33a a246 8bbb c2f9 9cbc
000001b0: fd0f 4f3c 2c62 d6bc 5125 9f3c 51ee f739
000001c0: 4933 2fbc db82 e6bb 21ff 91bc e288 873c
000001d0: b1c2 66bc 1a8a 1d3c 9581 c6bb 1112 0abc
000001e0: 89e1 6e3c 4e7e ce3c 3ae9 7839 dc20 883c
000001f0: c229 033c d020 663c 808a 1e3b 69f6 b93c

network_body._body_endoder.seq_layers.2.weight f4 [128, 128]
0.049370844 -0.0236878 0.09554104 0.16416636 0.0036073832 0.1839513 0.0040411707 0.052923728
0.044712096 -0.12937498 0.009636087 -0.023988523 -0.04244994 -0.050671197 -0.082459964 -0.0044378163
-0.05735465 -0.12814349 -0.16648342 0.06796613 -0.024025897 -0.003395545 0.2778882 -0.06626555
-0.111697145 -0.10352123 0.038524278 0.06642625 0.12010249 -0.2074751 -0.034057137 -0.10679264
0.050145503 0.009531888 0.12982123 -0.0020764563 0.063538134 0.03288655 0.008096893 0.021898247
0.063678905 0.028594675 0.15816054 0.060807146 0.15342595 -0.15530638 0.21158817 -0.027642682
-0.10631705 0.06381533 -0.055993408 0.09964953 0.07579328 0.038169358 0.02484497 0.1404307
0.05210179 -0.0942697 0.072923824 0.03659502 -0.046765495 -0.044617698 -0.098906435 0.11385596
0.1495283 0.11060859 -0.1217887 0.10647125 -0.009657681 0.056878783 -0.029277747 0.052604925
-0.022615876 -0.14260028 -0.15276463 0.13475063 -0.17041448 0.005258954 0.06376615 0.05589258
-0.069798745 0.044307582 -0.13670778 -0.006486476 -0.15653266 0.025779929 0.22891721 0.087195724
0.0039785574 -0.072572686 0.02745421 -0.015165361 -0.02805616 0.08693792 -0.16562767 -0.019719899
0.05608386 -0.0678075 0.09226276 0.14511737 0.03098992 0.05623012 -0.025455896 0.10244811
0.01497716 0.09793639 -0.032880414 0.0031429185 -0.025737388 0.1299257 -0.02352553 0.13159412
-0.09570517 -0.061178565 0.07186016 0.10286238 -0.047854725 0.14099957 0.05657822 -0.007355072
-0.11664169 0.07110768 0.034469966 0.15446554 -0.06828439 -0.13340782 -0.005240864 0.029964682
-0.037359003 -0.012169577 -0.07680626 -0.08354834 -0.07410613 0.096789375 -0.033778112 -0.1261512
0.059963763 -0.07098727 -0.0991464 -0.020561935 -0.041261423 -0.14570576 0.058319833 0.116694085
0.062310077 0.043537796 0.09278244 -0.131632 0.104200624 0.031043036 0.17389594 0.04298531
-0.13836795 0.002861173 0.00013925659 0.14645934 -0.09330043 -0.17952533 -0.12921503 -0.05622994
-0.10251128 0.095134325 0.11480901 -0.10064862 0.10040047 -0.1398818 -0.081982136 -0.04060667
-0.025008544 0.022310195 0.117890134 -0.05581834 -0.1852579 0.13150623 0.1438992 -0.21828082
0.07376931 0.028132647 0.030836184 0.1227821 0.0049833735 -0.039870147 -0.037103727 -0.12150447
-0.15187176 0.013381693 0.12749922 -0.054957885 -0.011389005 0.1429439 0.039326448 0.06303478
-0.042583782 -0.092758946 -0.13258934 -0.23326649 -0.0013070941 -0.06813909 0.19540617 0.12632127
0.04899554 -0.050605424 -0.13042606 -0.008696773 -0.08993092 0.032477554 0.114594646 -0.042866874
-0.095881924 0.033184223 -0.034508202 -0.13332474 0.03984893 0.12404987 -0.008630684 0.023450032
-0.2017802 0.09301975 0.12621407 -0.09388896 0.058045585 -0.055084154 0.06779689 -0.03534095
-0.13965663 -0.043311596 0.065304905 0.028703237 -0.13568132 -0.1250171 -0.0038350238 -0.13020791
-0.042414036 -0.1134778 0.0062513305 -0.0034935179 0.039643433 0.038815804 -0.011959389 0.045203753
0.25032702 0.06472276 0.06303977 0.057026308 0.052877426 0.03219361 0.054668546 0.06877765
-0.06476752 0.13510874 -0.04107571 0.08635193 0.043429032 0.009721827 -0.08307416 0.06830609
00000000: 1539 4a3d eb0c c2bc 05ab c33d 3a1b 283e
00000010: d969 6c3b bb5d 3c3e cc6b 843b 8dc6 583d
00000020: 0824 373d e07a 04be aee0 1d3c 9483 c4bc
00000030: fddf 2dbd 9a8c 4fbd c5e0 a8bd 1a6b 91bb
00000040: b6ec 6abd 0c38 03be a17a 2abe d431 8b3d
00000050: f5d1 c4bc cb87 5ebb 5d47 8e3e 3cb6 87bd
00000060: 79c1 e4bd f002 d4bd a2cb 1d3d 7c0a 883d
00000070: 4bf8 f53d 5a74 54be 7f7f 0bbd 1ab6 dabd
00000080: 5f65 4d3d a32b 1c3c dbef 043e 2815 08bb
00000090: 4820 823d 0cb4 063d d5a8 043c f463 b33c
000000a0: 166a 823d 613f ea3c d6f4 213e ea10 793d
000000b0: b11b 1d3e a308 1fbe 92aa 583e e872 e2bc
000000c0: c1bc d9bd 9db1 823d 5859 65bd 0e15 cc3d
000000d0: 8239 9b3d 7957 1c3d ae87 cb3c 11cd 0f3e
000000e0: b068 553d 7910 c1bd 1659 953d a9e4 153d
000000f0: 2d8d 3fbd 0cc1 36bd 758f cabd 502d e93d
00000100: f21d 193e c286 e23d 5b6c f9bd 990d da3d
00000110: 403b 1ebc baf9 683d e3d7 efbc 4378 573d
00000120: ee44 b9bc cf05 12be 556e 1cbe 12fc 093e
00000130: 2281 2ebe 4e53 ac3b d497 823d 9eef 643d
00000140: a5f2 8ebd de7b 353d 20fd 0bbe 818c d4bb
00000150: 194a 20be 6e30 d33c 4669 6a3e ac93 b23d
00000160: 8f5e 823b fda0 94bd a7e7 e03c 2278 78bc
00000170: 08d6 e5bc 820c b23d 4d9a 29be a08b a1bc
00000180: 31b8 653d a9de 8abd 42f4 bc3d a699 143e
00000190: 93de fd3c 8e51 663d e288 d0bc 51d0 d13d
000001a0: c362 753c e092 c83d 9dad 06bd 6cf9 4d3b
000001b0: 37d7 d2bc 3e0b 053e 9db8 c0bc 9cc0 063e
000001c0: 1201 c4bd 6096 7abd 6b2b 933d 83a9 d23d
000001d0: 5103 44bd 3162 103e 90be 673d d102 f1bb
000001e0: d7e1 eebd e7a0 913d 6130 0d3d 372c 1e3e
000001f0: b0d8 8bbd 0f9c 08be 8ebb abbb 7e78 f53c
00000200: c105 19bd e862 47bc 9a4c 9dbd 641b abbd
00000210: f4c4 97bd 8239 c63d eb5a 0abd c82d 01be
00000220: 909c 753d c661 91bd 450d cbbd 8171 a8bc
00000230: bd01 29bd e433 15be c7e0 6e3d 4ffd ee3d
00000240: da38 7f3d b054 323d b804 be3d 8aca 06be
00000250: 2367 d53d f74d fe3c c711 323e 5d11 303d
00000260: 54b0 0dbe 8482 3b3b 6805 1239 70f9 153e
00000270: 4c14 bfbd 7dd5 37be f250 04be 5e51 66bd
00000280: 6ff1 d1bd c9d5 c23d fc20 eb3d dd20 cebd
00000290: c39e cd3d 2d3d 0fbe 40e6 a7bd 2e53 26bd
000002a0: b8de ccbc dfc3 b63c 6270 f13d c6a1 64bd
000002b0: 3fb4 3dbe 92a9 063e 505a 133e 0285 5fbe
000002c0: 5d14 973d 7076 e63c 2a9c fc3c 2f75 fb3d
000002d0: 914b a33b e14e 23bd 14fa 17bd 56d7 f8bd
000002e0: 4584 1bbe e33e 5b3c 288f 023e 851b 61bd
000002f0: f398 3abc e35f 123e c514 213d 6118 813d
00000300: 556c 2ebd 67f8 bdbd 80c5 07be 69dd 6ebe
00000310: cd52 abba 828c 8bbd 8e18 483e 5d5a 013e
00000320: 8caf 483d a247 4fbd 698e 05be e97c 0ebc
00000330: b42d b8bd 2f07 053d 99b0 ea3d 2d95 2fbd
00000340: be5d c4bd 2eec 073d 7958 0dbd 4886 08be
00000350: a238 233d dc0d fe3d b667 0dbc 481a c03c
00000360: 789f 4ebe 2481 be3d 433e 013e db48 c0bd
00000370: 35c1 6d3d ec9f 61bd 19d9 8a3d acc1 10bd
00000380: 2602 0fbe 8067 31bd 94be 853d 0d23 eb3c
00000390: 0bf0 0abe 7c04 00be 0655 7bbb 3955 05be
000003a0: 57ba 2dbd 0c67 e8bd f6d7 cc3b 81f3 64bb
000003b0: 2761 223d 52fd 1e3d 50f1 43bc 9227 393d
000003c0: dd2a 803e 5e8d 843d ff1a 813d 6b94 693d
000003d0: 0096 583d 72dd 033d 20ec 5f3d 4cdb 8c3d
000003e0: d5a4 84bd f259 0a3e 013f 28bd 48d9 b03d
000003f0: a4e2 313d 4c48 1f3c c922 aabd 10e4 8b3d

network_body._body_endoder.seq_layers.2.bias f4 [128]
0.013205316 0.014497778 -0.0075258045 0.021598797 0.012890712 -0.0027695089 -0.0035030274 0.006433667
-0.0010330317 0.008987891 0.006938574 -0.0042363764 0.0031788973 0.007142524 -0.015095558 0.0076693688
0.005641927 -0.010038326 0.0014341811 0.028385408 -0.00775419 -0.009666898 0.024346638 -0.006999907
-0.0071344604 0.001089647 -0.006599779 0.017539725 0.016443 0.007974537 -0.008134839 -0.01203725
0.01114388 -0.0037168993 0.00030443547 0.0024693876 -0.006571312 0.0034809443 -0.0054549933 0.00568561
-0.013163819 0.0086719915 -0.000702457 0.020690745 0.008072892 -0.018433016 0.005208172 -0.013797195
-0.008514798 -0.019507863 0.002535968 0.010643224 -0.01641774 -0.005560771 -0.00029383117 0.00087223697
0.032917745 -0.014517773 -0.006819474 -0.01287951 0.024310619 0.0035553814 0.019975493 0.026557421
0.006863233 -0.0059301467 -0.013237498 -0.0053200987 -0.007839016 -0.0011953672 -0.007010133 0.008810011
-0.0098338155 -0.010368324 -0.0127747785 -0.014144665 0.0077532483 0.024019377 -0.016172836 -0.009789848
0.019044373 -0.0082851695 -0.0061087003 0.022891887 0.0020469434 0.011942518 0.019977104 0.005252318
-0.007809623 0.002241888 -0.011325348 0.0019272184 0.0053180614 0.025807897 -0.0028364833 -0.010682482
0.02846213 -0.011831875 -0.022361264 -0.010137176 -0.0128387585 -0.019445019 -0.003591737 0.0004461212
0.0050835656 -0.016389554 0.0099797435 0.015165741 0.026607236 0.00477283 -0.01796008 0.0140844835
0.00017983414 -0.008768766 -0.002947156 -0.005368543 0.017886575 -0.016492037 -0.0059217606 -0.013837471
-0.0050479355 -0.0045172665 0.011752942 0.023565415 0.018292326 -0.009064134 0.0062624933 -0.016077386
00000000: 1c5b 583c 1788 6d3c 069b f6bb f6ef b03c
00000010: 9133 533c a680 35bb 0c93 65bb 83d1 d23b
00000020: cb66 87ba f241 133c fa5c e33b 4dd1 8abb
00000030: 0c55 503b d50b ea3b 5c53 77bc 544f fb3b
00000040: eadf b83b ca77 24bc 22fb bb3a 8488 e83c
00000050: dc16 febb e961 1ebc 9a72 c73c 7a5f e5bb
00000060: 31c8 e9bb 7cd2 8e3a f542 d8bb 78af 8f3c
00000070: 78b3 863c a2a7 023c fd47 05bc e337 45bc
00000080: d294 363c 3997 73bb a39c 9f39 73d5 213b
00000090: 2954 d7bb 8e20 643b cdbf b2bb 5b4e ba3b
000000a0: 0fad 57bc f814 0e3c 1725 38ba a37f a93c
000000b0: 2a44 043c d600 97bc 50a9 aa3b a10d 62bc
000000c0: a781 0bbc f4ce 9fbc 7c32 263b eb60 2e3c
000000d0: 7f7e 86bc 2137 b6bb 5a0d 9ab9 d5a6 643a
000000e0: c2d4 063d f4db 6dbc e575 dfbb 9504 53bc
000000f0: 1027 c73c 6701 693b a5a3 a33c f38e d93c
00000100: f9e4 e03b ad51 c2bb 17e2 58bc 3954 aebb
00000110: 376f 00bc dead 9cba 42b5 e5bb dd57 103c
00000120: 031e 21bc e7df 29bc 4e4d 51bc 06bf 67bc
00000130: f60e fe3b 49c4 c43c e57c 84bc 9965 20bc
00000140: f202 9c3c 85be 07bc 7e2b c8bb c487 bb3c
00000150: 0326 063b 8daa 433c 06a7 a33c a31b ac3b
00000160: dee7 ffbb a4ec 123b f48d 39bc b89a fc3a
00000170: 2243 ae3b 156b d33c 4be4 39bb 9405 2fbc
00000180: 6a29 e93c 7bda 41bc f82e b7bc 6616 26bc
00000190: a859 52bc 294b 9fbc 5963 6bbb 60e5 e939
000001a0: 0a94 a63b 6343 86bc 1482 233c ba79 783c
000001b0: 6bf7 d93c 6665 9c3b 0521 93bc 9bc2 663c
000001c0: dc91 3c39 dfaa 0fbc 1325 41bb 9aea afbb
000001d0: de86 923c 4f1a 87bc 540b c2bb 8fb6 62bc
000001e0: 2769 a5bb 9405 94bb 698f 403c 420c c13c
000001f0: cad9 953c bc81 14bc 9a35 cd3b b9b4 83bc

action_model._continuous_distribution.log_sigma f4 [1, 5]
0.027092384 -0.014288113 -0.0007009327 0.007648224 0.032353077
00000000: d9f0 dd3c b118 6abc ccbe 37ba f49d fa3b
00000010: a984 043d

action_model._continuous_distribution.mu.weight f4 [5, 128]
-0.0048655225 -0.021254655 0.033720817 -0.01773253 0.000519425 -0.016791007 -0.011324539 0.035293162
0.00027285714 0.0026689724 0.010905778 -0.030033177 -0.032326683 0.024889437 0.020621793 0.010761087
-0.006902332 -0.045947876 -0.016096152 0.011670099 0.0036866611 0.036760647 -0.019419579 0.005833454
0.0030455869 -0.0033839503 0.0042857146 0.010847132 0.020695494 -0.0052017174 0.009465063 0.004279746
-0.018709946 -0.0011617504 0.020821847 0.0013029295 0.00512585 0.0123221325 -0.03201996 -0.004108071
0.0116276005 0.043509662 0.020400701 0.03326745 -0.017941747 0.00889162 0.011562062 0.017026149
0.0064323433 -0.004988247 0.003999349 -0.013703164 -0.028165875 0.008141562 0.004918243 0.023626616
0.010011572 -0.02571315 0.027463272 -0.016989779 0.033465046 -0.037261464 0.03276237 -0.017816335
0.029000942 -0.04214556 0.0064735324 0.0012671152 -0.005990618 -0.031255987 0.01492737 -0.010249478
-0.03538691 -0.023492912 0.013913683 -0.02027258 0.004864097 -0.03259006 0.020738553 -0.059703786
0.008580012 -0.018922757 0.011333676 -0.031028608 -0.017695202 0.0040352754 -0.04883677 0.012121608
-0.010750192 0.0020397766 0.012627766 0.02443174 0.0034482314 0.038608674 -0.013886983 -0.011710573
0.011246054 0.0033186418 0.011224624 0.01562966 0.0016169861 0.010415329 0.026892591 0.012645811
-0.041014917 -0.0006762153 0.010301153 -0.004796912 -0.012379014 -0.028281244 0.020444714 -0.015563135
-0.018720832 -0.018872948 -0.022815175 -0.029890964 -0.0052813357 -0.00390566 0.008028094 -0.0076972386
0.014469389 -0.033610955 0.009747056 -0.013327406 0.034676604 0.017358528 0.039578874 -0.002016429
-0.03205088 -0.044982485 0.032055136 -0.041219894 0.0015438616 -0.005801905 0.04556393 -0.020069664
-0.015822135 -0.007629587 -0.03753497 0.0033086976 0.0014033291 -0.02524366 0.037849735 -0.040118888
0.0024823488 0.044446934 -0.016889941 -0.042558473 0.018033862 0.024825575 -0.039640784 0.032882705
-0.013340689 0.02568587 0.031898055 -0.072724074 -0.032274418 -0.056645587 -0.0028328905 -0.00016875158
-0.04738188 0.024289694 -0.043954577 -0.0061730514 0.054394163 0.01641348 -0.024171315 -0.04363537
0.0465499 -0.0018778428 0.02514861 -0.028883161 -0.0021159877 0.00055832934 -0.050770223 0.033876695
-0.021840695 0.008692741 0.028726416 -0.047464583 0.0049639596 -0.023409149 -0.025169997 -0.009165729
-0.035633188 0.034398187 0.013597344 0.031398274 -0.05176013 0.042694435 -0.054978747 -0.021953799
0.012866116 -0.0003938515 0.0045786956 -0.0013380052 0.06549769 -0.015723638 0.065077476 0.0034114313
0.039777014 0.03877564 0.042980425 0.029205402 -0.034329746 0.028485645 0.01004296 0.012356617
-0.041761506 0.042142536 -0.019267226 -0.03444238 0.042191643 -0.023642853 -0.018840399 -0.039011963
0.031002492 -0.032113537 -0.0079174135 0.02212007 -0.030339915 -0.05680066 0.028245261 -0.016310157
0.008565157 0.012038194 0.0024730593 0.0024949783 0.019757116 0.018695878 0.03826745 -0.013422854
0.02471289 0.056262087 -0.032632492 0.009163674 -0.008551072 -0.054991778 0.02266354 -0.028106185
0.043443587 0.03896804 0.06857082 0.015707407 -0.057544716 0.02811739 -0.0024885295 0.018246315
-0.0036034589 0.045833856 -0.015495562 -0.03738546 -0.036309753 0.04231394 -0.004237549 0.017174803
00000000: f66e 9fbb 3e1e aebc d71e 0a3d d043 91bc
00000010: 062a 083a 4b8d 89bc 8f8a 39bc 908f 103d
00000020: 440e 8f39 ede9 2e3b 26ae 323c 2308 f6bc
00000030: fc68 04bd efe4 cb3c 09ef a83c 454f 303c
00000040: f52c e2bb d733 3cbd 14dc 83bc f133 3f3c
00000050: e99b 713b 5592 163d cf15 9fbc 8f26 bf3b
00000060: 7898 473b 44c5 5dbb 2e6f 8c3b 2bb8 313c
00000070: 9989 a93c 2b73 aabb 5a13 1b3c 1d3d 8c3b
00000080: 9a45 99bc e045 98ba 9492 aa3c 0fc7 aa3a
00000090: bff6 a73b c5e2 493c 5d27 03bd ff9c 86bb
000000a0: b181 3e3c 3037 323d 5f1f a73c 7343 083d
000000b0: 92fa 92bc 28ae 113c ce6e 3d3c 6c7a 8b3c
000000c0: 68c6 d23b 7374 a3bb f90c 833b 3c83 60bc
000000d0: 1fbc e6bc 3064 053c 3629 a13b 9b8c c13c
000000e0: 9407 243c 62a4 d2bc a8fa e03c 262e 8bbc
000000f0: a512 093d 7a9f 18bd d631 063d 90f3 91bc
00000100: 6293 ed3c d3a0 2cbd ed1f d43b 5515 a63a
00000110: f24c c4bb 4706 00bd ed91 743c 6ded 27bc
00000120: ddf1 10bd 3574 c0bc 37f6 633c af12 a6bc
00000130: 0163 9f3b 287d 05bd e6e3 a93c f58b 74bd
00000140: 2e93 0c3c e603 9bbc e2b0 393c b52f febc
00000150: 87f5 90bc 583a 843b 1109 48bd b599 463c
00000160: 9321 30bc c6ad 053b b0e4 4e3c 1325 c83c
00000170: b9fb 613b 2124 1e3d 3a86 63bc b4dd 3fbc
00000180: 5f41 383c 927d 593b 7ce7 373c c609 803c
00000190: 0df1 d33a 0ea5 2a3c da4d dc3c 6030 4f3c
000001a0: 42ff 27bd 0a44 31ba 2bc6 283c 6a2f 9dbb
000001b0: 59d1 4abc 11ae e7bc ac7b a73c 85fc 7ebc
000001c0: 6e5c 99bc 719b 9abc e4e6 babc e5dd f4bc
000001d0: 0e0f adbb 1af6 7fbb 4488 033c 1e39 fcbb
000001e0: 0411 6d3c a4ab 09bd 1eb2 1f3c 315b 5abc
000001f0: 0e09 0e3d 7933 8e3c 751d 223d 1126 04bb
00000200: c947 03bd 8e3f 38bd 3f4c 033d 31d6 28bd
00000210: 665b ca3a e81d bebb 3ea1 3a3d 2369 a4bc
00000220: 6c9d 81bc 9d01 fabb 45be 19bd bcd6 583b
00000230: e9ef b73a cbcb cebc 5308 1b3d b453 24bd
00000240: e7ae 223b fd0d 363d c65c 8abc cb51 2ebd
00000250: c0bb 933c 015f cb3c 605e 22bd 04b0 063d
00000260: e892 5abc 2c6b d23c 89a7 023d 5cf0 94bd
00000270: 2e32 04bd 3405 68bd 04a8 39bb e8f2 30b9
00000280: 8113 42bd 2efb c63c b709 34bd 4f47 cabb
00000290: 6acc 5e3d 9075 863c ec02 c6bc 00bb 32bd
000002a0: 1cab 3e3d f321 f6ba 7504 ce3c 619c ecbc
000002b0: 62ac 0abb d95c 123a 70f4 4fbd 4ac2 0a3d
000002c0: 42eb b2bc 006c 0e3c a953 eb3c 396a 42bd
000002d0: b6a8 a23b 8bc4 bfbc 4f31 cebc db2b 16bc
000002e0: 1bf4 11bd 1de5 0c3d 65c7 5e3c 7a9b 003d
000002f0: 6e02 54bd 5ce0 2e3d 6531 61bd 74d8 b3bc
00000300: 67cc 523c da7d ceb9 e208 963b 0160 afba
00000310: a723 863d dcce 80bc 5747 853d 5292 5f3b
00000320: 39ed 223d 35d3 1e3d 3e0c 303d 2b40 ef3c
00000330: 599d 0cbd ba5a e93c 3a8b 243c 6873 4a3c
00000340: 1d0e 2bbd a79d 2c3d 4dd6 9dbc 7413 0dbd
00000350: 25d1 2c3d a8ae c1bc 2e57 9abc 02cb 1fbd
00000360: f0f8 fd3c 7c89 03bd 0ab8 01bc 2635 b53c
00000370: 6a8b f8bc cfa7 68bd 9b62 e73c e19c 85bc
00000380: df54 0c3c d83b 453c 0d13 223b ca82 233b
00000390: add9 a13c 1928 993c 54be 1c3d 88eb 5bbc
000003a0: b072 ca3c 1373 663d a6a9 05bd 3c23 163c
000003b0: cc19 0cbc 0f3f 61bd e3a8 b93c f13e e6bc
000003c0: e7f1 313d f49c 1f3d dc6e 8c3d d2ac 803c
000003d0: 02b4 6bbd 7156 e63c 9916 23bb 4c79 953c
000003e0: 0228 6cbb 48bc 3b3d 19e1 7dbc 7f21 19bd
000003f0: 89b9 14bd 6251 2d3d 23db 8abb 2cb2 8c3c

action_model._continuous_distribution.mu.bias f4 [5]
-0.00015248344 -0.017283699 -0.007936639 -0.02149257 0.0023087354
00000000: f6e3 1fb9 8b96 8dbc ad08 02bc 3011 b0bc
00000010: 274e 173b

exp_avg f4 [128, 47]
-8.1022945e-06 8.097096e-08 0.0 -5.0963815e-09 2.953798e-06 -1.0975119e-05 0.0 -2.767658e-06
5.2599266e-06 -1.3281248e-05 0.0 -3.5390067e-06 5.025128e-06 -1.30464505e-05 0.0 -3.9087495e-06
-5.0695854e-07 -7.5143607e-06 0.0 -2.364315e-06 -8.366377e-06 3.4505382e-07 0.0 -2.130185e-07
5.931078e-06 -1.3952404e-05 0.0 -2.1009166e-06 -7.2556563e-06 -7.6468325e-07 0.0 -7.420223e-07
1.2589028e-05 -2.1017551e-05 0.0 -1.2448882e-05 2.5288966e-06 -6.4751343e-06 -5.4504617e-06 -2.6841155e-06
-7.933978e-06 -1.1421322e-06 -4.1791445e-06 7.699368e-06 7.0272336e-06 -7.339135e-07 2.0980874e-06 2.643313e-06
2.0741584e-07 0.0 1.7753874e-06 -2.0622303e-05 2.3473036e-05 0.0 6.11558e-06 -2.170925e-05
2.455998e-05 0.0 6.8760273e-06 -1.3442467e-05 1.6293194e-05 0.0 5.28445e-06 -9.990313e-06
1.2841043e-05 0.0 5.3942213e-06 -4.0967802e-06 6.9475072e-06 0.0 3.2069659e-06 1.3972128e-05
-1.1121397e-05 0.0 -8.509092e-06 -1.5093911e-05 1.7942817e-05 0.0 6.9484463e-06 4.2578195e-06
-1.7253888e-06 0.0 2.1502485e-06 7.829345e-07 -5.597376e-06 -5.65151e-06 -3.5984344e-06 -1.3136196e-05
-9.332695e-06 4.600695e-06 1.14918275e-05 3.3265978e-06 8.139007e-07 -1.6424142e-06 2.7061958e-06 2.4282358e-06
0.0 -1.5571695e-07 3.0475223e-06 2.0869065e-06 0.0 -9.071335e-07 -4.3495033e-06 9.483933e-06
0.0 1.3090095e-06 2.8448876e-06 2.2895442e-06 0.0 -3.3573514e-07 6.7371247e-06 -1.6026974e-06
0.0 -3.7718712e-07 1.5723632e-05 -1.05891995e-05 0.0 -4.1664543e-06 7.214765e-06 -2.0803318e-06
0.0 -4.0355785e-06 5.600855e-06 -4.7394582e-07 0.0 -1.8476088e-06 -3.7838595e-06 9.217814e-06
0.0 9.5546375e-06 -2.6044015e-06 6.233775e-06 4.2604174e-06 2.6649784e-06 -2.345359e-06 1.3922879e-06
7.370543e-06 2.5078373e-06 -3.612007e-06 3.749905e-07 -1.8996249e-06 2.7719187e-05 -5.7943333e-05 0.0
2.1277456e-06 -3.813127e-06 -2.6411033e-05 0.0 1.1789743e-05 7.239918e-06 -3.7464088e-05 0.0
3.1826225e-06 -2.402885e-06 -2.7821261e-05 0.0 1.4501782e-05 -9.850809e-06 -2.037335e-05 0.0
-9.850831e-06 -4.557644e-05 1.5352296e-05 0.0 2.7221377e-05 4.427737e-06 -3.4651905e-05 0.0
-2.2694856e-05 -1.7495347e-05 -1.2707895e-05 0.0 3.088883e-05 -4.364199e-05 1.3298644e-05 0.0
-2.559904e-05 -3.0285148e-06 -1.108467e-05 -5.373722e-06 3.3842855e-06 -5.249147e-06 -3.1709417e-06 -1.3920875e-05
-5.9135913e-05 3.1836757e-05 -3.4985405e-06 1.1626391e-05 1.0432222e-05 3.0123988e-06 0.0 2.190557e-07
3.5839387e-06 9.8606815e-06 0.0 6.915586e-07 -1.1742294e-05 2.5186915e-05 0.0 5.7720586e-06
8.4580715e-06 4.9865525e-06 0.0 7.344973e-08 1.5021547e-05 -1.5769185e-06 0.0 1.7721217e-06
3.48012e-05 -2.1356576e-05 0.0 -7.026373e-06 7.848647e-06 5.595977e-06 0.0 -7.770951e-07
2.5280604e-05 -1.1842789e-05 0.0 -8.112571e-06 8.958153e-06 4.9098157e-06 0.0 1.5167393e-05
-1.422392e-06 1.100257e-05 8.5299225e-06 1.146853e-06 -2.5227022e-05 5.2271143e-06 1.9687068e-05 1.5633974e-05
-4.9399396e-06 4.5947587e-07 -9.653693e-06 2.7346396e-05 2.7946924e-05 0.0 1.3872015e-06 -1.7767688e-06
5.707009e-05 0.0 7.584903e-06 4.078498e-06 5.121483e-05 0.0 8.294849e-06 -2.8451343e-06
5.8138456e-05 0.0 7.446293e-06 1.4763305e-06 5.3816988e-05 0.0 1.737083e-05 -5.9428244e-06
00000000: 17ef 07b7 42e2 ad33 0000 0000 3f1c afb1
00000010: dd39 4636 c721 38b7 0000 0000 01bc 39b6
00000020: 6d7e b036 87d2 5eb7 0000 0000 ac7f 6db6
00000030: 859d a836 14e2 5ab7 0000 0000 e727 83b6
00000040: ed15 08b5 de23 fcb6 0000 0000 9faa 1eb6
00000050: 515d 0cb7 d63f b934 0000 0000 14ba 64b4
00000060: 9203 c736 1e15 6ab7 0000 0000 79fd 0cb6
00000070: 9d75 f3b6 a244 4db5 0000 0000 622f 47b5
00000080: 7735 5337 d94e b0b7 0000 0000 8bdb 50b7
00000090: 1db6 2936 fb44 d9b6 1ce3 b6b6 c120 34b6
000000a0: 2d1c 05b7 5d4b 99b5 943a 8cb6 892c 0137
000000b0: 7acb eb36 2702 45b5 decc 0c36 c663 3136
000000c0: 08b6 5e34 0000 0000 d949 ee35 0ffe acb7
000000d0: f6e7 c437 0000 0000 6f34 cd36 421c b6b7
000000e0: 2806 ce37 0000 0000 a0b8 e636 f586 61b7
000000f0: 5ead 8837 0000 0000 1451 b136 119c 27b7
00000100: dc6f 5737 0000 0000 0200 b536 1377 89b6
00000110: a21e e936 0000 0000 4137 5736 d569 6a37
00000120: 0996 3ab7 0000 0000 46c2 0eb7 db3b 7db7
00000130: e883 9637 0000 0000 b326 e936 64de 8e36
00000140: e893 e7b5 0000 0000 fd4c 1036 d92a 5235
00000150: 18d1 bbb6 1aa2 bdb6 a27c 71b6 8863 5cb7
00000160: 9f93 1cb7 ab5f 9a36 06cd 4037 843e 5f36
00000170: d57a 5a35 ec70 dcb5 179c 3536 c6f4 2236
00000180: 0000 0000 2633 27b4 0984 4c36 c80c 0c36
00000190: 0000 0000 bd81 73b5 f3f1 91b6 2f1d 1f37
000001a0: 0000 0000 39b1 af35 ccea 3e36 12a6 1936
000001b0: 0000 0000 163f b4b4 760f e236 431c d7b5
000001c0: 0000 0000 3480 cab4 3ee6 8337 44a8 31b7
000001d0: 0000 0000 92cd 8bb6 5c16 f236 d49b 0bb6
000001e0: 0000 0000 5b69 87b6 faee bb36 9e72 feb4
000001f0: 0000 0000 5bfb f7b5 36ee 7db6 36a6 1a37
00000200: 0000 0000 db4c 2037 47c7 2eb6 b82b d136
00000210: b5f4 8e36 fbd7 3236 f664 1db6 a6de ba35
00000220: 7b50 f736 514c 2836 cf65 72b6 4d52 c934
00000230: 9df6 feb5 8086 e837 2e08 73b8 0000 0000
00000240: 64ca 0e36 06e5 7fb6 438d ddb7 0000 0000
00000250: 90cc 4537 6cee f236 c222 1db8 0000 0000
00000260: 0a95 5536 4041 21b6 b461 e9b7 0000 0000
00000270: ae4c 7337 e744 25b7 70e7 aab7 0000 0000
00000280: ff44 25b7 5429 3fb8 cec8 8037 0000 0000
00000290: 7659 e437 f991 9436 3357 11b8 0000 0000
000002a0: d560 beb7 f9c2 92b7 fe33 55b7 0000 0000
000002b0: a18e 0138 3b0c 37b8 3e1d 5f37 0000 0000
000002c0: 85bd d6b7 7d3d 4bb6 4cf8 39b7 ec4f b4b6
000002d0: 951d 6336 d421 b0b6 5dcc 54b6 b48d 69b7
000002e0: b408 78b8 7588 0538 78c8 6ab6 f80e 4337
000002f0: 0d06 2f37 9e28 4a36 0000 0000 9335 6b34
00000300: 9983 7036 4e6f 2537 0000 0000 8ca3 3935
00000310: c500 45b7 7d48 d337 0000 0000 9bad c136
00000320: 24e7 0d37 2952 a736 0000 0000 6bbb 9d33
00000330: 0e05 7c37 82a6 d3b5 0000 0000 a3d9 ed35
00000340: 81f7 1138 e626 b3b7 0000 0000 16c4 ebb6
00000350: afad 0337 14c5 bb36 0000 0000 9299 50b5
00000360: af11 d437 64b0 46b7 0000 0000 3a1b 08b7
00000370: f94a 1637 ffbe a436 0000 0000 7577 7e37
00000380: 04e9 beb5 ae97 3837 bd1b 0f37 92ed 9935
00000390: 9e9e d3b7 9264 af36 a825 a537 b425 8337
000003a0: c2c1 a5b6 e2ad f634 4cf6 21b7 f065 e537
000003b0: 906f ea37 0000 0000 e12f ba35 5079 eeb5
000003c0: 8b5e 6f38 0000 0000 d281 fe36 08da 8836
000003d0: 81cf 5638 0000 0000 1b2a 0b37 09ef 3eb6
000003e0: b1d9 7338 0000 0000 2bdb f936 5426 c635
000003f0: 8db9 6138 0000 0000 93b7 9137 7968 c7b6

exp_avg_sq f4 [128, 47]
2.0250088e-09 2.0120048e-11 0.0 1.5664498e-12 1.0492875e-09 9.944519e-10 0.0 8.7552854e-11
9.460834e-10 1.1321326e-09 0.0 1.10656734e-10 1.3861263e-09 6.5477707e-10 0.0 7.289829e-11
5.7395066e-10 1.4309681e-09 0.0 1.9231641e-10 1.5072504e-09 4.5316556e-10 0.0 7.467583e-11
7.8497747e-10 1.2225628e-09 0.0 2.1990545e-10 1.5684554e-09 4.398325e-10 0.0 1.1938835e-10
1.008453e-09 1.0276836e-09 0.0 1.8115745e-10 3.3907893e-10 7.283573e-10 3.9290557e-10 6.2255995e-10
7.531886e-10 5.1881766e-10 7.5187545e-10 7.3591333e-10 1.0495281e-09 7.0972768e-12 1.2555788e-10 5.305939e-09
1.1218684e-10 0.0 4.2996956e-12 2.371725e-09 2.9473528e-09 0.0 2.9491315e-10 2.3341657e-09
2.979371e-09 0.0 3.2337025e-10 2.35865e-09 3.006935e-09 0.0 3.0939418e-10 2.4890554e-09
2.7426732e-09 0.0 3.769855e-10 1.758114e-09 3.587452e-09 0.0 4.8681625e-10 1.8524061e-09
3.4411531e-09 0.0 7.0271977e-10 2.02833e-09 3.2160858e-09 0.0 6.783439e-10 2.298537e-09
3.1107517e-09 0.0 4.6082232e-10 9.726552e-10 1.750004e-09 8.0847895e-10 1.926053e-09 2.2090672e-09
1.314971e-09 1.7405324e-09 1.8372344e-09 2.4992781e-09 2.2859282e-11 3.1170924e-10 3.8030414e-09 3.3859482e-10
0.0 3.818117e-12 9.34559e-10 3.1079532e-09 0.0 2.5485805e-10 9.61081e-10 3.0709801e-09
0.0 2.714433e-10 1.0991867e-09 3.0923106e-09 0.0 2.7706892e-10 1.1403285e-09 2.900649e-09
0.0 3.3719588e-10 1.0861978e-09 3.0403855e-09 0.0 3.718733e-10 1.3254722e-09 2.6211378e-09
0.0 4.5386275e-10 1.1768634e-09 2.8981904e-09 0.0 5.877858e-10 1.6150763e-09 2.4811222e-09
0.0 4.7250964e-10 9.290856e-10 1.11064e-09 6.531848e-10 1.6874341e-09 1.5945474e-09 1.177292e-09
1.1680216e-09 1.4745567e-09 2.2109086e-09 1.3985584e-11 2.4644425e-10 5.1650506e-08 5.2827116e-09 0.0
6.248118e-11 2.8874725e-09 5.2764292e-08 0.0 4.124694e-09 1.8766222e-09 5.4218194e-08 0.0
4.574245e-09 4.834902e-09 5.2741804e-08 0.0 4.5298676e-09 4.5403916e-09 5.2208847e-08 0.0
5.8917893e-09 6.7441754e-09 5.0575082e-08 0.0 6.0070353e-09 6.571266e-09 4.9511495e-08 0.0
8.157513e-09 1.1953281e-08 4.6152437e-08 0.0 8.651569e-09 1.7573605e-08 3.98405e-08 0.0
7.190561e-09 1.0900614e-08 1.7156312e-08 1.0800712e-08 1.8519806e-08 2.737801e-08 1.1677974e-08 1.5257632e-08
1.4946208e-08 3.1690924e-08 2.8063007e-10 2.205987e-09 1.35154625e-08 3.2454542e-10 0.0 1.2192955e-11
4.5888084e-09 8.938311e-09 0.0 7.8379203e-10 3.6864458e-09 1.0067568e-08 0.0 9.372343e-10
5.6044223e-09 8.939403e-09 0.0 8.3504115e-10 3.4766365e-09 1.0406912e-08 0.0 1.3448432e-09
5.4096674e-09 8.4118845e-09 0.0 1.0601504e-09 5.6387206e-09 7.962289e-09 0.0 1.5538245e-09
4.231252e-09 9.517528e-09 0.0 1.9443511e-09 5.5283147e-09 8.994252e-09 0.0 1.5723719e-09
2.9417253e-09 4.3263313e-09 2.6481006e-09 5.1903877e-09 5.8887952e-09 3.45024e-09 4.6218647e-09 4.35557e-09
7.580416e-09 5.9032765e-11 8.2128065e-10 1.0044515e-08 8.0673185e-10 0.0 1.1263927e-11 7.865044e-10
1.015551e-08 0.0 8.8080654e-10 1.0790772e-09 9.708811e-09 0.0 9.185393e-10 9.776656e-10
9.8321165e-09 0.0 9.90221e-10 1.2056548e-09 9.645137e-09 0.0 1.1693588e-09 1.8072335e-09
00000000: 5528 0b31 52fa b02d 0000 0000 4d75 dc2b
00000010: 8636 9030 2aad 8830 0000 0000 e087 c02e
00000020: 5a07 8230 6099 9b30 0000 0000 3456 f32e
00000030: fc81 be30 d7fb 3330 0000 0000 174e a02e
00000040: 30c4 1d30 b7ab c430 0000 0000 4274 532f
00000050: a927 cf30 6221 f92f 0000 0000 c136 a42e
00000060: e1c5 5730 1b07 a830 0000 0000 e2c9 712f
00000070: 1e91 d730 eccc f12f 0000 0000 d544 032f
00000080: c999 8a30 673e 8d30 0000 0000 4a2f 472f
00000090: 1e69 ba2f 9735 4830 8b00 d82f c320 2b30
000000a0: f008 4f30 8c9c 0e30 88ac 4e30 4c49 4a30
000000b0: fd3e 9030 96b6 f92c 670d 0a2f 884f b631
000000c0: 94b3 f62e 0000 0000 3748 972c d4fb 2231
000000d0: 618a 4a31 0000 0000 5621 a22f 1467 2031
000000e0: a6bd 4c31 0000 0000 51c6 b12f cf15 2231
000000f0: 8fa2 4e31 0000 0000 5c17 aa2f ed0b 2b31
00000100: 9e79 3c31 0000 0000 fe3f cf2f 23a2 f130
00000110: 1f87 7631 0000 0000 a6d0 0530 bf97 fe30
00000120: 6879 6c31 0000 0000 8229 4130 c262 0b31
00000130: fb01 5d31 0000 0000 3576 3a30 4af4 1d31
00000140: ecc4 5531 0000 0000 fa56 fd2f 43ae 8530
00000150: cb84 f030 a63b 5e30 7c5b 0431 52ce 1731
00000160: 6eba b430 8a37 ef30 f081 fc30 c4bf 2b31
00000170: 8712 c92d 2d5d ab2f e8ab 8231 fc24 ba2f
00000180: 0000 0000 8a56 862c df71 8030 b193 5531
00000190: 0000 0000 151c 8c2f 0817 8430 4109 5331
000001a0: 0000 0000 403a 952f 3212 9730 8180 5431
000001b0: 0000 0000 fc51 982f beb9 9c30 c254 4731
000001c0: 0000 0000 1a60 b92f 3049 9530 07ef 5031
000001d0: 0000 0000 8470 cc2f e82b b630 8b1f 3431
000001e0: 0000 0000 8183 f92f 33bf a130 8129 4731
000001f0: 0000 0000 c091 2130 72f9 dd30 5d80 2a31
00000200: 0000 0000 e9e1 0130 9662 7f30 2ca5 9830
00000210: cb8b 3330 4feb e730 2627 db30 48ce a130
00000220: 1b88 a030 5aa9 ca30 b7ee 1731 7909 762d
00000230: f27b 872f 55d6 5d33 3983 b531 0000 0000
00000240: c765 892e f46c 4631 f49e 6233 0000 0000
00000250: 31b9 8d31 e3f5 0031 89dd 6833 0000 0000
00000260: 7c2b 9d31 3f20 a631 3a86 6233 0000 0000
00000270: 23a5 9b31 b501 9c31 3c3c 6033 0000 0000
00000280: ba70 ca31 65ba e731 e437 5933 0000 0000
00000290: 7166 ce31 78c9 e131 77a6 5433 0000 0000
000002a0: 1f25 0c32 165b 4d32 2439 4633 0000 0000
000002b0: 01a2 1432 c4f4 9632 181d 2b33 0000 0000
000002c0: d810 f731 6845 3b32 215f 9332 098e 3932
000002d0: 7c15 9f32 e12c eb32 46a0 4832 e30f 8332
000002e0: 0f63 8032 8a1c 0833 2c47 9a2f 2298 1731
000002f0: a231 6832 b56b b22f 0000 0000 3080 562d
00000300: 96ab 9d31 1c8f 1932 0000 0000 7672 5730
00000310: a454 7d31 a2f5 2c32 0000 0000 00d0 8030
00000320: 0591 c031 e993 1932 0000 0000 cc88 6530
00000330: a3e9 6e31 15ca 3232 0000 0000 77d5 b830
00000340: f0df b931 dc83 1032 0000 0000 bab4 9130
00000350: b6be c131 84ca 0832 0000 0000 578e d530
00000360: 7c62 9131 8882 2332 0000 0000 639d 0531
00000370: 92f3 bd31 2385 1a32 0000 0000 eb1a d830
00000380: 6127 4a31 d0a6 9431 e1f9 3531 2257 b231
00000390: 6456 ca31 4419 6d31 5ace 9e31 00a8 9531
000003a0: 063b 0232 7ed0 812e 7dc0 6130 3f90 2c32
000003b0: b5c0 5d30 0000 0000 3828 462d 5431 5830
000003c0: 6878 2e32 0000 0000 401d 7230 a74e 9430
000003d0: cdcb 2632 0000 0000 757c 7c30 8d5e 8630
000003e0: 1bea 2832 0000 0000 4e18 8830 35b4 a530
000003f0: c3b3 2532 0000 0000 28b7 a030 6062 f830

exp_avg f4 [128]
-8.021321e-06 2.8507325e-06 5.1344305e-06 -3.0224148e-05 1.3444621e-05 5.5293327e-05 -1.790688e-05 -1.9250072e-06
-4.1017953e-05 9.046055e-05 5.6758668e-06 1.6961476e-05 1.0215478e-05 3.1973697e-05 6.3162283e-06 2.1015565e-05
2.552995e-05 -8.716763e-06 2.602876e-06 -3.0680683e-05 -2.3783357e-06 1.3060851e-05 -1.8385997e-05 1.7792847e-05
-8.352919e-05 2.4585914e-05 -3.29912e-05 2.0457344e-06 -5.8482776e-05 -2.1515739e-06 7.284873e-05 -6.171454e-06
-1.4254683e-05 -3.0446734e-05 5.4886255e-05 3.258043e-06 8.900201e-06 -2.957544e-05 1.8985165e-05 -3.087913e-05
2.5486012e-05 -2.416845e-05 -8.911795e-06 -3.0063527e-05 1.5590414e-05 -3.023725e-06 3.213418e-06 5.776202e-06
3.4552377e-07 -7.0936076e-05 9.545037e-06 2.3390064e-06 2.0215371e-05 3.2731383e-05 -2.1664846e-05 -6.936955e-06
-1.4503906e-06 -3.89717e-05 6.90081e-06 -1.0126462e-05 8.835991e-06 5.5493238e-06 -3.6328347e-05 1.3415433e-05
-1.9967345e-05 -1.5045424e-05 -4.2026717e-05 -2.7076653e-06 1.5567444e-05 4.2867563e-05 7.502752e-05 -2.9381622e-06
9.752251e-07 4.6185887e-06 4.6190482e-05 2.5080812e-05 4.1068674e-06 3.417916e-05 -2.5890295e-05 5.688524e-06
4.9429786e-05 2.2966748e-05 -2.4031335e-05 -3.9006405e-05 -3.3877033e-05 2.2929638e-05 3.998983e-05 -1.782433e-05
-2.806848e-05 2.5884665e-05 -1.8517916e-05 7.9436984e-07 -6.1699616e-06 -8.868064e-05 2.179385e-05 1.07808355e-05
2.474533e-05 6.914199e-05 4.8541602e-05 -3.0627645e-05 3.5383477e-05 1.0898186e-05 -3.4092638e-05 -7.218377e-06
-1.716502e-06 5.0142144e-06 -1.7742594e-05 -2.5907524e-05 -1.1844612e-05 3.180243e-05 2.3162023e-05 -1.5405016e-05
8.041664e-06 -1.3367619e-05 -4.290146e-06 5.5931646e-06 2.7629298e-05 -6.856907e-05 -5.5627756e-05 -8.817862e-06
-1.677633e-05 -3.2357835e-05 -3.8099373e-07 -6.160323e-05 -1.92718e-05 1.2700073e-05 -2.3106895e-05 7.837381e-06
00000000: 5093 06b7 364f 3f36 6c48 ac36 dd89 fdb7
00000010: 3590 6137 c2ea 6738 bb36 96b7 5f2f 01b6
00000020: b10a 2cb8 a3b5 bd38 5373 be36 7e48 8e37
00000030: 2563 2b37 7f1b 0638 fdef d336 954a b037
00000040: 2629 d637 363e 12b7 12ad 2e36 22af 00b8
00000050: 7f9b 1fb6 ee1f 5b37 a13b 9ab7 d941 9537
00000060: 642c afb8 d93d ce37 0860 0ab8 7349 0936
00000070: 674b 75b8 c263 10b6 5dc6 9838 6314 cfb6
00000080: 6627 6fb7 dd67 ffb7 ab35 6638 c1a4 5a36
00000090: 1252 1537 c618 f8b7 5542 9f37 3784 01b8
000000a0: cbca d537 5abd cab7 de83 15b7 ef30 fcb7
000000b0: 29c8 8237 33eb 4ab6 1aa6 5736 33d1 c136
000000c0: 6d80 b934 84c3 94b8 9f23 2037 d3f7 1c36
000000d0: 2e94 a937 0e49 0938 e7bc b5b7 fdc3 e8b6
000000e0: 0bab c2b5 8b75 23b8 828d e736 d3e4 29b7
000000f0: 4b3e 1437 5434 ba36 445f 18b8 d912 6137
00000100: 8c7f a7b7 9b6b 7cb7 d845 30b8 56b5 35b6
00000110: d596 8237 b2cc 3338 1858 9d38 3e2d 45b6
00000120: 7be4 8235 60f9 9a36 a7bc 4138 a264 d237
00000130: b9cd 8936 985b 0f38 fc2e d9b7 0de0 be36
00000140: d452 4f38 b7a8 c037 e696 c9b7 cf9a 23b8
00000150: 3017 0eb8 0659 c037 c1ba 2738 7585 95b7
00000160: 9a74 ebb7 e522 d937 ec56 9bb7 ae3c 5535
00000170: 9107 cfb6 0efa b9b8 f0d1 b637 56df 3437
00000180: 3194 cf37 5300 9138 2699 4b38 2f76 00b8
00000190: b868 1438 5ad7 3637 b1fe 0eb8 6335 f2b6
000001a0: 8f62 e6b5 c63f a836 eed5 94b7 fc53 d9b7
000001b0: 39b8 46b7 9963 0538 114c c237 053a 81b7
000001c0: afea 0637 7d45 60b7 13f4 8fb6 ebac bb36
000001d0: 77c5 e737 bdcc 8fb8 d951 69b8 6ef0 13b7
000001e0: e5ba 8cb7 f6b7 07b8 618b ccb4 fb30 81b8
000001f0: e0a9 a1b7 6612 5537 aed5 c1b7 4c7d 0337

exp_avg_sq f4 [128]
2.0453101e-09 5.3928804e-09 4.1388573e-09 5.706493e-08 1.3916461e-08 1.10363425e-08 1.5803703e-08 1.0773369e-08
1.0933968e-07 3.4931535e-08 1.2358314e-09 3.4753649e-09 2.670582e-09 1.22407835e-08 1.2766337e-09 2.1495357e-08
1.118082e-08 1.0482921e-09 1.9097162e-09 3.769542e-08 1.0557281e-09 7.514142e-09 4.019291e-09 6.937103e-09
6.138654e-08 1.5964165e-08 3.1332064e-08 9.116785e-09 9.885619e-08 9.269193e-09 3.0587923e-08 1.02873345e-08
9.8874445e-08 2.1961748e-08 3.1759697e-08 6.741463e-10 2.4295088e-09 6.9091266e-09 7.593008e-09 7.1410405e-08
3.195678e-08 2.7102264e-08 2.384884e-08 1.0945088e-08 2.3003777e-08 1.2108064e-08 8.7416794e-08 3.146774e-09
2.0463045e-08 1.1654827e-08 6.0624e-08 5.0473954e-08 2.0937554e-08 2.1001568e-08 2.9762734e-08 1.43289425e-08
5.12922e-09 3.6431984e-09 2.2750088e-09 7.3669226e-09 1.0322585e-09 2.4150559e-08 3.1686984e-08 9.84498e-08
1.4204515e-07 2.5837666e-08 2.6779507e-08 2.4425132e-08 8.040546e-09 1.033484e-08 6.570978e-08 3.143258e-08
9.469382e-09 5.797168e-09 4.2977465e-08 1.00358095e-08 7.377906e-08 9.030236e-09 6.589366e-08 8.470895e-09
1.3742053e-08 1.03536015e-08 7.0491852e-09 1.8936076e-08 7.1506614e-09 3.542931e-08 2.860935e-08 1.650184e-08
1.6618305e-08 4.815463e-08 2.1578098e-08 1.8616136e-08 3.407599e-09 6.4488e-08 1.3900822e-08 4.145277e-09
9.193543e-09 3.9315516e-08 9.625722e-09 1.9589532e-08 1.6718982e-08 8.48676e-09 2.4454408e-08 3.3912595e-09
5.8609203e-08 1.1537088e-08 5.738677e-09 2.8809783e-08 1.3113245e-08 9.207276e-09 1.4708436e-08 6.606538e-09
2.9501803e-09 5.673021e-09 1.9389301e-09 5.945542e-08 1.4741938e-08 2.8584463e-08 1.2460744e-08 1.0814981e-08
1.2640359e-08 6.723331e-08 5.6206386e-09 1.3055349e-07 1.074942e-08 1.3188579e-08 1.5867574e-08 4.1779266e-08
00000000: 7a8d 0c31 474c b931 c635 8e31 8e17 7533
00000010: 3e15 6f32 599a 3d32 b6c0 8732 c715 3932
00000020: 20ce ea33 a107 1633 f4d9 a930 44d3 6e31
00000030: 6085 3731 894b 5232 8e75 af30 caa4 b832
00000040: c415 4032 8013 9030 153c 0331 8de6 2133
00000050: 2119 9130 8c17 0132 0f1a 8a31 675b ee31
00000060: 9bd3 8333 9221 8932 f891 0633 0ba0 1c32
00000070: c44a d433 583e 1f32 c75f 0333 2dbc 3032
00000080: cd54 d433 65a6 bc32 2868 0833 d44e 3930
00000090: 5ff4 2631 5265 ed31 6772 0232 495a 9933
000000a0: da40 0933 82ce e832 27dc cc32 0209 3c32
000000b0: d799 c532 d403 5032 e4b9 bb33 a23e 5831
000000c0: b6c6 af32 793a 4832 6530 8233 b3c8 5833
000000d0: 2bda b332 f066 b432 f2a8 ff32 5b2b 7632
000000e0: 193d b031 d35b 7a31 6156 1c31 2320 fd31
000000f0: 5edf 8d30 a473 cf32 3518 0833 5a6b d333
00000100: 1385 1834 a1f1 dd32 c208 e632 6fcf d132
00000110: b222 0a32 1b8d 3132 551c 8d33 7d00 0733
00000120: c8ae 2232 6e30 c731 3996 3833 f569 2c32
00000130: 7870 9e33 6623 1b32 6c81 8d33 6487 1132
00000140: 3016 6c32 9fdf 3132 4a35 f231 dfa8 a232
00000150: e2b1 f531 f02a 1833 a0c0 f532 eebf 8d32
00000160: 0ac0 8e32 93d2 4e33 bd5a b932 51e9 9f32
00000170: 1e2b 6a31 a77c 8a33 76d0 6e32 3e6e 8e31
00000180: a1f1 1d32 dedb 2833 605e 2532 d645 a832
00000190: 6e9d 8f32 2acd 1132 d00f d232 ab0b 6931
000001a0: 80b9 7b33 a634 4632 f02d c531 6279 f732
000001b0: a948 6132 072e 1e32 63b0 7c32 b9ff e231
000001c0: 1fbc 4a31 6cec c231 053e 0531 ed5b 7f33
000001d0: bb43 7d32 e689 f532 ef12 5632 cacc 3932
000001e0: e328 5932 e761 9033 a91f c131 452e 0c34
000001f0: 73ac 3832 fc93 6232 2a4d 8832 ca70 3333
