config/results/AgrConserv_Refactored_2M_V2/Hummingbird_Conservative/Hummingbird_Conservative-1499968.pt (torch, 574603 bytes, 36 tensors)

network_body._body_endoder.seq_layers.0.weight f4 [128, 47]
0	0xbd084203	-0.03326608
1	0xbe524afe	-0.2053642
2	0xbd9d5564	-0.076823026
3	0x3d427216	0.047472082
4	0xbe49a1e5	-0.19690664
5	0xbe22e4b5	-0.15907557
6	0xbdec0f6e	-0.115263805
7	0xbeceb9eb	-0.4037622
8	0xbdb2022e	-0.08691822
9	0xbe7bfa82	-0.2460728
10	0x3dc7be78	0.09753126
11	0x3e37fce0	0.17967558
12	0xbdbb64ab	-0.0915006
13	0xbe672255	-0.2257169
14	0x3ce7c928	0.028294161
15	0x3e38a61e	0.18032119
16	0xbd98faf7	-0.07469743
17	0xbdc038e7	-0.09385853
18	0x3ccc683d	0.024952048
19	0x3dd3bab3	0.103383444
20	0x3ea435f1	0.32072404
21	0xbd25fb8d	-0.0405231
22	0x3ea52458	0.3225429
23	0xbd36515b	-0.04451118
24	0xbdc8a11c	-0.09796354
25	0xbe54f61c	-0.20797008
26	0xbe2844b9	-0.16432466
27	0x3d38bcad	0.04510181
28	0x3d7629f7	0.060098615
29	0xbea1086b	-0.31451735
30	0xbbc01a8b	-0.005862539
31	0x3da8d5ed	0.08243928
32	0x3d0d5000	0.034500122
33	0xbe8dabe3	-0.27670202
34	0x3dad887a	0.084732965
35	0x3d5e4165	0.054261584
36	0xbe06637b	-0.13123886
37	0x3e8ae3ec	0.27127016
38	0x3dd05081	0.10171605
39	0x3e0caf23	0.13738684
40	0x3e369dea	0.17833677
41	0xbc17bc0d	-0.009261143
42	0xbdd549c6	-0.10414462
43	0xbe39c251	-0.18140532
44	0xbde2dc98	-0.11077231
45	0x3cbb0fbc	0.022834651
46	0x3d520afb	0.051280003
47	0x3e449526	0.1919752
48	0x3c42fd46	0.011901205
49	0x3eb5adf0	0.35484266
50	0xbc0b33a9	-0.008496203
51	0x3d952457	0.07282322
52	0xbbb9841f	-0.005661502
53	0x3daed7e9	0.08537275
54	0xbce68a24	-0.028142042
55	0x3e69ec41	0.2284403
56	0xbd5e5a0d	-0.054285098
57	0x3bf7697a	0.0075504156
58	0x3dc7710b	0.09738358
59	0x3d00df4e	0.03146296
60	0xbe81d0cd	-0.25354615
61	0x3e05f86e	0.1308305
62	0xbe09afd9	-0.13445987
63	0x3e722268	0.23645937
64	0xbe57adaf	-0.21062349
65	0x3dbc6893	0.091996334
66	0x3d3057a4	0.04305233
67	0xbe8b8c16	-0.27255315
68	0x3d8d23d4	0.06891599
69	0xbe82b8de	-0.25531667
70	0xbd913d47	-0.07091766
71	0xbcb4f598	-0.022089764
72	0x3dbe0cfb	0.092798196
73	0xbe0c3408	-0.13691723
74	0x3e0c9199	0.13727416
75	0x3de4d652	0.11173691
76	0xbc62acdd	-0.013835159
77	0xbdc38867	-0.09547501
78	0x3ecd776e	0.4013018
79	0x3de02dc6	0.109462306
80	0xbe22af3b	-0.15887158
81	0xbd62c4f6	-0.055363618
82	0xbe1b74c3	-0.1518126
83	0x3db9032a	0.090338066
84	0xbcad3779	-0.021144615
85	0xbe15be75	-0.14623435
86	0x3dddcd8f	0.10830223
87	0xbebdcbef	-0.3706965
88	0xbd0854cf	-0.033284005
89	0x3d591ca0	0.053005815
90	0xbe16a509	-0.14711393
91	0x3dca0624	0.098644525
92	0x3e988258	0.29786944
93	0x3dd98758	0.10621518
94	0xbd42a423	-0.047519814
95	0xbda1f3f0	-0.079078555
96	0xbb745dfa	-0.003728746
97	0x3d9c0550	0.07618201
98	0x3db6d284	0.089268714
99	0x3d8d164d	0.06889019
100	0xbda8f1f2	-0.082492724
101	0xbe8d2424	-0.27566636
102	0x3e188d46	0.14897642
103	0x3cd5bc8c	0.026090883
104	0x3d5d427a	0.054018475
105	0xbcab7fe6	-0.02093501
106	0xbe80649d	-0.25076762
107	0xbe6aaea7	-0.22918187
108	0x3c4bd838	0.012441687
109	0xbd3b3fc1	-0.045715097
110	0xbcc61083	-0.024177795
111	0xbeec1cc7	-0.46115705
112	0x3de99d10	0.114069104
113	0xbda4439c	-0.08020708
114	0x3d98fc22	0.074699655
115	0x3e417ed8	0.18896043
116	0x3d183b63	0.03716601
117	0xbdeb9ed8	-0.115049064
118	0x3e2542c8	0.16138756
119	0x3d0169c2	0.031595
120	0xbe5590ef	-0.20856069
121	0xbd7c4106	-0.06158545
122	0xbba09ecb	-0.004901742
123	0x3b12f66a	0.0022424706
124	0xbe015fec	-0.12634248
125	0x3bdd5232	0.006754183
126	0x3e8f590d	0.27997628
127	0x3df0b67b	0.117535554
128	0x3e1b9133	0.15192108
129	0x3eaba0b3	0.3352104
130	0x3d264b2c	0.040599033
131	0xbe51832e	-0.20460197
132	0xbdb05048	-0.086090624
133	0xbe4825d4	-0.1954568
134	0xbe1ab840	-0.15109348
135	0x3ee9b310	0.45644426
136	0x3e117fb5	0.14208873
137	0xbe8f621e	-0.28004545
138	0xbe2a5914	-0.16635543
139	0x3ea7b4aa	0.32755023
140	0x3e4885cf	0.19582294
141	0x3e55ff6e	0.2089822
142	0xbdcf49a6	-0.10121469
143	0x3de633f9	0.11240382
144	0x3c7fa098	0.015602253
145	0xbdb725c7	-0.08942752
146	0xbdbb96ca	-0.0915962
147	0x3d4a3ac7	0.04937246
148	0xbde3db0e	-0.11125766
149	0xbe7f4f60	-0.24932623
150	0x3ead7061	0.338748
151	0x3dfb0261	0.12256313
152	0x3bc19236	0.0059073223
153	0xbe27b39f	-0.16377114
154	0xbd182714	-0.037146643
155	0xbda9f970	-0.082995296
156	0xbd8ad73c	-0.06779334
157	0x3e2f9e00	0.17150116
158	0xbd0fba07	-0.03508952
159	0x3e0c0cd5	0.1367677
160	0xbce8c205	-0.028412828
161	0xbe5d54d3	-0.21614389
162	0x3e2803b8	0.16407669
163	0xbe2e7d33	-0.17039947
164	0x3da0f3a8	0.07858974
165	0xbe49afb8	-0.19695938
166	0x3a008bc3	0.00049036386
167	0xbe69c728	-0.22829878
168	0xbb04c50b	-0.0020259048
169	0x3d2f3e3b	0.042783957
170	0xbd52e085	-0.05148365
171	0xbddc528c	-0.10757932
172	0x3dba403a	0.090942815
173	0x3e4842a5	0.19556673
174	0xbd66790c	-0.056267783
175	0x3dbf85a1	0.093516596
176	0x3cdb56c2	0.026774768
177	0x3d9338c5	0.07188562
178	0xbe7c0e12	-0.24614742
179	0x3eae013f	0.33985326
180	0xbbe91a9f	-0.007113769
181	0xbcb86272	-0.02250788
182	0xbe396866	-0.18106231
183	0x3d627c1c	0.05529414
184	0xbe3ba0e6	-0.18323097
185	0xbe140bc4	-0.14457613
186	0x3c15f3d6	0.009152373
187	0xbe1a6843	-0.15078835
188	0x3ea06bdd	0.31332293
189	0xbc5cc8ac	-0.013475578
190	0x3d9973fb	0.07492825
191	0xbe0ba54d	-0.13637276
192	0x3e67efde	0.22650096
193	0xbe370e6c	-0.17876595
194	0xbd01b069	-0.03166238
195	0xbc0d1030	-0.008609816
196	0x3d233260	0.039842963
197	0x3ce2c562	0.02768201
198	0x3e6aa998	0.22916257
199	0x3dad7f17	0.08471506
200	0xbe01b125	-0.12665232
201	0xbdbf95da	-0.09354754
202	0xbddbcb56	-0.107321426
203	0x3e08110c	0.13287753
204	0x3d861871	0.065476306
205	0xbbf433ef	-0.00745248
206	0xbe054767	-0.13015519
207	0x3e0fd256	0.1404508
208	0x3dc317f5	0.09526054
209	0xbe7724d3	-0.24135141
210	0x3c7a6aef	0.015284284
211	0x3e54a7d3	0.20767145
212	0x3e0c8f90	0.1372664
213	0xbed01cc2	-0.4064694
214	0xba4d066f	-0.0007821088
215	0xbcea1372	-0.028573725
216	0xbea05bc1	-0.31320003
217	0x3d13b87f	0.03606462
218	0xbe253f28	-0.16137373
219	0x3dbb14ab	0.091348015
220	0x3d12fdba	0.035886504
221	0xbd073e53	-0.03301842
222	0x3e1f3493	0.15547399
223	0x3e091b0a	0.13389221
224	0x3d53084e	0.05152159
225	0x3e09607b	0.1341571
226	0x3e1fd79f	0.15609597
227	0x3e2bc5ce	0.16774675
228	0xbcd017e8	-0.025402024
229	0x3dd4033f	0.10352182
230	0xbdd1d730	-0.10246122
231	0x3be8c839	0.0071039465
232	0xbe75dc76	-0.2400988
233	0x3e1e92dd	0.15485711
234	0x3e36df1b	0.17858545
235	0x3e2523d3	0.16126947
236	0x3d84e085	0.06488136
237	0x3dc14818	0.09437579
238	0x3e3a7508	0.18208706
239	0xbd97cdeb	-0.074123226
240	0x3df09bb0	0.11748445
241	0xbdc6c20d	-0.09704981
242	0xbda3c1d7	-0.079959564
243	0x3d89b39e	0.067237124
244	0xbe9f1266	-0.31068724
245	0xbe3815ca	-0.17977062
246	0x3e3bccc7	0.18339835
247	0xbe57a3f0	-0.21058631
248	0x3dbfe616	0.09370057
249	0x3ebd8064	0.37012017
250	0x3ecce8ea	0.4002145
251	0xbe3a03bc	-0.18165487
252	0xbdc07bfe	-0.0939865
253	0xbc1692c1	-0.009190262
254	0xbcef06a0	-0.029177964
255	0x3a8b819d	0.0010643486

network_body._body_endoder.seq_layers.0.bias f4 [128]
0	0xbd06e3b6	-0.032932006
1	0x3c930908	0.017948642
2	0xbba0258b	-0.004887288
3	0xbc7e4b2a	-0.01552085
4	0x3d25c8ce	0.040474705
5	0xbc7123ae	-0.014717979
6	0xbb96899b	-0.0045940406
7	0xbbb1b69e	-0.005423381
8	0x3ce7bd66	0.028288554
9	0xbbe548f1	-0.0069972207
10	0x3c33f71f	0.010984211
11	0x3bb50354	0.0055240784
12	0x3c6b3d7d	0.014357922
13	0xbb5c551a	-0.003362006
14	0x3ba7a96b	0.0051166317
15	0x3b4c510d	0.003117624
16	0xbd098089	-0.033569846
17	0x3cacfec2	0.021117572
18	0xbc3118a4	-0.010809097
19	0xbbb88cea	-0.0056320326
20	0xbc915a40	-0.01774323
21	0xbcb70433	-0.02234087
22	0xbca06df9	-0.019583689
23	0x3c2158c1	0.009847821
24	0x3c80b44c	0.015710972
25	0x3b0e8d94	0.0021751868
26	0x3cf92cb4	0.030416824
27	0x3c8ba4cf	0.01704636
28	0x3d68ebf0	0.056865633
29	0xbd141cbd	-0.03616022
30	0xbcb9169f	-0.022593794
31	0xbcaa873b	-0.020816436
32	0x3d1f2d79	0.038861725
33	0x3bb6db6d	0.005580357
34	0x3c90ae69	0.01766129
35	0x3a9005c7	0.001098805
36	0xbc84c9a4	-0.016209431
37	0xbb75eeb2	-0.0037526307
38	0x3c1b79e0	0.0094895065
39	0x3cfa0560	0.030520141
40	0x3c1031ce	0.008800937
41	0x3c6af231	0.0143399695
42	0x3cb2db21	0.021833004
43	0x3adb244a	0.0016719189
44	0x3b9434aa	0.0045228796
45	0xbc52f95f	-0.0128768375
46	0x3d0982e7	0.033572104
47	0xbcfcb0b4	-0.030845977
48	0x3c74f773	0.014951575
49	0xbc003cf6	-0.007827034
50	0x3c033d46	0.008010214
51	0x3c1e0663	0.009645077
52	0x3c000719	0.007814192
53	0x3c50bf72	0.012740957
54	0xbce545e8	-0.027987435
55	0x3cb23dce	0.021757986
56	0x3d218559	0.03943381
57	0xbb763150	-0.0037566014
58	0x3ac76797	0.0015213367
59	0xbcad732a	-0.021173079
60	0x3c2ef0d1	0.010677532
61	0x3c9a12ab	0.01880773
62	0x3c6fd7e8	0.014638878
63	0x3d3aec53	0.045635533
64	0x3cf7312d	0.030174816
65	0x3b5c8eeb	0.0033654522
66	0x3c873aeb	0.016507586
67	0x3a8e8cf7	0.0010875751
68	0x3b6227a5	0.0034508493
69	0x3b4bc0c9	0.003109025
70	0x3c05ecb6	0.008174112
71	0x3d1a331d	0.0376464
72	0xbafb59d8	-0.0019176556
73	0x3cf8a51b	0.030352166
74	0xbaf2279c	-0.0018474939
75	0xbc91e50c	-0.017809413
76	0xbc8245ee	-0.015902486
77	0x3ce9747b	0.028497925
78	0x3b895b72	0.0041918093
79	0xba9ee5c8	-0.0012122924
80	0x3bb01e5a	0.005374712
81	0xbc628bdd	-0.013827291
82	0x3c405fb6	0.011741569
83	0x3caa9de4	0.020827241
84	0xbbba84e0	-0.0056921095
85	0x3c349375	0.011021485
86	0x3c4fd05f	0.012683957
87	0x3ca172e4	0.019708104
88	0xbcb8f28f	-0.022576598
89	0x3bcb4a8d	0.0062039555
90	0x3c57b919	0.013166689
91	0xbb3920c0	-0.002824828
92	0x3d1e8c08	0.038707763
93	0x3c80862f	0.015688984
94	0xbc1f1bbf	-0.009711205
95	0x3cb1bf52	0.021697674
96	0xbab18c55	-0.001354585
97	0x3a6b528f	0.0008976841
98	0x3c839188	0.016060606
99	0x3cac30da	0.021019388
100	0xbbb4935e	-0.0055107316
101	0x3c76f2ae	0.015072508
102	0x3ca3b7d6	0.01998512
103	0xbcb0c410	-0.021577865
104	0x3ceee016	0.029159587
105	0x3cb682e8	0.022279218
106	0x3bc2303c	0.00592616
107	0xbcf94129	-0.030426579
108	0x3c2c8dc1	0.010531844
109	0xbca1cb66	-0.019750308
110	0x3c89c63d	0.01681816
111	0xb9a1fbde	-0.0003089597
112	0xbcb4ee18	-0.022086188
113	0xbc72f652	-0.014829235
114	0xbc16eff3	-0.009212482
115	0x3cc68b9c	0.024236493
116	0xbc8a5c5a	-0.01688974
117	0x3cae0b23	0.021245545
118	0x3b6b95b2	0.003594738
119	0x3c1d65e0	0.009606808
120	0x3d27e915	0.04099377
121	0x3ce0de36	0.027449708
122	0x3c653260	0.013989061
123	0x3cf3ba7b	0.029752007
124	0x3c26e3c8	0.010186143
125	0x3be32784	0.006932201
126	0xbc899fe2	-0.01679987
127	0x3c5550a0	0.013019711

network_body._body_endoder.seq_layers.2.weight f4 [128, 128]
0	0x3d2e0c7d	0.04249238
1	0xbc90b6a6	-0.017665219
2	0x3dfcdc5f	0.1234672
3	0x3e2f115f	0.1709647
4	0x3c90191d	0.0175901
5	0x3e3cb63e	0.18428895
6	0x3c63aae5	0.013895725
7	0x3d24ac13	0.040203165
8	0x3d65b142	0.05607725
9	0xbdfe187e	-0.12407015
10	0x3b82ed36	0.003995563
11	0xbd3ee19c	-0.046601877
12	0xbd8e517e	-0.06949137
13	0xbcac3bb1	-0.021024557
14	0xbda584bb	-0.08081957
15	0xbcbfdbeb	-0.023420295
16	0xbd6c9e09	-0.0577679
17	0xbe0c2809	-0.13687147
18	0xbe3016ad	-0.1719615
19	0x3dd10bf5	0.10207359
20	0xbd017f5b	-0.031615596
21	0xbbef6e9b	-0.0073068864
22	0x3e91ad64	0.284526
23	0xbdafaafe	-0.08577536
24	0xbde1f705	-0.11033443
25	0xbdffea12	-0.12495817
26	0x3d37908f	0.044815596
27	0x3d2b98b2	0.04189367
28	0x3e25bf7f	0.16186331
29	0xbe62cdff	-0.22148894
30	0xbcf3a721	-0.02974278
31	0xbdea8372	-0.114508525
32	0x3d9e880d	0.077407934
33	0x3c82c6a0	0.015963852
34	0x3df36aa5	0.11885575
35	0xbc95b46a	-0.018274505
36	0x3d682587	0.056676414
37	0x3c874f8c	0.016517423
38	0x3c84e7d3	0.016223824
39	0x3d0aa4ec	0.033848688
40	0x3d9a9e04	0.0754967
41	0x3d1cfe4a	0.038328446
42	0x3e2f9d6c	0.17149895
43	0x3dae70ce	0.085176095
44	0x3e0c8044	0.13720804
45	0xbe2d8fcf	-0.1694939
46	0x3e6770d5	0.22601636
47	0xbd1583c7	-0.036502626
48	0xbdc05aee	-0.093923435
49	0x3d9441f1	0.0723914
50	0xbd9a2627	-0.07526808
51	0x3da591d9	0.08084459
52	0x3dc07eff	0.093992226
53	0x3d3143a4	0.043277398
54	0xba825598	-0.0009943722
55	0x3e2e9004	0.17047125
56	0x3d501c61	0.050808314
57	0xbdc57334	-0.09641114
58	0x3d8f1f85	0.06988434
59	0x3d6a99b7	0.0572755
60	0xbd6a34fc	-0.057179436
61	0xbd0b347f	-0.03398561
62	0xbdbe8ec4	-0.09304574
63	0x3e16364d	0.14669152
64	0x3e2b93e2	0.16755632
65	0x3ddc26a5	0.10749558
66	0xbdef0091	-0.1167003
67	0x3e009687	0.12557422
68	0xbbeea488	-0.0072827972
69	0x3da555a5	0.08072976
70	0xbc8c93b4	-0.017160274
71	0x3d7fc758	0.06244597
72	0xbc12911e	-0.008945731
73	0xbe20c793	-0.15701132
74	0xbe1cadeb	-0.1530072
75	0x3dff7a77	0.1247453
76	0xbe2f90ed	-0.17145129
77	0xbb7f1299	-0.0038920997
78	0x3d8aabc4	0.06771043
79	0x3d4886af	0.04895657
80	0xbdca5e58	-0.09881276
81	0x3cb8e7c9	0.022571461
82	0xbe191b6f	-0.14951871
83	0xbce3e571	-0.027819367
84	0xbe323921	-0.17404605
85	0x3cb97388	0.022638097
86	0x3e766e91	0.24065615
87	0x3d9bcce2	0.07607438
88	0xbc2abf08	-0.010421522
89	0xbd9036bd	-0.070416905
90	0x3d2723c2	0.040805586
91	0x3c192f35	0.009349634
92	0xbd1ad14c	-0.037797257
93	0x3dc5f93f	0.096666805
94	0xbe2b9bc0	-0.16758633
95	0xbd185278	-0.037188023
96	0x3d9d7ebe	0.0769019
97	0xbd8b8603	-0.0681267
98	0x3def1d2d	0.11675487
99	0x3e331874	0.17489797
100	0x3d17f359	0.03709731
101	0x3d0e01f8	0.034669846
102	0xbd250840	-0.04029107
103	0x3dc7806b	0.09741291
104	0x3cd31134	0.025765039
105	0x3e0d4a28	0.1379782
106	0xbce10ba7	-0.027471377
107	0xbbdbb2c6	-0.006704661
108	0xbda29271	-0.07938088
109	0x3e12b169	0.14325489
110	0xbc9484ec	-0.018129788
111	0x3dda72eb	0.1066645
112	0xbdd599f7	-0.10429757
113	0xbd875d5f	-0.06609606
114	0x3d8ced55	0.06881205
115	0x3deb5d55	0.11492411
116	0xbd1d6812	-0.038429327
117	0x3e208191	0.15674426
118	0x3d948acd	0.07253037
119	0x3cdf86ba	0.027285922
120	0xbdff4232	-0.12463798
121	0x3daaadba	0.08333917
122	0x3d1df245	0.038561124
123	0x3e34bc7e	0.17650029
124	0xbd863ea8	-0.065549195
125	0xbe187464	-0.1488815
126	0x3bd5e50b	0.006527548
127	0x3d3953a8	0.045245796
128	0xbd2b47f1	-0.041816656
129	0xbc881f84	-0.01661659
130	0xbd854618	-0.0650751
131	0xbd8a9705	-0.06767086
132	0xbd69cc09	-0.05707935
133	0x3dba77eb	0.09104904
134	0xbd50f735	-0.051017005
135	0xbdd8e999	-0.1059143
136	0x3d8211cb	0.0635105
137	0xbd8864e1	-0.06659866
138	0xbda824d9	-0.08210153
139	0xbcb28ace	-0.021794703
140	0xbd7b5f03	-0.061369907
141	0xbe06ba01	-0.13156892
142	0x3d5ae823	0.05344404
143	0x3dacd71c	0.08439466
144	0x3da14c2c	0.07875857
145	0x3d0f671c	0.035010442
146	0x3dc270c4	0.094941646
147	0xbddbae13	-0.107265614
148	0x3ddfae0f	0.10921871
149	0x3c586770	0.013208255
150	0x3e27a877	0.16372858
151	0x3b9005df	0.004395231
152	0xbe0ecc85	-0.13945206
153	0xbc159a19	-0.009130978
154	0x3d15ffeb	0.036621016
155	0x3e048487	0.1294118
156	0xbd90fe4c	-0.07079753
157	0xbe2ed7e3	-0.17074542
158	0xbde30772	-0.110854045
159	0xbd1551bc	-0.0364549
160	0xbdcc8336	-0.09985964
161	0x3db9891f	0.09059357
162	0x3dddffcb	0.10839804
163	0xbdcd4619	-0.10023136
164	0x3dcfd8ae	0.1014875
165	0xbe0c5928	-0.13705885
166	0xbdb479ee	-0.08812319
167	0xbd543070	-0.051804006
168	0x39d97fbe	0.0004148464
169	0x3c44f7f2	0.012022005
170	0x3e075cc2	0.13218978
171	0xbd8af147	-0.06784301
172	0xbe423b61	-0.18967964
173	0x3e0be330	0.13660884
174	0x3e290962	0.16507486
175	0xbe60ec82	-0.2196522
176	0x3d9ed0dd	0.07754681
177	0x3ca8aebb	0.02059113
178	0x3cde1ad0	0.027112395
179	0x3df550f2	0.1197833
180	0x3cfe15e5	0.0310163
181	0xbd6b3127	-0.057419922
182	0xbd36484b	-0.044502538
183	0xbdbd744d	-0.09250698
184	0xbe2689dd	-0.16263528
185	0x3d13cdda	0.036084987
186	0x3dfaf839	0.12254376
187	0xbd15d90c	-0.036583945
188	0xbc17a5f6	-0.009255877
189	0x3e2a5838	0.16635215
190	0x3d3fab05	0.046793956
191	0x3d9b512d	0.075838424
192	0xbd2a3233	-0.04155178
193	0xbe0084c6	-0.12550649
194	0xbe165e1d	-0.14684339
195	0xbe7aaebc	-0.24480718
196	0x3b45c939	0.0030179753
197	0xbd850480	-0.06494999
198	0x3e49f8eb	0.19723861
199	0x3e034fae	0.12823364
200	0x3d332d18	0.043744177
201	0xbd13aac7	-0.036051538
202	0xbe0b5566	-0.13606796
203	0xbc870e62	-0.01648635
204	0xbdad7735	-0.084700026
205	0x3d597c91	0.05309731
206	0x3ddf2230	0.108951926
207	0xbd219667	-0.039450075
208	0xbda7955b	-0.08182784
209	0x3cbca686	0.023028623
210	0xbd1ca79c	-0.038245782
211	0xbe13cb2e	-0.14432976
212	0x3c33e4da	0.010979855
213	0x3dfe9515	0.12430779
214	0xbd006701	-0.031348232
215	0x3d50d501	0.050984386
216	0xbe4d2d66	-0.2003685
217	0x3ddbb65d	0.107281424
218	0x3e04bf32	0.1296356
219	0xbdaeb1ba	-0.085299924
220	0x3d78ed63	0.060773265
221	0xbd9e109e	-0.07718013
222	0x3d6dc354	0.058047608
223	0xbd673a4f	-0.05645209
224	0xbe0744ee	-0.13209888
225	0xbd58adcb	-0.052900117
226	0x3dabb9bf	0.08385038
227	0x3d5408d5	0.051766235
228	0xbe0388a9	-0.128451
229	0xbe1641ab	-0.14673488
230	0xbbfebf78	-0.0077742897
231	0xbe041068	-0.12896883
232	0xbd35377b	-0.044242363
233	0xbd9d1a43	-0.07671025
234	0x3c258ae9	0.01010392
235	0x3bad8e89	0.0052965325
236	0x3cb3ed9b	0.021963885
237	0x3d1d72f3	0.038439702
238	0xbcd9afe6	-0.026573133
239	0x3cad75f3	0.021174407
240	0x3e825ada	0.2545994
241	0x3d74fac0	0.059809446
242	0x3d5e7c43	0.054317724
243	0x3d922ab6	0.07137053
244	0x3d694290	0.056948245
245	0x3ce93786	0.028468858
246	0x3d826113	0.06366172
247	0x3d60d034	0.054886058
248	0xbdab3879	-0.08360381
249	0x3e161246	0.14655408
250	0xbd8fafa6	-0.07015924
251	0x3dcde461	0.100533254
252	0x3d5adf99	0.053435896
253	0x3c0aef6b	0.008479933
254	0xbd861a5b	-0.06547996
255	0x3d850ca8	0.064965546

network_body._body_endoder.seq_layers.2.bias f4 [128]
0	0x3cb83312	0.02248529
1	0x3c838fca	0.016059775
2	0xbc415db8	-0.011802129
3	0x3cc1f467	0.02367611
4	0x3bd9322a	0.0066282945
5	0xbb2314cf	-0.002488423
6	0xbc7bdbe5	-0.015372251
7	0x3c9583a8	0.018251255
8	0x3c28dd19	0.01030662
9	0x3bbc9bb5	0.0057558664
10	0x3c88f6ff	0.01671934
11	0xbb92ea2c	-0.004483482
12	0x3b48f5df	0.0030664129
13	0x3c5131de	0.012768237
14	0xbc6bcb8b	-0.01439179
15	0x3cb08fbc	0.021552913
16	0x3bff8057	0.0077972817
17	0xbbff4b60	-0.007790968
18	0x3c3a4185	0.01136816
19	0x3cf6ff2c	0.030150972
20	0x3bd3e7b6	0.006466831
21	0xbb7d1c00	-0.0038621426
22	0x3ccd2c6a	0.025045592
23	0xbbf03d77	-0.007331546
24	0x3c0180a4	0.0079042055
25	0xbc89a430	-0.016801924
26	0xb98939e6	-0.00026173814
27	0x3d06562e	0.03279703
28	0x3ccb78f0	0.02483794
29	0x3cdf1c93	0.027235305
30	0x3c42fe12	0.011901395
31	0xbc2d6da4	-0.010585222
32	0x3cc28ed4	0.023749746
33	0x3bdda05b	0.0067635006
34	0x3c82bf3d	0.01596033
35	0xbb234651	-0.0024913738
36	0xbc6144bf	-0.0137493005
37	0x3c15b850	0.009138182
38	0x3c6c5501	0.014424563
39	0x3c5f6483	0.013634804
40	0xbbaf91fd	-0.0053579793
41	0x3c8cbdc3	0.01718033
42	0x3c4ffa27	0.012693918
43	0x3d0797b1	0.03310365
44	0x3bb807ab	0.0056161485
45	0xbbc8b437	-0.006124999
46	0x3cb0259b	0.021502307
47	0xbc8611be	-0.016365882
48	0xbac69646	-0.0015150986
49	0xbc4e55c1	-0.0125936875
50	0xbb3b59c2	-0.0028587435
51	0x3cca2328	0.024674967
52	0xbc0de8cc	-0.00866146
53	0x3c0a1011	0.008426682
54	0x3bca8055	0.006179849
55	0xbae97307	-0.001781077
56	0x3d24cded	0.04023545
57	0xbca45122	-0.020058218
58	0x3ba6ccb6	0.0050903214
59	0xbc77d5f4	-0.015126694
60	0x3cfdf99e	0.031002816
61	0xbc1b68c9	-0.009485432
62	0x3cd204e9	0.025637107
63	0x3c88dabd	0.016705865
64	0x3c2e5ef0	0.010642752
65	0xbb56435b	-0.0032693956
66	0xb9faef78	-0.00047862134
67	0x3c5569bd	0.013025698
68	0xbc954d3f	-0.01822531
69	0xb9157e9d	-0.00014256914
70	0xbc11ebcf	-0.008906319
71	0xbc4c2250	-0.012459353
72	0xbc2465c7	-0.010034031
73	0xbbe24022	-0.006904618
74	0xbcb99eff	-0.022658823
75	0xbc4877f8	-0.012235634
76	0x3c6c821c	0.014435317
77	0x3b4f7695	0.0031656374
78	0x3b0d30c7	0.0021543966
79	0xbb30818c	-0.0026932685
80	0x3d0d12b5	0.03444167
81	0xbbf7fb9b	-0.0075678355
82	0x3c386434	0.011254359
83	0x3cca3bc6	0.024686705
84	0xbad76f62	-0.0016436393
85	0x3c5f2f2d	0.013622087
86	0x3ccb655f	0.024828611
87	0x3c52c538	0.012864403
88	0xbc411e2f	-0.0117869815
89	0x3c5678fa	0.0130903665
90	0x3b430410	0.002975706
91	0x3c10531c	0.008808877
92	0x3c75a9ea	0.014994124
93	0x3cf057cd	0.029338742
94	0xbc66f0f8	-0.014095537
95	0xbb8cff9b	-0.0043029315
96	0x3c51e7e5	0.012811636
97	0xbc021e31	-0.0079417685
98	0xbcac5922	-0.021038596
99	0xbb4c3c08	-0.003116371
100	0xbc974cd7	-0.018469257
101	0xbb647ed5	-0.0034865637
102	0x3ae8cca4	0.0017761183
103	0x3c13778c	0.00900067
104	0xbc1ca16a	-0.0095599685
105	0xbca715c6	-0.020396125
106	0x3c9e4a66	0.019322585
107	0x3c645acf	0.013937666
108	0x3ca29a2c	0.019848906
109	0x3cca0856	0.024662178
110	0xbc90ce21	-0.017676415
111	0x3c3a7f07	0.011382825
112	0xbc7c3bec	-0.015395146
113	0xbc9272f2	-0.017877076
114	0xbc35b5b2	-0.011090683
115	0xbbc169e8	-0.0059025176
116	0x3ccd59bf	0.025067208
117	0xbc9f61e6	-0.019455861
118	0x3b463d1e	0.003024883
119	0xbc54070d	-0.012941134
120	0x3c0e7357	0.008694491
121	0xbc1a87ca	-0.009431789
122	0x3c80cdb2	0.015723083
123	0x3cc7104a	0.02429976
124	0x3cda2688	0.026629701
125	0xbc88fae4	-0.016721196
126	0x3cd520bb	0.026016584
127	0xbbebbef7	-0.0071943956

action_model._continuous_distribution.log_sigma f4 [1, 5]
0	0x3d0eb8e2	0.034844287
1	0xbc76b879	-0.01505863
2	0x3c0cd3b6	0.008595398
3	0x3d1df806	0.03856661
4	0x3d53e872	0.05173535

action_model._continuous_distribution.mu.weight f4 [5, 128]
0	0xbca067b1	-0.019580694
1	0xbcde01cd	-0.027100468
2	0x3d046c5b	0.0323299
3	0xbca4f203	-0.020134931
4	0xb9e93734	-0.00044482353
5	0xbbb68e4b	-0.005571162
6	0xbc7bd5d5	-0.015370806
7	0x3d0db3ca	0.03459529
8	0x3c3cbdfa	0.011519903
9	0xbc814818	-0.015781447
10	0x3d04f21a	0.03245745
11	0xbd74be08	-0.05975154
12	0xbd28d57c	-0.04121922
13	0x3d0ea754	0.034827545
14	0x3cba5aef	0.022748439
15	0x3c9ad854	0.018901981
16	0xbc7f5f03	-0.015586617
17	0xbd8c3d0a	-0.0684758
18	0xbd1a2ffa	-0.03764341
19	0x3c72422c	0.014786284
20	0x3cef31fd	0.029198641
21	0x3d1c036e	0.03808921
22	0xbd058f2d	-0.032607246
23	0x3c86e900	0.016468525
24	0x3c36375e	0.011121599
25	0xbc01a268	-0.007912256
26	0x3bea1e09	0.0071446938
27	0x3c503291	0.0127073685
28	0x3c9ff39f	0.019525347
29	0xbc013013	-0.007884997
30	0x3a930de9	0.0011219356
31	0xb97026d6	-0.00022902651
32	0xbce9c52f	-0.028536407
33	0xbc70086a	-0.014650444
34	0x3c4e1672	0.012578594
35	0x3a21699f	0.00061574014
36	0xba7ede8f	-0.0009722495
37	0xbcb4b758	-0.022060081
38	0xbd75807f	-0.059936997
39	0xbbd0b049	-0.006368671
40	0x3cdd77bc	0.027034633
41	0x3db27724	0.087141305
42	0x3d09a869	0.033607874
43	0x3d393603	0.045217525
44	0xbb0c183c	-0.002137675
45	0x3c361a46	0.0111146625
46	0x3c641c34	0.01392274
47	0x3c0fe63d	0.00878292
48	0x3c3a9ddb	0.011390175
49	0xbc9fada6	-0.019491982
50	0x3b9b376e	0.0047368323
51	0xbaeeb87d	-0.0018212941
52	0xbd332623	-0.043737542
53	0x3cab5205	0.020913133
54	0x3cbbcad0	0.022923857
55	0x3cc0612d	0.023483837
56	0x3c5fb9db	0.013655151
57	0xbcc00f68	-0.023444846
58	0x3c86d2da	0.016457964
59	0xbc926587	-0.017870678
60	0x3d0446c3	0.032294046
61	0xbd52fb47	-0.051509168
62	0x3d1e1f13	0.038603853
63	0xbd049f07	-0.032378223
64	0x3d4649b8	0.048410147
65	0xbd784a51	-0.06061775
66	0x39d7a273	0.0004112903
67	0xbc865d8b	-0.016402027
68	0x3b8c468c	0.004280871
69	0xbd0883b0	-0.033328712
70	0x3cfdde1b	0.030989697
71	0xbcd6a44c	-0.02620139
72	0xbd22668b	-0.039648574
73	0xbce754e4	-0.028238721
74	0x3bf7afff	0.007558822
75	0xbd523dd8	-0.05132851
76	0x3b1d0656	0.0023960075
77	0xbd297831	-0.04137439
78	0x3d724ec4	0.059157148
79	0xbdc5dfb2	-0.09661807
80	0x3c7bbab2	0.015364336
81	0xbc5ccfa5	-0.013477241
82	0x3c4f8d46	0.01266796
83	0xbd1a92e5	-0.037737746
84	0xbb09a0a7	-0.0021000297
85	0x3c216e73	0.009852993
86	0xbd60da7d	-0.054895867
87	0x3ba03761	0.004889414
88	0x3afaea44	0.0019143303
89	0xbc33a072	-0.010963546
90	0x3cec1dc2	0.028822783
91	0x3cd9d95f	0.026592908
92	0x3bdda454	0.006763974
93	0x3d13e3bf	0.036105867
94	0xbbcfea23	-0.00634505
95	0xbd21521c	-0.039384946
96	0x3c3df257	0.011593423
97	0x3c3d8fe2	0.011569949
98	0x3c377ec0	0.011199653
99	0x3c272dd8	0.010203801
100	0xbc261b04	-0.010138277
101	0x3d5fe02d	0.05465715
102	0x3d81579a	0.06315537
103	0x3cf66842	0.03007901
104	0xbd773f79	-0.060363267
105	0xbb80a882	-0.0039263377
106	0xbb9cb417	-0.0047822106
107	0x3ba30ab3	0.0049756407
108	0xbc584270	-0.013199434
109	0xbd4d17ea	-0.050071634
110	0x3cb5e901	0.022205831
111	0xbc9932e4	-0.018701024
112	0xbc9bb563	-0.01900739
113	0xbd080a6a	-0.033213057
114	0xbc978308	-0.018495098
115	0xbd2cf19b	-0.0422226
116	0xbb2e24d5	-0.0026572247
117	0xbc16d83b	-0.009206827
118	0xbc7cbceb	-0.015425901
119	0xbc13c62f	-0.009019419
120	0x3d091f10	0.03347689
121	0xbd4bbbeb	-0.04973976
122	0x3adfb8e4	0.0017068652
123	0xbc5346be	-0.012895284
124	0x3d1203f0	0.035648286
125	0x3ca3e24a	0.020005364
126	0x3d8aef92	0.06783976
127	0x3c7ee286	0.015556937
128	0xbd4b8470	-0.04968685
129	0xbd2c87f7	-0.042121854
130	0x3d2c13fa	0.04201124
131	0xbd77d45a	-0.06050525
132	0xbc03b26c	-0.008038145
133	0xbab5103a	-0.001381404
134	0x3d703c04	0.058650985
135	0xbd37b6ea	-0.044852175
136	0xb97db3dc	-0.00024194963
137	0xbc85668c	-0.01628425
138	0xbd7855a4	-0.06062855
139	0x3c829e1b	0.015944531
140	0xbc8d16c0	-0.017222762
141	0xbd011413	-0.031513285
142	0x3d75971c	0.059958562
143	0xbd81341b	-0.063087665
144	0xbc78abb9	-0.015177661
145	0x3d81ff80	0.06347561
146	0x3c6237a7	0.013807214
147	0xbd856ef2	-0.06515302
148	0x3d38a05a	0.0450748
149	0x3d6ea171	0.05825943
150	0xbd84b5b1	-0.064799674
151	0x3d14ff65	0.036376376
152	0x3b574776	0.003284899
153	0x3d2d48ea	0.042305864
154	0x3d8f270e	0.06989871
155	0xbdb740bc	-0.08947894
156	0xbd555978	-0.052087277
157	0xbdab8916	-0.083757564
158	0xbaf7ab78	-0.0018895706
159	0x3cbff463	0.023431962
160	0xbd813de3	-0.06310632
161	0x3c81fa0c	0.015866302
162	0xbd83aaec	-0.06429085
163	0xbc46d9de	-0.0121369045
164	0x3da1d974	0.07902804
165	0x3cdd7daf	0.02703747
166	0xbd628b18	-0.05530843
167	0xbd73405e	-0.059387557
168	0x3d9123f3	0.07086935
169	0x3b69d907	0.0035682337
170	0x3d46b1c4	0.048509374
171	0xbd0a0f29	-0.033705864
172	0xbcbf70d2	-0.023369227
173	0x3c325fbd	0.010887084
174	0xbd8738a9	-0.06602604
175	0x3d55f4d9	0.052235458
176	0x3c215d31	0.009848879
177	0x3cc2f1a2	0.02379686
178	0x3d3aa0d3	0.04556353
179	0xbd88cae8	-0.06679326
180	0xbc6f18f8	-0.014593355
181	0xbc4a09bc	-0.012331422
182	0xbd1a11c0	-0.037614584
183	0x39f36c2d	0.0004642917
184	0xbd787689	-0.06065992
185	0x3d8bc426	0.06824522
186	0x3ba37a9c	0.0049889814
187	0x3d5033e5	0.05083074
188	0xbd9ad82b	-0.07560762
189	0x3d36ba6a	0.044611372
190	0xbd9a2f8e	-0.075286016
191	0xbcd4d024	-0.025978155
192	0xbc85dea7	-0.01634152
193	0x3c9ab1de	0.018883642
194	0x3cb3f0f0	0.021965474
195	0xbc3742b8	-0.011185341
196	0x3d95fe8e	0.07323943
197	0xbc1b469e	-0.009477286
198	0x3dbdac89	0.09261424
199	0x3d098eaa	0.03358332
200	0x3d4f87d9	0.050666664
201	0x3d5dabb8	0.054118842
202	0x3d4dcad2	0.050242253
203	0x3c85f9cb	0.016354462
204	0xbd5b7b3b	-0.05358432
205	0x3ca5c1eb	0.020234069
206	0x3b9046e3	0.0044029816
207	0x3bd4c01c	0.006492628
208	0xbd877b14	-0.06615272
209	0x3d7ceef8	0.061751336
210	0xbd08f2ed	-0.033434797
211	0xbd885e44	-0.06658605
212	0x3d8620c6	0.0654922
213	0xbd10154b	-0.035176557
214	0xbd4f858f	-0.05066448
215	0xbd0850c7	-0.03328016
216	0x3d35914d	0.044328023
217	0xbd021e2d	-0.03176706
218	0x3c40f890	0.011778012
219	0x3d26780b	0.040641826
220	0xbd19c8c0	-0.037544966
221	0xbd97a083	-0.07403662
222	0x3cdd82f9	0.027039992
223	0x3b9d376e	0.0047978675
224	0x3c81ed9a	0.015860368
225	0x3c8748bb	0.016514173
226	0x3bb46b9f	0.0055059935
227	0x3cbf8f03	0.023383623
228	0x3d012ada	0.031535007
229	0x3cd074c2	0.0254463
230	0x3d7fcf39	0.062453482
231	0xbd18e7f0	-0.037330568
232	0x3ccba8ea	0.024860818
233	0x3daf536e	0.08560835
234	0xbd60d26b	-0.05488817
235	0x3c8149ed	0.01578232
236	0xbd1bd48f	-0.03804451
237	0xbd857683	-0.06516745
238	0x3d1fd845	0.03902461
239	0xbd2b5d1e	-0.04183685
240	0x3d96fd3f	0.073725216
241	0x3d814795	0.06312481
242	0x3db2e962	0.087359205
243	0x3d0e5476	0.034748517
244	0xbd86a42b	-0.06574281
245	0x3d299a1d	0.04140674
246	0xbbafbf57	-0.0053633857
247	0x3c610140	0.013733208
248	0xba6cfec8	-0.0009040651
249	0x3d8bf7bf	0.06834363
250	0xbd25880e	-0.040412955
251	0xbd84a43a	-0.06476636
252	0xbd68f012	-0.056869574
253	0x3d4459a6	0.047937058
254	0xbc2ee0ed	-0.010673744
255	0x3d1dce08	0.038526565

action_model._continuous_distribution.mu.bias f4 [5]
0	0x3b68bcc8	0.0035512913
1	0xbd0508c9	-0.03247908
2	0xba8f5334	-0.0010934831
3	0xbc15ddae	-0.009147091
4	0x3c1af6aa	0.009458223

exp_avg f4 [128, 47]
0	0x373bbd21	1.1190104e-05
1	0x36710a6f	3.5917872e-06
2	0x00000000	0.0
3	0x33b49dc5	8.410601e-08
4	0x3588231e	1.014301e-06
5	0x37648ac1	1.3622165e-05
6	0x00000000	0.0
7	0x367d1554	3.7712352e-06
8	0x365cc631	3.2897917e-06
9	0x373e5d98	1.1346674e-05
10	0x00000000	0.0
11	0x365d03b3	3.293372e-06
12	0x37864d1c	1.6009952e-05
13	0xb5b8586f	-1.3734806e-06
14	0x00000000	0.0
15	0x353fab51	7.1402343e-07
16	0x35f34546	1.8125072e-06
17	0x3757267d	1.282396e-05
18	0x00000000	0.0
19	0x3675dbf1	3.6635868e-06
20	0x3796a939	1.7960194e-05
21	0xb65f0d0f	-3.323719e-06
22	0x00000000	0.0
23	0xb41796a7	-1.4117778e-07
24	0x360a2d52	2.0589982e-06
25	0x375303d5	1.2577472e-05
26	0x00000000	0.0
27	0x3647bd8e	2.9763646e-06
28	0x37bbae31	2.2373251e-05
29	0xb701cd37	-7.7367795e-06
30	0x00000000	0.0
31	0xb62d0a3e	-2.578497e-06
32	0x35b857c0	1.3734607e-06
33	0x375e83e7	1.3262942e-05
34	0x00000000	0.0
35	0x369ce31c	4.6756013e-06
36	0x35fe1d50	1.8933006e-06
37	0x36e6b5d9	6.875704e-06
38	0x369fd099	4.762853e-06
39	0xb61009ba	-2.1463334e-06
40	0xb7546107	-1.2658776e-05
41	0x36f761f4	7.372577e-06
42	0xb6785ffd	-3.7010752e-06
43	0x36d865cc	6.4491524e-06
44	0xb7091b85	-8.172244e-06
45	0x3593b2bb	1.1004371e-06
46	0x36c93d0a	5.9973727e-06
47	0x37d7ed79	2.5740579e-05
48	0xb6e60f58	-6.8563204e-06
49	0x00000000	0.0
50	0x35dc5160	1.641496e-06
51	0x374c4e35	1.21775565e-05
52	0x36db594d	6.5371046e-06
53	0x00000000	0.0
54	0x3687864f	4.038949e-06
55	0x368e5dd1	4.2428514e-06
56	0x3772cbef	1.4471806e-05
57	0x00000000	0.0
58	0xb6f48a7c	-7.2878884e-06
59	0xb688a251	-4.072012e-06
60	0x37bf25f8	2.2786655e-05
61	0x00000000	0.0
62	0x3775c11e	1.4648102e-05
63	0xb7acb0dd	-2.0586356e-05
64	0x3824d723	3.930101e-05
65	0x00000000	0.0
66	0xb6a973a6	-5.0500557e-06
67	0x36a90779	5.0374624e-06
68	0x37657726	1.3677205e-05
69	0x00000000	0.0
70	0x37a6c116	1.9878655e-05
71	0x335c940e	5.1357397e-08
72	0x379c8f23	1.8663302e-05
73	0x00000000	0.0
74	0xb65eb9f9	-3.3188828e-06
75	0x37a7b0fa	1.9990362e-05
76	0xb5ab38d9	-1.2757038e-06
77	0x00000000	0.0
78	0x37b87813	2.1990423e-05
79	0x382f4bb0	4.179374e-05
80	0xb7c199dd	-2.3079041e-05
81	0x00000000	0.0
82	0xb6021712	-1.9384938e-06
83	0x388ff37d	6.8641246e-05
84	0x34cd7e13	3.8275957e-07
85	0x36537d78	3.1514483e-06
86	0xb8af195c	-8.349374e-05
87	0x373729ce	1.0917383e-05
88	0x37093d5d	8.180124e-06
89	0x36ab066e	5.0969456e-06
90	0xb6fbb456	-7.501377e-06
91	0xb6fa1c48	-7.453873e-06
92	0x362f3c8b	2.6112273e-06
93	0xb7650690	-1.3650992e-05
94	0xb7a415a7	-1.9560406e-05
95	0xb6b333e3	-5.340656e-06
96	0x00000000	0.0
97	0x3537845a	6.836541e-07
98	0xb66430d5	-3.4003072e-06
99	0xb7b45d42	-2.1501099e-05
100	0x00000000	0.0
101	0xb6d1fe6a	-6.258303e-06
102	0xb62dc201	-2.5891934e-06
103	0xb7bb2b1f	-2.2312217e-05
104	0x00000000	0.0
105	0xb7949a47	-1.7714816e-05
106	0xb7b14508	-2.113219e-05
107	0xb67cf27d	-3.7692073e-06
108	0x00000000	0.0
109	0x36b98d80	5.5299024e-06
110	0xb773c646	-1.4530093e-05
111	0xb72e0078	-1.0371317e-05
112	0x00000000	0.0
113	0xb7bb18fb	-2.230377e-05
114	0xb733872c	-1.0700704e-05
115	0xb76e3fa4	-1.4200723e-05
116	0x00000000	0.0
117	0x37932397	1.7540338e-05
118	0xb85d9f31	-5.2838765e-05
119	0x37ea5b01	2.793735e-05
120	0x00000000	0.0
121	0xb7948f71	-1.770977e-05
122	0x37007593	7.656769e-06
123	0xb8088f14	-3.255818e-05
124	0x00000000	0.0
125	0x37e236c7	2.6966807e-05
126	0xb708ffa8	-8.165756e-06
127	0xb78c636b	-1.6735596e-05
128	0x00000000	0.0
129	0x35ad1e7d	1.2898378e-06
130	0x380f7b57	3.4208726e-05
131	0xb7287189	-1.0040015e-05
132	0xb6b591c8	-5.4111915e-06
133	0xb8217c6f	-3.850128e-05
134	0x36675af2	3.447462e-06
135	0xb7753c61	-1.4617196e-05
136	0xb6fd2ba7	-7.5450694e-06
137	0xb79e4398	-1.8866544e-05
138	0x37835702	1.5656933e-05
139	0xb27d3f33	-1.4740908e-08
140	0xb7c9d5df	-2.4060659e-05
141	0xb824e72f	-3.9315953e-05
142	0x3652a0d4	3.1386053e-06
143	0x00000000	0.0
144	0xb6294888	-2.5225181e-06
145	0xb75b721d	-1.3079986e-05
146	0xb7c306fb	-2.3249062e-05
147	0x00000000	0.0
148	0xb715afba	-8.922007e-06
149	0x372cb75c	1.0294691e-05
150	0xb8438ddb	-4.6623736e-05
151	0x00000000	0.0
152	0xb7cf0e4d	-2.4682982e-05
153	0xb8807645	-6.125545e-05
154	0x37d1190c	2.4926405e-05
155	0x00000000	0.0
156	0x36c85bca	5.97115e-06
157	0xb7a2229d	-1.9328023e-05
158	0xb78e9d72	-1.7001035e-05
159	0x00000000	0.0
160	0xb79b0da3	-1.848379e-05
161	0xb8231bc7	-3.8888098e-05
162	0x362bbc5a	2.559062e-06
163	0x00000000	0.0
164	0x362150e4	2.4037954e-06
165	0x36c8a8ea	5.9801287e-06
166	0xb8317526	-4.230919e-05
167	0x00000000	0.0
168	0xb79e1e41	-1.8849156e-05
169	0xb7cc8973	-2.43827e-05
170	0xb7486d2a	-1.1946346e-05
171	0x00000000	0.0
172	0xb70c2c06	-8.3549e-06
173	0x3784c487	1.5827141e-05
174	0xb85ac247	-5.2156185e-05
175	0x00000000	0.0
176	0xb715de38	-8.932831e-06
177	0x389b3407	7.400667e-05
178	0xb79045de	-1.7198672e-05
179	0xb75ed57f	-1.328194e-05
180	0xb8bbb910	-8.9513254e-05
181	0xb70edd5b	-8.515398e-06
182	0xb88301b9	-6.246888e-05
183	0x36b52b6f	5.3992767e-06
184	0x3846a53a	4.7360758e-05
185	0x37ce333b	2.458097e-05
186	0x362bc3a8	2.5594873e-06
187	0x371d55b5	9.377884e-06
188	0x376ba3b2	1.4045205e-05
189	0xb755df73	-1.2747815e-05
190	0x00000000	0.0
191	0x363d1586	2.8175723e-06
192	0x35e46830	1.7017646e-06
193	0xb478559e	-2.3127947e-07
194	0x00000000	0.0
195	0x354a92f3	7.5464703e-07
196	0xb7afed5a	-2.0972151e-05
197	0x37bc432b	2.2442624e-05
198	0x00000000	0.0
199	0x365e3c59	3.3115705e-06
200	0xb7064f15	-8.005435e-06
201	0x371efad0	9.475931e-06
202	0x00000000	0.0
203	0x373211e3	1.0613791e-05
204	0xb7545c50	-1.2657678e-05
205	0x376d07e5	1.4128139e-05
206	0x00000000	0.0
207	0xb70250e7	-7.76744e-06
208	0xb87dcf0f	-6.051274e-05
209	0x3881fcfd	6.198322e-05
210	0x00000000	0.0
211	0x382c3bc4	4.1063657e-05
212	0xb86b365b	-5.607899e-05
213	0x3871613e	5.754944e-05
214	0x00000000	0.0
215	0xb6a6a07f	-4.9658697e-06
216	0xb69a23d7	-4.59373e-06
217	0x36cb7b47	6.064223e-06
218	0x00000000	0.0
219	0x385a49f6	5.204413e-05
220	0xb5ad015a	-1.2889898e-06
221	0x36393340	2.759698e-06
222	0x00000000	0.0
223	0x3712e69c	8.755971e-06
224	0xb7351766	-1.0793889e-05
225	0x37b17def	2.1158687e-05
226	0x37c26b27	2.3176499e-05
227	0x3793b346	1.7607246e-05
228	0x3887dfa1	6.478956e-05
229	0x385fa275	5.3318643e-05
230	0x37b0340b	2.100507e-05
231	0xb8f2b2f4	-0.00011572792
232	0xb796057d	-1.788395e-05
233	0xb68557d5	-3.973934e-06
234	0xb82b8a19	-4.089819e-05
235	0xb7842705	-1.5753796e-05
236	0x36906b95	4.3040586e-06
237	0x00000000	0.0
238	0xb43d987d	-1.7657472e-07
239	0x36586879	3.224732e-06
240	0xb77689dc	-1.46948405e-05
241	0x00000000	0.0
242	0xb65a9df8	-3.2576481e-06
243	0xb639fded	-2.7714952e-06
244	0xb711f03c	-8.698607e-06
245	0x00000000	0.0
246	0x35185acc	5.675654e-07
247	0x37efb75b	2.8576402e-05
248	0xb827f79c	-4.0046507e-05
249	0x00000000	0.0
250	0xb723dd0d	-9.7670245e-06
251	0x36b8c547	5.5065934e-06
252	0xb78e692d	-1.6976695e-05
253	0x00000000	0.0
254	0x360e2b7b	2.1184958e-06
255	0x37e272ea	2.699481e-05

exp_avg_sq f4 [128, 47]
0	0x31b0eff0	5.149552e-09
1	0x2e41a923	4.4033343e-11
2	0x00000000	0.0
3	0x2cfdfb08	7.2185626e-12
4	0x31020ffd	1.8926578e-09
5	0x3177e08d	3.6070873e-09
6	0x00000000	0.0
7	0x2fa1e23c	2.9446479e-10
8	0x30b6b55f	1.3293792e-09
9	0x318e2c85	4.137805e-09
10	0x00000000	0.0
11	0x2fc93389	3.6598305e-10
12	0x312bdc72	2.5009084e-09
13	0x3147b172	2.9059177e-09
14	0x00000000	0.0
15	0x2f9250d3	2.6614674e-10
16	0x30ce8ca6	1.5028447e-09
17	0x3187ad93	3.94875e-09
18	0x00000000	0.0
19	0x300b3832	5.0647764e-10
20	0x31780b60	3.6095216e-09
21	0x30e88a9b	1.6919616e-09
22	0x00000000	0.0
23	0x2f86aec4	2.4498636e-10
24	0x30fc6b97	1.8365992e-09
25	0x317ed539	3.7083068e-09
26	0x00000000	0.0
27	0x3049f487	7.347087e-10
28	0x318396be	3.829739e-09
29	0x30d168e7	1.5236566e-09
30	0x00000000	0.0
31	0x2fcdb9dc	3.7421344e-10
32	0x316d3022	3.45154e-09
33	0x30fdec9e	1.8475423e-09
34	0x00000000	0.0
35	0x2feeeba2	4.3459375e-10
36	0x306de90d	8.6551283e-10
37	0x31044545	1.9247903e-09
38	0x30b4db67	1.3159082e-09
39	0x30af0f7b	1.2737326e-09
40	0x309bd26a	1.1337538e-09
41	0x3139353f	2.695131e-09
42	0x30cc79ea	1.4877604e-09
43	0x310dae1f	2.0617177e-09
44	0x31444598	2.8561313e-09
45	0x2d237849	9.292186e-12
46	0x2f63c87e	2.0716759e-10
47	0x339a674d	7.189974e-08
48	0x31881a25	3.9610932e-09
49	0x00000000	0.0
50	0x2eb9c35d	8.4475295e-11
51	0x32464200	1.15401235e-08
52	0x338c7d0f	6.542006e-08
53	0x00000000	0.0
54	0x31b0b53e	5.142879e-09
55	0x3290cd7c	1.685725e-08
56	0x33800379	5.961096e-08
57	0x00000000	0.0
58	0x31a41e3a	4.7764646e-09
59	0x32351718	1.05408375e-08
60	0x338bf03f	6.5163924e-08
61	0x00000000	0.0
62	0x31c1e51f	5.6430873e-09
63	0x32b1c5b5	2.0695419e-08
64	0x33668149	5.3668632e-08
65	0x00000000	0.0
66	0x31bec135	5.551693e-09
67	0x321d7c84	9.166914e-09
68	0x3390afc0	6.737491e-08
69	0x00000000	0.0
70	0x320b9c3c	8.1263885e-09
71	0x3287a789	1.5792255e-08
72	0x3372ab73	5.6500948e-08
73	0x00000000	0.0
74	0x322c6421	1.0034484e-08
75	0x3281ed7c	1.5125572e-08
76	0x3383efd9	6.143791e-08
77	0x00000000	0.0
78	0x32529bc1	1.2259023e-08
79	0x330dcb3b	3.3013958e-08
80	0x333ca5d1	4.392297e-08
81	0x00000000	0.0
82	0x31da7f8d	6.359136e-09
83	0x328837d1	1.5857866e-08
84	0x32ad7f89	2.0197847e-08
85	0x326c8f83	1.3769639e-08
86	0x32c7bb7b	2.3251905e-08
87	0x32bd86de	2.2063826e-08
88	0x3313a1ef	3.4373382e-08
89	0x32a4398f	1.9118287e-08
90	0x32e12e51	2.621451e-08
91	0x333c39c6	4.3824706e-08
92	0x2f463cb5	1.8029563e-10
93	0x3129040c	2.4595037e-09
94	0x339c653c	7.2827305e-08
95	0x32004299	7.465723e-09
96	0x00000000	0.0
97	0x2ec6f0d8	9.04678e-11
98	0x3205e200	7.793005e-09
99	0x339d3ecc	7.322305e-08
100	0x00000000	0.0
101	0x31c069d5	5.599967e-09
102	0x328ae0bd	1.6167514e-08
103	0x3389f0db	6.423371e-08
104	0x00000000	0.0
105	0x31ae183a	5.0668207e-09
106	0x31fc8271	7.3489947e-09
107	0x3399abac	7.1558446e-08
108	0x00000000	0.0
109	0x31d0f82c	6.0818106e-09
110	0x32ac2967	2.0042263e-08
111	0x33799e20	5.8118644e-08
112	0x00000000	0.0
113	0x31d320f6	6.1446555e-09
114	0x32444278	1.1423815e-08
115	0x339181cf	6.775701e-08
116	0x00000000	0.0
117	0x32088922	7.947422e-09
118	0x32c98dcd	2.3463963e-08
119	0x336c8a39	5.5073745e-08
120	0x00000000	0.0
121	0x321d34d9	9.150619e-09
122	0x328f978a	1.6716303e-08
123	0x33886b79	6.352543e-08
124	0x00000000	0.0
125	0x324cc593	1.1919286e-08
126	0x33027bbc	3.038052e-08
127	0x3367eb4e	5.3997887e-08
128	0x00000000	0.0
129	0x3227a7fe	9.758876e-09
130	0x329c2450	1.8177303e-08
131	0x32b1d91b	2.070424e-08
132	0x32734178	1.41593475e-08
133	0x32e56336	2.6704225e-08
134	0x32a6f8ce	1.9438087e-08
135	0x3332fb5a	4.1672457e-08
136	0x32948234	1.7288677e-08
137	0x3303a6ec	3.065263e-08
138	0x334b7721	4.7372968e-08
139	0x2f22c33d	1.4803177e-10
140	0x31490575	2.9252452e-09
141	0x3391e4d7	6.7937144e-08
142	0x31c5f7f6	5.7616445e-09
143	0x00000000	0.0
144	0x2eb78098	8.3447194e-11
145	0x31763f2d	3.5833623e-09
146	0x339a782a	7.1930415e-08
147	0x00000000	0.0
148	0x31bd37af	5.5069544e-09
149	0x3174fdcc	3.565094e-09
150	0x339a5dbf	7.188236e-08
151	0x00000000	0.0
152	0x31c6070e	5.7633605e-09
153	0x31c33044	5.680734e-09
154	0x339307f4	6.8466676e-08
155	0x00000000	0.0
156	0x31c51c12	5.736646e-09
157	0x3224d31e	9.594059e-09
158	0x33890cc8	6.3818845e-08
159	0x00000000	0.0
160	0x31ea732c	6.82339e-09
161	0x322ec1bd	1.0172184e-08
162	0x33906093	6.723089e-08
163	0x00000000	0.0
164	0x32043a6d	7.696696e-09
165	0x323b62a5	1.0907262e-08
166	0x3385af40	6.225173e-08
167	0x00000000	0.0
168	0x323652fe	1.06126645e-08
169	0x329cd773	1.8258765e-08
170	0x33702eb3	5.5921827e-08
171	0x00000000	0.0
172	0x3235d18c	1.0583232e-08
173	0x32ee2f23	2.7728282e-08
174	0x334a601d	4.7119205e-08
175	0x00000000	0.0
176	0x320d1c27	8.213681e-09
177	0x32846366	1.5412024e-08
178	0x32b9001f	2.153689e-08
179	0x327a7f31	1.4580835e-08
180	0x32c54eb9	2.2969617e-08
181	0x32b3365e	2.0863066e-08
182	0x330f7668	3.3402472e-08
183	0x32abd42f	2.000351e-08
184	0x32e1822c	2.6252643e-08
185	0x33361558	4.239459e-08
186	0x2f550e17	1.9377243e-10
187	0x310daab4	2.0615234e-09
188	0x3481843a	2.412433e-07
189	0x323a8eb8	1.0859075e-08
190	0x00000000	0.0
191	0x2f97a332	2.7582697e-10
192	0x33326418	4.153489e-08
193	0x3465c06f	2.1397294e-07
194	0x00000000	0.0
195	0x3291448c	1.6911393e-08
196	0x33466196	4.618922e-08
197	0x3461cebe	2.102997e-07
198	0x00000000	0.0
199	0x3297b50d	1.7661046e-08
200	0x3325681b	3.851174e-08
201	0x345f29e9	2.078374e-07
202	0x00000000	0.0
203	0x329da5ca	1.8352598e-08
204	0x338125cc	6.013906e-08
205	0x344bd259	1.8982372e-07
206	0x00000000	0.0
207	0x32bf817b	2.2294207e-08
208	0x33691737	5.4270654e-08
209	0x34552745	1.9851457e-07
210	0x00000000	0.0
211	0x32cbd046	2.3727022e-08
212	0x33c5d5c8	9.212414e-08
213	0x342d5a72	1.6144784e-07
214	0x00000000	0.0
215	0x32fe41b7	2.9599375e-08
216	0x334ee97e	4.8175473e-08
217	0x345a024d	2.0303669e-07
218	0x00000000	0.0
219	0x3326d41d	3.8842803e-08
220	0x33d08f18	9.7117834e-08
221	0x3432e84c	1.6662051e-07
222	0x00000000	0.0
223	0x32fef515	2.9680942e-08
224	0x3357752c	5.0165156e-08
225	0x33a39145	7.6167034e-08
226	0x335f2b4a	5.1960605e-08
227	0x339f05b5	7.4050526e-08
228	0x338ef250	6.656467e-08
229	0x33f70b24	1.150386e-07
230	0x338df91e	6.611138e-08
231	0x33ae10bc	8.1055504e-08
232	0x341b6f40	1.4475972e-07
233	0x30325e0d	6.4889677e-10
234	0x3230aed5	1.02843005e-08
235	0x32aa98cb	1.9860087e-08
236	0x30f6aca1	1.794792e-09
237	0x00000000	0.0
238	0x2dc8df32	2.2836486e-11
239	0x307a8750	9.114176e-10
240	0x32b0b09d	2.0569411e-08
241	0x00000000	0.0
242	0x30de16c9	1.6159102e-09
243	0x311a0329	2.2411746e-09
244	0x32a9b634	1.9757046e-08
245	0x00000000	0.0
246	0x30d8f463	1.5785527e-09
247	0x30ade06a	1.2651189e-09
248	0x32aae6f2	1.9895626e-08
249	0x00000000	0.0
250	0x30ece62e	1.7236681e-09
251	0x310fd22b	2.0928705e-09
252	0x32aad10a	1.9885665e-08
253	0x00000000	0.0
254	0x310bf736	2.0367685e-09
255	0x31706316	3.498092e-09

exp_avg f4 [128]
0	0x37758f2f	1.46364755e-05
1	0x379cfd6b	1.8714656e-05
2	0xb7d0e35d	-2.4901407e-05
3	0xb8186003	-3.6329042e-05
4	0x35c55bbf	1.4704345e-06
5	0xb7406fb1	-1.1470097e-05
6	0xb72a9551	-1.0167555e-05
7	0x37c33714	2.327146e-05
8	0xb871dc95	-5.766431e-05
9	0x39097192	0.00013107646
10	0xb7b87b24	-2.1991851e-05
11	0x369d000c	4.67897e-06
12	0x378d4e65	1.6845015e-05
13	0x38ee64e0	0.00011367514
14	0x34b5b688	3.3846686e-07
15	0xb83a7d27	-4.4462413e-05
16	0xb84bc3ac	-4.8581205e-05
17	0xb7c11c2f	-2.3020517e-05
18	0xb68b9406	-4.159755e-06
19	0xb6b9c2df	-5.5361156e-06
20	0xb7154a08	-8.898329e-06
21	0xb52cc0d4	-6.4355595e-07
22	0xb730d5e7	-1.05402205e-05
23	0xb89683cb	-7.177106e-05
24	0xb94934be	-0.00019188502
25	0xb7c81b0b	-2.385445e-05
26	0xb6a16237	-4.8096076e-06
27	0x359e77d4	1.1806792e-06
28	0x39251b66	0.00015745833
29	0xb8340490	-4.2919593e-05
30	0xb783240a	-1.5633199e-05
31	0xb8901086	-6.869533e-05
32	0x388736a6	6.447481e-05
33	0x3845ab4a	4.7127985e-05
34	0x37eba2fe	2.8090082e-05
35	0x37861143	1.5982083e-05
36	0x379a01f6	1.8359144e-05
37	0xb8e34931	-0.000108378365
38	0x378873ea	1.626644e-05
39	0x38af5c0e	8.361797e-05
40	0x37c4e653	2.3472274e-05
41	0x383dc42a	4.5243803e-05
42	0x36f587fe	7.3174006e-06
43	0x38148aa3	3.5415065e-05
44	0x3851e71d	5.0044724e-05
45	0xb88d867c	-6.7484536e-05
46	0x38d1f6e7	0.00010011886
47	0x35d7447e	1.6038682e-06
48	0x364779ee	2.9724283e-06
49	0xb78daa14	-1.6887709e-05
50	0xb83f4e89	-4.561109e-05
51	0xb7ae4d86	-2.0778516e-05
52	0x387bf260	6.0068793e-05
53	0x37b8f9e8	2.2050881e-05
54	0xb8fea036	-0.000121415054
55	0x3902bbd5	0.00012467739
56	0xb808d86f	-3.2626496e-05
57	0xb7e12af3	-2.684209e-05
58	0x37c2aec9	2.3207993e-05
59	0x380e2841	3.3892928e-05
60	0xb7221601	-9.661076e-06
61	0xb88319a5	-6.2513434e-05
62	0xb6018d93	-1.9304905e-06
63	0x397b0258	0.00023938098
64	0x3907a8cb	0.00012937484
65	0xb8edcc88	-0.000113391376
66	0xb8f1e69e	-0.00011534731
67	0x371f80bc	9.507112e-06
68	0x37e82362	2.7673032e-05
69	0x38d60822	0.0001020583
70	0x382ebee3	4.166261e-05
71	0x37d9c0c2	2.5958176e-05
72	0x389e5602	7.550047e-05
73	0x37840043	1.5735748e-05
74	0xb8741856	-5.8196798e-05
75	0xb704af71	-7.908661e-06
76	0xb907b451	-0.00012941776
77	0x3801c21f	3.0936786e-05
78	0x38b07b6a	8.415322e-05
79	0xb7081d5e	-8.113069e-06
80	0xb8c3363e	-9.308428e-05
81	0xb84f0e25	-4.936582e-05
82	0xb8020627	-3.1000145e-05
83	0xb8fa3176	-0.00011930142
84	0x3814cf84	3.5479214e-05
85	0xb8a41ee9	-7.825887e-05
86	0x38891d5f	6.53814e-05
87	0xb8732ede	-5.7979363e-05
88	0xb82ab4b6	-4.069946e-05
89	0xb84d6b31	-4.897564e-05
90	0xb899a844	-7.3269504e-05
91	0x383e195c	4.5323148e-05
92	0xb8849179	-6.321347e-05
93	0xb8e0c89c	-0.00010718519
94	0xb852e107	-5.0277475e-05
95	0x37eeea88	2.8481023e-05
96	0x381248aa	3.4876786e-05
97	0xb83dc420	-4.5243767e-05
98	0x38dc844d	0.000105150604
99	0x385c7c91	5.25681e-05
100	0xb7ff3c51	-3.0426456e-05
101	0x382788dd	3.9943367e-05
102	0xb8240dcb	-3.9113493e-05
103	0x36ae63fa	5.197243e-06
104	0x3954b112	0.0002028386
105	0x38c2ab8a	9.2825925e-05
106	0xb6d9b4f2	-6.4881688e-06
107	0xb7e9bedc	-2.786464e-05
108	0xb907ea09	-0.00012961788
109	0x381b0480	3.695907e-05
110	0x37028b4e	7.781038e-06
111	0xb9032d19	-0.00012509934
112	0xb7660a16	-1.3711417e-05
113	0xb6adbd0e	-5.1778106e-06
114	0x3616f593	2.2494685e-06
115	0x38a736f0	7.9734134e-05
116	0x38277682	3.992627e-05
117	0x38d0fe41	9.9655714e-05
118	0x35d55211	1.5893621e-06
119	0x38a1b472	7.710689e-05
120	0x391c68c1	0.00014916343
121	0xb8b7993b	-8.7546614e-05
122	0x38a93f64	8.0703554e-05
123	0x38ac7e9b	8.225181e-05
124	0x3813da86	3.5251047e-05
125	0x388c0bb4	6.6779e-05
126	0x387dab77	6.047959e-05
127	0x3883b85c	6.2809064e-05

exp_avg_sq f4 [128]
0	0x31b2a41b	5.1991385e-09
1	0x33a4f9ae	7.6822616e-08
2	0x33ac2786	8.0165634e-08
3	0x33a09a3b	7.478635e-08
4	0x3487a2d3	2.526418e-07
5	0x32ba657d	2.1699401e-08
6	0x336b7765	5.482379e-08
7	0x33be6da9	8.8675115e-08
8	0x34dbd546	4.0947106e-07
9	0x3383061b	6.1012734e-08
10	0x329b926b	1.8110958e-08
11	0x3294e0f6	1.7331768e-08
12	0x32bf6aa1	2.2283816e-08
13	0x3302e8e8	3.047981e-08
14	0x30f44fc0	1.7776003e-09
15	0x3487418c	2.51934e-07
16	0x328bbb25	1.6266833e-08
17	0x325a4686	1.2705305e-08
18	0x30c844f1	1.457151e-09
19	0x338596ae	6.2207036e-08
20	0x3164b189	3.3279284e-09
21	0x32ac01d3	2.0024265e-08
22	0x31ffbd53	7.4430004e-09
23	0x33ae8e41	8.128382e-08
24	0x342f94cf	1.6352281e-07
25	0x33441004	4.5649372e-08
26	0x34f65d29	4.5888854e-07
27	0x348ee548	2.6616385e-07
28	0x35a4e809	1.2286483e-06
29	0x330d7696	3.2936974e-08
30	0x334a4131	4.709108e-08
31	0x32e0d04d	2.6171756e-08
32	0x35120da4	5.440909e-07
33	0x3487c512	2.5289097e-07
34	0x339a2e8b	7.17965e-08
35	0x320c7d15	8.177513e-09
36	0x3239035a	1.0769179e-08
37	0x333f485f	4.4536474e-08
38	0x322627f6	9.671558e-09
39	0x34b4c5b9	3.3671475e-07
40	0x34932e9d	2.74148e-07
41	0x33f8cb2f	1.1585359e-07
42	0x341ae8a5	1.4427003e-07
43	0x33b05ab2	8.212136e-08
44	0x341579ff	1.3921088e-07
45	0x332a07f2	3.9588436e-08
46	0x3540462f	7.1627704e-07
47	0x31d1608c	6.0936767e-09
48	0x33e54c03	1.067747e-07
49	0x337c71a1	5.8776667e-08
50	0x3413a869	1.3751709e-07
51	0x33cdf794	9.5910906e-08
52	0x34634efd	2.1169758e-07
53	0x33369bdd	4.2516934e-08
54	0x3466b2bc	2.1485442e-07
55	0x3495b965	2.7888305e-07
56	0x338d3f96	6.5773904e-08
57	0x326ad093	1.3668017e-08
58	0x31b141d5	5.1588622e-09
59	0x328d7a13	1.6470073e-08
60	0x30b8a461	1.3434481e-09
61	0x3436b143	1.7014558e-07
62	0x3421ad99	1.5057448e-07
63	0x359cd641	1.1685262e-06
64	0x3533ff08	6.7053816e-07
65	0x33d7a67d	1.0042002e-07
66	0x33b626a8	8.482067e-08
67	0x341c54a2	1.4559421e-07
68	0x32890713	1.5952116e-08
69	0x339fdba0	7.443964e-08
70	0x34bfe4ec	3.5743085e-07
71	0x3432cabf	1.66513e-07
72	0x3318f73f	3.5615127e-08
73	0x33a385a3	7.6145874e-08
74	0x33930167	6.845476e-08
75	0x3308cfb5	3.1853876e-08
76	0x341b80b0	1.4482316e-07
77	0x33879268	6.3130585e-08
78	0x341090a3	1.3463664e-07
79	0x32b1a91a	2.068241e-08
80	0x339bfacc	7.2633696e-08
81	0x337e36d1	5.918884e-08
82	0x337eb181	5.9300422e-08
83	0x3291e558	1.6984515e-08
84	0x3473e726	2.271523e-07
85	0x3337bef9	4.2781696e-08
86	0x3487ed82	2.531852e-07
87	0x341e8061	1.47616e-07
88	0x335754e4	5.0135796e-08
89	0x34416050	1.8009564e-07
90	0x33b2970f	8.316248e-08
91	0x32a814b9	1.9567198e-08
92	0x32ab08b0	1.991097e-08
93	0x33fe1de8	1.18332366e-07
94	0x32eaa404	2.7315771e-08
95	0x334ef090	4.8181903e-08
96	0x33c2027d	9.0342816e-08
97	0x33c802a5	9.313707e-08
98	0x333f18d8	4.4493248e-08
99	0x34bab24c	3.4774928e-07
100	0x31fd7fdf	7.3778064e-09
101	0x31e94ac7	6.7896937e-09
102	0x33037ef7	3.0616288e-08
103	0x31a05704	4.6665054e-09
104	0x34933d0f	2.742531e-07
105	0x34c92c06	3.74712e-07
106	0x324a2f7e	1.1768746e-08
107	0x331660b9	3.5012565e-08
108	0x346d522a	2.2102236e-07
109	0x339eab68	7.388627e-08
110	0x33171071	3.517238e-08
111	0x33891662	6.383631e-08
112	0x31dc1af5	6.4059074e-09
113	0x3257f96d	1.257136e-08
114	0x31b274b6	5.1937503e-09
115	0x34ed1b68	4.416463e-07
116	0x33841e7c	6.152274e-08
117	0x34842642	2.4614752e-07
118	0x338d13f3	6.569453e-08
119	0x33a7845c	7.8006195e-08
120	0x34300beb	1.6395613e-07
121	0x34756b7a	2.2856503e-07
122	0x3351315b	4.8706493e-08
123	0x3564615a	8.5078284e-07
124	0x332008e9	3.7261007e-08
125	0x33115d8d	3.3845527e-08
126	0x329992b3	1.7878255e-08
127	0x33bd2967	8.8085294e-08
