config/results/AgrConserv_Refactored_2M_Almost-Final_v4/Hummingbird_Conservative/Hummingbird_Conservative-1499968.onnx (onnx, 97764 bytes, 7 tensors)

network_body._body_endoder.seq_layers.0.weight f4 [128, 47]
-0.0093609495 -0.07120885 -0.036799546 -0.21433498 0.004538055 -0.122858465 -0.074393556 0.11122559
0.08575786 -0.03379261 0.025626585 0.19236766 -0.1151312 0.038977847 0.085657224 -0.16842121
0.04203767 0.060069777 0.011669964 -0.13543677 0.020413866 -0.040399715 -0.009204679 -0.25110337
0.29428557 0.08474875 0.052970205 -0.010205813 0.112942345 -0.00931053 -0.21702558 0.056013353
-0.06519677 0.12264802 -0.15392196 -0.09447161 -0.07602614 0.0045941025 -0.0761551 0.0026460092
-0.32135892 -0.07114957 -0.07833071 -0.035017673 -0.22303101 -0.49374613 0.10919198 -0.40984127
-0.27888292 -0.12598862 -0.15307657 0.041966233 0.017824905 -0.21982157 0.05068149 -0.102316834
-0.013641941 -0.011157352 0.02618083 -0.11056426 -0.1267142 -0.10953496 0.102422364 -0.1907748
0.083644636 -0.21260162 -0.0472108 -0.20001729 0.07901373 -0.03129789 0.09738007 0.055408277
-0.21192326 -0.08110656 -0.17273654 -0.112694286 0.14894043 0.13375996 0.07924361 0.17509209
0.033622093 -0.15054838 -0.006944816 -0.0111821145 -0.17481679 -0.01166433 -0.062180825 0.31808987
-0.25427136 0.055913985 -0.24579394 0.010805376 -0.0072147013 0.20927909 0.080905356 0.24138168
0.06102955 0.025909426 0.030903235 -0.08150797 0.076808244 -0.07938205 -0.12782152 -0.06421957
-0.13444395 0.13809323 -0.061147455 0.015131117 -0.08654369 0.054359816 0.016025223 0.14808087
-0.03788679 0.1626985 -0.04235652 -0.27067944 0.1713412 0.014879248 -0.16014278 0.09645184
0.008333491 0.20252366 -0.104718745 -0.04987268 0.11567981 -0.13605984 0.04799133 0.011019587
0.17303227 0.1145869 0.06937434 0.10515073 0.1719455 -0.032780513 -0.058781497 0.17957102
0.22248773 -0.22521572 0.24632955 0.19663595 -0.13094677 0.062240165 -0.0794335 -0.105899885
-0.13576174 0.3077357 0.17779726 -0.24219687 -0.17569812 0.015786426 0.026504124 -0.17898493
-0.047621157 0.0132743055 0.19054924 0.12716308 0.13338701 -0.12160631 -0.03602646 -0.005572306
0.052268688 0.22217827 -0.1472017 -0.013618497 -0.18426576 -0.04980006 0.036131106 0.17727178
0.31525907 -0.08473212 -0.17652255 -0.13358049 0.12284462 0.123946734 0.11752556 0.16320421
-0.100446366 -0.12452584 0.16093107 -0.08084433 -0.0644855 -0.04896988 -0.069781534 -0.079981305
0.16073848 0.011179756 -0.05041026 -0.13449939 -0.13823894 -0.108464204 -0.051794466 0.35440284
-0.04957889 -0.36622056 0.027339512 -0.08519376 0.034728937 -0.13209398 0.047372926 -0.079110965
-0.034630615 0.023950333 -0.12724873 0.06504223 -0.049481243 -0.01825294 -0.041328542 -0.06540632
-0.13589741 -0.018827563 0.08686855 -0.115517884 0.004176372 0.2937929 -0.1723891 -0.17650372
-0.37132943 -0.031920746 0.1949074 0.028058097 -0.099735506 -0.008104467 0.030436203 -0.21380801
0.030620337 0.067702435 -0.08347215 -0.04115885 -0.30576393 -0.011739156 0.0768074 -0.17433715
0.17790437 0.035219688 0.15395656 -0.0462462 -0.04407282 0.051546913 0.10374858 0.25289634
0.14110643 0.3179675 -0.19344856 0.0038694374 -0.131557 -0.11738493 0.17818116 0.2697055
0.18623005 0.1699682 0.0005377594 0.20460917 -0.032793038 -0.024666563 0.059649955 0.033556256
00000000: ab5e 19bc f2d5 91bd 1fbb 16bd a17a 5bbe
00000010: f7b3 943b 389d fbbd a65b 98bd 3eca e33d
00000020: d1a1 af3d 1f6a 0abd d8ee d13c 07fc 443e
00000030: e8c9 ebbd 3ca7 1f3d 0e6d af3d 9c76 2cbe
00000040: b12f 2c3d ba0b 763d 6033 3f3c f0af 0abe
00000050: fb3a a73c 2c7a 25bd 39cf 16bc 9f90 80be
00000060: 99ac 963e c190 ad3d 49f7 583d 4836 27bc
00000070: 514e e73d 318b 18bc f43b 5ebe 426e 653d
00000080: e285 85bd e32e fb3d b89d 1dbe 557a c1bd
00000090: 98b3 9bbd 208a 963b 34f7 9bbd ab68 2d3b
000000a0: 2889 a4be deb6 91bd da6b a0bd b16e 0fbd
000000b0: 3e62 64be 4bcc fcbe 0ba0 df3d b7d6 d1be
000000c0: bec9 8ebe 2903 01be 1bc0 1cbe c9e4 2b3d
000000d0: 8905 923c e818 61be 6597 4f3d 7d8b d1bd
000000e0: 7382 5fbc 53cd 36bc 2e79 d63c 846f e2bd
000000f0: 5ec1 01be dd53 e0bd d1c2 d13d 785a 43be
00000100: e14d ab3d 3db4 59be 1d60 41bd 55d1 4cbe
00000110: f3d1 a13d 3732 00bd 346f c73d caf3 623d
00000120: 6902 59be 321b a6bd d9e1 30be 43cc e6bd
00000130: d783 183e 5ff8 083e 794a a23d 574b 333e
00000140: 52b7 093d 5b29 1abe 5791 e3bb 3035 37bc
00000150: 2c03 33be bf1b 3fbc 52b1 7ebd addc a23e
00000160: db2f 82be 1006 653d 68b1 7bbe 0809 313c
00000170: 4d69 ecbb 424d 563e b5b1 a53d c22c 773e
00000180: 1ffa 793d 0140 d43c c828 fd3c a7ed a6bd
00000190: a44d 9d3d 0e93 a2bd a5e3 02be 8d85 83bd
000001a0: adab 09be 5068 0d3e c175 7abd 81e8 773c
000001b0: d13d b1bd 66a8 5e3d 5447 833c 83a2 173e
000001c0: 2e2f 1bbd 709a 263e 087e 2dbd 7f96 8abe
000001d0: 1174 2f3e 17c8 733c 78fc 23be 8b88 c53d
000001e0: 3289 083c 5d62 4f3e c876 d6bd 4c47 4cbd
000001f0: 89e9 ec3d 4553 0bbe 8f92 443d 7f8b 343c
00000200: 5f2f 313e 89ac ea3d 2214 8e3d 4459 d73d
00000210: 7b12 303e dc44 06bd dec4 70bd 77e1 373e
00000220: d3d3 633e f39e 66be d03d 7c3e ef5a 493e
00000230: e916 06be 8bef 7e3d 08ae a2bd 0ae2 d8bd
00000240: 2005 0bbe 898f 9d3e 7c10 363e 7502 78be
00000250: 35ea 33be 8952 813c 2d1f d93c d347 37be
00000260: 670e 43bd 797c 593c 571f 433e 0a37 023e
00000270: 9b96 083e bb0c f9bd 7b90 13bd e497 b6bb
00000280: b117 563d b382 633e 0bbc 16be 1e20 5fbc
00000290: 2ab0 3cbe 26fb 4bbd 36fe 133d bc86 353e
000002a0: a369 a13e 0988 adbd 54c2 34be 53c9 08be
000002b0: f695 fb3d c9d7 fd3d 3eb1 f03d 011f 273e
000002c0: d3b6 cdbd 6707 ffbd 1dcb 243e b691 a5bd
000002d0: f910 84bd a494 48bd 9fe9 8ebd 3dcd a3bd
000002e0: a198 243e 4c2b 373c fd7a 4ebd 35ba 09be
000002f0: 828e 0dbe 7b22 debd 6f26 54bd 4a74 b53e
00000300: 3c13 4bbd 4381 bbbe 1df7 df3c 117a aebd
00000310: ee3f 0e3d a543 07be 1d0a 423d ee04 a2bd
00000320: d5d8 0dbd 7d33 c43c 7e4d 02be dc34 853d
00000330: d8ac 4abd 3187 95bc 1e48 29bd c0f3 85bd
00000340: b128 0bbe 433c 9abc 23e8 b13d a494 ecbd
00000350: f3d9 883b 066c 963e c586 30be 64bd 34be
00000360: e41e bebe 54bf 02bd ce95 473e 18da e53c
00000370: 2142 ccbd 99c8 04bc 5855 f93c 7df0 5abe
00000380: 80d7 fa3c 93a7 8a3d 72f3 aabd 2f96 28bd
00000390: 178d 9cbe 9755 40bc 334d 9d3d 7085 32be
000003a0: 902c 363e 8542 103d caa6 1d3e a86c 3dbd
000003b0: b485 34bd db22 533d 237a d43d a17b 813e
000003c0: 347e 103e a3cc a23e 6117 46be 6396 7d3b
000003d0: e1b6 06be 8367 f0bd 1f75 363e d716 8a3e
000003e0: 17b3 3e3e 250c 2e3e 6cf8 0c3a 1185 513e
000003f0: fe51 06bd 8811 cabc 8353 743d 4972 093d

network_body._body_endoder.seq_layers.0.bias f4 [128]
0.04506562 -0.022603905 0.0017461296 0.0056411806 -0.018102087 0.025680995 0.0060471855 0.0033347178
-0.021032263 0.01601596 0.020696068 0.00292264 0.026606925 0.009629102 -0.011653725 0.023572585
0.024105147 -0.0027639624 -0.0012336122 -0.021488884 -0.0021581189 0.01238993 0.009654186 0.002044525
0.0008240311 0.009993882 0.0049274643 0.029726934 0.023576254 0.017376792 -0.0009563528 -0.009364796
0.007989716 0.016829964 -0.0052543567 -0.008020999 -0.002198903 0.022597536 0.052291412 -0.01652294
0.046924118 -0.0010564262 0.008517141 -0.010548394 -0.0010069249 -0.030301953 -0.0046458077 0.018579703
-0.00037274195 -0.004431416 0.015123614 -0.011824218 0.013297331 0.01736205 0.015108739 0.0056335228
0.017820807 0.026339702 0.0045679533 -0.0013533647 -0.029261108 0.018635921 0.011755284 0.006951999
0.02996215 0.019724254 -0.007969806 0.011797227 0.016521182 0.037920583 0.012118817 -0.01685217
0.027843356 0.019160977 0.032930683 0.023753252 0.006419162 0.018339254 0.026303178 -0.012226654
-0.014961902 0.014106083 0.018948762 0.010357216 -0.0028297019 0.019372016 -0.020902287 0.008505374
-0.01710057 0.0025162608 0.034560975 -0.007195863 0.005920966 0.032960657 0.027195109 -0.026225176
-0.030798066 0.00051549927 0.023988651 0.017882604 0.015700325 -0.01543737 0.007088331 -0.04471594
-0.0015423952 0.0005005 -0.022964945 0.0018468915 0.013175254 0.031797558 0.023945734 -0.021450957
-0.012281621 -0.004436318 0.0044658156 0.00539117 -0.0066283536 0.022206182 -0.030528693 -0.006229523
0.021418639 -0.01234807 0.0027804296 0.02040354 0.009329134 0.021011744 0.019830763 -0.004887987
00000000: ba96 383d d32b b9bc 63de e43a a7d9 b83b
00000010: d44a 94bc f360 d23c 7827 c63b 488b 5a3b
00000020: da4b acbc e733 833c cd8a a93c c389 3f3b
00000030: c4f6 d93c 62c3 1d3c 44ef 3ebc 4b1b c13c
00000040: 2878 c53c 9823 35bb 28b1 a1ba 7509 b0bc
00000050: 3a6f 0dbb 22ff 4a3c 972c 1e3c 70fd 053b
00000060: cb03 583a 61bd 233c 9176 a13b e685 f33c
00000070: fd22 c13c c659 8e3c c0b3 7aba cd6e 19bc
00000080: 4ce7 023c fede 893c bd2c acbb 826a 03bc
00000090: 781b 10bb 781e b93c 852f 563d 1e5b 87bc
000000a0: 8133 403d c877 8aba 7b8b 0b3c 2cd3 2cbc
000000b0: cbfa 83ba cd3b f8bc dc3b 98bb 7634 983c
000000c0: 946c c3b9 6935 91bb 09c9 773c 5dba 41bc
000000d0: 0cdd 593c dc3a 8e3c a58a 773c 6a99 b83b
000000e0: f1fc 913c 5cc6 d73c c5ae 953b 6263 b1ba
000000f0: feb4 efbc 5caa 983c 3c99 403c 98cd e33b
00000100: 2f73 f53c c294 a13c ca93 02bc 2849 413c
00000110: 6e57 873c 9d52 1b3d 018e 463c 900d 8abc
00000120: c017 e43c 7bf7 9c3c 53e2 063d 2e96 c23c
00000130: d557 d23b 343c 963c c379 d73c 4e52 48bc
00000140: c422 75bc 331d 673c 6f3a 9b3c 50b1 293c
00000150: 8572 39bb 10b2 9e3c 463b abbc 205a 0b3c
00000160: 7f16 8cbc dae7 243b cf8f 0d3d 46cb ebbb
00000170: aa04 c23b c101 073d 47c8 de3c 2ed6 d6bc
00000180: 3a4c fcbc 9222 073a d983 c43c 8a7e 923c
00000190: f89d 803c 06ed 7cbc 3b45 e83b 1028 37bd
000001a0: 322a caba fd33 033a fb20 bcbc 6513 f23a
000001b0: 05dd 573c 283e 023d d829 c43c ebb9 afbc
000001c0: da38 49bc 885e 91bb fa55 923b 69a8 b03b
000001d0: a932 d9bb bde9 b53c 4f17 fabc 0721 ccbb
000001e0: 2476 af3c 8f4f 4abc de37 363b 5325 a73c
000001f0: 39d9 183c d220 ac3c 2074 a23c 682b a0bb

network_body._body_endoder.seq_layers.2.weight f4 [128, 128]
-0.0035123776 -0.026584288 -0.018547054 0.108137466 0.08208287 0.2859128 0.005332196 0.14088322
-0.05257219 -0.058535855 0.065264866 0.020029657 -0.0013945025 0.02690072 0.09433571 0.022650693
-0.07980315 -0.0111787915 -0.07206151 -0.13328758 0.20828949 0.054812357 0.16684346 0.005632777
-0.11460795 0.14549136 0.06772822 0.037643682 0.001705613 0.1125146 -0.011123117 -0.098313116
-0.11735787 -0.030732896 0.08174761 0.07387365 -0.02603983 0.08875117 -0.078202255 -0.11733672
0.21105272 0.14607112 0.1344922 -0.102496535 0.011227275 -0.04476519 -0.024295988 0.07119542
0.028797846 -0.14809306 0.051466558 -0.025683211 -0.023633586 -0.008564826 -0.11972472 -0.11427409
0.12932512 -0.11057055 -0.1032572 -0.036457255 0.02281892 0.012094366 0.13668396 -0.18676917
0.20361605 0.025533177 -0.0053027053 0.032676496 0.11876642 0.123097844 0.017501913 0.03646126
0.044838104 0.15190433 -0.024099398 0.070667595 0.21953297 -0.01647624 -0.01975204 0.08556864
0.11718888 0.017888585 -0.09236865 0.2668215 0.029929364 -0.006729847 -0.044833425 -0.035338383
-0.07756086 -0.17886867 -0.08528493 -0.019514075 -0.037804484 0.059872296 -0.049361993 0.055055834
-0.00055579626 -0.029470516 0.0035591302 -0.11519894 -0.04571932 -0.0011542825 -0.0034543418 0.018084478
0.14825726 0.044708237 0.01946559 0.062495004 0.0061958483 0.033652566 -0.07595485 -0.046397623
-0.14282995 0.25520536 0.21439478 0.07870008 0.106791586 0.14729476 -0.027448667 -0.08915304
-0.021309985 -0.017948212 0.059652656 -0.031885717 0.037089698 -0.035279915 -0.010898139 0.07482313
-0.032033477 0.18907048 -0.021202918 0.0786869 -0.03809681 0.009712507 -0.19538847 0.096460305
0.045378566 -0.04377546 0.09525081 -0.007267465 -0.08169506 0.12371402 0.012257508 -0.092151105
0.23623586 -0.12097537 -0.12190921 -0.19151561 -0.012634319 0.07115198 0.028137634 0.04200352
-0.10720307 -0.10445711 0.08384658 0.15326326 0.18276574 -0.008298424 0.03369333 -0.071828805
0.008487355 -0.047374822 -0.018434212 -0.0031882215 0.0169979 -0.031290375 0.03545556 -0.12847419
0.061081048 0.06814926 0.028949393 0.08589772 -0.12919807 0.1250054 0.07390724 -0.026493264
0.17421652 -0.02195077 0.017247198 0.038032535 -0.031700816 0.06354061 0.049226936 0.13136692
-0.12354739 0.23950374 0.037770886 0.059260678 0.043992057 0.18679394 -0.09180232 0.056617733
0.023192469 0.16141027 -0.10204945 0.09452785 -0.1507985 -0.1926563 0.08209354 -0.07102797
0.11366038 -0.03895996 0.049342692 0.08808516 0.04437157 -0.062462315 -0.068992235 -0.022547575
-0.04269288 -0.04478525 -0.09247047 0.09501415 -0.085512586 -0.020173289 -0.01467676 0.13903002
-0.111831084 -0.06184774 0.07176016 0.031818848 -0.14705712 0.18550335 -0.06627435 -0.18474682
0.057007328 -0.007683435 0.07214811 -0.0054177144 -0.005947854 -0.031103477 0.047400516 -0.050975993
-0.03718116 0.025840206 0.1558025 -0.07413451 0.19100045 0.056389514 0.20469253 0.030555492
-0.120300926 -0.047826495 0.018109288 -0.19009463 -0.094506666 0.16767849 -0.19154368 0.08963056
0.015786014 0.050027814 -0.12853377 0.01768022 0.05220356 -0.035491925 -0.029754072 -0.0616236
00000000: eb2f 66bb 4bc7 d9bc feef 97bc 2d77 dd3d
00000010: 101b a83d 2a63 923e b4b9 ae3b b143 103e
00000020: f055 57bd 4bc3 6fbd 96a9 853d 3c15 a43c
00000030: bdc7 b6ba e65e dc3c 1533 c13d f28d b93c
00000040: d56f a3bd 4027 37bc fc94 93bd 8a7c 08be
00000050: d749 553e ec82 603d 03d9 2a3e 2993 b83b
00000060: 93b7 eabd b0fb 143e 18b5 8a3d 4330 1a3d
00000070: e08e df3a 0e6e e63d bc3d 36bc 6358 c9bd
00000080: 5359 f0bd 8ec3 fbbc 4a6b a73d 114b 973d
00000090: 7b51 d5bc 2cc3 b53d 8128 a0bd 3c4e f0bd
000000a0: 341e 583e ab93 153e 53b8 093e b4e9 d1bd
000000b0: 9bf2 373c b45b 37bd 6108 c7bc e8ce 913d
000000c0: 76e9 eb3c b5a5 17be 99ce 523d 9965 d2bc
000000d0: 399b c1bc 7c53 0cbc 3c32 f5bd 8908 eabd
000000e0: ce6d 043e d072 e2bd 8378 d3bd 3454 15bd
000000f0: beee ba3c 7327 463c e1f6 0b3e 6b40 3fbe
00000100: ba80 503e f42a d13c 51c2 adbb cad7 053d
00000110: cf3b f33d b91a fc3d 2c60 8f3c 6758 153d
00000120: 29a8 373d cf8c 1b3e 1a6c c5bc 2cba 903d
00000130: 40cd 603e 2ef9 86bc 08cf a1bc 9c3e af3d
00000140: b900 f03d 158b 923c c62b bdbd d49c 883e
00000150: 6d2e f53c 0c86 dcbb 41a3 37bd fbbe 10bd
00000160: 3ad8 9ebd 5929 37be dea9 aebd fbdb 9fbc
00000170: e0d8 1abd a73c 753d cd2f 4abd 3a82 613d
00000180: dbb2 11ba 276c f1bc 4c40 693b 6ced ebbd
00000190: 2f44 3bbd 4b4b 97ba 3d62 62bb e625 943c
000001a0: c0d0 173e fc1f 373d 4d76 9f3c c3fa 7f3d
000001b0: 8b06 cb3b 46d7 093d 378e 9bbd 6f0b 3ebd
000001c0: 0442 12be 47aa 823e 4e8a 5b3e 822d a13d
000001d0: 8cb5 da3d 70d4 163e 07dc e0bc de95 b6bd
000001e0: 4792 aebc 2108 93bc 5856 743d 999a 02bd
000001f0: 5eeb 173d ac81 10bd 1c8e 32bc df3c 993d
00000200: 8935 03bd b19b 413e beb1 adbc 9926 a13d
00000210: 670b 1cbd 3521 1f3c ea13 48be fb8c c53d
00000220: e0de 393d e64d 33bd db12 c33d ea23 eebb
00000230: bd4f a7bd c75d fd3d b7d3 483c b8b9 bcbd
00000240: d0e7 713e efc1 f7bd 89ab f9bd ab1c 44be
00000250: 2d00 4fbc 21b8 913d e580 e63c e20b 2c3d
00000260: 488d dbbd 9ced d5bd c1b7 ab3d 0bf1 1c3e
00000270: f126 3b3e 1df6 07bc 0402 0a3d fb1a 93bd
00000280: 8c0e 0b3c 1a0c 42bd 5803 97bc 7bf1 50bb
00000290: 2e3f 8b3c 562a 00bd d939 113d bd8e 03be
000002a0: 1f30 7a3d d791 8b3d 4727 ed3c 25eb af3d
000002b0: 804c 04be 6a01 003e ae5c 973d 6708 d9bc
000002c0: d165 323e 1ad2 b3bc ff49 8d3c 01c8 1b3d
000002d0: b7d8 01bd 9421 823d 2fa2 493d 0d85 063e
000002e0: 6a06 fdbd 7840 753e a5b5 1a3d 53bb 723d
000002f0: 0431 343d e946 3f3e db02 bcbd ffe7 673d
00000300: 22fe bd3c bc48 253e 4dff d0bd d197 c13d
00000310: ec6a 1abe b147 45be a820 a83d 1d77 91bd
00000320: c6c6 e83d 7b94 1fbd 901b 4a3d fe65 b43d
00000330: f7be 353d 7cd8 7fbd cd4b 8dbd b1b5 b8bc
00000340: bbde 2ebd bd70 37bd 2861 bdbd c796 c23d
00000350: 3921 afbd 7442 a5bc cb76 70bc e35d 0e3e
00000360: b207 e5bd 0e54 7dbd fef6 923d 7b54 023d
00000370: 2496 16be 97f4 3d3e d9ba 87bd 452e 3dbe
00000380: 8480 693d 53c5 fbbb 63c2 933d 1587 b1bb
00000390: 37e6 c2bb b8cc febc 0b27 423d 34cc 50bd
000003a0: 464b 18bd d7ae d33c b18a 1f3e d5d3 97bd
000003b0: 9f95 433e b1f8 663d eb9a 513e 834f fa3c
000003c0: 5560 f6bd b7e5 43bd ee59 943c 2ba8 42be
000003d0: b68c c1bd e9b3 2b3e 0724 44be 3a90 b73d
000003e0: ac51 813c f7e9 4c3d 5b9e 03be 1cd6 903c
000003f0: 66d3 553d fb5f 11bd d0be f3bc 0769 7cbd

network_body._body_endoder.seq_layers.2.bias f4 [128]
0.027321806 0.024893437 -0.026230292 -0.0017893862 0.015404674 0.035587348 0.01931451 0.028986502
-0.004378272 0.009856995 -0.0029086608 0.018162254 0.007613989 0.030542219 -0.01835282 -0.012621689
0.013306066 0.016630704 0.029859202 0.016475936 0.021805255 0.019457344 -0.0012239012 0.01914271
0.023687722 -0.021237671 0.024462884 -0.002925036 0.0107128145 -0.0077310884 0.0051437523 -0.007617944
-0.026584662 0.0009082892 0.008107977 0.017729916 -0.0072765048 0.016639743 -0.002482471 -0.008343244
-0.0061333287 0.01026957 0.015181229 -0.00433145 0.033855952 -0.01081971 0.018148392 0.008797484
-0.0028956216 0.01888102 1.04558185e-05 -0.002467612 0.020942433 0.0159722 -0.005320604 -0.013023629
-0.00028483468 0.019853793 0.026904719 -0.023073733 0.008718688 0.009794704 0.027845416 0.023854515
0.028870286 -0.007827505 0.009889306 0.009513391 -0.023850605 -0.00085541484 0.00656318 0.01650758
0.013817927 0.0017511599 0.0030332308 -0.0068294713 0.028661652 0.012157253 0.020447424 0.027525226
-0.022002598 0.0036408387 -0.011172575 0.01475046 0.022748737 -0.0040534786 0.017765878 0.00349969
0.0150690535 0.022291861 -0.027957706 0.020938184 -0.01003046 0.017717613 -0.021826083 -0.0038197685
-0.0069313934 0.0152070895 0.0019690946 0.008081889 0.0077127917 0.0066800714 -0.0064279833 0.01261171
0.023954462 0.0008277273 0.0210677 0.015719926 0.0031161518 -0.013683302 0.00642745 0.027945481
0.033306293 0.027259229 0.015349497 -0.0054861177 -0.0028183064 -0.011286895 -0.017998643 0.022085441
0.01356013 0.024921065 -2.6864596e-05 0.0050802 -0.016334804 -0.0066160187 0.02000417 -0.0011604016
00000000: fbd1 df3c 52ed cb3c e9e0 d6bc d689 eaba
00000010: e363 7c3c 0ac4 113d 7739 9e3c 1a75 ed3c
00000020: 9c77 8fbb 3c7f 213c 3b9f 3ebb 02c9 943c
00000030: c57e f93b ad33 fa3c a758 96bc 33cb 4ebc
00000040: b001 5a3c 1d3d 883c 499b f43c 8bf8 863c
00000050: efa0 b23c 0265 9f3c 4f6b a0ba 2cd1 9c3c
00000060: c10c c23c a0fa adbc 6366 c83c f6b1 3fbb
00000070: cd84 2f3c 1255 fdbb ec8c a83b f29f f9bb
00000080: 14c8 d9bc 421a 6e3a 52d7 043c 543e 913c
00000090: bf6f eebb 1250 883c f4b0 22bb 1ab2 08bc
000000a0: 17fa c8bb b341 283c b1ba 783c d6ee 8dbb
000000b0: 8aac 0a3d 2745 31bc f0ab 943c 5323 103c
000000c0: 78c4 3dbb 5eac 9a3c 666b 2f37 a9b7 21bb
000000d0: 778f ab3c 22d8 823c 7658 aebb 0f61 55bc
000000e0: dd55 95b9 6ca4 a23c 4967 dc3c 2005 bdbc
000000f0: d4d8 0e3c f779 203c 121c e43c 8b6a c33c
00000100: 6181 ec3c ef3e 00bc c106 223c 0ede 1b3c
00000110: 5862 c3bc eb3d 60ba f20f d73b e83a 873c
00000120: 9664 623c 2d87 e53a 2bc9 463b c2c9 dfbb
00000130: d7cb ea3c 372f 473c 5b81 a73c 957c e13c
00000140: cb3e b4bc 239b 6e3b 2d0d 37bc eaab 713c
00000150: 8f5b ba3c 0bd3 84bb bf89 913c 0e5b 653b
00000160: 31e4 763c 6c9d b63c 8f07 e5bc 8e86 ab3c
00000170: cc56 24bc 8724 913c 9dcc b2bc 1555 7abb
00000180: be20 e3bb 2827 793c ed0b 013b e669 043c
00000190: 96bb fc3b 80e4 da3b d5a1 d2bb 58a1 4e3c
000001a0: 263c c43c d7fb 583a 2b96 ac3c 13c7 803c
000001b0: 5a38 4c3b ee2f 60bc 5c9d d23b eced e43c
000001c0: 2e6c 083d bf4e df3c 757c 7b3c e4c4 b3bb
000001d0: 56b3 38bb abec 38bc e471 93bc 87ec b43c
000001e0: 4f2b 5e3c 4327 cc3c 485b e1b7 ce77 a63b
000001f0: 91d0 85bc 30cb d8bb c9df a33c 9e18 98ba

action_model._continuous_distribution.log_sigma f4 [1, 5]
0.042518597 0.048009854 0.013015599 0.07017926 0.013106516
00000000: fb27 2e3d fba5 443d 613f 553c 25ba 8f3d
00000010: b6bc 563c

action_model._continuous_distribution.mu.weight f4 [5, 128]
0.010293392 0.032440305 0.008209116 -0.015744431 -0.018991843 0.03817053 0.038373027 -0.044385165
0.01768335 0.06858413 -0.03645205 -0.018253848 0.004921276 -0.032317434 0.026625419 0.005266206
-0.020748649 0.038726136 0.069029026 0.018942963 -0.034732755 0.0051724487 -0.09453243 -0.0060756244
-0.05446987 0.0124057075 -0.04991949 0.023404399 -0.023224356 0.019948151 0.050555695 0.056347903
-0.0008804791 -0.05027599 -0.07692144 -0.0014715929 0.0018540372 -0.045931045 0.06445748 -0.01815591
0.02867125 0.021575453 -0.07982623 0.0062896465 0.0056222235 -0.018148579 -0.036211304 -0.008715421
0.03968545 0.0023868564 0.04858984 0.020379739 0.004396602 -0.045757886 -0.008019548 -0.006398808
0.0024885323 -0.014822266 0.010197253 -0.00093787187 -0.042980157 -0.025525851 0.04432728 0.021311428
0.04750366 -0.036691017 0.034090836 0.028178558 -0.044607963 0.027503802 -0.11657513 -0.009868135
0.07046103 0.004641657 0.089218736 -0.0116724195 -0.030714102 0.018527059 0.014067694 0.0334943
-0.010779825 -0.06016437 0.004677378 -0.0065002716 -0.05073454 -0.00912936 -0.020748308 0.06299003
-0.061590962 0.028236885 -0.017284593 0.036318343 -0.050311834 0.119427025 0.0068776384 0.056207787
-0.013018824 0.025499862 0.041238118 -0.011442076 0.030887492 0.00823163 0.037178 0.020283109
-0.060822353 0.073269516 -0.051576477 -0.020724455 0.013045762 0.013309135 0.018951274 -0.0016948114
-0.081286706 -0.0088329725 -0.006622265 0.02318619 0.040436316 -0.024753092 0.0039831353 0.050990466
-0.00041603605 -0.01221826 0.032536823 -0.061248932 -0.05104534 0.014265604 0.010452208 -0.05597403
-0.051533815 -0.04448774 0.049339034 0.049339842 -0.06291946 -0.04481615 -0.04660836 -0.06922781
-0.009498873 -0.0049368376 -0.0041180854 -0.039643615 -0.009509922 -0.09111483 0.047301058 0.048432335
-0.026380526 0.0023824673 -0.06377951 -0.034656335 -0.05683192 -0.048960276 -0.0058754743 -0.047500804
-0.04398474 0.021425817 -0.06717953 0.026355147 -0.0047632763 0.04063758 0.0029551443 0.079196736
0.06169864 0.019272845 -0.014062192 -0.024863897 0.003102045 -0.021056242 0.05782173 0.040244427
0.037020657 0.002420125 -0.04826729 0.039763685 -0.08140412 0.022506582 -0.03223099 -0.018305533
0.003668543 -0.04005553 -0.015778184 -0.030484516 -0.03348963 -0.059725378 0.031603005 0.06629399
0.07820022 -0.053228837 -0.05913554 0.032832004 -0.010988819 -0.017267546 -0.06773127 -0.07366947
-0.044495232 0.041916337 -0.0022579178 -0.041617457 0.051525213 0.041186333 0.012636986 -0.043445196
-0.025521187 -0.0076800017 0.010457791 0.024203708 -0.0611251 0.03326878 -0.047682025 -0.03171018
0.03727441 -0.021279141 0.07004914 -0.049529895 -0.028077511 0.002408168 -0.037079297 -0.0025541172
-0.041551296 -0.055767644 0.01732505 0.008977451 0.048758987 -0.0055522798 0.069331914 -0.013568617
0.022020252 -0.055554733 0.03114939 -0.020114228 -0.031019133 0.0027038082 0.095176026 0.0144238025
-0.06321695 0.042309597 -0.03687395 -0.04882557 -0.012607098 0.03594164 0.026660278 -0.058491338
-0.10374265 -0.06840508 -0.03770847 -0.0018566276 0.05381779 0.06506034 0.065364145 -0.046714637
-0.073524445 -0.031177524 -0.03056184 -0.00506178 0.040988337 0.052724604 -0.05288306 -0.0005406956
00000000: 9ea5 283c 20e0 043d 877f 063c 77fa 80bc
00000010: c894 9bbc b458 1c3d 092d 1d3d 38cd 35bd
00000020: acdc 903c d675 8c3d bf4e 15bd 1889 95bc
00000030: a842 a13b 495f 04bd 8d1d da3c 2390 ac3b
00000040: 12f9 a9bc 4c9f 1e3d 175f 8d3d 462e 9b3c
00000050: ef43 0ebd a57d a93b 389a c1bd 0816 c7bb
00000060: cc1b 5fbd 4f41 4b3c 6178 4cbd 95ba bf3c
00000070: 0141 bebc 4e6a a33c 7d13 4f3d 0fcd 663d
00000080: f4cf 66ba 32ee 4dbd fd88 9dbd 77e2 c0ba
00000090: 2a03 f33a 3122 3cbd 4902 843d b4bb 94bc
000000a0: f8df ea3c 01bf b03c ef7b a3bd 6119 ce3b
000000b0: a13a b83b 54ac 94bc 4e52 14bd 20cb 0ebc
000000c0: 368d 223d ce6c 1c3b 2406 473d 69f3 a63c
000000d0: 5f11 903b 9f6c 3bbd 6c64 03bc 18ad d1bb
000000e0: a516 233b 17d9 72bc 6112 273c 84db 75ba
000000f0: f60b 30bd 971b d1bc 8690 353d 4e95 ae3c
00000100: 3393 423d 5249 16bd d5a2 0b3d b8d6 e63c
00000110: d7b6 36bd a74f e13c f1be eebd f5ad 21bc
00000120: df4d 903d 0b19 983b 50b8 b63d ad3d 3fbc
00000130: 249c fbbc 0fc6 973c 2f7c 663c 5231 093d
00000140: dd9d 30bc ea6e 76bd b144 993b 3b00 d5bb
00000150: 05cf 4fbd 5093 15bc 5bf8 a9bc eb00 813d
00000160: ce46 7cbd 0a51 e73c 6b98 8dbc 8bc2 143d
00000170: c813 4ebd 2896 f43d d05d e13b 233a 663d
00000180: e84c 55bc 16e5 d03c 4de9 283d 8c77 3bbc
00000190: c407 fd3c f5dd 063c f547 183d c328 a63c
000001a0: dc20 79bd 540e 963d db41 53bd 55c6 a9bc
000001b0: e4bd 553c 8f0e 5a3c b43f 9b3c 6f24 deba
000001c0: a579 a6bd 2cb8 10bc 96ff d8bb f7f0 bd3c
000001d0: 8da0 253d ffc6 cabc f684 823b 61db 503d
000001e0: 6a1f dab9 192f 48bc 5545 053d 29e0 7abd
000001f0: eb14 51bd 48ba 693c bd3f 2b3c 0645 65bd
00000200: 1f15 53bd c738 36bd ba17 4a3d 9318 4a3d
00000210: ebdb 80bd 2491 37bd 68e8 3ebd 4fc7 8dbd
00000220: 29a1 1bbc 32c5 a1bb 01f1 86bb 5861 22bd
00000230: 81cf 1bbc 699a babd c1be 413d fc60 463d
00000240: f91b d8bc 2b23 1c3b d59e 82bd cdf3 0dbd
00000250: 96c8 68bd 928a 48bd 0d87 c0bb 3490 42bd
00000260: 5829 34bd 3285 af3c 6c95 89bd c0e6 d73c
00000270: 4215 9cbb 9773 263d 18ab 413b e631 a23d
00000280: b7b7 7c3d 16e2 9d3c 1c65 66bc 5faf cbbc
00000290: ae4b 4b3b 247e acbc 7ad6 6c3d 57d7 243d
000002a0: f9a2 173d f69a 1e3b ecb3 45bd 3fdf 223d
000002b0: 34b7 a6bd b95f b83c a404 04bd 7cf5 95bc
000002c0: f06b 703b 4411 24bd 4041 81bc aaba f9bc
000002d0: 6c2c 09bd 99a2 74bd 2772 013d 25c5 873d
000002e0: 7027 a03d 7b06 5abd 1c38 72bd da7a 063d
000002f0: 730a 34bc ab74 8dbc b1b6 8abd 05e0 96bd
00000300: a240 36bd 77b0 2b3d 93f9 13bb 1177 2abd
00000310: 1a0c 533d 00b3 283d 5c0b 4f3c 97f3 31bd
00000320: cf11 d1bc 86a8 fbbb 2857 2b3c db46 c63c
00000330: 505e 7abd d844 083d 3a4e 43bd 89e2 01bd
00000340: 0dad 183d 9851 aebc ec75 8f3d dcdf 4abd
00000350: cf02 e6bc 5bd2 1d3b 76e0 17bd fa62 27bb
00000360: b131 2abd 9d6c 64bd 43ed 8d3c 2916 133c
00000370: 81b7 473d e6ef b5bb e4fd 8d3d e84e 5ebc
00000380: d163 b43c 5c8d 63bd 012d ff3c 98c6 a4bc
00000390: d61b febc 6032 313b a6eb c23d d051 6c3c
000003a0: e377 81bd d44c 2d3d 2409 17bd 52fd 47bd
000003b0: 008e 4ebc 8b37 133d a866 da3c 9d94 6fbd
000003c0: 0777 d4bd f617 8cbd 3274 1abd 165a f3ba
000003d0: 0b70 5c3d 5b3e 853d a3dd 853d d957 3fbd
000003e0: fc93 96bd 0268 ffbc d35c fabc 4add a5bb
000003f0: 63e3 273d c1f5 573d e89b 58bd 78bd 0dba

action_model._continuous_distribution.mu.bias f4 [5]
0.00021555876 -0.036936298 -0.005027692 0.012095284 0.0054465528
00000000: 9d07 6239 844a 17bd 56bf a4bb 4c2b 463c
00000010: ff78 b23b
