config/results/AgrConserv_Refactored_2M_Almost-Final_v4/Hummingbird_Conservative/Hummingbird_Conservative-499968.onnx (onnx, 97764 bytes, 7 tensors)

network_body._body_endoder.seq_layers.0.weight f4 [128, 47]
00000000: 4c10 a3bc afed 8fbd 1fbb 16bd 6fac 6bbe
00000010: e3a5 d9bb e595 edbd a65b 98bd 9f43 ec3d
00000020: 0495 983d 7132 e2bc d8ee d13c 0d7b 473e
00000030: 7d15 02be 7b60 463d 0e6d af3d e9a9 25be
00000040: a26e f53c 2c72 953d 6033 3f3c 90ce 00be
00000050: bfd3 0f3c f794 03bd 39cf 16bc 2457 77be
00000060: d1f6 903e 0d63 b53d 49f7 583d 6639 80bb
00000070: 4778 d13d 4bb9 f5bb f43b 5ebe 8765 6b3d
00000080: 850c 8dbd ca72 e43d b89d 1dbe 0125 f0bd
00000090: f6d1 6bbd 9ad7 a9bc e254 5fbd 94bf bb3c
000000a0: 533a 83be 0ce0 90bd 911e 55bd 4cd8 37bd
000000b0: 83d4 6abe fe1d 02bf 6e0e 013e 2685 d0be
000000c0: 12b9 8dbe 2903 01be 40f4 06be 22e8 4b3d
000000d0: b5be 213c e818 61be 9f31 0b3d 35c0 c1bd
000000e0: b020 b1bc 53cd 36bc 006b 583c a2d9 d5bd
000000f0: 58f4 05be dd53 e0bd 0591 b63d 9c73 37be
00000100: 3b32 8d3d 3db4 59be ad76 7dbd 4d89 47be
00000110: 731d 9c3d 3732 00bd 861e aa3d 3531 7b3d
00000120: f1d0 5fbe 321b a6bd 0cde 31be fc1d dcbd
00000130: 37b7 133e 5ff8 083e 06d0 883d 455d 3b3e
00000140: 1311 d73c 5b29 1abe b3d7 cb39 7e99 e9bc
00000150: 773a 25be 21f9 c3bc 5c35 b0bd 2070 993e
00000160: ceb1 86be 7435 5a3d aa62 80be e20b 3f3c
00000170: ed25 9bbb fa16 5a3e 4991 9b3d 3407 823e
00000180: 1ffa 793d 2b37 ae3c 24ad e83c e40a b1bd
00000190: a44d 9d3d 1d3e b4bd 36c6 05be 6167 88bd
000001a0: adab 09be c438 083e e943 82bd dd6e 1f3c
000001b0: d13d b1bd 1532 373d d1d5 4d3c 8990 173e
000001c0: 2e2f 1bbd 486c 253e cf02 3abd 6719 8bbe
000001d0: 1174 2f3e 0394 293c e8e9 27be ddcf c83d
000001e0: 3289 083c 03c9 4f3e 84e5 dbbd 88ea 57bd
000001f0: 89e9 ec3d c79d 10be d603 3e3d 7c0f 153c
00000200: 5f2f 313e eed4 fa3d f9a4 933d a3ec da3d
00000210: 4821 2b3e 3a26 05bd 65ca 4bbd 8cd4 313e
00000220: a41e 393e 16c6 57be 2461 793e a655 4f3e
00000230: b9c8 1dbe 94d4 363d 6023 b6bd 0ae2 d8bd
00000240: c4ab 25be 50b9 933e b67b 373e 7502 78be
00000250: de17 2ebe 9b83 31bb c42f b93c d347 37be
00000260: 4b99 48bd 4f77 c0bb 20ec 403e 0a37 023e
00000270: 6a59 093e 9f96 10be 2693 10bd e497 b6bb
00000280: 8db8 623d 0b5f 503e ddf3 19be 1e20 5fbc
00000290: 4529 3abe 803f 8dbd f402 0c3d bc86 353e
000002a0: 0157 a03e 95cf d3bd 5787 37be 53c9 08be
000002b0: f6a4 fe3d 4b34 e13d 3950 d23d 011f 273e
000002c0: d57c 0abe e919 eabd 6512 043e 5e86 4abd
000002d0: 8f88 57bd 71c9 cbbc 4dfe 97bd 6185 00bd
000002e0: b891 1f3e 00d1 99b4 2688 99bd da25 0dbe
000002f0: 4e23 07be e68b ccbd 6f26 54bd 0841 c33e
00000300: d343 2bbd d231 bdbe 1df7 df3c ac11 babd
00000310: cfee 2b3d 4661 05be 1d0a 423d 5db6 9fbd
00000320: 6a03 dcbc 8b3d bb3c 7e4d 02be 218b 823d
00000330: 7aa8 28bd a6a7 b0bc 1e48 29bd 1b92 8fbd
00000340: be94 05be 2626 4dbc 23e8 b13d c042 e0bd
00000350: 09a5 303c d139 973e c586 30be f941 2ebe
00000360: 84e9 babe 9815 eabc ce95 473e a714 033d
00000370: d1cf b9bd e367 abbb 5855 f93c 9029 43be
00000380: 14cb d83c b2ec 963d 4a14 bbbd 8439 49bd
00000390: 1b70 97be 3e30 89bc c706 2a3d e0d3 26be
000003a0: 580f 383e 1d9a 493d b96b 163e 177a 7abd
000003b0: 8f39 2cbd db22 533d 3f38 8e3d c1e9 723e
000003c0: c3cc 1a3e a3cc a23e f1f0 3fbe 4e82 3dbc
000003d0: 88ea febd 8367 f0bd 4b14 373e 9558 823e
000003e0: dd4a 423e 250c 2e3e b6ca 47b9 abea 403e
000003f0: 163c 9bbc 8811 cabc 6faa 833d 85ea 9f3c
-0.019905232 -0.070277564 -0.036799546 -0.23014997 -0.0066420897 -0.11600856 -0.074393556 0.11536335
0.074502975 -0.027611943 0.025626585 0.19480534 -0.1270351 0.048431855 0.085657224 -0.16178097
0.02995998 0.07297167 0.011669964 -0.12578797 0.008778512 -0.032124486 -0.009204679 -0.24154335
0.28313306 0.08856783 0.052970205 -0.0039130924 0.10228019 -0.0074988953 -0.21702558 0.05746987
-0.068871535 0.11154707 -0.15392196 -0.11725808 -0.05757328 -0.02073269 -0.05452431 0.0229185
-0.25630435 -0.070739836 -0.052031104 -0.04488401 -0.2293263 -0.50827014 0.1260316 -0.40726584
-0.2768026 -0.12598862 -0.13179111 0.049781926 0.009872128 -0.21982157 0.03398287 -0.09460489
-0.021622032 -0.011157352 0.013209105 -0.10441901 -0.13081491 -0.10953496 0.08914379 -0.17915195
0.06894346 -0.21260162 -0.061880756 -0.1948597 0.076228045 -0.03129789 0.08306603 0.061326224
-0.21857049 -0.08110656 -0.1736986 -0.107479066 0.1442536 0.13375996 0.06680302 0.18297298
0.026253259 -0.15054838 0.00038879886 -0.028515574 -0.16135584 -0.023922505 -0.086039275 0.29968357
-0.2630753 0.053273633 -0.25075275 0.011660548 -0.0047347457 0.21297827 0.0759607 0.2539612
0.06102955 0.02126654 0.028402872 -0.08644655 0.076808244 -0.0880091 -0.13063893 -0.06660343
-0.13444395 0.13302904 -0.06360609 0.009731022 -0.08654369 0.044725496 0.012563185 0.1480123
-0.03788679 0.16154587 -0.045412835 -0.27167818 0.1713412 0.01035023 -0.16397822 0.09805272
0.008333491 0.20291524 -0.10737136 -0.0527139 0.11567981 -0.14122687 0.046390377 0.00909793
0.17303227 0.12247644 0.072092004 0.10689666 0.16711915 -0.03250716 -0.049753565 0.17366236
0.18078095 -0.21071658 0.24353462 0.20247516 -0.15408601 0.044636324 -0.08893466 -0.105899885
-0.16178805 0.2885232 0.17918286 -0.24219687 -0.17001292 -0.00270865 0.022605784 -0.17898493
-0.048974317 -0.0058735977 0.18840075 0.12716308 0.13413015 -0.14119957 -0.03529658 -0.005572306
0.055351783 0.20348756 -0.15034433 -0.013618497 -0.18179806 -0.06896877 0.034182504 0.17727178
0.3131638 -0.103423275 -0.17922722 -0.13358049 0.124338076 0.10996302 0.102692075 0.16320421
-0.13524182 -0.11430723 0.12897642 -0.04944455 -0.052620467 -0.024876328 -0.07421551 -0.0313772
0.15582931 -2.8650538e-07 -0.074966714 -0.1378397 -0.13197061 -0.09987621 -0.051794466 0.38135552
-0.04181273 -0.36952072 0.027339512 -0.09085402 0.041975792 -0.13025388 0.047372926 -0.07798455
-0.026857097 0.022856494 -0.12724873 0.06374193 -0.041176297 -0.021564316 -0.041328542 -0.07010289
-0.13045022 -0.012521302 0.08686855 -0.109502316 0.010781535 0.29536298 -0.1723891 -0.17017354
-0.36506283 -0.02857475 0.1949074 0.032002117 -0.09072841 -0.00523089 0.030436203 -0.19058824
0.026464023 0.07369365 -0.09134729 -0.049127117 -0.29577717 -0.016746636 0.04151037 -0.16291761
0.17974603 0.04921924 0.1468953 -0.06115159 -0.04204708 0.051546913 0.06944322 0.23721983
0.15117173 0.3179675 -0.18744256 -0.011566712 -0.12447077 -0.11738493 0.17878835 0.25458208
0.1897387 0.1699682 -0.00019053635 0.18839519 -0.01894955 -0.024666563 0.06428992 0.019521007

network_body._body_endoder.seq_layers.0.bias f4 [128]
00000000: 8d05 0d3d 9e01 a6bc 0610 80ba 831f 5abc
00000010: fa23 28bc 52b0 343c aae7 9fba 9535 e73a
00000020: 0c7a 05bc b216 2a3c 0148 1c3c a078 bb3b
00000030: 0369 fe3b db65 503b 80d9 90bc fca2 0e3c
00000040: 88d2 983c 2285 3fbc 1100 bf3b 8dd2 8dbc
00000050: b1c9 d0bb 20f2 373c 6dc7 413b 4d8e dfbb
00000060: 10ea 19bb d965 6b3b f924 e03b 4fea 803c
00000070: f3c9 103c 1a00 e33b 0c1b e4ba e0bb 54bb
00000080: a029 f0bb 668f 8b3c 1291 20bb 8db4 89bb
00000090: 2ae4 11bc ece4 7e3c 6a35 143d 5060 8ebb
000000a0: c14b de3c d676 57bb 7e22 ad3b 1556 35bb
000000b0: 9d65 d23b a6c1 bfbc 0ab4 63bb 3974 403c
000000c0: 7b4f 8cbb 26f9 6dba e6f9 813c 469a b8ba
000000d0: 5cba b73a 486b 1c3c d5d5 503b 67e7 b93b
000000e0: 37b9 163b 9ebd 553c 89af 343b 178a f1bb
000000f0: ff7c a6bc 5a10 ec3b e3bf f13b 0400 de39
00000100: fe1a 9e3c e99c 993b d025 03bc 68db 82b9
00000110: ef30 b73b 1c40 8a3c a098 00bb f32e 82bb
00000120: 053d 643c e11c d13b b31c 9b3c 6c4c de3b
00000130: 1b6e 02bc de57 a73b c301 723c eb42 21bc
00000140: 88aa 1abc 6cb1 b13b 55d7 133c ec40 c23b
00000150: 0163 37b8 0d53 323c 2117 97bc 794b 1d3b
00000160: 6768 65bc 274b 0bbb ae56 be3c 1f22 5cbb
00000170: 5102 1a3c bd8e 9e3c 3670 8c3c 3bad a9bc
00000180: 1d35 b5bc c0c0 f03b 4826 543c 57d0 c03b
00000190: 77bf e43b ac7f 31bc 08e7 c03b 52cf febc
000001a0: 09a0 05bc 9c58 5bb9 db2e 81bb e944 523b
000001b0: 4c26 a03c adcf d73c 789e 483c 5481 f1bb
000001c0: 172f 46bb b9e1 c73b 6237 88bb 9cd8 173c
000001d0: 744c b03b 8c01 913c b3f4 afbc af02 193c
000001e0: c44c 8c3c fbde a7bc 86ca 573b 109e 423b
000001f0: 30c1 ff39 6206 0b3c 43d0 733c aa37 babb
0.03442912 -0.020264443 -0.00097704 -0.013313177 -0.010262484 0.011028366 -0.0012199779 0.001763987
-0.008146774 0.010381388 0.009538651 0.0057211667 0.007763983 0.0031798992 -0.017681837 0.008705851
0.018655077 -0.011689456 0.0058288653 -0.017312312 -0.0063716997 0.011227161 0.002956833 -0.0068223835
-0.002348546 0.003591886 0.006840345 0.015736727 0.008837211 0.0069275023 -0.001740308 -0.0032460615
-0.007329181 0.017036151 -0.002450053 -0.0042024315 -0.008904496 0.015557509 0.036183752 -0.0043449774
0.027135732 -0.0032877228 0.005283653 -0.0027669717 0.0064208047 -0.023407768 -0.0034744763 0.01174646
-0.0042819357 -0.00090779585 0.015866231 -0.0014084063 0.0014017331 0.009547062 0.0031865735 0.0056733373
0.002299858 0.013045697 0.0027570447 -0.007371198 -0.020323275 0.0072040977 0.007377611 0.0004234315
0.01929998 0.0046878946 -0.008004621 -0.00024959003 0.00559055 0.016876273 -0.0019622222 -0.003972882
0.013930564 0.0063816165 0.018934583 0.0067840125 -0.0079608215 0.00510691 0.014770928 -0.009842615
-0.009440072 0.0054227617 0.009023507 0.0059281494 -4.3722805e-05 0.010884059 -0.018443646 0.0024001284
-0.014001942 -0.002125451 0.023234691 -0.0033589674 0.009399966 0.019355172 0.01714335 -0.020712486
-0.022120053 0.0073471963 0.01294858 0.005884211 0.006980832 -0.010833662 0.005886916 -0.031104717
-0.008155831 -0.00020918477 -0.003942353 0.003208453 0.019549511 0.026344145 0.012244813 -0.0073701534
-0.003024047 0.0060999063 -0.004156993 0.009267952 0.0053802077 0.017700933 -0.021478986 0.009339019
0.017126448 -0.020492068 0.003292711 0.0029696263 0.00048781326 0.0084854085 0.014881196 -0.005682905

network_body._body_endoder.seq_layers.2.weight f4 [128, 128]
00000000: 8354 d0bc 1b5a 2dbc 9a5e 7ebc 9d70 c63d
00000010: 0d6b c63d c9f2 8a3e cdcc a33c 5c33 223e
00000020: 2d4c 15bd b0a0 65bd 4d5a 5a3d b588 c93c
00000030: 75ce c6bb 9305 e93b 2c79 a43d 4d84 403c
00000040: 6c0d a1bd 2ba2 02bd 1bbc 8dbd f236 0ebe
00000050: 1e27 513e 6dc3 203d c234 1c3e f3c9 933c
00000060: fa18 d6bd fcda 273e 721e 723d 8802 e83c
00000070: dd73 98bc d7b4 d53d 3929 b9bc 9d59 abbd
00000080: 1aaf ffbd 95d4 1dbd ba5e a63d dd56 973d
00000090: f392 11bd 0e85 a53d 8417 b4bd 3716 d3bd
000000a0: 240c 493e c3e5 103e 3149 0f3e 7c21 c8bd
000000b0: 8245 bf3c 4477 34bd baf1 1fbd 3ec1 943d
000000c0: 5213 673c 45b8 06be 51cc 803d f55e aabc
000000d0: 696b 08bd c1f9 c5bc ce7f 08be 7bcc edbd
000000e0: 560a 073e a939 04be 8e52 e8bd 0bd6 9ebc
000000f0: 4bcc 9c3c e2ee c8ba 1a6f fe3d d812 2cbe
00000100: 6ea8 3d3e b0f8 bb3b e06e 3a3c 708b 363d
00000110: 5c5b d63d 1370 003e 55e8 9f3b 3373 c03c
00000120: 930c 023d f027 133e ae2e 35bd 23ff 7f3d
00000130: 1a1f 583e 28a9 cebc 6d0a bbbc dcad 8e3d
00000140: 28f4 063e bf3e eb3c 97d3 bcbd b1f1 863e
00000150: 4dcf b33c 7e49 9dbc a342 f6bc 9fe2 1dbd
00000160: 91e7 7ebd db72 25be 513e a2bd d9ae 77bc
00000170: 1af7 a3bc dc62 193d 9458 16bd d9d0 7f3d
00000180: 32af 863b 4aca 78bc 1c87 d6bb 262f 09be
00000190: 2d38 6abd 3618 c43a 1ca6 22bc b88e 093d
000001a0: fec8 163e 5bad 053d 3d2d 0a3d 71fe 823d
000001b0: 52fc 913c 86d0 8a3c c09f cabd 003b 02bd
000001c0: ff08 06be 2592 8a3e 0bf3 4f3e 0dba ab3d
000001d0: d268 d33d 38b4 003e 21b3 93bc e2a2 b4bd
000001e0: 2c90 37bc 85ad 03bd 3f0d 963d a748 d9bc
000001f0: e280 cc3c 492f 51bd dc80 f3bc de2c 643d
00000200: f353 10bd 4fc9 473e 0666 8ebb 61e8 983d
00000210: 9e49 d5bc 7eb6 ae3b 8446 45be 4906 e43d
00000220: fa00 663d 1fa4 41bd 375c bb3d 1d7b afbb
00000230: e0cd cebd 525d e33d 872f e23b c598 d4bd
00000240: f4e4 643e 082c 09be 63c4 f2bd 8202 35be
00000250: 3a85 8fbc d35d 883d 86e0 7c3c 8683 343d
00000260: fab3 a5bd e1ea cfbd 3f00 9e3d 53b5 103e
00000270: 7450 2d3e 1bdc 5fbc c60a 063d 83f4 86bd
00000280: 1af2 043c 8e2e 4ebd 64e2 98bb a691 25ba
00000290: 9afb a13c 9df0 19bd 08c3 0e3d c155 fcbd
000002a0: ea87 3d3d 5746 8b3d ab0d b33c 46d5 c23d
000002b0: d1eb fbbd 6a89 023e b13c 973d c3c5 ffbc
000002c0: 7e0d 1f3e d4ec 60bc c2fa b73c 0c90 263d
000002d0: c813 19bd 6ac8 623d bbe1 083d fb00 0f3e
000002e0: f17f fbbd 6925 653e 5aa3 263d f14a 883d
000002f0: 7381 1f3d 1576 343e 87f3 dcbd 7e9a 813d
00000300: 1834 65ba 8c37 1e3e 2d0f c3bd faae cd3d
00000310: 40b2 1bbe 5b0d 4fbe 492f a23d 69d8 83bd
00000320: ab5c b83d d5be 39bd 8e54 0d3d 6c6e 963d
00000330: bcd6 153d 9e70 94bd b75f 97bd 2d3a c2bc
00000340: b24c 0ebd 0b3f 21bd ebf7 cdbd 000e b13d
00000350: efbc b7bd 2bb8 dbbc 9d4f fcbb 18bb 043e
00000360: a6aa d3bd 65c5 5abd 962b 843d 8e80 113d
00000370: 4b8d 00be 4a76 373e 1f73 88bd eb97 34be
00000380: ecc2 6b3d 37fd 0cbb 7fb2 8f3d f22a 60bc
00000390: 7d74 c5bb e6ae 1cbd 17ee 623d d62b 30bd
000003a0: 12e0 22bd 4625 ff3c 117d 263e 41a2 93bd
000003b0: de00 463e 6272 573d 148d 413e d5f1 253d
000003c0: 1080 e5bd 7826 24bd 7bcd eb3c cd08 38be
000003d0: a4c4 a9bd 40c1 1c3e b306 40be e062 c73d
000003e0: a3d9 9e3c 1a4b 393d 5a7e d5bd 6cf5 d33c
000003f0: e621 5a3d 78e5 31bd a16a 23bd caf3 83bd
-0.025430923 -0.010580565 -0.015525484 0.09689448 0.09688387 0.27138355 0.019995118 0.15839905
-0.0364496 -0.056061447 0.053308774 0.02460132 -0.006067092 0.00711126 0.08030924 0.011750293
-0.07863888 -0.031892937 -0.06920644 -0.13888147 0.20425078 0.039248873 0.152545 0.018040633
-0.10453983 0.1639213 0.059111066 0.02832152 -0.018609935 0.10434883 -0.022602664 -0.08366702
-0.1248457 -0.038532812 0.081235364 0.07389615 -0.035540532 0.08082019 -0.08793548 -0.103069715
0.19633538 0.14150147 0.13992764 -0.09772012 0.023348574 -0.044059053 -0.039048888 0.072634205
0.014103727 -0.13156231 0.0628897 -0.020797232 -0.03330556 -0.024166944 -0.13330004 -0.11611267
0.13187537 -0.1291262 -0.11343871 -0.019389173 0.019140383 -0.0015329982 0.12423535 -0.16804063
0.18521282 0.005736433 0.011378974 0.04456657 0.10466644 0.12542753 0.004879991 0.023492431
0.031750273 0.14370704 -0.04423397 0.062499177 0.21105614 -0.025227144 -0.02283212 0.06966755
0.13179076 0.028716443 -0.09220045 0.2635627 0.021949435 -0.019200083 -0.030061072 -0.0385462
-0.062232558 -0.16157095 -0.07922042 -0.0151173705 -0.020015288 0.037447795 -0.03670557 0.062455032
0.0041102404 -0.015184948 -0.006546868 -0.13396892 -0.05718248 0.0014960829 -0.009927299 0.033583373
0.1472511 0.032636028 0.03373455 0.06396187 0.017820511 0.016945135 -0.09893751 -0.031794548
-0.13089369 0.27064624 0.20307557 0.08385096 0.10322727 0.12568748 -0.018029751 -0.0882013
-0.011203807 -0.032147903 0.07326745 -0.026523901 0.0249638 -0.051070485 -0.02972453 0.05570685
-0.03523631 0.19510387 -0.0043456582 0.07466198 -0.02603608 0.0053318134 -0.19265181 0.11134011
0.056153275 -0.04727566 0.09148448 -0.0053552524 -0.10097861 0.11101784 0.0069026384 -0.10380701
0.22352964 -0.13395703 -0.11853864 -0.17676738 -0.017519582 0.066585205 0.01543439 0.044070743
-0.080909684 -0.101522215 0.07714891 0.1413167 0.16925222 -0.013663317 0.032725118 -0.06589606
0.008114362 -0.050337367 -0.0046656597 -0.0006315954 0.019773293 -0.037582982 0.034853965 -0.12321044
0.046272196 0.06800526 0.021857103 0.09513335 -0.12300838 0.12747732 0.07384623 -0.03122223
0.1553249 -0.013728339 0.022458438 0.040664718 -0.03737238 0.05536691 0.0334184 0.13965218
-0.12280262 0.22377552 0.040683128 0.06654919 0.03894181 0.1762317 -0.10788637 0.06328295
-0.00087434193 0.15450877 -0.09524379 0.1004314 -0.15204716 -0.20219938 0.07919175 -0.06437761
0.0900205 -0.045348007 0.034504466 0.0734528 0.03658174 -0.072480425 -0.07391303 -0.023709381
-0.03474111 -0.039366763 -0.10057052 0.086452484 -0.08971583 -0.026821217 -0.0076999203 0.12961996
-0.10335283 -0.053410906 0.06453626 0.03552299 -0.12553899 0.17916217 -0.066625826 -0.17636077
0.05755894 -0.0021513232 0.07016467 -0.013682114 -0.0060258494 -0.038252734 0.05540284 -0.043010555
-0.03976447 0.031145703 0.16258647 -0.07208682 0.19336268 0.05259932 0.18901473 0.040513832
-0.112060666 -0.04007575 0.028784504 -0.17972107 -0.08289459 0.15308094 -0.18752556 0.09735656
0.019390887 0.045237638 -0.1042449 0.025873862 0.053254984 -0.04343173 -0.03989661 -0.064429834

network_body._body_endoder.seq_layers.2.bias f4 [128]
00000000: d6ba 423c 41bc 873c 4b89 8bbc 7471 b939
00000010: a012 2bba 20f8 e13c e5b9 3f3c 73af 7b3c
00000020: 2ac4 f4bb 3723 a0b9 60f7 23bc ec86 753c
00000030: 8ac4 843b 40c2 8e3c 21a4 3abc 2125 16bc
00000040: 178d b23b 2e0d 683c a52c 573c 963d de3b
00000050: 7b7d 523c 42fb eb3b 42fc 01bb 830a ff3b
00000060: 04de 7e3c a7e5 9ebc 4d51 623c 76cf 963b
00000070: 0a7c 563c fec6 d6bb 375c d5b9 f40c 3bbb
00000080: 5422 58bc 7164 323b 996c fb3b 46be 943b
00000090: c64c 6cbb 8e4a 513c 2edc 363b 6659 8f3b
000000a0: 33a9 44ba 732f ea3b cba8 693b 5557 923b
000000b0: 6d99 8f3c af03 45bc 2716 383c d7c0 723b
000000c0: 0e6e 04bc ccb4 a33b 4dc9 ddbb 0d2e 14bc
000000d0: 33ca 463c 72e8 9c3b 7302 38bb 28fa a437
000000e0: 9eff f23a 6fb4 ed3b 4f67 a13c a96e 86bc
000000f0: ee80 8a3b 59bb cc3b 76fd 3e3c 36f5 063c
00000100: aa14 b43c 45ba 22bb 29df 293c f3b2 eebb
00000110: 1e09 5fbc 1985 9b3b cc42 0b3c 4736 e83b
00000120: 3978 1239 eb4e 6cbb e2c9 acba 0e11 b4bb
00000130: 5503 813c 9ee9 503b 0658 a23b 9f76 9b3c
00000140: 04b8 46bc 6a83 49ba 1236 9dba 44b3 0e3c
00000150: bf0d 913c c8c2 6439 977b 8a3b 7fac b4ba
00000160: 2619 ba3b 6915 353c 0889 a8bc 65a1 4a3c
00000170: a154 4e3a e170 b13b f28d 6bbc decd 11bc
00000180: 907d 1fbc 02f5 fe3a 1fda 9e3a 37a2 beba
00000190: 8232 91bb 071a 343b f8d0 71bb e358 353c
000001a0: 9e1c 5e3c f89b 42bb ce78 683c ac4e 823b
000001b0: 78c1 113b 132e 75bc 9528 e63b 2560 7c3c
000001c0: 3f33 933c a4d3 583c eaf6 223b cb87 a7bb
000001d0: 916f 003b 391a a139 c037 edbb 3990 453c
000001e0: 8caf 493a 5fbc 963c 2485 ceba 61c0 9e3a
000001f0: 25ea 37bc 6638 223a 5c24 ba3b ddc4 a9bb
0.0118853655 0.016569259 -0.01703324 0.0003537048 -0.00065259077 0.027584136 0.011702036 0.015361655
-0.0074696736 -0.00030543815 -0.010007709 0.014985781 0.0040517496 0.01742661 -0.01139167 -0.009164126
0.005448948 0.0141632985 0.013133203 0.006782244 0.0128473 0.007201583 -0.0019834195 0.0077832355
0.015555862 -0.019396616 0.013813329 0.004602368 0.013091097 -0.0065544834 -0.0004069523 -0.0028541656
-0.013191778 0.0027220512 0.007672858 0.004539284 -0.0036056503 0.012774123 0.0027902233 0.004374671
-0.0007502019 0.0071467697 0.0035653587 0.004465977 0.017529214 -0.012024804 0.01123575 0.003704121
-0.00808288 0.004995918 -0.0067683817 -0.0090441825 0.012133169 0.004788452 -0.0028077632 1.9666812e-05
0.0018539315 0.0072541754 0.019702582 -0.016410189 0.0042267954 0.0062479195 0.0116571095 0.008237174
0.02198251 -0.0024830264 0.010368147 -0.007284516 -0.013613014 0.004746091 0.008499812 0.0070865485
0.00013968431 -0.003605778 -0.0013182724 -0.005495197 0.01574866 0.0031877528 0.004954341 0.018977461
-0.012128834 -0.0007687124 -0.0011994264 0.008709732 0.01770675 0.00021816336 0.004226159 -0.0013784318
0.0056792675 0.011052468 -0.020573154 0.012367581 0.0007870887 0.0054150675 -0.014377104 -0.00889918
-0.009734526 0.001945168 0.0012119449 -0.0014544193 -0.00443107 0.0027481334 -0.0036898237 0.0110685555
0.013556628 -0.0029695015 0.014188958 0.0039766636 0.002224056 -0.014964598 0.0070238807 0.015403782
0.017968772 0.013234053 0.002486641 -0.0051126233 0.0019597749 0.0003072785 -0.007239312 0.012058311
0.00076937 0.01840037 -0.0015756232 0.0012111777 -0.011225258 0.00061882136 0.005680604 -0.0051809386

action_model._continuous_distribution.log_sigma f4 [1, 5]
00000000: 88f5 203d adac 123d 2475 a23b 967b 273d
00000010: 7248 87bb
0.039296657 0.035809208 0.004957812 0.040889345 -0.004128509

action_model._continuous_distribution.mu.weight f4 [5, 128]
00000000: 33a7 3c3c 3fd3 013d 0905 f83b 7c09 65bc
00000010: 9da6 48bc 0373 1e3d 7eaa 293d 241f f1bc
00000020: 0202 6f3c 5a0a 163d f016 4abc 10bf 73bc
00000030: 8422 333b 6bb1 05bd ed58 973c f2a2 eb3a
00000040: 0b74 92bc fbb2 df3c 1e65 2e3d d530 543c
00000050: 8786 d6bc 9cf8 903b 8b3b 4cbd 676d 00bc
00000060: 53b4 2ebd f35e 1f3b 05e4 24bd 2955 ae3c
00000070: 3d08 54bc a74b 913c 3b91 e93c 590b 603d
00000080: 86cb 4ebb 734c 0abd 56db 7fbd 4d6c 9c39
00000090: d4fc 8c3b f2b6 0bbd 0c16 6f3d de1d a2bc
000000a0: c37e 973c 5a7b 703c 1cb0 70bd ce70 0a3c
000000b0: 7ab6 beba 86e8 92bc 426d 85bc 5a29 cc3b
000000c0: 0a17 b83c 8ada 98bb fb47 1c3d cee1 9d3c
000000d0: 2a4b 41ba 4ae5 dabc 9c21 2bbc 48cc 69bb
000000e0: 6769 8d3b 6ff0 bfba 074f 023c e5d6 3dbb
000000f0: f213 a2bc 5a60 94bc e3ad 0b3d cf01 463c
00000100: abb6 453d 2bd7 9dbc 5159 dc3c b40d 3f3c
00000110: 76d6 c8bc 5047 d43c f1bf 9fbd bd64 53bc
00000120: dc36 1c3d ad51 e03b 8c39 963d f21b 83bc
00000130: 8185 8abc 728c 7e3b 79ce 8c3b 78db f83c
00000140: 2ad6 4cbc 9040 39bd 85b7 333b c9d3 acba
00000150: c704 febc 938a 183b 3d2a bdbc ad4e 173d
00000160: dc11 57bd 1178 9e3c b1b8 91bc d42b d73c
00000170: 7a0f 0dbd 4b6a 8f3d 4fea e13b f4ae 413d
00000180: 57b0 47bc deeb b13c c687 bd3c 6481 78bb
00000190: bcdb 6f3c 62c2 d6b9 e313 103d 4213 b43c
000001a0: 6702 4bbd ff3e 593d 7f8f 1dbd f865 b2bc
000001b0: 4624 1d3c 5332 283c 9cc1 453c ee88 84bb
000001c0: 3d64 8fbd 1ea4 14bc f693 19bc 4929 083d
000001d0: 88e1 193d c885 d2bc 51d9 d83a 1570 123d
000001e0: b6fb 72bb d25b 8dbc 01c3 0e3d 8efc 18bd
000001f0: 4276 1dbd fd3f 1e3c 44cc 843c ecc5 e5bc
00000200: 1cbe d4bc 3961 dbbc 5a9c d13c e46d 193d
00000210: 0290 1ebd 79c1 bdbc 48a0 cbbc 933b 4dbd
00000220: 6d20 95bc a108 00bc 641b e1b9 7a1e bbbc
00000230: 501b fdbb 1448 94bd 4359 353d a34f e73c
00000240: 680f c8bb 33a7 753c cc15 40bd 093f 40bc
00000250: 82fb 0fbd 09e0 ebbc 200f 543c 4cf0 f8bc
00000260: 7db7 b0bc 4567 3f3c cd1c 43bd 2311 fe3c
00000270: 0aba 523c 5863 d43c bd20 ec3b ace6 633d
00000280: 4a52 203d ae0f 9e3c ae43 2bbc df34 b3bc
00000290: 5551 823c 8e99 acbc 4e6f 3c3d 1715 9c3c
000002a0: 4e4b 153c d0a1 713c ae2f 29bc da13 973c
000002b0: 6214 7dbd e218 483b ea0a 08bc a7ff 3cbb
000002c0: ff5a 033b 3f60 bcbc 8262 c8bc 0f33 65bc
000002d0: e508 e1bc b32a 1abd 5232 693c 2b87 3f3d
000002e0: ade5 7f3d 0a48 e5bc 7a33 2bbd f9cc 7e3c
000002f0: be29 86bc f7cf 6c3b acea 33bd 2e56 68bd
00000300: 27c7 cbbc ef1b 003d 1c55 2b3c ff2b bfbc
00000310: 6f31 3e3d 84db b23c 2c7d d53c 65fa e1bc
00000320: df1e 43bc 1e53 7f3c d7ce bd3b e919 fd3b
00000330: 2218 29bd 1795 133d 9efe 0cbd cd12 44bc
00000340: 6eff ed3b c272 6dbc a176 503d b708 0abd
00000350: 0ae8 fe39 5e4b 883b 73aa 85bc bd74 613c
00000360: de77 cbbc 79ca 12bd 5d6b 413c fe8c 4539
00000370: 80be 093d 5aff cbba 0049 4c3d 52bb 033b
00000380: c71f 053c a88b 09bd 5f41 653c 1958 dd3b
00000390: e5a8 71bc 3049 d9bb e60a 9f3d d1c0 7b3c
000003a0: 8007 1ebd c182 d43c 8bf1 e1bc f63b 11bd
000003b0: 3343 13ba 9e4f 7f3c 2d4a 403c f160 27bd
000003c0: 0d9f a6bd cc02 49bd a972 ffbc a1bc 743c
000003d0: 5501 193d bf58 403d 00f4 2a3d 65f2 f0bc
000003e0: 1c7f 6cbd 2f4a 44bc 54d3 30bc ce13 8c3c
000003f0: 5159 cc3c baf7 013d 0672 c9bc e372 9b3c
0.011514473 0.0316956 0.0075689596 -0.013979312 -0.012246755 0.038683902 0.04142236 -0.029433794
0.014587881 0.036630966 -0.01233457 -0.014877096 0.0027333805 -0.032639902 0.01847502 0.0017977639
-0.0178776 0.027307024 0.0425769 0.012951096 -0.026187195 0.004424168 -0.049861472 -0.007838584
-0.04265244 0.0024318069 -0.04025652 0.021280842 -0.012941417 0.01773627 0.028511634 0.054698322
-0.0031554415 -0.033764314 -0.062465034 0.0002983533 0.0043026004 -0.034110017 0.058370635 -0.019789632
0.018493062 0.014677847 -0.0587617 0.008449746 -0.0014550232 -0.017933141 -0.01628745 0.0062305154
0.022471923 -0.0046647238 0.038154583 0.019272711 -0.0007373566 -0.026720662 -0.010445025 -0.003567474
0.0043155435 -0.0014643798 0.007953412 -0.0028967198 -0.019784901 -0.01811235 0.03410138 0.012085392
0.04826991 -0.01926764 0.026898058 0.011660982 -0.024516325 0.02591291 -0.07800282 -0.012902436
0.038138255 0.006845674 0.07335195 -0.016004536 -0.016909363 0.0038841036 0.0042970744 0.030378088
-0.012502233 -0.045227587 0.0027422619 -0.0013185675 -0.031008137 0.0023275956 -0.02309143 0.036940265
-0.052507266 0.019344361 -0.017788263 0.026266016 -0.034438588 0.07002696 0.006894387 0.04728599
-0.012188039 0.021718916 0.02313603 -0.003791892 0.014639791 -0.00040962087 0.035175215 0.02198184
-0.049562838 0.053038593 -0.038466927 -0.021777138 0.009591168 0.0102659045 0.012070086 -0.0040446436
-0.07001541 -0.009072332 -0.009373656 0.033242498 0.0375686 -0.025698557 0.0016544258 0.03575142
-0.00370763 -0.017255697 0.03485394 -0.03735023 -0.038442858 0.009658811 0.016210683 -0.028048478
-0.025969557 -0.026779758 0.02558725 0.037458315 -0.038711555 -0.023163544 -0.024856701 -0.050105643
-0.018203938 -0.007814557 -0.00042935752 -0.02284168 -0.007724203 -0.0724031 0.04427458 0.028236216
-0.006105352 0.014993477 -0.046895787 -0.011733779 -0.035151966 -0.028793352 0.012943059 -0.03038802
-0.021571869 0.011682336 -0.04763489 0.03101403 0.012861738 0.025926277 0.007206051 0.055639908
0.039140977 0.019294586 -0.010453148 -0.021875797 0.015907923 -0.021069314 0.046004586 0.019053025
0.009112192 0.014748052 -0.010326309 0.018442083 -0.061787017 0.003053241 -0.008303383 -0.0028838904
0.0020043252 -0.022995112 -0.024461035 -0.013989224 -0.027470062 -0.037638377 0.014233189 0.046759766
0.062474895 -0.027988452 -0.04179714 0.015551799 -0.016377326 0.00361347 -0.043924972 -0.056722812
-0.024875237 0.03127664 0.010457303 -0.023336409 0.046433862 0.021833189 0.026060663 -0.027585218
-0.011909216 0.0155837815 0.0057924795 0.007724036 -0.04128278 0.036030855 -0.03442251 -0.011967373
0.0072631156 -0.014492692 0.050894383 -0.033699717 0.00048619538 0.004159375 -0.016316628 0.013760743
-0.02483743 -0.035837624 0.011805383 0.00018839908 0.03362894 -0.0015563772 0.049874306 0.0020100665
0.008125252 -0.033580452 0.013992636 0.006754887 -0.01474974 -0.006631039 0.077657506 0.015365795
-0.03858137 0.025941255 -0.027580997 -0.035457574 -0.00056176184 0.015582947 0.011736435 -0.040863935
-0.08135805 -0.049074933 -0.031182604 0.014937551 0.037354786 0.046959635 0.041736603 -0.029412458
-0.05773841 -0.011980577 -0.010792572 0.017099287 0.024944933 0.03173039 -0.024590503 0.01897568

action_model._continuous_distribution.mu.bias f4 [5]
00000000: e801 12b7 6434 9cbc 2a5a 44bb 3e0e 4b3c
00000010: 5cc8 b73a
-8.702722e-06 -0.01906795 -0.0029960969 0.012393532 0.0014021504
