config/results/AgrConserv_Refactored_2M_Almost-Final_v4/Hummingbird_Conservative/Hummingbird_Conservative-1499968.pt (torch, 574603 bytes, 36 tensors)

network_body._body_endoder.seq_layers.0.weight f4 [128, 47]
-0.0093609495 -0.07120885 -0.036799546 -0.21433498 0.004538055 -0.122858465 -0.074393556 0.11122559
0.08575786 -0.03379261 0.025626585 0.19236766 -0.1151312 0.038977847 0.085657224 -0.16842121
0.04203767 0.060069777 0.011669964 -0.13543677 0.020413866 -0.040399715 -0.009204679 -0.25110337
0.29428557 0.08474875 0.052970205 -0.010205813 0.112942345 -0.00931053 -0.21702558 0.056013353
-0.06519677 0.12264802 -0.15392196 -0.09447161 -0.07602614 0.0045941025 -0.0761551 0.0026460092
-0.32135892 -0.07114957 -0.07833071 -0.035017673 -0.22303101 -0.49374613 0.10919198 -0.40984127
-0.27888292 -0.12598862 -0.15307657 0.041966233 0.017824905 -0.21982157 0.05068149 -0.102316834
-0.013641941 -0.011157352 0.02618083 -0.11056426 -0.1267142 -0.10953496 0.102422364 -0.1907748
0.083644636 -0.21260162 -0.0472108 -0.20001729 0.07901373 -0.03129789 0.09738007 0.055408277
-0.21192326 -0.08110656 -0.17273654 -0.112694286 0.14894043 0.13375996 0.07924361 0.17509209
0.033622093 -0.15054838 -0.006944816 -0.0111821145 -0.17481679 -0.01166433 -0.062180825 0.31808987
-0.25427136 0.055913985 -0.24579394 0.010805376 -0.0072147013 0.20927909 0.080905356 0.24138168
0.06102955 0.025909426 0.030903235 -0.08150797 0.076808244 -0.07938205 -0.12782152 -0.06421957
-0.13444395 0.13809323 -0.061147455 0.015131117 -0.08654369 0.054359816 0.016025223 0.14808087
-0.03788679 0.1626985 -0.04235652 -0.27067944 0.1713412 0.014879248 -0.16014278 0.09645184
0.008333491 0.20252366 -0.104718745 -0.04987268 0.11567981 -0.13605984 0.04799133 0.011019587
0.17303227 0.1145869 0.06937434 0.10515073 0.1719455 -0.032780513 -0.058781497 0.17957102
0.22248773 -0.22521572 0.24632955 0.19663595 -0.13094677 0.062240165 -0.0794335 -0.105899885
-0.13576174 0.3077357 0.17779726 -0.24219687 -0.17569812 0.015786426 0.026504124 -0.17898493
-0.047621157 0.0132743055 0.19054924 0.12716308 0.13338701 -0.12160631 -0.03602646 -0.005572306
0.052268688 0.22217827 -0.1472017 -0.013618497 -0.18426576 -0.04980006 0.036131106 0.17727178
0.31525907 -0.08473212 -0.17652255 -0.13358049 0.12284462 0.123946734 0.11752556 0.16320421
-0.100446366 -0.12452584 0.16093107 -0.08084433 -0.0644855 -0.04896988 -0.069781534 -0.079981305
0.16073848 0.011179756 -0.05041026 -0.13449939 -0.13823894 -0.108464204 -0.051794466 0.35440284
-0.04957889 -0.36622056 0.027339512 -0.08519376 0.034728937 -0.13209398 0.047372926 -0.079110965
-0.034630615 0.023950333 -0.12724873 0.06504223 -0.049481243 -0.01825294 -0.041328542 -0.06540632
-0.13589741 -0.018827563 0.08686855 -0.115517884 0.004176372 0.2937929 -0.1723891 -0.17650372
-0.37132943 -0.031920746 0.1949074 0.028058097 -0.099735506 -0.008104467 0.030436203 -0.21380801
0.030620337 0.067702435 -0.08347215 -0.04115885 -0.30576393 -0.011739156 0.0768074 -0.17433715
0.17790437 0.035219688 0.15395656 -0.0462462 -0.04407282 0.051546913 0.10374858 0.25289634
0.14110643 0.3179675 -0.19344856 0.0038694374 -0.131557 -0.11738493 0.17818116 0.2697055
0.18623005 0.1699682 0.0005377594 0.20460917 -0.032793038 -0.024666563 0.059649955 0.033556256
00000000: ab5e 19bc f2d5 91bd 1fbb 16bd a17a 5bbe
00000010: f7b3 943b 389d fbbd a65b 98bd 3eca e33d
00000020: d1a1 af3d 1f6a 0abd d8ee d13c 07fc 443e
00000030: e8c9 ebbd 3ca7 1f3d 0e6d af3d 9c76 2cbe
00000040: b12f 2c3d ba0b 763d 6033 3f3c f0af 0abe
00000050: fb3a a73c 2c7a 25bd 39cf 16bc 9f90 80be
00000060: 99ac 963e c190 ad3d 49f7 583d 4836 27bc
00000070: 514e e73d 318b 18bc f43b 5ebe 426e 653d
00000080: e285 85bd e32e fb3d b89d 1dbe 557a c1bd
00000090: 98b3 9bbd 208a 963b 34f7 9bbd ab68 2d3b
000000a0: 2889 a4be deb6 91bd da6b a0bd b16e 0fbd
000000b0: 3e62 64be 4bcc fcbe 0ba0 df3d b7d6 d1be
000000c0: bec9 8ebe 2903 01be 1bc0 1cbe c9e4 2b3d
000000d0: 8905 923c e818 61be 6597 4f3d 7d8b d1bd
000000e0: 7382 5fbc 53cd 36bc 2e79 d63c 846f e2bd
000000f0: 5ec1 01be dd53 e0bd d1c2 d13d 785a 43be
00000100: e14d ab3d 3db4 59be 1d60 41bd 55d1 4cbe
00000110: f3d1 a13d 3732 00bd 346f c73d caf3 623d
00000120: 6902 59be 321b a6bd d9e1 30be 43cc e6bd
00000130: d783 183e 5ff8 083e 794a a23d 574b 333e
00000140: 52b7 093d 5b29 1abe 5791 e3bb 3035 37bc
00000150: 2c03 33be bf1b 3fbc 52b1 7ebd addc a23e
00000160: db2f 82be 1006 653d 68b1 7bbe 0809 313c
00000170: 4d69 ecbb 424d 563e b5b1 a53d c22c 773e
00000180: 1ffa 793d 0140 d43c c828 fd3c a7ed a6bd
00000190: a44d 9d3d 0e93 a2bd a5e3 02be 8d85 83bd
000001a0: adab 09be 5068 0d3e c175 7abd 81e8 773c
000001b0: d13d b1bd 66a8 5e3d 5447 833c 83a2 173e
000001c0: 2e2f 1bbd 709a 263e 087e 2dbd 7f96 8abe
000001d0: 1174 2f3e 17c8 733c 78fc 23be 8b88 c53d
000001e0: 3289 083c 5d62 4f3e c876 d6bd 4c47 4cbd
000001f0: 89e9 ec3d 4553 0bbe 8f92 443d 7f8b 343c
00000200: 5f2f 313e 89ac ea3d 2214 8e3d 4459 d73d
00000210: 7b12 303e dc44 06bd dec4 70bd 77e1 373e
00000220: d3d3 633e f39e 66be d03d 7c3e ef5a 493e
00000230: e916 06be 8bef 7e3d 08ae a2bd 0ae2 d8bd
00000240: 2005 0bbe 898f 9d3e 7c10 363e 7502 78be
00000250: 35ea 33be 8952 813c 2d1f d93c d347 37be
00000260: 670e 43bd 797c 593c 571f 433e 0a37 023e
00000270: 9b96 083e bb0c f9bd 7b90 13bd e497 b6bb
00000280: b117 563d b382 633e 0bbc 16be 1e20 5fbc
00000290: 2ab0 3cbe 26fb 4bbd 36fe 133d bc86 353e
000002a0: a369 a13e 0988 adbd 54c2 34be 53c9 08be
000002b0: f695 fb3d c9d7 fd3d 3eb1 f03d 011f 273e
000002c0: d3b6 cdbd 6707 ffbd 1dcb 243e b691 a5bd
000002d0: f910 84bd a494 48bd 9fe9 8ebd 3dcd a3bd
000002e0: a198 243e 4c2b 373c fd7a 4ebd 35ba 09be
000002f0: 828e 0dbe 7b22 debd 6f26 54bd 4a74 b53e
00000300: 3c13 4bbd 4381 bbbe 1df7 df3c 117a aebd
00000310: ee3f 0e3d a543 07be 1d0a 423d ee04 a2bd
00000320: d5d8 0dbd 7d33 c43c 7e4d 02be dc34 853d
00000330: d8ac 4abd 3187 95bc 1e48 29bd c0f3 85bd
00000340: b128 0bbe 433c 9abc 23e8 b13d a494 ecbd
00000350: f3d9 883b 066c 963e c586 30be 64bd 34be
00000360: e41e bebe 54bf 02bd ce95 473e 18da e53c
00000370: 2142 ccbd 99c8 04bc 5855 f93c 7df0 5abe
00000380: 80d7 fa3c 93a7 8a3d 72f3 aabd 2f96 28bd
00000390: 178d 9cbe 9755 40bc 334d 9d3d 7085 32be
000003a0: 902c 363e 8542 103d caa6 1d3e a86c 3dbd
000003b0: b485 34bd db22 533d 237a d43d a17b 813e
000003c0: 347e 103e a3cc a23e 6117 46be 6396 7d3b
000003d0: e1b6 06be 8367 f0bd 1f75 363e d716 8a3e
000003e0: 17b3 3e3e 250c 2e3e 6cf8 0c3a 1185 513e
000003f0: fe51 06bd 8811 cabc 8353 743d 4972 093d

network_body._body_endoder.seq_layers.0.bias f4 [128]
0.04506562 -0.022603905 0.0017461296 0.0056411806 -0.018102087 0.025680995 0.0060471855 0.0033347178
-0.021032263 0.01601596 0.020696068 0.00292264 0.026606925 0.009629102 -0.011653725 0.023572585
0.024105147 -0.0027639624 -0.0012336122 -0.021488884 -0.0021581189 0.01238993 0.009654186 0.002044525
0.0008240311 0.009993882 0.0049274643 0.029726934 0.023576254 0.017376792 -0.0009563528 -0.009364796
0.007989716 0.016829964 -0.0052543567 -0.008020999 -0.002198903 0.022597536 0.052291412 -0.01652294
0.046924118 -0.0010564262 0.008517141 -0.010548394 -0.0010069249 -0.030301953 -0.0046458077 0.018579703
-0.00037274195 -0.004431416 0.015123614 -0.011824218 0.013297331 0.01736205 0.015108739 0.0056335228
0.017820807 0.026339702 0.0045679533 -0.0013533647 -0.029261108 0.018635921 0.011755284 0.006951999
0.02996215 0.019724254 -0.007969806 0.011797227 0.016521182 0.037920583 0.012118817 -0.01685217
0.027843356 0.019160977 0.032930683 0.023753252 0.006419162 0.018339254 0.026303178 -0.012226654
-0.014961902 0.014106083 0.018948762 0.010357216 -0.0028297019 0.019372016 -0.020902287 0.008505374
-0.01710057 0.0025162608 0.034560975 -0.007195863 0.005920966 0.032960657 0.027195109 -0.026225176
-0.030798066 0.00051549927 0.023988651 0.017882604 0.015700325 -0.01543737 0.007088331 -0.04471594
-0.0015423952 0.0005005 -0.022964945 0.0018468915 0.013175254 0.031797558 0.023945734 -0.021450957
-0.012281621 -0.004436318 0.0044658156 0.00539117 -0.0066283536 0.022206182 -0.030528693 -0.006229523
0.021418639 -0.01234807 0.0027804296 0.02040354 0.009329134 0.021011744 0.019830763 -0.004887987
00000000: ba96 383d d32b b9bc 63de e43a a7d9 b83b
00000010: d44a 94bc f360 d23c 7827 c63b 488b 5a3b
00000020: da4b acbc e733 833c cd8a a93c c389 3f3b
00000030: c4f6 d93c 62c3 1d3c 44ef 3ebc 4b1b c13c
00000040: 2878 c53c 9823 35bb 28b1 a1ba 7509 b0bc
00000050: 3a6f 0dbb 22ff 4a3c 972c 1e3c 70fd 053b
00000060: cb03 583a 61bd 233c 9176 a13b e685 f33c
00000070: fd22 c13c c659 8e3c c0b3 7aba cd6e 19bc
00000080: 4ce7 023c fede 893c bd2c acbb 826a 03bc
00000090: 781b 10bb 781e b93c 852f 563d 1e5b 87bc
000000a0: 8133 403d c877 8aba 7b8b 0b3c 2cd3 2cbc
000000b0: cbfa 83ba cd3b f8bc dc3b 98bb 7634 983c
000000c0: 946c c3b9 6935 91bb 09c9 773c 5dba 41bc
000000d0: 0cdd 593c dc3a 8e3c a58a 773c 6a99 b83b
000000e0: f1fc 913c 5cc6 d73c c5ae 953b 6263 b1ba
000000f0: feb4 efbc 5caa 983c 3c99 403c 98cd e33b
00000100: 2f73 f53c c294 a13c ca93 02bc 2849 413c
00000110: 6e57 873c 9d52 1b3d 018e 463c 900d 8abc
00000120: c017 e43c 7bf7 9c3c 53e2 063d 2e96 c23c
00000130: d557 d23b 343c 963c c379 d73c 4e52 48bc
00000140: c422 75bc 331d 673c 6f3a 9b3c 50b1 293c
00000150: 8572 39bb 10b2 9e3c 463b abbc 205a 0b3c
00000160: 7f16 8cbc dae7 243b cf8f 0d3d 46cb ebbb
00000170: aa04 c23b c101 073d 47c8 de3c 2ed6 d6bc
00000180: 3a4c fcbc 9222 073a d983 c43c 8a7e 923c
00000190: f89d 803c 06ed 7cbc 3b45 e83b 1028 37bd
000001a0: 322a caba fd33 033a fb20 bcbc 6513 f23a
000001b0: 05dd 573c 283e 023d d829 c43c ebb9 afbc
000001c0: da38 49bc 885e 91bb fa55 923b 69a8 b03b
000001d0: a932 d9bb bde9 b53c 4f17 fabc 0721 ccbb
000001e0: 2476 af3c 8f4f 4abc de37 363b 5325 a73c
000001f0: 39d9 183c d220 ac3c 2074 a23c 682b a0bb

network_body._body_endoder.seq_layers.2.weight f4 [128, 128]
-0.0035123776 -0.026584288 -0.018547054 0.108137466 0.08208287 0.2859128 0.005332196 0.14088322
-0.05257219 -0.058535855 0.065264866 0.020029657 -0.0013945025 0.02690072 0.09433571 0.022650693
-0.07980315 -0.0111787915 -0.07206151 -0.13328758 0.20828949 0.054812357 0.16684346 0.005632777
-0.11460795 0.14549136 0.06772822 0.037643682 0.001705613 0.1125146 -0.011123117 -0.098313116
-0.11735787 -0.030732896 0.08174761 0.07387365 -0.02603983 0.08875117 -0.078202255 -0.11733672
0.21105272 0.14607112 0.1344922 -0.102496535 0.011227275 -0.04476519 -0.024295988 0.07119542
0.028797846 -0.14809306 0.051466558 -0.025683211 -0.023633586 -0.008564826 -0.11972472 -0.11427409
0.12932512 -0.11057055 -0.1032572 -0.036457255 0.02281892 0.012094366 0.13668396 -0.18676917
0.20361605 0.025533177 -0.0053027053 0.032676496 0.11876642 0.123097844 0.017501913 0.03646126
0.044838104 0.15190433 -0.024099398 0.070667595 0.21953297 -0.01647624 -0.01975204 0.08556864
0.11718888 0.017888585 -0.09236865 0.2668215 0.029929364 -0.006729847 -0.044833425 -0.035338383
-0.07756086 -0.17886867 -0.08528493 -0.019514075 -0.037804484 0.059872296 -0.049361993 0.055055834
-0.00055579626 -0.029470516 0.0035591302 -0.11519894 -0.04571932 -0.0011542825 -0.0034543418 0.018084478
0.14825726 0.044708237 0.01946559 0.062495004 0.0061958483 0.033652566 -0.07595485 -0.046397623
-0.14282995 0.25520536 0.21439478 0.07870008 0.106791586 0.14729476 -0.027448667 -0.08915304
-0.021309985 -0.017948212 0.059652656 -0.031885717 0.037089698 -0.035279915 -0.010898139 0.07482313
-0.032033477 0.18907048 -0.021202918 0.0786869 -0.03809681 0.009712507 -0.19538847 0.096460305
0.045378566 -0.04377546 0.09525081 -0.007267465 -0.08169506 0.12371402 0.012257508 -0.092151105
0.23623586 -0.12097537 -0.12190921 -0.19151561 -0.012634319 0.07115198 0.028137634 0.04200352
-0.10720307 -0.10445711 0.08384658 0.15326326 0.18276574 -0.008298424 0.03369333 -0.071828805
0.008487355 -0.047374822 -0.018434212 -0.0031882215 0.0169979 -0.031290375 0.03545556 -0.12847419
0.061081048 0.06814926 0.028949393 0.08589772 -0.12919807 0.1250054 0.07390724 -0.026493264
0.17421652 -0.02195077 0.017247198 0.038032535 -0.031700816 0.06354061 0.049226936 0.13136692
-0.12354739 0.23950374 0.037770886 0.059260678 0.043992057 0.18679394 -0.09180232 0.056617733
0.023192469 0.16141027 -0.10204945 0.09452785 -0.1507985 -0.1926563 0.08209354 -0.07102797
0.11366038 -0.03895996 0.049342692 0.08808516 0.04437157 -0.062462315 -0.068992235 -0.022547575
-0.04269288 -0.04478525 -0.09247047 0.09501415 -0.085512586 -0.020173289 -0.01467676 0.13903002
-0.111831084 -0.06184774 0.07176016 0.031818848 -0.14705712 0.18550335 -0.06627435 -0.18474682
0.057007328 -0.007683435 0.07214811 -0.0054177144 -0.005947854 -0.031103477 0.047400516 -0.050975993
-0.03718116 0.025840206 0.1558025 -0.07413451 0.19100045 0.056389514 0.20469253 0.030555492
-0.120300926 -0.047826495 0.018109288 -0.19009463 -0.094506666 0.16767849 -0.19154368 0.08963056
0.015786014 0.050027814 -0.12853377 0.01768022 0.05220356 -0.035491925 -0.029754072 -0.0616236
00000000: eb2f 66bb 4bc7 d9bc feef 97bc 2d77 dd3d
00000010: 101b a83d 2a63 923e b4b9 ae3b b143 103e
00000020: f055 57bd 4bc3 6fbd 96a9 853d 3c15 a43c
00000030: bdc7 b6ba e65e dc3c 1533 c13d f28d b93c
00000040: d56f a3bd 4027 37bc fc94 93bd 8a7c 08be
00000050: d749 553e ec82 603d 03d9 2a3e 2993 b83b
00000060: 93b7 eabd b0fb 143e 18b5 8a3d 4330 1a3d
00000070: e08e df3a 0e6e e63d bc3d 36bc 6358 c9bd
00000080: 5359 f0bd 8ec3 fbbc 4a6b a73d 114b 973d
00000090: 7b51 d5bc 2cc3 b53d 8128 a0bd 3c4e f0bd
000000a0: 341e 583e ab93 153e 53b8 093e b4e9 d1bd
000000b0: 9bf2 373c b45b 37bd 6108 c7bc e8ce 913d
000000c0: 76e9 eb3c b5a5 17be 99ce 523d 9965 d2bc
000000d0: 399b c1bc 7c53 0cbc 3c32 f5bd 8908 eabd
000000e0: ce6d 043e d072 e2bd 8378 d3bd 3454 15bd
000000f0: beee ba3c 7327 463c e1f6 0b3e 6b40 3fbe
00000100: ba80 503e f42a d13c 51c2 adbb cad7 053d
00000110: cf3b f33d b91a fc3d 2c60 8f3c 6758 153d
00000120: 29a8 373d cf8c 1b3e 1a6c c5bc 2cba 903d
00000130: 40cd 603e 2ef9 86bc 08cf a1bc 9c3e af3d
00000140: b900 f03d 158b 923c c62b bdbd d49c 883e
00000150: 6d2e f53c 0c86 dcbb 41a3 37bd fbbe 10bd
00000160: 3ad8 9ebd 5929 37be dea9 aebd fbdb 9fbc
00000170: e0d8 1abd a73c 753d cd2f 4abd 3a82 613d
00000180: dbb2 11ba 276c f1bc 4c40 693b 6ced ebbd
00000190: 2f44 3bbd 4b4b 97ba 3d62 62bb e625 943c
000001a0: c0d0 173e fc1f 373d 4d76 9f3c c3fa 7f3d
000001b0: 8b06 cb3b 46d7 093d 378e 9bbd 6f0b 3ebd
000001c0: 0442 12be 47aa 823e 4e8a 5b3e 822d a13d
000001d0: 8cb5 da3d 70d4 163e 07dc e0bc de95 b6bd
000001e0: 4792 aebc 2108 93bc 5856 743d 999a 02bd
000001f0: 5eeb 173d ac81 10bd 1c8e 32bc df3c 993d
00000200: 8935 03bd b19b 413e beb1 adbc 9926 a13d
00000210: 670b 1cbd 3521 1f3c ea13 48be fb8c c53d
00000220: e0de 393d e64d 33bd db12 c33d ea23 eebb
00000230: bd4f a7bd c75d fd3d b7d3 483c b8b9 bcbd
00000240: d0e7 713e efc1 f7bd 89ab f9bd ab1c 44be
00000250: 2d00 4fbc 21b8 913d e580 e63c e20b 2c3d
00000260: 488d dbbd 9ced d5bd c1b7 ab3d 0bf1 1c3e
00000270: f126 3b3e 1df6 07bc 0402 0a3d fb1a 93bd
00000280: 8c0e 0b3c 1a0c 42bd 5803 97bc 7bf1 50bb
00000290: 2e3f 8b3c 562a 00bd d939 113d bd8e 03be
000002a0: 1f30 7a3d d791 8b3d 4727 ed3c 25eb af3d
000002b0: 804c 04be 6a01 003e ae5c 973d 6708 d9bc
000002c0: d165 323e 1ad2 b3bc ff49 8d3c 01c8 1b3d
000002d0: b7d8 01bd 9421 823d 2fa2 493d 0d85 063e
000002e0: 6a06 fdbd 7840 753e a5b5 1a3d 53bb 723d
000002f0: 0431 343d e946 3f3e db02 bcbd ffe7 673d
00000300: 22fe bd3c bc48 253e 4dff d0bd d197 c13d
00000310: ec6a 1abe b147 45be a820 a83d 1d77 91bd
00000320: c6c6 e83d 7b94 1fbd 901b 4a3d fe65 b43d
00000330: f7be 353d 7cd8 7fbd cd4b 8dbd b1b5 b8bc
00000340: bbde 2ebd bd70 37bd 2861 bdbd c796 c23d
00000350: 3921 afbd 7442 a5bc cb76 70bc e35d 0e3e
00000360: b207 e5bd 0e54 7dbd fef6 923d 7b54 023d
00000370: 2496 16be 97f4 3d3e d9ba 87bd 452e 3dbe
00000380: 8480 693d 53c5 fbbb 63c2 933d 1587 b1bb
00000390: 37e6 c2bb b8cc febc 0b27 423d 34cc 50bd
000003a0: 464b 18bd d7ae d33c b18a 1f3e d5d3 97bd
000003b0: 9f95 433e b1f8 663d eb9a 513e 834f fa3c
000003c0: 5560 f6bd b7e5 43bd ee59 943c 2ba8 42be
000003d0: b68c c1bd e9b3 2b3e 0724 44be 3a90 b73d
000003e0: ac51 813c f7e9 4c3d 5b9e 03be 1cd6 903c
000003f0: 66d3 553d fb5f 11bd d0be f3bc 0769 7cbd

network_body._body_endoder.seq_layers.2.bias f4 [128]
0.027321806 0.024893437 -0.026230292 -0.0017893862 0.015404674 0.035587348 0.01931451 0.028986502
-0.004378272 0.009856995 -0.0029086608 0.018162254 0.007613989 0.030542219 -0.01835282 -0.012621689
0.013306066 0.016630704 0.029859202 0.016475936 0.021805255 0.019457344 -0.0012239012 0.01914271
0.023687722 -0.021237671 0.024462884 -0.002925036 0.0107128145 -0.0077310884 0.0051437523 -0.007617944
-0.026584662 0.0009082892 0.008107977 0.017729916 -0.0072765048 0.016639743 -0.002482471 -0.008343244
-0.0061333287 0.01026957 0.015181229 -0.00433145 0.033855952 -0.01081971 0.018148392 0.008797484
-0.0028956216 0.01888102 1.04558185e-05 -0.002467612 0.020942433 0.0159722 -0.005320604 -0.013023629
-0.00028483468 0.019853793 0.026904719 -0.023073733 0.008718688 0.009794704 0.027845416 0.023854515
0.028870286 -0.007827505 0.009889306 0.009513391 -0.023850605 -0.00085541484 0.00656318 0.01650758
0.013817927 0.0017511599 0.0030332308 -0.0068294713 0.028661652 0.012157253 0.020447424 0.027525226
-0.022002598 0.0036408387 -0.011172575 0.01475046 0.022748737 -0.0040534786 0.017765878 0.00349969
0.0150690535 0.022291861 -0.027957706 0.020938184 -0.01003046 0.017717613 -0.021826083 -0.0038197685
-0.0069313934 0.0152070895 0.0019690946 0.008081889 0.0077127917 0.0066800714 -0.0064279833 0.01261171
0.023954462 0.0008277273 0.0210677 0.015719926 0.0031161518 -0.013683302 0.00642745 0.027945481
0.033306293 0.027259229 0.015349497 -0.0054861177 -0.0028183064 -0.011286895 -0.017998643 0.022085441
0.01356013 0.024921065 -2.6864596e-05 0.0050802 -0.016334804 -0.0066160187 0.02000417 -0.0011604016
00000000: fbd1 df3c 52ed cb3c e9e0 d6bc d689 eaba
00000010: e363 7c3c 0ac4 113d 7739 9e3c 1a75 ed3c
00000020: 9c77 8fbb 3c7f 213c 3b9f 3ebb 02c9 943c
00000030: c57e f93b ad33 fa3c a758 96bc 33cb 4ebc
00000040: b001 5a3c 1d3d 883c 499b f43c 8bf8 863c
00000050: efa0 b23c 0265 9f3c 4f6b a0ba 2cd1 9c3c
00000060: c10c c23c a0fa adbc 6366 c83c f6b1 3fbb
00000070: cd84 2f3c 1255 fdbb ec8c a83b f29f f9bb
00000080: 14c8 d9bc 421a 6e3a 52d7 043c 543e 913c
00000090: bf6f eebb 1250 883c f4b0 22bb 1ab2 08bc
000000a0: 17fa c8bb b341 283c b1ba 783c d6ee 8dbb
000000b0: 8aac 0a3d 2745 31bc f0ab 943c 5323 103c
000000c0: 78c4 3dbb 5eac 9a3c 666b 2f37 a9b7 21bb
000000d0: 778f ab3c 22d8 823c 7658 aebb 0f61 55bc
000000e0: dd55 95b9 6ca4 a23c 4967 dc3c 2005 bdbc
000000f0: d4d8 0e3c f779 203c 121c e43c 8b6a c33c
00000100: 6181 ec3c ef3e 00bc c106 223c 0ede 1b3c
00000110: 5862 c3bc eb3d 60ba f20f d73b e83a 873c
00000120: 9664 623c 2d87 e53a 2bc9 463b c2c9 dfbb
00000130: d7cb ea3c 372f 473c 5b81 a73c 957c e13c
00000140: cb3e b4bc 239b 6e3b 2d0d 37bc eaab 713c
00000150: 8f5b ba3c 0bd3 84bb bf89 913c 0e5b 653b
00000160: 31e4 763c 6c9d b63c 8f07 e5bc 8e86 ab3c
00000170: cc56 24bc 8724 913c 9dcc b2bc 1555 7abb
00000180: be20 e3bb 2827 793c ed0b 013b e669 043c
00000190: 96bb fc3b 80e4 da3b d5a1 d2bb 58a1 4e3c
000001a0: 263c c43c d7fb 583a 2b96 ac3c 13c7 803c
000001b0: 5a38 4c3b ee2f 60bc 5c9d d23b eced e43c
000001c0: 2e6c 083d bf4e df3c 757c 7b3c e4c4 b3bb
000001d0: 56b3 38bb abec 38bc e471 93bc 87ec b43c
000001e0: 4f2b 5e3c 4327 cc3c 485b e1b7 ce77 a63b
000001f0: 91d0 85bc 30cb d8bb c9df a33c 9e18 98ba

action_model._continuous_distribution.log_sigma f4 [1, 5]
0.042518597 0.048009854 0.013015599 0.07017926 0.013106516
00000000: fb27 2e3d fba5 443d 613f 553c 25ba 8f3d
00000010: b6bc 563c

action_model._continuous_distribution.mu.weight f4 [5, 128]
0.010293392 0.032440305 0.008209116 -0.015744431 -0.018991843 0.03817053 0.038373027 -0.044385165
0.01768335 0.06858413 -0.03645205 -0.018253848 0.004921276 -0.032317434 0.026625419 0.005266206
-0.020748649 0.038726136 0.069029026 0.018942963 -0.034732755 0.0051724487 -0.09453243 -0.0060756244
-0.05446987 0.0124057075 -0.04991949 0.023404399 -0.023224356 0.019948151 0.050555695 0.056347903
-0.0008804791 -0.05027599 -0.07692144 -0.0014715929 0.0018540372 -0.045931045 0.06445748 -0.01815591
0.02867125 0.021575453 -0.07982623 0.0062896465 0.0056222235 -0.018148579 -0.036211304 -0.008715421
0.03968545 0.0023868564 0.04858984 0.020379739 0.004396602 -0.045757886 -0.008019548 -0.006398808
0.0024885323 -0.014822266 0.010197253 -0.00093787187 -0.042980157 -0.025525851 0.04432728 0.021311428
0.04750366 -0.036691017 0.034090836 0.028178558 -0.044607963 0.027503802 -0.11657513 -0.009868135
0.07046103 0.004641657 0.089218736 -0.0116724195 -0.030714102 0.018527059 0.014067694 0.0334943
-0.010779825 -0.06016437 0.004677378 -0.0065002716 -0.05073454 -0.00912936 -0.020748308 0.06299003
-0.061590962 0.028236885 -0.017284593 0.036318343 -0.050311834 0.119427025 0.0068776384 0.056207787
-0.013018824 0.025499862 0.041238118 -0.011442076 0.030887492 0.00823163 0.037178 0.020283109
-0.060822353 0.073269516 -0.051576477 -0.020724455 0.013045762 0.013309135 0.018951274 -0.0016948114
-0.081286706 -0.0088329725 -0.006622265 0.02318619 0.040436316 -0.024753092 0.0039831353 0.050990466
-0.00041603605 -0.01221826 0.032536823 -0.061248932 -0.05104534 0.014265604 0.010452208 -0.05597403
-0.051533815 -0.04448774 0.049339034 0.049339842 -0.06291946 -0.04481615 -0.04660836 -0.06922781
-0.009498873 -0.0049368376 -0.0041180854 -0.039643615 -0.009509922 -0.09111483 0.047301058 0.048432335
-0.026380526 0.0023824673 -0.06377951 -0.034656335 -0.05683192 -0.048960276 -0.0058754743 -0.047500804
-0.04398474 0.021425817 -0.06717953 0.026355147 -0.0047632763 0.04063758 0.0029551443 0.079196736
0.06169864 0.019272845 -0.014062192 -0.024863897 0.003102045 -0.021056242 0.05782173 0.040244427
0.037020657 0.002420125 -0.04826729 0.039763685 -0.08140412 0.022506582 -0.03223099 -0.018305533
0.003668543 -0.04005553 -0.015778184 -0.030484516 -0.03348963 -0.059725378 0.031603005 0.06629399
0.07820022 -0.053228837 -0.05913554 0.032832004 -0.010988819 -0.017267546 -0.06773127 -0.07366947
-0.044495232 0.041916337 -0.0022579178 -0.041617457 0.051525213 0.041186333 0.012636986 -0.043445196
-0.025521187 -0.0076800017 0.010457791 0.024203708 -0.0611251 0.03326878 -0.047682025 -0.03171018
0.03727441 -0.021279141 0.07004914 -0.049529895 -0.028077511 0.002408168 -0.037079297 -0.0025541172
-0.041551296 -0.055767644 0.01732505 0.008977451 0.048758987 -0.0055522798 0.069331914 -0.013568617
0.022020252 -0.055554733 0.03114939 -0.020114228 -0.031019133 0.0027038082 0.095176026 0.0144238025
-0.06321695 0.042309597 -0.03687395 -0.04882557 -0.012607098 0.03594164 0.026660278 -0.058491338
-0.10374265 -0.06840508 -0.03770847 -0.0018566276 0.05381779 0.06506034 0.065364145 -0.046714637
-0.073524445 -0.031177524 -0.03056184 -0.00506178 0.040988337 0.052724604 -0.05288306 -0.0005406956
00000000: 9ea5 283c 20e0 043d 877f 063c 77fa 80bc
00000010: c894 9bbc b458 1c3d 092d 1d3d 38cd 35bd
00000020: acdc 903c d675 8c3d bf4e 15bd 1889 95bc
00000030: a842 a13b 495f 04bd 8d1d da3c 2390 ac3b
00000040: 12f9 a9bc 4c9f 1e3d 175f 8d3d 462e 9b3c
00000050: ef43 0ebd a57d a93b 389a c1bd 0816 c7bb
00000060: cc1b 5fbd 4f41 4b3c 6178 4cbd 95ba bf3c
00000070: 0141 bebc 4e6a a33c 7d13 4f3d 0fcd 663d
00000080: f4cf 66ba 32ee 4dbd fd88 9dbd 77e2 c0ba
00000090: 2a03 f33a 3122 3cbd 4902 843d b4bb 94bc
000000a0: f8df ea3c 01bf b03c ef7b a3bd 6119 ce3b
000000b0: a13a b83b 54ac 94bc 4e52 14bd 20cb 0ebc
000000c0: 368d 223d ce6c 1c3b 2406 473d 69f3 a63c
000000d0: 5f11 903b 9f6c 3bbd 6c64 03bc 18ad d1bb
000000e0: a516 233b 17d9 72bc 6112 273c 84db 75ba
000000f0: f60b 30bd 971b d1bc 8690 353d 4e95 ae3c
00000100: 3393 423d 5249 16bd d5a2 0b3d b8d6 e63c
00000110: d7b6 36bd a74f e13c f1be eebd f5ad 21bc
00000120: df4d 903d 0b19 983b 50b8 b63d ad3d 3fbc
00000130: 249c fbbc 0fc6 973c 2f7c 663c 5231 093d
00000140: dd9d 30bc ea6e 76bd b144 993b 3b00 d5bb
00000150: 05cf 4fbd 5093 15bc 5bf8 a9bc eb00 813d
00000160: ce46 7cbd 0a51 e73c 6b98 8dbc 8bc2 143d
00000170: c813 4ebd 2896 f43d d05d e13b 233a 663d
00000180: e84c 55bc 16e5 d03c 4de9 283d 8c77 3bbc
00000190: c407 fd3c f5dd 063c f547 183d c328 a63c
000001a0: dc20 79bd 540e 963d db41 53bd 55c6 a9bc
000001b0: e4bd 553c 8f0e 5a3c b43f 9b3c 6f24 deba
000001c0: a579 a6bd 2cb8 10bc 96ff d8bb f7f0 bd3c
000001d0: 8da0 253d ffc6 cabc f684 823b 61db 503d
000001e0: 6a1f dab9 192f 48bc 5545 053d 29e0 7abd
000001f0: eb14 51bd 48ba 693c bd3f 2b3c 0645 65bd
00000200: 1f15 53bd c738 36bd ba17 4a3d 9318 4a3d
00000210: ebdb 80bd 2491 37bd 68e8 3ebd 4fc7 8dbd
00000220: 29a1 1bbc 32c5 a1bb 01f1 86bb 5861 22bd
00000230: 81cf 1bbc 699a babd c1be 413d fc60 463d
00000240: f91b d8bc 2b23 1c3b d59e 82bd cdf3 0dbd
00000250: 96c8 68bd 928a 48bd 0d87 c0bb 3490 42bd
00000260: 5829 34bd 3285 af3c 6c95 89bd c0e6 d73c
00000270: 4215 9cbb 9773 263d 18ab 413b e631 a23d
00000280: b7b7 7c3d 16e2 9d3c 1c65 66bc 5faf cbbc
00000290: ae4b 4b3b 247e acbc 7ad6 6c3d 57d7 243d
000002a0: f9a2 173d f69a 1e3b ecb3 45bd 3fdf 223d
000002b0: 34b7 a6bd b95f b83c a404 04bd 7cf5 95bc
000002c0: f06b 703b 4411 24bd 4041 81bc aaba f9bc
000002d0: 6c2c 09bd 99a2 74bd 2772 013d 25c5 873d
000002e0: 7027 a03d 7b06 5abd 1c38 72bd da7a 063d
000002f0: 730a 34bc ab74 8dbc b1b6 8abd 05e0 96bd
00000300: a240 36bd 77b0 2b3d 93f9 13bb 1177 2abd
00000310: 1a0c 533d 00b3 283d 5c0b 4f3c 97f3 31bd
00000320: cf11 d1bc 86a8 fbbb 2857 2b3c db46 c63c
00000330: 505e 7abd d844 083d 3a4e 43bd 89e2 01bd
00000340: 0dad 183d 9851 aebc ec75 8f3d dcdf 4abd
00000350: cf02 e6bc 5bd2 1d3b 76e0 17bd fa62 27bb
00000360: b131 2abd 9d6c 64bd 43ed 8d3c 2916 133c
00000370: 81b7 473d e6ef b5bb e4fd 8d3d e84e 5ebc
00000380: d163 b43c 5c8d 63bd 012d ff3c 98c6 a4bc
00000390: d61b febc 6032 313b a6eb c23d d051 6c3c
000003a0: e377 81bd d44c 2d3d 2409 17bd 52fd 47bd
000003b0: 008e 4ebc 8b37 133d a866 da3c 9d94 6fbd
000003c0: 0777 d4bd f617 8cbd 3274 1abd 165a f3ba
000003d0: 0b70 5c3d 5b3e 853d a3dd 853d d957 3fbd
000003e0: fc93 96bd 0268 ffbc d35c fabc 4add a5bb
000003f0: 63e3 273d c1f5 573d e89b 58bd 78bd 0dba

action_model._continuous_distribution.mu.bias f4 [5]
0.00021555876 -0.036936298 -0.005027692 0.012095284 0.0054465528
00000000: 9d07 6239 844a 17bd 56bf a4bb 4c2b 463c
00000010: ff78 b23b

exp_avg f4 [128, 47]
-4.6872698e-05 -1.9435368e-11 0.0 -4.9165084e-07 -5.37895e-05 6.9167554e-06 0.0 2.4955214e-06
-5.4221302e-05 7.348574e-06 0.0 3.3794074e-06 -4.934846e-05 2.475711e-06 0.0 1.3911705e-06
-5.2887084e-05 6.014346e-06 0.0 3.6881902e-06 -5.676748e-05 9.8947385e-06 0.0 4.2333486e-06
-5.461283e-05 7.740076e-06 0.0 3.6772087e-06 -4.7225698e-05 3.5294275e-07 0.0 2.0803995e-07
-4.4023374e-05 -2.789313e-06 0.0 -1.2240761e-05 4.4409036e-05 -3.5924146e-05 3.619178e-05 5.3633423e-05
-3.758699e-05 -4.4371063e-05 2.4531697e-05 1.3752956e-05 3.2822509e-06 -5.9464713e-07 1.0593341e-05 1.2287116e-05
4.4445277e-13 0.0 6.075574e-08 1.3245273e-05 -9.581552e-07 0.0 -5.355574e-07 1.4172304e-05
-1.8851875e-06 0.0 -9.710349e-07 1.3741714e-05 -1.4545967e-06 0.0 -8.180768e-07 1.3622411e-05
-1.3352928e-06 0.0 -7.8367555e-07 1.4307537e-05 -2.020419e-06 0.0 -1.0886354e-06 1.4317613e-05
-2.030497e-06 0.0 -1.0756715e-06 1.3148963e-05 -8.6184764e-07 0.0 -4.6204934e-07 1.3990794e-05
-1.706657e-06 0.0 3.491232e-07 8.233701e-07 7.238813e-06 -6.7048195e-06 1.0634302e-06 3.874732e-06
1.0227361e-05 -4.681573e-06 -1.0331078e-05 1.021994e-05 4.7781225e-07 -6.476068e-07 -3.182003e-05 -1.12847995e-11
0.0 -4.2416974e-07 -2.5850213e-05 -5.969835e-06 0.0 -2.5981344e-06 -2.5757286e-05 -6.0627594e-06
0.0 -3.0041251e-06 -2.6413947e-05 -5.406102e-06 0.0 -2.4228257e-06 -2.5839221e-05 -5.9808217e-06
0.0 -3.2981268e-06 -2.549945e-05 -6.3206016e-06 0.0 -2.1948365e-06 -2.551819e-05 -6.301861e-06
0.0 -3.459902e-06 -2.593198e-05 -5.888066e-06 0.0 -1.8869761e-06 -6.6485104e-06 -2.52025e-05
0.0 -1.46168895e-05 -2.1880066e-06 -3.1128955e-05 2.0800751e-05 -7.7507875e-06 3.619832e-06 -2.124878e-05
-3.947348e-06 1.0179604e-05 -6.697729e-06 -9.836211e-07 -6.639431e-06 -7.8244346e-05 -7.959317e-12 0.0
-4.6986958e-07 -8.423286e-05 5.9885265e-06 0.0 2.5681202e-06 -8.67698e-05 8.525449e-06 0.0
4.018655e-06 -8.233081e-05 4.0864466e-06 0.0 2.1850997e-06 -8.6776956e-05 8.532595e-06 0.0
4.249904e-06 -8.706278e-05 8.818437e-06 0.0 3.6097858e-06 -8.680086e-05 8.556513e-06 0.0
3.8926123e-06 -8.023087e-05 1.9865136e-06 0.0 7.309762e-07 -9.898719e-05 2.0787551e-05 0.0
9.158271e-06 2.2293973e-05 -3.707761e-05 3.969022e-05 2.6913922e-05 -2.8707793e-05 -6.3518084e-05 5.169322e-05
6.251359e-05 -4.996851e-05 -2.6523521e-06 -9.205426e-07 8.069381e-06 -1.8415007e-12 0.0 -1.15865495e-08
9.363123e-06 -1.293744e-06 0.0 -9.607547e-07 1.0802591e-05 -2.733211e-06 0.0 -1.5815233e-06
1.0272699e-05 -2.2033194e-06 0.0 -1.2584923e-06 1.0954774e-05 -2.8853947e-06 0.0 -1.6327319e-06
1.1519437e-05 -3.4500565e-06 0.0 -1.4337794e-06 1.1659016e-05 -3.589637e-06 0.0 -1.7921258e-06
1.0391396e-05 -2.3220173e-06 0.0 -9.3999233e-07 1.7276945e-05 -9.22316e-06 0.0 -8.439327e-06
8.0907e-06 -1.05426225e-05 5.333424e-06 1.08752665e-05 -8.695465e-06 5.092375e-06 -2.5088579e-05 -1.4187939e-05
1.0417786e-05 5.025905e-07 2.8449697e-06 -0.00019398733 -2.1314757e-11 0.0 -1.2790179e-06 -0.00019956911
5.5817386e-06 0.0 2.2654474e-06 -0.00020456588 1.0578527e-05 0.0 4.694597e-06 -0.00019832351
4.336174e-06 0.0 2.9305863e-06 -0.00020203192 8.044548e-06 0.0 3.7926443e-06 -0.00020559841
00000000: 2d99 44b8 8ff4 aaad 0000 0000 fdf9 03b5
00000010: 099c 61b8 7a16 e836 0000 0000 bb78 2736
00000020: ae6b 63b8 c593 f636 0000 0000 c7c9 6236
00000030: 81fb 4eb8 6424 2636 0000 0000 41b8 ba35
00000040: 13d3 5db8 d7ce c936 0000 0000 a082 7736
00000050: 9e19 6eb8 9401 2637 0000 0000 300c 8e36
00000060: 1410 65b8 60db 0137 0000 0000 f7c5 7636
00000070: 3514 46b8 157c bd34 0000 0000 9661 5f34
00000080: bda5 38b8 0830 3bb6 0000 0000 ab5d 4db7
00000090: d743 3a38 42ad 16b8 a1cc 1738 73f4 6038
000000a0: b9a6 1db8 111b 3ab8 6bc9 cd37 7fbc 6637
000000b0: a444 5c36 d79f 1fb5 0eba 3137 c324 4e37
000000c0: 6534 fa2a 0000 0000 d278 8233 0438 5e37
000000d0: f699 80b5 0000 0000 39c3 0fb5 95c5 6d37
000000e0: 8d06 fdb5 0000 0000 8154 82b5 368c 6637
000000f0: 903b c3b5 0000 0000 cf99 5bb5 cf8b 6437
00000100: 5038 b3b5 0000 0000 c65d 52b5 670a 7037
00000110: 8996 07b6 0000 0000 3a1d 92b5 ae35 7037
00000120: ac43 08b6 0000 0000 cb5f 90b5 5e9a 5c37
00000130: b859 67b5 0000 0000 940f f8b4 01ba 6a37
00000140: 4a10 e5b5 0000 0000 216f bb34 9005 5d35
00000150: eee4 f236 f6f9 e0b6 2fbb 8e35 b203 8236
00000160: 2e96 2b37 6816 9db6 a453 2db7 4f76 2b37
00000170: 0243 0035 33d7 2db5 7f76 05b8 3886 46ad
00000180: 0000 0000 72b9 e3b4 e9d8 d8b7 7e50 c8b6
00000190: 0000 0000 9c5b 2eb6 5a11 d8b7 b56e cbb6
000001a0: 0000 0000 7a9a 49b6 8593 ddb7 1066 b5b6
000001b0: 0000 0000 d497 22b6 4ec1 d8b7 deae c8b6
000001c0: 0000 0000 6355 5db6 a7e7 d5b7 8e15 d4b6
000001d0: 0000 0000 014b 13b6 e50f d6b7 9374 d3b6
000001e0: 0000 0000 aa30 68b6 8188 d9b7 1a92 c5b6
000001f0: 0000 0000 0144 fdb5 4516 dfb6 f569 d3b7
00000200: 0000 0000 103b 75b7 abd5 12b6 7690 02b8
00000210: 467d ae37 6109 02b7 3dec 7236 683f b2b7
00000220: 7673 84b6 11c9 2a37 0ebd e0b6 f704 84b5
00000230: 47c8 deb6 1d17 a4b8 9405 0cad 0000 0000
00000240: 6242 fcb4 2ca6 b0b8 0df1 c836 0000 0000
00000250: f857 2c36 2ff8 b5b8 8608 0f37 0000 0000
00000260: fcd7 8636 04a9 acb8 4f1e 8936 0000 0000
00000270: baa3 1236 06fc b5b8 3727 0f37 0000 0000
00000280: 669a 8e36 7995 b6b8 e6f2 1337 0000 0000
00000290: a63f 7236 db08 b6b8 f28d 0f37 0000 0000
000002a0: 499d 8236 9f41 a8b8 0b50 0536 0000 0000
000002b0: 4d38 4435 5897 cfb8 ed60 ae37 0000 0000
000002c0: 79a6 1937 f103 bb37 c883 1bb8 0d79 2638
000002d0: 35c5 e137 84d1 f0b7 0335 85b8 2cd1 5838
000002e0: ba19 8338 4795 51b8 10ff 31b6 351b 77b5
000002f0: ba61 0737 8795 01ac 0000 0000 2f0e 47b2
00000300: 4f16 1d37 b5a4 adb5 0000 0000 48f3 80b5
00000310: c63c 3537 356c 37b6 0000 0000 ba44 d4b5
00000320: e858 2c37 bddc 13b6 0000 0000 77e9 a8b5
00000330: 65ca 3737 b4a2 41b6 0000 0000 3e24 dbb5
00000340: 9b43 4137 8587 67b6 0000 0000 4970 c0b5
00000350: 189b 4337 7ee5 70b6 0000 0000 f988 f0b5
00000360: b556 2e37 f4d3 1bb6 0000 0000 c853 7cb5
00000370: f5ed 9037 2cbd 1ab7 0000 0000 a296 0db7
00000380: 4bbd 0737 38e0 30b7 c3f5 b236 ea74 3637
00000390: bde2 11b7 2bdf aa36 5075 d2b7 bc08 6eb7
000003a0: 0dc8 2e37 c2e9 0635 35ec 3e36 1469 4bb9
000003b0: 917c bbad 0000 0000 b8aa abb5 6d43 51b9
000003c0: c54a bb36 0000 0000 1708 1836 bc80 56b9
000003d0: 6d7a 3137 0000 0000 4886 9d36 10f5 4fb9
000003e0: 737f 9136 0000 0000 17ab 4436 88d8 53b9
000003f0: 12f7 0637 0000 0000 2285 7e36 e795 57b9

exp_avg_sq f4 [128, 47]
1.6731909e-07 5.2233984e-10 0.0 1.2866437e-11 1.6814401e-07 6.421878e-10 0.0 7.8042704e-11
1.6822707e-07 6.068426e-10 0.0 8.036673e-11 1.6791401e-07 6.9801637e-10 0.0 8.314738e-11
1.682517e-07 6.380933e-10 0.0 8.762346e-11 1.6782705e-07 7.798606e-10 0.0 1.1066935e-10
1.674837e-07 6.716871e-10 0.0 8.885791e-11 1.6791749e-07 7.650569e-10 0.0 1.1124836e-10
6.115737e-08 1.0306794e-07 0.0 2.0307919e-08 3.706578e-08 4.6267303e-08 3.1341035e-08 5.54429e-08
2.115911e-08 9.456472e-08 5.3261996e-08 6.892958e-08 9.445752e-08 5.0168464e-10 3.364109e-09 8.151089e-10
1.0913923e-10 0.0 3.0210383e-13 7.737666e-10 1.5656708e-10 0.0 1.1794308e-11 7.7945933e-10
1.503676e-10 0.0 1.2099759e-11 7.792088e-10 1.577961e-10 0.0 1.09785505e-11 7.816326e-10
1.5369206e-10 0.0 1.4324592e-11 7.523951e-10 1.6573008e-10 0.0 1.32488985e-11 8.044198e-10
1.2518174e-10 0.0 7.981783e-12 7.6014284e-10 1.7035162e-10 0.0 1.4583104e-11 6.3551625e-10
2.9128344e-10 0.0 4.80793e-11 1.9187114e-10 2.3070537e-10 1.3749521e-10 3.4592906e-10 1.5495043e-10
4.468916e-10 3.1974687e-10 4.002209e-10 5.0504056e-10 3.1762854e-12 1.3459739e-10 8.245592e-08 2.0416133e-09
0.0 5.9132274e-12 8.24829e-08 1.9334792e-09 0.0 4.0582895e-11 8.2549256e-08 1.8515347e-09
0.0 4.569743e-11 8.265819e-08 1.8982542e-09 0.0 4.2919474e-11 8.246811e-08 1.9971276e-09
0.0 5.4127418e-11 8.2350056e-08 2.0260469e-09 0.0 7.231936e-11 8.236965e-08 2.188505e-09
0.0 7.638873e-11 8.240723e-08 1.9752955e-09 0.0 8.321271e-11 3.7929883e-08 4.405074e-08
0.0 8.944871e-09 1.7720167e-08 2.3287663e-08 1.5549436e-08 2.7396101e-08 8.92028e-09 5.028881e-08
2.5012481e-08 3.5221003e-08 4.961448e-08 2.1420751e-10 1.8793396e-09 1.411967e-07 4.084971e-10 0.0
1.1789288e-11 1.411506e-07 5.43594e-10 0.0 5.979102e-11 1.4132382e-07 5.4861293e-10 0.0
6.427139e-11 1.412539e-07 5.593491e-10 0.0 5.8283475e-11 1.4139603e-07 5.929533e-10 0.0
7.734269e-11 1.4110799e-07 6.0102184e-10 0.0 6.747032e-11 1.412309e-07 6.4900585e-10 0.0
7.738735e-11 1.4116627e-07 6.156971e-10 0.0 7.82879e-11 6.3998655e-08 7.416611e-08 0.0
1.4713912e-08 2.8404658e-08 4.1247077e-08 2.8017043e-08 4.263042e-08 1.7039971e-08 7.863866e-08 4.2850683e-08
5.5217882e-08 8.083844e-08 4.2774706e-10 2.412174e-09 2.2774591e-08 4.958796e-10 0.0 1.8057242e-12
2.285156e-08 4.4057227e-10 0.0 9.981085e-12 2.2924095e-08 4.2567683e-10 0.0 1.2256337e-11
2.2889663e-08 4.5201057e-10 0.0 1.2651424e-11 2.2862213e-08 4.5644571e-10 0.0 1.5302261e-11
2.2811726e-08 5.230882e-10 0.0 2.6637482e-11 2.2790987e-08 5.5625254e-10 0.0 2.7729543e-11
2.2784818e-08 5.138345e-10 0.0 3.0749073e-11 9.458281e-09 1.3448434e-08 0.0 2.3612639e-09
4.2580095e-09 6.870155e-09 4.6082107e-09 6.6401964e-09 2.972965e-09 1.3173474e-08 6.8466206e-09 1.0154537e-08
1.39261385e-08 6.612071e-11 7.113683e-10 8.7687056e-07 3.6068444e-09 0.0 7.072178e-11 8.7915095e-07
2.713076e-09 0.0 2.5372035e-10 8.798492e-07 2.638604e-09 0.0 2.7164127e-10 8.8084147e-07
2.9220675e-09 0.0 2.5810765e-10 8.805754e-07 2.8511897e-09 0.0 2.9766747e-10 8.779134e-07
00000000: 52a8 3334 6694 0f30 0000 0000 4859 622d
00000010: 138b 3434 f385 3030 0000 0000 239e ab2e
00000020: e8a1 3434 c0ce 2630 0000 0000 72ba b02e
00000030: da4b 3434 89de 3f30 0000 0000 d0d7 b62e
00000040: ada8 3434 d365 2f30 0000 0000 9faf c02e
00000050: f333 3434 d05d 5630 0000 0000 4e5d f32e
00000060: 92d5 3334 c7a1 3830 0000 0000 8e66 c32e
00000070: cf4c 3434 184c 5230 0000 0000 42a3 f42e
00000080: 9f55 8333 3356 dd33 0000 0000 9671 ae32
00000090: 4232 1f33 70b7 4633 d59b 0633 1d20 6e33
000000a0: 60c1 b532 8113 cb33 2fc2 6433 7006 9433
000000b0: 92d8 ca33 ebe6 0930 082e 6731 310e 6030
000000c0: edff ef2e 0000 0000 c011 aa2a fcb0 5430
000000d0: b725 2c2f 0000 0000 d77c 4f2d 9341 5630
000000e0: b754 252f 0000 0000 78dc 542d f22f 5630
000000f0: a77f 2d2f 0000 0000 ff22 412d 81da 5630
00000100: 78fc 282f 0000 0000 3a00 7c2d 19d1 4e30
00000110: df38 362f 0000 0000 bc13 692d 031e 5d30
00000120: 87a3 092f 0000 0000 c16a 0c2d 4cf2 5030
00000130: b84d 3b2f 0000 0000 3b46 802d 7bb0 2e30
00000140: 8022 a02f 0000 0000 7b74 532e edf6 522f
00000150: caa9 7d2f 762d 172f 302d be2f ab5e 2a2f
00000160: 67ae f52f 5fc8 af2f 1606 dc2f 12d3 0a30
00000170: df82 5f2c ccfd 132f 9f12 b133 714c 0c31
00000180: 0000 0000 9e0d d02c 7421 b133 20de 0431
00000190: 0000 0000 477c 322e ef45 b133 1679 fe30
000001a0: 0000 0000 bbfa 482e d281 b133 7172 0231
000001b0: 0000 0000 08c3 3c2e 5319 b133 d73d 0931
000001c0: 0000 0000 0e0e 6e2e 6cd8 b033 983a 0b31
000001d0: 0000 0000 2e08 9f2e 32e3 b033 9664 1631
000001e0: 0000 0000 08fb a72e dbf7 b033 c4bd 0731
000001f0: 0000 0000 97fc b62e 59e8 2233 4d32 3d33
00000200: 0000 0000 f5ab 1932 0f37 9832 1d0a c832
00000210: 9291 8532 aa54 eb32 ce3f 1932 22fd 5733
00000220: 07db d632 e745 1733 b317 5533 0e86 6b2f
00000230: b125 0131 da9b 1734 db92 e02f 0000 0000
00000240: 3c66 4f2d 2e8f 1734 076c 1530 0000 0000
00000250: 5a7b 832e ccbe 1734 34cd 1630 0000 0000
00000260: 9355 8d2e 94ab 1734 b2c0 1930 0000 0000
00000270: ae2a 802e a5d2 1734 61fd 2230 0000 0000
00000280: 1014 aa2e 7883 1734 2735 2530 0000 0000
00000290: 6a5e 942e 41a5 1734 ba65 3230 0000 0000
000002a0: 342d aa2e 7d93 1734 d53d 2930 0000 0000
000002b0: 2b28 ac2e a26f 8933 4045 9f33 0000 0000
000002c0: 78c8 7c32 81fe f332 a427 3133 21aa f032
000002d0: a418 3733 4b5f 9232 0fe0 a833 d30a 3833
000002e0: b428 6d33 6799 ad33 0c28 eb2f 6ac3 2531
000002f0: dba1 c332 6d4e 0830 0000 0000 1222 fe2b
00000300: 1d4b c432 0935 f22f 0000 0000 d096 2f2d
00000310: 9eea c432 b004 ea2f 0000 0000 a29d 572d
00000320: e79e c432 d57e f82f 0000 0000 f390 5e2d
00000330: 8a62 c432 06ef fa2f 0000 0000 a199 862d
00000340: 84f3 c332 0fc9 0f30 0000 0000 474e ea2d
00000350: e9c5 c332 cbe6 1830 0000 0000 61e9 f32d
00000360: 58b8 c332 e33d 0d30 0000 0000 613c 072e
00000370: f67d 2232 d70a 6732 0000 0000 cb43 2231
00000380: d94d 9231 860e ec31 4056 9e31 c927 e431
00000390: f44c 4c31 8d51 6232 833f eb31 2074 2e32
000003a0: ce3f 6f32 a766 912e 188a 4330 1662 6b35
000003b0: 47dc 7731 0000 0000 d384 9b2e cbfe 6b35
000003c0: f070 3a31 0000 0000 f77b 8b2f c72e 6c35
000003d0: d052 3531 0000 0000 1c56 952f f772 6c35
000003e0: 8ecd 4831 0000 0000 6ce5 8d2f ae60 6c35
000003f0: a9ee 4331 0000 0000 f9a4 a32f c0a9 6b35

exp_avg f4 [128]
-4.687274e-05 1.2287117e-05 -3.182005e-05 -7.824437e-05 8.069369e-06 -0.00019398729 3.1947082e-05 3.51548e-05
2.118512e-05 -1.3157972e-05 -8.522309e-05 -2.5015717e-05 -5.7423793e-05 -0.000111820074 -7.678701e-05 -0.00012930809
-0.00015584844 -7.324292e-05 -2.2083292e-05 8.237607e-05 -3.5440422e-05 9.176883e-05 2.0305028e-05 1.4994792e-05
4.9020906e-05 3.8227718e-05 -3.7860107e-05 -0.00022670272 -0.00016690434 -9.372005e-05 -5.199757e-05 1.11571935e-05
-5.9115275e-05 -4.878852e-05 3.0868683e-05 2.0507894e-05 -7.40551e-05 -2.6097991e-06 -7.0711e-05 1.6259108e-05
-0.00014030727 1.4559944e-07 5.2674233e-05 1.0207815e-05 5.6501063e-05 -2.4852977e-06 -6.287122e-06 -4.292675e-05
-6.140024e-05 3.5061134e-06 1.6458549e-05 5.382096e-05 -0.00017860792 -8.865571e-05 -0.00019732861 -2.4008636e-05
-5.358653e-05 -0.00018383165 -4.7085883e-05 2.4333978e-05 2.8109404e-05 -0.00013243678 -9.9797726e-05 2.4593106e-05
-0.00016295403 -0.00017438395 1.821214e-05 -3.2673317e-05 -7.373067e-05 7.121257e-06 -4.7116013e-05 5.525155e-05
-0.00012410874 -2.7076774e-05 -0.00020415933 -0.000104319144 -3.15556e-05 4.1019004e-05 5.753222e-06 1.8086213e-05
3.765225e-05 1.058078e-05 8.150412e-06 -9.6975615e-05 -2.3858705e-05 -1.8494611e-05 -9.464536e-06 8.085761e-06
5.731208e-06 1.0095162e-06 2.1483134e-05 4.2760596e-05 4.235026e-05 -6.435022e-05 -9.4905714e-05 8.670994e-06
1.7346458e-05 4.654649e-05 -0.00016072665 1.7232382e-05 -5.573081e-06 -1.1775506e-06 5.946875e-05 -5.7700927e-06
-5.8261445e-05 2.2912078e-05 1.7224245e-05 5.05869e-05 -1.4160366e-06 1.7567006e-06 -9.909968e-05 3.2489224e-05
2.2320768e-05 7.891487e-06 -5.261961e-05 5.5892557e-05 -1.4017081e-05 -3.4418616e-05 1.664395e-05 1.2976524e-05
1.2034735e-05 -7.718413e-05 8.802559e-05 2.6754777e-05 -6.6195134e-05 -0.00016413024 -6.7412424e-05 7.067378e-05
00000000: 3999 44b8 c424 4e37 8576 05b8 2017 a4b8
00000010: ad61 0737 1169 4bb9 ebfe 0538 2e73 1338
00000020: b3b6 b137 0fc1 5cb7 ccb9 b2b8 d8d8 d1b7
00000030: 54da 70b8 f280 eab8 b608 a1b8 e096 07b9
00000040: 3f6b 23b9 fe99 99b8 823f b9b7 51c1 ac38
00000050: dda5 14b8 0474 c038 b754 aa37 2492 7b37
00000060: cc9b 4d38 b356 2038 fbcb 1eb8 0cb7 6db9
00000070: 0b03 2fb9 928b c4b8 f717 5ab8 c82f 3b37
00000080: 8bf2 77b8 46a2 4cb8 ff78 0138 5e08 ac37
00000090: 074e 9bb8 0224 2fb6 ae4a 94b8 2b64 8837
000000a0: 721f 13b9 1256 1c34 87ee 5c38 3b42 2b37
000000b0: 8efb 6c38 17c9 26b6 f7f5 d2b6 3f0c 34b8
000000c0: 01c4 80b8 924a 6b36 7710 8a37 d1bd 6138
000000d0: b348 3bb9 acec b9b8 ffe9 4eb9 2766 c9b7
000000e0: 19c2 60b8 efc2 40b9 157e 45b8 d220 cc37
000000f0: 7ccc eb37 bade 0ab9 7f4a d1b8 4b4d ce37
00000100: a4de 2ab9 d6da 36b9 46c6 9837 b50a 09b8
00000110: da9f 9ab8 22f3 ee36 6f9e 45b8 e6bd 6738
00000120: 3023 02b9 ee22 e3b7 9a13 56b9 eac5 dab8
00000130: 915a 04b8 d20b 2c38 cd0b c136 d9b7 9737
00000140: ccec 1d38 1b84 3137 c1bd 0837 635f cbb8
00000150: 2e24 c8b7 e024 9bb7 dfc9 1eb7 14a8 0737
00000160: b44e c036 b67e 8735 ae36 b437 d759 3338
00000170: 3fa1 3138 c3f3 86b8 1e08 c7b8 a379 1137
00000180: 3c83 9137 ea3a 4338 bb88 28b9 428e 9037
00000190: 6700 bbb6 550c 9eb5 166e 7938 b89c c1b6
000001a0: c05d 74b8 5033 c037 c97c 9037 452d 5438
000001b0: a60e beb5 c6c7 eb35 bcd3 cfb8 0a45 0838
000001c0: 7c3d bb37 ae65 0437 e0b3 5cb8 2d6e 6a38
000001d0: e82a 6bb7 b55c 10b8 9c9e 8b37 bfb5 5937
000001e0: cbe8 4937 eadd a1b8 619a b838 726f e037
000001f0: 3ed2 8ab8 601a 2cb9 c55f 8db8 b236 9438

exp_avg_sq f4 [128]
1.6840943e-07 9.2438607e-10 8.518761e-08 1.4200869e-07 2.3317043e-08 8.8074415e-07 1.2538594e-08 3.912395e-08
8.903226e-09 4.1149438e-08 4.2803097e-07 1.4202406e-08 9.8929675e-08 1.2886639e-07 7.84303e-08 2.2826337e-07
8.741117e-08 1.6841585e-07 1.4850958e-08 1.8902611e-07 4.0320128e-08 1.7383364e-07 2.9553934e-07 6.5225807e-09
4.6582027e-08 8.3614125e-08 1.5438003e-07 8.3901335e-07 2.4971263e-07 2.5326113e-07 6.8679384e-08 4.784081e-09
1.4190017e-07 2.9233595e-08 5.317432e-08 7.2009186e-08 8.136246e-08 3.0806572e-07 3.2881925e-07 4.201088e-09
3.7835764e-07 2.3645702e-08 3.3998024e-08 2.2872385e-08 2.7040443e-08 6.608606e-09 3.0634613e-08 8.794263e-08
1.2361885e-07 4.3519957e-09 2.2454696e-08 4.9641375e-08 1.920887e-07 2.4569604e-07 3.236409e-07 1.0156301e-07
6.158173e-08 5.713177e-07 8.497394e-08 1.3877632e-08 6.084382e-08 6.9346805e-07 1.924086e-07 2.2825544e-08
3.2825454e-07 5.418448e-07 3.6192922e-09 2.5137018e-08 2.470819e-07 2.0449814e-08 1.196593e-07 5.6598978e-08
5.3377266e-07 1.2912838e-07 4.544474e-07 1.2923606e-07 1.886486e-07 2.5135634e-07 8.4439705e-08 3.291257e-08
9.214984e-09 6.2701564e-09 9.0635815e-08 5.6316477e-08 1.737032e-08 3.5410622e-07 1.4495197e-09 9.208706e-08
2.6626579e-09 6.189632e-10 1.6777154e-08 5.167884e-08 7.578415e-08 4.0671898e-07 3.1891222e-08 4.1813286e-09
1.0438867e-08 3.3594997e-08 4.6734473e-07 2.3646813e-07 1.2661793e-07 6.6580954e-09 1.15746175e-07 7.7757484e-10
6.8169115e-08 2.2515843e-08 2.2476583e-09 2.6873893e-08 4.066733e-09 6.56332e-07 2.9905542e-07 2.5393124e-08
2.0602764e-08 1.3476863e-08 4.0234417e-07 1.113453e-07 2.3681281e-08 6.116698e-08 6.2902523e-09 3.0090693e-08
1.07986466e-07 1.2743571e-07 1.8610544e-07 2.5180796e-08 2.8841347e-07 3.7625838e-07 5.426897e-07 5.1228703e-08
00000000: 08d4 3434 e317 7e30 62f0 b633 0d7b 1834
00000010: b84a c832 476c 6c35 5269 5732 3d09 2833
00000020: cdf4 1832 49bc 3033 21cc e534 d8fe 7332
00000030: 2a73 d433 865e 0a34 836d a833 8f18 7534
00000040: cdb6 bb33 ccd5 3434 3423 7f32 1af7 4a34
00000050: 732c 2d33 07a7 3a34 9eaa 9e34 3a1d e031
00000060: 7b11 4833 5a8f b333 a9c3 2534 8f38 6135
00000070: 3e10 8634 f2f7 8734 e47c 9333 3961 a431
00000080: 395d 1834 5b1d fb32 c861 6433 78a3 9a33
00000090: 7cb9 ae33 3b64 a534 9388 b034 2959 9031
000000a0: 1421 cb34 731d cb32 3905 1233 e878 c432
000000b0: 9046 e832 ea11 e331 1d93 0333 f9da bc33
000000c0: 17bc 0434 8f88 9531 66e2 c032 4535 5533
000000d0: f140 4e34 35e8 8334 dec0 ad34 db1a da33
000000e0: ea3e 8433 a75c 1935 eb7a b633 796a 6e32
000000f0: 3ea9 8233 c326 3a35 e098 4e34 e711 c432
00000100: f63a b034 4b73 1135 43b7 7831 e3ec d732
00000110: aea6 8434 9ea9 af32 b37b 0034 3c17 7333
00000120: 9448 0f35 8aa6 0a34 c6fa f334 23c4 0a34
00000130: 558f 4a34 27f2 8634 3855 b533 c15b 0d33
00000140: ee4f 1e32 e170 d731 91a3 c233 9fe0 7133
00000150: bd35 9532 fd1b be34 7138 c730 66c1 c533
00000160: f9f9 3631 aa23 2a30 5a1d 9032 7cf5 5d33
00000170: c7be a233 085b da34 c5f8 0833 5bab 8f31
00000180: 9f56 3332 174a 1033 5fe7 fa34 dde7 7d34
00000190: 79f4 0734 3ac5 e431 2290 f833 f7bc 5530
000001a0: 5e64 9233 dd68 c132 3975 1a31 51d8 e632
000001b0: 5dbb 8b31 cb2e 3035 dd8d a034 1220 da32
000001c0: f5f9 b032 df87 6732 c301 d834 ba1c ef33
000001d0: b06b cb32 e75a 8333 a521 d831 113d 0133
000001e0: 30e6 e733 43d5 0834 46d4 4734 284d d832
000001f0: 3fd7 9a34 8f00 ca34 5aad 1135 8e06 5c33
