config/results/AgrConserv_Refactored_2M_Final_v4_GAMMA/Hummingbird_Aggressive/checkpoint.pt (torch, 573045 bytes, 36 tensors)

network_body._body_endoder.seq_layers.0.weight f4 [128, 47]
0.20915787 0.037341367 0.11100671 0.0925313 -0.1130479 -0.053851143 -0.12465604 -0.019217087
0.21782994 -0.08414617 -0.021597967 0.13649873 0.2010495 0.04745084 0.114961594 0.06086613
0.11428286 0.15409091 0.23915432 0.07796292 0.3135955 -0.07145094 -0.05736566 0.20932673
-0.0031112244 0.02322797 -0.2836905 0.17445254 0.14639454 -0.2133575 -0.002376504 -0.08958493
-0.15874523 -0.016625585 -0.13641295 -0.030849528 -0.08329644 0.12828389 0.45374468 -0.045966197
0.34329507 0.06405764 -0.1267769 0.2633716 0.03739317 -0.042358626 0.011197435 0.23114175
0.08989648 0.07291582 0.07740771 -0.009112331 -0.085418075 0.12243243 0.030058729 0.09111254
0.021867849 -0.023957085 -0.26118255 0.11968696 -0.06194563 -0.09986238 0.0439686 0.11721011
0.07841186 0.218195 0.32894844 0.111973464 0.06685051 0.56870043 0.061165083 0.12708135
0.04733805 0.1577742 -0.024826761 -0.040962536 0.07760453 -0.2494368 -0.1220019 -0.19930232
0.051759 0.08650984 -0.059632905 -0.07856288 -0.016063323 0.3464368 -0.17667486 0.0015677834
0.11753 0.27619123 -0.45932764 -0.106755726 -0.14774668 -0.02710295 0.07880702 0.071539514
0.08100758 -0.17752555 -0.046994157 -0.24844009 -0.09404289 0.2279011 0.09678519 0.070742086
-0.2598646 0.05035813 0.22632669 -0.04406601 0.04626593 0.05506238 -0.020461464 -0.08549064
0.19081645 -0.2379467 -0.11621886 0.14926977 -0.0149436705 0.122475676 -0.10381852 0.07273755
-0.051769357 -0.22272635 0.24458124 -0.02846971 -0.35779428 -0.014857381 0.0054859156 0.029631551
0.0011563305 0.246868 0.05779042 0.07675885 0.009315838 0.013587057 -0.1603436 0.14990927
0.22733453 -0.19804043 -0.0074617984 0.29701096 -0.23681378 -0.20699683 -0.17092992 -0.0056122635
-0.055226896 -0.020527188 0.12017191 0.0653171 0.07987598 -0.020344405 0.03469773 0.08610866
0.019607294 -0.028889349 0.13489811 -0.008069286 -0.021778103 -0.41844437 -0.016790189 0.10421598
-0.029114986 0.022575786 0.076105975 0.030477745 0.049591735 -0.18045194 0.09649182 0.3763152
-0.034897033 0.078235514 0.22874914 0.08458122 -0.19177301 0.080233134 0.07425613 -0.033648487
0.2394317 0.026483368 0.111905284 -0.002059331 -0.031268086 -0.082334734 -0.036866605 -0.11234636
-0.2080375 0.078002624 -0.038699955 -0.06993836 -0.032140493 0.0700341 -0.20198722 0.2601195
-0.15621106 0.16997151 0.03988491 0.077958815 -0.26426366 0.12762548 0.10889607 -0.07702318
0.08095149 -0.18034641 0.14536843 0.09024449 0.1474974 -0.019116055 0.047172166 0.04408701
-0.19301638 0.14628169 -0.09268927 0.07059251 -0.17953877 0.14634474 0.1973209 0.28689992
0.10799563 0.23702455 0.09830974 0.20642723 0.19454414 0.19829704 -0.07386861 0.27693272
-0.0034749804 0.18194745 -0.2307673 0.113978304 -0.13273224 -0.1864751 0.24051109 0.2563917
0.07454399 0.028539555 0.0032325455 -0.0016867795 -0.067990914 -0.026670614 0.032773253 0.08152659
0.077444434 0.045766838 -0.051878296 -0.0033461023 -0.18813156 -0.11418014 -0.24736132 -0.11537112
-0.17411079 -0.12294068 0.041612606 -0.24937156 -0.2559719 0.008097718 0.009868494 -0.1678924
00000000: 7b2d 563e 43f3 183d 7c57 e33d 0d81 bd3d
00000010: a885 e7bd 0493 5cbd aa4b ffbd 276d 9dbc
00000020: d00e 5f3e d454 acbd 38ee b0bc 53c6 0b3e
00000030: ecdf 4d3e d05b 423d fc70 eb3d c34e 793d
00000040: 220d ea3d 02ca 1d3e dfe4 743e 06ab 9f3d
00000050: 978f a03e df54 92bd 41f8 6abd bf59 563e
00000060: afe5 4bbb 9548 be3c e23f 91be b0a3 323e
00000070: 73e8 153e 637a 5abe 1fbf 1bbb 4e78 b7bd
00000080: 1c8e 22be 6132 88bc d6af 0bbe 26b8 fcbc
00000090: 5397 aabd da5c 033e 3951 e83e 0d47 3cbd
000000a0: 5fc4 af3e a730 833d ced1 01be a4d8 863e
000000b0: 9529 193d 3d80 2dbd 7275 373c 6cb0 6c3e
000000c0: a51b b83d e454 953d ef87 9e3d e34b 15bc
000000d0: acef aebd dbbd fa3d b93d f63c 3699 ba3d
000000e0: 3424 b33c a641 c4bc b8b9 85be 701e f53d
000000f0: b3ba 7dbd a684 ccbd 6b18 343d db0b f03d
00000100: 6696 a03d 836e 5f3e ee6b a83e 5852 e53d
00000110: ece8 883d 5a96 113f 3d88 7a3d 9d21 023e
00000120: 8be5 413d 8f8f 213e 7e61 cbbc 55c8 27bd
00000130: 20ef 9e3d 5c6c 7fbe 22dc f9bd e815 4cbe
00000140: 3f01 543d 122c b13d a241 74bd 93e5 a0bd
00000150: 3b97 83bc 2a60 b13e 41ea 34be 157e cd3a
00000160: 92b3 f03d f068 8d3e fe2c ebbe bfa2 dabd
00000170: e84a 17be 0107 debc 9365 a13d 4f83 923d
00000180: 4de7 a53d 42c9 35be f27c 40bd 1467 7ebe
00000190: 8f99 c0bd e85e 693e 5037 c63d 3ae1 903d
000001a0: f90c 85be 5444 4e3d 2fc2 673e 8f7e 34bd
000001b0: 5881 3d3d 1789 613d cd9e a7bc b715 afbd
000001c0: 6365 433e 4da8 73be 2704 eebd 2dda 183e
000001d0: 4cd6 74bc 87d4 fa3d ce9e d4bd 6df7 943d
000001e0: 1b0c 54bd 6012 64be 8173 7a3e 4f39 e9bc
000001f0: d030 b7be 5f6c 73bc 32c3 b33b debd f23c
00000200: 0390 973a f7ca 7c3e a6b5 6c3d be33 9d3d
00000210: 75a1 183c 3f9c 5e3c 1d31 24be d181 193e
00000220: 62ca 683e 1ccb 4abe 1a82 f4bb d211 983e
00000230: 507f 72be faf6 53be 4108 2fbe 14e7 b7bb
00000240: 9935 62bd a228 a8bc b11c f63d f9c4 853d
00000250: 0596 a33d 4fa9 a6bc 351f 0e3d bd59 b03d
00000260: 7a9f a03c 5ba9 ecbc bb22 0a3e 0a35 04bc
00000270: fe67 b2bc 573e d6be 948b 89bc 306f d53d
00000280: 8d82 eebc dbf0 b83c 73dd 9b3d 77ac f93c
00000290: b420 4b3d 65c8 38be 819d c53d 63ac c03e
000002a0: 31f0 0ebd f139 a03d 373d 6a3e eb38 ad3d
000002b0: 2560 44be 4551 a43d 9913 983d ffd2 09bd
000002c0: 952d 753e a6f3 d83c 992e e53d d7f5 06bb
000002d0: f712 00bd 1d9f a8bd 7001 17bd d915 e6bd
000002e0: c807 55be d7bf 9f3d d883 1ebd d83b 8fbd
000002f0: c0a5 03bd 0a6e 8f3d bdd5 4ebe 622e 853e
00000300: cbf5 1fbe 030d 2e3e 5c5e 233d dfa8 9f3d
00000310: 914d 87be 41b0 023e e704 df3d 54be 9dbd
00000320: e5c9 a53d bbac 38be 76db 143e 1ad2 b83d
00000330: 8f09 173e 4699 9cbc 9a37 413d 9594 343d
00000340: 16a6 45be deca 153e dfd3 bdbd ce92 903d
00000350: 03d9 37be 65db 153e 7d0e 4a3e 8ce4 923e
00000360: d02c dd3d 90b6 723e 9e56 c93d a961 533e
00000370: 9436 473e 610e 4b3e 6d48 97bd 20ca 8d3e
00000380: 7fbc 63bb 6f50 3a3e 434e 6cbe 756d e93d
00000390: f6ea 07be 54f3 3ebe 8a48 763e c645 833e
000003a0: 85aa 983d c9cb e93c 1dd9 533b ee16 ddba
000003b0: d23e 8bbd 557c dabc 3f3d 063d 6af7 a63d
000003c0: 309b 9e3d 0276 3b3d 567e 54bd 484a 5bbb
000003d0: 8fa5 40be 47d7 e9bd 494c 7dbe b247 ecbd
000003e0: 194a 32be 53c8 fbbd fb71 2a3d 425b 7fbe
000003f0: c00e 83be 4aac 043c 77af 213c fceb 2bbe

network_body._body_endoder.seq_layers.0.bias f4 [128]
0.020607166 0.02641313 0.056623336 0.008224449 0.0361013 -0.030734876 -0.008735979 0.038086604
0.03216637 0.032870542 0.014398105 0.025176134 0.0294874 -0.024317143 0.07467287 0.0057124165
-0.01610985 0.028364735 -0.011603965 0.05384766 0.010798476 0.04250426 0.027342146 0.020819306
0.013070082 0.023472408 0.0028866185 0.01125433 0.016764708 0.041916035 0.01320996 0.007865342
0.03558866 -0.022793166 0.038695205 0.025282394 0.02888279 0.029120598 0.07361637 0.025823986
0.011141438 0.03905711 -0.048071004 0.0030528884 0.041887317 0.024216663 0.0064512757 0.029562397
0.02563644 0.028284913 0.023928955 0.008580592 0.019514019 0.039468303 0.053667046 0.009301439
0.041164283 0.0003224006 0.040674403 -0.006310273 -0.008944385 0.023744771 0.016907357 0.03307658
0.031939678 0.016997514 0.0136975385 0.0412107 0.024056775 -0.0031031428 0.01659058 -0.023486452
-0.011922715 0.049067236 -0.0065990924 0.029461334 0.075068615 0.019650295 -0.008564053 0.022797834
0.033584986 0.011705447 0.039749354 0.015574234 0.021487148 0.039198484 0.034767397 0.034111254
0.035206854 0.021350808 0.02656577 0.023903036 0.027751982 0.040912677 -0.00854356 0.002119433
0.02109108 0.018349003 0.011967418 0.046151694 0.029400177 -0.0078786705 0.0096720755 0.054691564
0.034865797 0.04296387 0.023584552 0.032428678 0.03565663 -0.029651916 0.050246608 0.0033162765
0.029791843 -0.03134523 0.004462765 0.026635822 0.0034832603 0.053539805 0.0075222044 0.023291
-0.009893133 0.032583494 0.0035707238 0.03103808 0.005680611 0.01640585 0.019683942 0.0020384558
00000000: 5cd0 a83c 5960 d83c dfed 673d d7bf 063c
00000010: f5de 133d b5c7 fbbc 5a21 0fbc b300 1c3d
00000020: e2c0 033d 43a3 063d 08e6 6b3c 2e3e ce3c
00000030: 8f8f f13c bf34 c7bc 17ee 983d 392f bb3b
00000040: cef8 83bc 295d e83c 8f1e 3ebc 5d8f 5c3d
00000050: 17ec 303c f218 2e3d a3fc df3c 408d aa3c
00000060: e623 563c 3549 c03c 6c2d 3d3b 1564 383c
00000070: 2456 893c 26b0 2b3d 976e 583c a3dd 003c
00000080: 6ac5 113d bcb8 babc dd7e 1e3d 061d cf3c
00000090: 9a9b ec3c 528e ee3c 2ec4 963d d38c d33c
000000a0: 948a 363c 59fa 1f3d 1ae6 44bd f812 483b
000000b0: 0992 2b3d 0662 c63c 3965 d33b d72c f23c
000000c0: 8303 d23c c3b5 e73c a806 c43c 9d95 0c3c
000000d0: dddb 9f3c 84a9 213d fad1 5b3d 1065 183c
000000e0: e19b 283d e007 a939 349a 263d 68c6 cebb
000000f0: 788b 12bc 6584 c23c 4c81 8a3c 4f7b 073d
00000100: 2ed3 023d 5f3e 8b3c a46b 603c 8dcc 283d
00000110: b712 c53c 195e 4bbb f8e8 873c a966 c0bc
00000120: 7e57 43bc bafa 483d 333d d8bb e558 f13c
00000130: 93bd 993d a8f9 a03c 3e50 0cbc 86c2 ba3c
00000140: 6990 093d 34c8 3f3c 38d0 223d 122b 7f3c
00000150: d105 b03c 978e 203d 4268 0e3d 3eb8 0b3d
00000160: 1035 103d e4e7 ae3c 75a0 d93c 4dd0 c33c
00000170: 2058 e33c 0d94 273d 4afa 0bbc 2fe6 0a3b
00000180: 33c7 ac3c a650 963c fd12 443c 8f09 3d3d
00000190: a4d8 f03c 8a15 01bc a077 1e3c 4304 603d
000001a0: 70cf 0e3d e2fa 2f3d 6434 c13c efd3 043d
000001b0: b00c 123d 93e8 f2bc 63cf 4d3d e355 593b
000001c0: 060e f43c db63 00bd 633c 923b 5e33 da3c
000001d0: 6947 643b 8e4c 5b3d d37c f63b c4cc be3c
000001e0: cf16 22bc 4576 053d ce02 6a3b 9243 fe3c
000001f0: 6b24 ba3b 9065 863c 3840 a13c 9d97 053b

network_body._body_endoder.seq_layers.2.weight f4 [128, 128]
0.059561443 0.020270556 -0.006176463 -0.064046144 -0.017342472 0.032962058 -0.121754184 -0.05864654
0.01987262 -0.003599418 0.031121386 -0.11182124 0.019591061 0.10033303 -0.14963152 -0.057716098
0.1458116 -0.016177123 0.00945389 0.15892366 0.007974747 0.06842397 -0.026572991 -0.07692601
-0.084980235 -0.16568136 -0.14186443 -0.053400584 0.08250583 -0.09066358 -0.050502833 -0.09055739
-0.010866923 0.05496034 -0.05108554 0.0042203367 0.0120689375 0.09555581 -0.025214748 -0.0889303
-0.0025111907 0.042271752 -0.006069752 -0.033789564 0.07766068 -0.17683765 0.0387014 0.056494024
-0.044058427 0.024904834 0.013782991 0.04612275 0.02867907 0.031757284 -0.09314713 -0.038753938
-0.14803196 -0.0746108 -0.054343037 0.11174005 0.048669167 0.0016722558 0.030036498 -0.07137948
0.13246703 0.06303875 -0.02186293 0.05721831 -0.1605065 0.09419472 -0.016970092 -0.0969429
0.09518827 0.07643292 0.058002822 -0.07223377 -0.018455321 0.039349068 0.20851052 -0.0676012
-0.09047498 0.03369141 0.012076109 0.12653103 0.0401599 -0.10231727 0.04305351 0.14109564
0.07121235 -0.15500388 -0.10865851 0.03906913 -0.10847788 -0.0010390684 -0.06957493 -0.016658928
0.06891909 0.12340286 -0.025659416 -0.052239645 -0.028485823 -0.08936316 0.015380907 0.006680242
-0.1580288 -0.08728879 0.041585628 -0.092683844 -0.18039963 -0.08797826 -0.050071023 0.123632
0.020229086 -0.09279099 -0.15523776 0.0064053875 -0.043602366 0.030084549 0.075437635 -0.0354557
0.14508902 0.033824153 0.023374816 0.002012718 -0.10112149 0.018930713 -0.017898627 0.09414094
-0.014150404 0.07342195 0.079146765 -0.15622468 0.0742877 0.047885507 0.025899244 0.0017728821
0.12994778 0.054276064 -0.08825845 0.005050805 0.19306597 0.0116067175 0.03213049 -0.04294191
0.06723792 -0.06501132 -0.017306946 -0.0339101 0.123796545 0.21955498 -0.0029102995 0.07365399
-0.019428242 -0.11810295 -0.05784737 -0.08538215 -0.036324233 0.028734814 0.01440849 0.09685003
0.056382656 -0.015461401 -0.03519889 0.04616974 0.14035758 0.021573072 0.0008783357 -0.027325368
-0.20462848 -0.0006769112 -0.0033814742 -0.009585364 0.09483816 0.07916171 0.013683219 -0.11201285
0.033931676 -0.17442493 -0.045167506 -0.073534414 -0.15740116 0.037496366 0.05253892 0.046749573
0.12560837 0.083841145 0.045340843 -0.05704869 -0.1713636 0.029715205 0.21185091 -0.015402178
-0.011770625 -0.10704466 -0.037988886 -0.10409193 -0.0744428 0.056443848 0.1313595 -0.04042678
-0.00494967 0.04917491 -0.109624945 -0.04690629 -0.11631082 -0.092154875 -0.033996385 0.17468528
-0.1997012 0.18646702 0.1340639 -0.13072208 0.038198717 0.027344668 0.10155637 -0.0012165051
-0.1504925 -0.052415486 -0.019692281 -0.032384146 0.026143357 0.044999313 -0.01979368 -0.062321905
-0.06999365 0.15141632 0.0064881262 -0.07745015 0.06629281 -0.024422359 0.049863003 0.073318645
-0.021961913 0.12330543 -0.111513495 -0.054777823 0.12480831 -0.004548636 0.11892574 -0.02011459
-0.11799231 -0.005163954 -0.14517428 -0.06935439 0.029771313 0.08239271 0.023832168 0.11636391
0.17641568 -0.14782345 0.13170515 -0.06209961 0.09396123 0.14467463 0.047676682 -0.07079332
00000000: b3f6 733d 700e a63c ed63 cabb a02a 83bd
00000010: cd11 8ebc 3903 073d 425a f9bd 5b37 70bd
00000020: e8cb a23c 37e4 6bbb 47f2 fe3c 8902 e5bd
00000030: 6f7d a03c 677b cd3d 0139 19be b767 6cbd
00000040: a34f 153e e385 84bc 7de4 1a3c e2bc 223e
00000050: 83a8 023c de21 8c3d 9aaf d9bc 628b 9dbd
00000060: 1e0a aebd 60a8 29be e944 11be 92ba 5abd
00000070: d1f8 a83d d4ad b9bd 0fdc 4ebd 2776 b9bd
00000080: 2e0b 32bc 181e 613d 123f 51bd c04a 8a3b
00000090: cbbc 453c c4b2 c33d 298f cebc 1721 b6bd
000000a0: ca92 24bb 2525 2d3d c5e4 c6bb ed66 0abd
000000b0: 900c 9f3d ee14 35be 5c85 1e3d 4766 673d
000000c0: 9c76 34bd 3905 cc3c 0ed2 613c 35eb 3c3d
000000d0: 5ef0 ea3c ed13 023d ecc3 bebd 73bc 1ebd
000000e0: b195 17be 8ccd 98bd ce96 5ebd f8d7 e43d
000000f0: 5259 473d 982f db3a 1a0f f63c 682f 92bd
00000100: 70a5 073e 761a 813d e319 b3bc bf5d 6a3d
00000110: d15b 24be 29e9 c03d dd04 8bbc 008a c6bd
00000120: 11f2 c23d dd88 9c3d 5e94 6d3d 4cef 93bd
00000130: 9d2f 97bc 7d2c 213d c883 553e 7f72 8abd
00000140: f24a b9bd 0100 0a3d dfda 453c 5a91 013e
00000150: b57e 243d b88b d1bd e158 303d 607b 103e
00000160: c8d7 913d 56b9 1ebe 5a88 debd f406 203d
00000170: a729 debd 5a31 88ba 4d7d 8ebd 4e78 88bc
00000180: 7425 8d3d a3ba fc3d b233 d2bc 3df9 55bd
00000190: 1a5b e9bc 0804 b7bd 3300 7c3c eee5 da3b
000001a0: 4dd2 21be 77c4 b2bd b155 2a3d 07d1 bdbd
000001b0: aeba 38be f22d b4bd 4617 4dbd c632 fd3d
000001c0: 78b7 a53c 3409 bebd a6f6 1ebe 49e4 d13b
000001d0: 6598 32bd df73 f63c 0c7f 9a3d ff39 11bd
000001e0: 3792 143e 328b 0a3d 8b7c bf3c cee7 033b
000001f0: c918 cfbd 9514 9b3c 24a0 92bc f7cc c03d
00000200: 19d7 67bc 3f5e 963d b317 a23d 5df9 1fbe
00000210: 2624 983d 9823 443d a72a d43c 0d60 e83a
00000220: 0811 053e 9450 5e3d d9c0 b4bd 3981 a53b
00000230: 16b3 453e 1a2a 3e3c 439b 033d dbe3 2fbd
00000240: 09b4 893d a824 85bd 4cc7 8dbc 51e5 0abd
00000250: 0b89 fd3d 05d3 603e b9ba 3ebb e7d7 963d
00000260: fa27 9fbc f6df f1bd 5df1 6cbd d6dc aebd
00000270: b8c8 14bd 4665 eb3c 9611 6c3c 4f59 c63d
00000280: 80f1 663d d151 7dbc b62c 10bd 7b1c 3d3d
00000290: e6b9 0f3e 03ba b03c 1c40 663a 73d9 dfbc
000002a0: 218a 51be be72 31ba b99b 5dbb ee0b 1dbc
000002b0: 823a c23d 891f a23d 952f 603c fe66 e5bd
000002c0: f1fb 0a3d 739c 32be 9001 39bd 3699 96bd
000002d0: c52d 21be ca95 193d 0d33 573d 7b7c 3f3d
000002e0: 7b9f 003e e8b4 ab3d 52b7 393d e3ab 69bd
000002f0: f179 2fbe 4d6d f33c 72ef 583e 6b59 7cbc
00000300: 94d9 40bc 3b3a dbbd 3c9a 1bbd 262e d5bd
00000310: 7775 98bd aa31 673d 1b83 063e 8d96 25bd
00000320: d730 a2bb a16b 493d 0b83 e0bd cf20 40bd
00000330: 5e34 eebd b2bb bcbd cb3f 0bbd b3e0 323e
00000340: 797e 4cbe 36f1 3e3e 0c48 093e 02dc 05be
00000350: 4276 1c3d ed01 e03c c9fc cf3d 2373 9fba
00000360: b51a 1abe 9fb1 56bd b551 a1bc 3da5 04bd
00000370: 982a d63c 3351 383d 5b26 a2bc 4145 7fbd
00000380: d558 8fbd e10c 1b3e 599a d43b 2f9e 9ebd
00000390: 86c4 873d 6611 c8bc 263d 4c3d 1628 963d
000003a0: 78e9 b3bc 8f87 fc3d 3061 e4bd b65e 60bd
000003b0: 809b ff3d b90c 95bb 578f f33d 5ac7 a4bc
000003c0: f4a5 f1bd 6336 a9bb 91a8 14be ad09 8ebd
000003d0: f8e2 f33c 82bd a83d ae3b c33c 3450 ee3d
000003e0: 50a6 343e 085f 17be b7dd 063e 295c 7ebd
000003f0: bf6e c03d 9625 143e a048 433d 17fc 90bd

network_body._body_endoder.seq_layers.2.bias f4 [128]
0.0015284411 0.010538705 0.025880434 0.015952354 -0.005134136 0.021957846 0.017140085 0.00766117
0.022869501 0.01840382 0.04729952 0.014409488 0.016111234 -0.0068806945 0.010058638 0.027280325
0.013366553 0.018898703 0.013133161 0.037991468 0.0072472664 0.0039409953 0.024435353 0.009963745
-0.0015938117 0.018956173 0.03284431 0.012428955 -0.01108575 0.019288631 0.04008713 -0.014083234
0.043106027 0.02568123 0.0022853655 0.013862937 0.03566359 0.03383795 0.0055230474 0.013736772
0.007290227 0.017846351 0.014751429 0.028728995 0.022527015 0.013007559 0.01625737 0.017363187
-0.0013772766 0.023631975 0.02123852 0.018151866 0.023049165 0.0074003562 0.022087581 0.023548126
0.0059048175 0.03692778 0.009275876 0.012540706 0.031945523 0.018898241 0.0465946 -0.0147257885
0.013721799 0.010537254 -0.015054238 0.02100252 0.012485453 0.014101506 0.012799811 -0.020848412
0.031537946 0.0069426754 0.010721137 0.024582962 0.013711396 0.03549166 0.016938709 0.022476498
0.023507863 0.04766853 0.04209478 0.03394102 0.03186362 0.024558034 -0.0021950975 0.015168353
0.02982335 0.048995607 0.018763693 0.025869831 0.016058853 0.024093729 0.034805037 0.031704057
-0.0050752317 0.025694525 -0.013141182 1.0453798e-05 0.032975752 0.003693931 0.026596695 0.0083043985
0.0075622643 0.027436603 0.0034472898 0.026316104 0.015189131 0.007957368 0.0014771868 0.03753406
0.018384933 0.029653464 0.0018523027 0.020926636 0.013243138 0.021891803 0.03510187 0.019791838
-0.001846007 0.013757101 -0.016464664 -0.0008434343 -0.012270668 0.030662369 0.010867891 -0.0033929583
00000000: f955 c83a 88aa 2c3c 3403 d43c 83ae 823c
00000010: 413c a8bb f1e0 b33c 5d69 8c3c 8d0a fb3b
00000020: d258 bb3c 9cc3 963c 24bd 413d c615 6c3c
00000030: b5fb 833c 7377 e1bb fccc 243c fd7a df3c
00000040: 63ff 5a3c 74d1 9a3c 782c 573c f19c 1b3d
00000050: 7a7a ed3b 7723 813b a62c c83c fa3e 233c
00000060: 72e7 d0ba fa49 9b3c c187 063d d1a2 4b3c
00000070: 01a1 35bc 3103 9e3c 6732 243d 5dbd 66bc
00000080: f28f 303d 7161 d23c 12c6 153b 5f21 633c
00000090: fc13 123d aa99 0a3d aefa b43b 3310 613c
000000a0: dbe2 ee3b 8332 923c faaf 713c 1259 eb3c
000000b0: 938a b83c a81d 553c 2d2e 853c 3e3d 8e3c
000000c0: bc85 b4ba d897 c13c 68fc ad3c 39b3 943c
000000d0: 9ad1 bc3c b07e f23b 04f1 b43c 00e8 c03c
000000e0: 337d c13b 9541 173d d8f9 173c 8977 4d3c
000000f0: 4fd9 023d 7cd0 9a3c fbd9 3e3d 6f44 71bc
00000100: 65d1 603c 72a4 2c3c 0da6 76bc 7a0d ac3c
00000110: c98f 4c3c 010a 673c 4cb6 513c 4aca aabc
00000120: ef2d 013d 627f e33b b5a7 2f3c 3562 c93c
00000130: c3a5 603c b45f 113d 0cc3 8a3c a220 b83c
00000140: 9093 c03c 1440 433d 936b 2c3d bd05 0b3d
00000150: 6d83 023d ee2d c93c a0db 0fbb af84 783c
00000160: 1950 f43c 9eaf 483d 51b6 993c f8ec d33c
00000170: db8d 833c 3660 c53c ba8f 0e3d 1ddc 013d
00000180: 214e a6bb 537d d23c 1d4e 57bc b862 2f37
00000190: 9511 073d e115 723b 50e1 d93c 2c0f 083c
000001a0: dfcc f73b bac2 e03c edeb 613b df94 d73c
000001b0: d5db 783c 9f5f 023c 2a9e c13a 51bd 193d
000001c0: 009c 963c d2eb f23c f7c8 f23a 566e ab3c
000001d0: bff9 583c 7056 b33c fac6 0f3d 7e22 a23c
000001e0: b7f5 f1ba 7765 613c e7e0 86bc eb19 5dba
000001f0: e90a 49bc a62f fb3c 3d0f 323c 655c 5ebb

action_model._continuous_distribution.log_sigma f4 [1, 5]
-0.07948408 -0.047205854 -0.12167423 0.006363582 0.007395631
00000000: 8dc8 a2bd ed5a 41bd 5730 f9bd 9885 d03b
00000010: 0d57 f23b

action_model._continuous_distribution.mu.weight f4 [5, 128]
-0.043899003 -0.03726928 0.008562617 -0.011060873 0.010693461 0.010489341 0.028484207 0.017377723
-0.06723743 0.008736924 0.002162573 0.027441945 0.1159743 0.02949849 0.023199787 -0.12878054
0.105786584 0.008360755 -0.049373437 -0.082297936 0.10387774 -0.055555426 -0.0050021387 -0.033064652
-0.039404944 -0.008318149 0.0061103576 -0.080970384 0.002257184 0.057491194 0.04993979 0.019694567
-0.022363402 -0.09935818 -0.063298665 -0.065856814 0.007266639 -0.09770582 0.08612781 0.0028063378
0.09343013 -0.02469089 0.11153892 -0.039763894 0.03834401 0.010191479 0.040617798 -0.036519025
-0.044630356 0.041830335 -0.03624419 0.08786004 -0.016221777 -0.01531711 -0.025688702 -0.070575565
0.02110908 -0.020528097 -0.1426994 -0.062177073 0.035453964 0.055240907 -0.005092867 0.022480033
0.013719402 -0.010564619 -0.008252621 -0.11664295 0.050184995 0.00678469 0.090983786 0.057762265
0.020020753 -0.046818368 0.0324478 0.04029217 0.009783359 0.077158965 -0.052580357 -0.03788503
-0.0118930545 -0.024428377 0.05165752 -0.04944377 -0.068577416 -0.09141558 0.07010775 0.035054304
-0.07357682 0.006819779 0.07198831 -0.04689723 -0.023764094 -0.09727595 -0.12171278 -0.07091128
-0.033936277 0.005642009 -0.031206818 0.037787445 0.088058375 -0.085061304 0.035297755 -0.0006129281
-0.024019895 0.050965093 0.05797314 -0.01764657 0.012055369 -0.08381855 0.026452346 0.008324054
-0.030628871 0.08842687 -0.043117765 0.009222433 0.018221958 0.13052757 0.06444518 0.10855143
0.020327829 0.07643107 0.036082648 -0.008034054 0.019637343 0.0869929 -0.050140437 0.053752072
-0.03299187 0.032863643 0.084908366 0.057500426 0.0067984867 0.057231694 -0.09120139 0.059235174
-0.011607213 0.019612689 0.10043062 -0.09411289 -0.059577342 -0.05809057 -0.10925342 0.02985167
0.003564013 0.0977817 0.04244345 0.037269365 -0.059640653 0.015858984 -0.05020503 -0.00884858
0.0047593573 -0.08908036 0.05505002 -0.06013934 -0.0011153815 -0.03781978 0.12944405 -0.004910825
0.08995841 0.033110395 -0.13118127 -0.07007921 0.11130544 0.10732822 0.013433879 -0.030827058
-0.017737431 0.07282681 0.012964707 -0.03344451 -0.043659788 -0.05889009 -0.11396805 -0.10110995
-0.12044567 0.08273739 0.11225011 -0.046813544 -0.11298312 0.022182213 0.08399529 -0.051695634
-0.14681332 0.091306165 0.018861812 0.018867595 0.03235762 -0.03044867 0.13284385 0.014594031
-0.07318347 -0.10064882 -0.03917325 -0.010253713 -0.020980308 0.037116572 -0.0036799773 -0.051837333
0.08538769 -0.097122796 0.08323741 0.07674114 0.015194252 0.07575093 0.001205365 -0.004430617
-0.0071699126 0.14834267 0.10483418 0.12322074 0.12554976 -0.065935 -0.075445354 -0.020444982
0.09344392 0.14025198 -0.087059155 0.09395708 -0.023608625 0.10146973 -0.045408197 -0.025067361
-0.08700673 0.11865782 -0.010809489 -0.041531473 0.06697141 -0.034533903 0.05496246 -0.03805118
0.018912815 0.015909707 -0.036438774 -0.122071855 -0.030835943 0.05334151 -0.062005986 0.09130776
-0.006400008 0.100383766 -0.022739697 0.045848146 -0.004264357 0.08580442 0.12247755 -0.03459141
0.023811083 -0.12364818 -0.018699935 -0.0459875 0.0041095642 -0.0128414845 -0.01092387 0.0036637746
00000000: 71cf 33bd aca7 18bd 384a 0c3c aa38 35bc
00000010: a033 2f3c 7cdb 2b3c b657 e93c ba5b 8e3c
00000020: c7b3 89bd 5125 0f3c f4b9 0d3b eecd e03c
00000030: ef83 ed3d d1a6 f13c 7b0d be3c 0cdf 03be
00000040: a3a6 d83d 8cfb 083c cd3b 4abd d28b a8bd
00000050: dabd d43d 168e 63bd fbe8 a3bb cd6e 07bd
00000060: 1467 21bd d848 08bc 6539 c83b cdd3 a5bd
00000070: 43ed 133b e37b 6b3d aa8d 4c3d 8056 a13c
00000080: 7433 b7bc 4d7c cbbd bba2 81bd f0df 86bd
00000090: fc1c ee3b fd19 c8bd c763 b03d 89ea 373b
000000a0: 4c58 bf3d 8d44 cabc 846e e43d 77df 22bd
000000b0: 9c0e 1d3d 29fa 263c d95e 263d f994 15bd
000000c0: 52ce 36bd 4956 2b3d ca74 14bd f7ef b33d
000000d0: 88e3 84bc 9ef4 7abc 1d71 d2bc ec89 90bd
000000e0: f3ec ac3c 8a2a a8bc cb1f 12be 63ad 7ebd
000000f0: 2d38 113d 4a44 623d 11e2 a6bb 0c28 b83c
00000100: 58c7 603c 3917 2dbc 0036 07bc 80e2 eebd
00000110: c88e 4d3d 1b52 de3b b555 ba3d 2098 6c3d
00000120: 9002 a43c 9ec4 3fbd fce7 043d 6709 253d
00000130: 624a 203c 8505 9e3d 805e 57bd 552d 1bbd
00000140: 16db 42bc 051e c8bc d696 533d 8d85 4abd
00000150: 5172 8cbd 1738 bbbd a794 8f3d 1a95 0f3d
00000160: 72af 96bd 7478 df3b 9b6e 933d 4f17 40bd
00000170: ebac c2bc 9d38 c7bd 8d44 f9bd ef39 91bd
00000180: c400 0bbd 9ae0 b83b 71a5 ffbc 02c7 1a3d
00000190: f357 b43d 9f34 aebd 6194 103d e9ac 20ba
000001a0: 5fc5 c4bc c6c0 503d 3e75 6d3d 8a8f 90bc
000001b0: e283 453c 0fa9 abbd 97b2 d83c 9d61 083c
000001c0: 66e9 fabc 2619 b53d 419c 30bd b019 173c
000001d0: 3746 953c 05a9 053e d6fb 833d 3650 de3d
000001e0: 8c86 a63c e587 9c3d 66cb 133d 44a1 03bc
000001f0: 7ede a03c 5529 b23d 0f60 4dbd 222b 5c3d
00000200: 7c22 07bd 079c 063d 70e4 ad3d 9185 6b3d
00000210: d7c5 de3b c86b 6a3d cbc7 babd 95a0 723d
00000220: 2e2c 3ebc caaa a03c 92ae cd3d 42be c0bd
00000230: 5f07 74bd 61f0 6dbd 42c0 dfbd 7d8b f43c
00000240: 3792 693b c641 c83d 2fd9 2d3d c3a7 183d
00000250: c249 74bd b3ea 813c caa3 4dbd a2f9 10bc
00000260: 62f4 9b3b c46f b6bd 217c 613d ab54 76bd
00000270: fe31 92ba eae8 1abd fb8c 043e fcea a0bb
00000280: 1d3c b83d c49e 073d 6254 06be b085 8fbd
00000290: 1bf4 e33d e6ce db3d c619 5c3c 0789 fcbc
000002a0: 174e 91bc 3926 953d ec69 543c 1cfd 08bd
000002b0: 9bd4 32bd bc36 71bd 1568 e9bd bc12 cfbd
000002c0: 38ac f6bd 3972 a93d 63e3 e53d 8fbf 3fbd
000002d0: b263 e7bd 79b7 b53c b905 ac3d cdbe 53bd
000002e0: 3b56 16be bafe ba3d 1684 9a3c 3790 9a3c
000002f0: 6c89 043d 7d6f f9bc 3808 083e cd1b 6f3c
00000300: 37e1 95bd f820 cebd 2174 20bd 30ff 27bc
00000310: e5de abbc 8c07 183d c62b 71bb 6253 54bd
00000320: bedf ae3d 51e8 c6bd 6078 aa3d 752a 9d3d
00000330: 50f1 783c 4e23 9b3d 57fd 9d3a b62e 91bb
00000340: 96f1 eabb 24e7 173e 4db3 d63d 285b fc3d
00000350: 1e90 003e ee08 87bd 1883 9abd 3c7c a7bc
00000360: 875f bf3d 379e 0f3e 124c b2bd 926c c03d
00000370: e066 c1bc 5dcf cf3d f2fd 39bd 115a cdbc
00000380: 9630 b2bd df02 f33d 481a 31bc e81c 2abd
00000390: 4e28 893d 6c73 0dbd 5120 613d 8edb 1bbd
000003a0: 0cef 9a3c 1355 823c d340 15bd cf00 fabd
000003b0: a99b fcbc a17c 5a3d fdf9 7dbd 90ff ba3d
000003c0: 29b7 d1bb 0196 cd3d 9a48 babc 44cb 3b3d
000003d0: 05bc 8bbb 3aba af3d 82d5 fa3d b9af 0dbd
000003e0: 760f c33c 423b fdbd 9b30 99bc 645d 3cbd
000003f0: 86a9 863b 1765 52bc 08fa 32bc f01b 703b

action_model._continuous_distribution.mu.bias f4 [5]
0.00016797885 0.0026536065 -0.003187106 0.023068016 0.013825511
00000000: 7b23 3039 21e8 2d3b c4de 50bb 23f9 bc3c
00000010: 6584 623c

exp_avg f4 [128, 47]
6.477954e-05 -7.364646e-07 0.0 7.0305934e-05 7.739421e-05 8.339477e-06 6e-45 -6.3878514e-07
0.00010852341 6.53506e-06 6e-45 8.342542e-06 0.00030049094 1.6220409e-05 6e-45 2.9650726e-06
5.1665535e-05 1.2839037e-05 6e-45 6.5237246e-06 0.0001699045 2.8817929e-06 0.0 3.2674488e-06
-1.9137535e-05 2.2605086e-06 6e-45 8.44282e-06 8.346955e-05 -7.885692e-06 0.0 1.4584907e-06
-0.0001964333 0.00027222975 6e-45 0.0001060465 -0.000119257806 2.0810505e-05 -5.69379e-05 -0.00012171488
-3.7560472e-05 -0.00021050517 -7.492441e-06 -6.267456e-05 0.000152436 4.2244938e-06 5.5343586e-05 0.00015316524
-3.1007672e-05 0.0 -6.0410683e-05 -3.356525e-05 2.1334918e-05 -6e-45 6.0944844e-06 -2.7911958e-05
3.307726e-05 -6e-45 1.0915085e-06 -5.4959408e-05 3.7770426e-06 -6e-45 2.0430777e-07 7.301169e-05
3.773125e-05 -6e-45 4.852028e-06 -3.762206e-05 3.2532032e-05 0.0 4.749779e-06 0.00018066917
1.368876e-05 -6e-45 1.7542321e-06 6.491245e-05 6.4939624e-05 0.0 1.1483065e-05 0.00014627977
-3.5878824e-05 -6e-45 -3.7729376e-05 2.3031043e-05 8.375936e-06 4.5797548e-05 -5.793982e-06 1.4075095e-05
3.525486e-05 3.4993864e-05 0.000159607 -2.4341525e-06 4.7976323e-06 9.2873255e-05 0.0001446691 -4.187695e-05
0.0 -9.074851e-05 1.6115871e-05 1.3581884e-05 -6e-45 2.340151e-06 -2.074028e-06 2.8162001e-05
-6e-45 -4.56346e-06 -0.00011159628 -5.484814e-06 -6e-45 -3.7771968e-06 4.338039e-05 2.9125658e-05
-6e-45 -1.2320279e-06 -7.1391296e-05 2.8559742e-05 0.0 2.4211774e-06 0.00021242799 9.246702e-06
-6e-45 -7.2253306e-06 6.2184677e-06 5.7018085e-05 0.0 9.167971e-06 0.0002548269 -0.00020863436
-6e-45 -9.692808e-05 7.7978926e-05 -5.4077955e-05 9.426747e-05 6.5095985e-05 2.2087814e-05 0.00015708734
3.1208747e-05 0.00018224535 -8.141062e-05 2.0502205e-06 7.721327e-05 -2.5401567e-05 3.6802041e-06 0.0
-7.4521e-06 2.022947e-06 -1.6207564e-07 6e-45 -7.2537335e-07 -6.0740996e-07 8.509325e-07 6e-45
-1.9730135e-06 -7.605809e-06 -8.30395e-06 6e-45 -1.236228e-06 -3.253633e-05 3.8534745e-06 6e-45
-1.7055386e-06 -7.308445e-06 -4.0453095e-08 0.0 3.928534e-07 -2.4617773e-07 -1.7481614e-06 6e-45
-3.085399e-06 -2.7446033e-05 3.8428543e-06 0.0 4.853085e-07 8.921418e-06 -4.0350158e-05 6e-45
-1.0778654e-05 1.2141661e-05 -2.4511459e-05 2.1989046e-05 1.0152641e-05 3.6524023e-06 2.1245523e-05 7.612205e-06
-1.6404958e-05 -3.0575167e-05 -6.5976515e-08 -1.734863e-05 0.00033772842 -5.8478705e-05 0.0 9.8193676e-05
4.7179037e-05 -5.5071378e-06 -6e-45 8.414554e-06 6.0162092e-05 -7.1149466e-06 -6e-45 1.8824105e-05
9.759487e-05 4.890539e-05 -6e-45 9.260238e-06 0.00036699275 -3.217807e-05 -6e-45 1.6178938e-05
0.00015043041 -7.0302167e-06 0.0 -2.5685051e-06 0.0001605839 -3.2217342e-06 -6e-45 2.5371995e-05
0.00022812586 -4.4973294e-05 0.0 6.4518217e-06 -0.00017289013 0.0004823862 -6e-45 0.00013058665
-9.2976166e-05 0.00029290415 -0.00025014402 -8.59447e-05 4.8239664e-05 -0.00023218757 1.7203203e-05 0.00016531728
0.0002610767 2.9134276e-06 0.00016553962 -2.7422528e-05 1.0648378e-06 0.0 4.573932e-06 -2.9054567e-05
1.1842181e-06 6e-45 3.8997905e-07 -1.3827444e-05 1.540942e-07 6e-45 1.0593803e-06 1.6973216e-05
-1.7913546e-08 6e-45 7.5469916e-07 -1.9063562e-05 8.481673e-07 6e-45 8.091371e-07 -1.7857957e-06
00000000: 40da 8738 76b1 45b5 0000 0000 3671 9338
00000010: b34e a238 c8e9 0b37 0400 0000 fb78 2bb5
00000020: 1097 e338 bd47 db36 0400 0000 f2f6 0b37
00000030: 368b 9d39 1011 8837 0400 0000 8ffb 4636
00000040: 72b3 5838 3e67 5737 0400 0000 5ee6 da36
00000050: 6428 3239 d364 4136 0000 0000 5846 5b36
00000060: 8b89 a0b7 3eb3 1736 0400 0000 a3a5 0d37
00000070: 600c af38 ca4c 04b7 0000 0000 5cc1 c335
00000080: aaf9 4db9 0fba 8e39 0400 0000 4865 de38
00000090: 0c1a fab8 3892 ae37 9bd0 6eb8 2e41 ffb8
000000a0: 408a 1db8 0dbb 5cb9 9467 fbb6 2670 83b8
000000b0: 3ad7 1f39 20c0 8d36 b920 6838 fb9a 2039
000000c0: 3c0e 02b8 0000 0000 7a61 7db8 6ac8 0cb8
000000d0: 63f8 b237 0400 0080 397f cc36 7924 eab7
000000e0: 70bc 0a38 0400 0080 f27f 9235 3784 66b8
000000f0: 1979 7d36 0400 0080 b15f 5b34 da1d 9938
00000100: 9f41 1e38 0400 0080 9ace a236 61cc 1db8
00000110: 0173 0838 0000 0000 4a60 9f36 0372 3d39
00000120: c7a8 6537 0400 0080 f572 eb35 9b21 8838
00000130: 3230 8838 0000 0000 63a7 4037 ad62 1939
00000140: 987c 16b8 0400 0080 9c3f 1eb8 ca32 c137
00000150: 5f86 0c37 be16 4038 ed69 c2b6 1324 6c37
00000160: 9ede 1338 60c6 1238 2e5c 2739 6c5a 23b6
00000170: 59fb a036 f3c4 c238 51b2 1739 08a5 2fb8
00000180: 0000 0000 3c50 beb8 9230 8737 bfdd 6337
00000190: 0400 0080 7d0b 1d36 882f 0bb6 703d ec37
000001a0: 0400 0080 d31f 99b6 cc08 eab8 320a b8b6
000001b0: 0400 0080 bf7b 7db6 57f3 3538 e052 f437
000001c0: 0400 0080 285c a5b5 e9b7 95b8 9493 ef37
000001d0: 0000 0000 837b 2236 34bf 5e39 4822 1b37
000001e0: 0400 0080 1e71 f2b6 3ba8 d036 b426 6f38
000001f0: 0000 0000 23d0 1937 4a9a 8539 dcc4 5ab9
00000200: 0400 0080 de45 cbb8 9e88 a338 c3d1 62b8
00000210: 76b1 c538 2484 8838 3849 b937 d0b7 2439
00000220: 23e6 0238 1d19 3f39 feba aab8 8596 0936
00000230: 8fed a138 7315 d5b7 6df9 7636 0000 0000
00000240: 0d0d fab6 f7c1 0736 0307 2eb4 0400 0000
00000250: 47b7 42b5 e50c 23b5 a36b 6435 0400 0000
00000260: 1d68 04b6 6735 ffb6 3251 0bb7 0400 0000
00000270: 78ec a5b5 9e77 08b8 184d 8136 0400 0000
00000280: dce9 e4b5 113b f5b6 a6be 2db3 0000 0000
00000290: 5ce9 d234 692a 84b4 5ea2 eab5 0400 0000
000002a0: c00e 4fb6 e83b e6b7 def1 8036 0000 0000
000002b0: 2546 0235 33ad 1537 a73d 29b8 0400 0000
000002c0: f7d5 34b7 09b4 4b37 f59d cdb7 1e75 b837
000002d0: 4355 2a37 cb1b 7536 6a38 b237 586c ff36
000002e0: 619d 89b7 d63d 00b8 f9ae 8db3 e687 91b7
000002f0: 2411 b139 0847 75b8 0000 0000 54ed cd38
00000300: 1be2 4538 f4c9 b8b6 0400 0080 3c2c 0d37
00000310: 8e56 7c38 edbc eeb6 0400 0080 75e8 9d37
00000320: d9ab cc38 c31f 4d38 0400 0080 6b5c 1b37
00000330: ef68 c039 f1f6 06b8 0400 0080 01b8 8737
00000340: dbbc 1d39 1ae5 ebb6 0000 0000 955e 2cb6
00000350: 6a62 2839 f934 58b6 0400 0080 f2d5 d437
00000360: 1235 6f39 b5a1 3cb8 0000 0000 ba7c d836
00000370: d749 35b9 c8e8 fc39 0400 0080 16ee 0839
00000380: 33fc c2b8 ee90 9939 c325 83b9 363d b4b8
00000390: f254 4a38 6077 73b9 994f 9037 0559 2d39
000003a0: 1fe1 8839 4e84 4336 b494 2d39 6e09 e6b7
000003b0: 8ceb 8e35 0000 0000 c779 9936 35ba f3b7
000003c0: 6df1 9e35 0400 0000 505e d134 6bfc 67b7
000003d0: 1775 2534 0400 0000 0830 8e35 b461 8e37
000003e0: 4ee0 99b2 0400 0000 8896 4a35 b0ea 9fb7
000003f0: 9dad 6335 0400 0000 7a33 5935 79af efb5

exp_avg_sq f4 [128, 47]
1.5101449e-06 1.0771951e-07 0.0 2.981249e-08 1.4042046e-06 2.4479698e-09 1.0322869e-13 1.522904e-09
1.5020086e-06 2.5371887e-09 1.0322869e-13 1.7432802e-09 1.4966477e-06 2.45377e-09 1.0322869e-13 1.6940576e-09
1.5917275e-06 5.251366e-09 1.0322869e-13 2.577234e-09 1.5766368e-06 4.2743813e-09 0.0 2.4862807e-09
1.6018325e-06 2.2896838e-08 1.0322869e-13 5.4006914e-09 1.5963606e-06 1.7524464e-08 0.0 5.4514255e-09
2.7897312e-07 1.3543483e-06 1.0322869e-13 2.6729555e-07 2.6179407e-07 5.531993e-07 3.7306796e-07 3.9085614e-07
2.877854e-07 9.986345e-07 2.5778226e-07 9.273091e-07 8.748094e-07 4.5190035e-10 9.384585e-07 2.0859109e-06
1.2436263e-07 0.0 3.95606e-08 1.9602662e-06 6.618839e-09 8.753841e-15 2.9020033e-09 2.131283e-06
7.3290436e-09 8.753841e-15 3.3508787e-09 2.0686787e-06 7.30371e-09 8.753841e-15 3.0856209e-09 2.2168113e-06
1.204671e-08 8.753841e-15 4.6428936e-09 2.1788533e-06 1.4411934e-08 0.0 4.285638e-09 2.2104684e-06
3.3515384e-08 8.753841e-15 8.774075e-09 2.1840399e-06 4.6716004e-08 0.0 8.541108e-09 2.5271495e-07
1.8990538e-06 8.753841e-15 3.6976965e-07 3.3767455e-07 7.1877884e-07 4.734853e-07 5.101924e-07 3.9181626e-07
1.2643274e-06 3.5662885e-07 1.0966502e-06 1.1769082e-06 8.8675306e-10 1.2583051e-06 2.6587556e-06 2.0739702e-07
0.0 5.3051707e-08 2.5491777e-06 4.1204022e-09 5.3311757e-17 2.732751e-09 2.741848e-06 5.054677e-09
5.3311757e-17 3.1505778e-09 2.733481e-06 4.4885695e-09 5.3311757e-17 3.016182e-09 2.840073e-06 1.0087587e-08
5.3311757e-17 4.4774318e-09 2.8236677e-06 1.4183864e-08 0.0 4.673467e-09 2.8490213e-06 4.5703626e-08
5.3311757e-17 9.420172e-09 2.897345e-06 3.3586147e-08 0.0 9.364652e-09 4.3465582e-07 2.3588873e-06
5.3311757e-17 4.9666755e-07 3.934844e-07 1.01879e-06 6.861032e-07 5.8627825e-07 5.09117e-07 1.6458599e-06
4.6820705e-07 1.503343e-06 1.5475016e-06 9.942964e-10 1.5473639e-06 1.462605e-08 1.8089292e-09 0.0
2.84312e-10 1.2692031e-08 4.2367282e-10 7.517346e-14 8.3910136e-11 1.2722727e-08 4.5243745e-10 7.517346e-14
8.852505e-11 1.37377505e-08 4.04949e-10 7.517346e-14 8.305555e-11 1.3102297e-08 6.4397165e-10 7.517346e-14
9.836861e-11 1.4933017e-08 4.830798e-10 0.0 9.239063e-11 1.4106718e-08 1.1182213e-09 7.517346e-14
1.2794728e-10 1.5749817e-08 8.515034e-10 0.0 1.4114035e-10 2.6081188e-09 1.3718749e-08 7.517346e-14
2.9409883e-09 2.3818634e-09 6.0261196e-09 3.851185e-09 3.6938008e-09 3.1346195e-09 9.9345465e-09 2.9257556e-09
9.756877e-09 9.044178e-09 6.2721794e-12 9.958436e-09 2.9188054e-06 2.4476137e-07 0.0 5.7291004e-08
2.5561974e-06 1.2437184e-08 9.509555e-15 4.117695e-09 2.7669043e-06 1.3203986e-08 9.509555e-15 4.538583e-09
2.7599715e-06 1.2213594e-08 9.509555e-15 4.3088346e-09 3.0502654e-06 1.7812482e-08 9.509555e-15 5.9437473e-09
2.951071e-06 2.5496627e-08 0.0 6.0387455e-09 3.0838005e-06 5.7206048e-08 9.509555e-15 1.1379935e-08
3.0987471e-06 6.0434445e-08 0.0 1.17839765e-08 4.5624083e-07 2.5562158e-06 9.509555e-15 5.2329216e-07
4.0846584e-07 1.1562695e-06 7.762324e-07 6.1037275e-07 5.373996e-07 1.9044579e-06 4.6406893e-07 1.8495784e-06
1.6884654e-06 7.990265e-10 1.7913112e-06 2.9413043e-08 1.4291455e-09 0.0 4.7652765e-10 2.5712971e-08
4.0093026e-11 3.0542854e-18 2.2877658e-11 2.6808578e-08 3.4083673e-11 3.0542854e-18 2.6293244e-11 2.6022652e-08
7.265739e-11 3.0542854e-18 2.594648e-11 2.7583093e-08 1.2100049e-10 3.0542854e-18 4.2724352e-11 2.7531769e-08
00000000: 2fb0 ca35 6d53 e733 0000 0000 2e0b 0033
00000010: 1a78 bc35 2439 2831 4a73 e829 6c4e d130
00000020: 9f98 c935 b25a 2e31 4a73 e829 3898 ef30
00000030: 6ce0 c835 2e9f 2831 4a73 e829 5ad4 e830
00000040: 57a3 d535 816f b431 4a73 e829 2e1b 3131
00000050: d49c d335 dbdd 9231 0000 0000 1ddb 2a31
00000060: 8cfe d635 aeae c432 4a73 e829 fc90 b931
00000070: 8842 d635 b488 9632 0000 0000 3f4f bb31
00000080: c6c5 9534 0ec7 b535 4a73 e829 d280 8f34
00000090: b48c 8c34 917f 1435 124a c834 dcd6 d134
000000a0: ed80 9a34 d208 8635 5365 8a34 32ec 7835
000000b0: 72d4 6a35 526f f82f 61ea 7b35 adfb 0b36
000000c0: 8a88 0534 0000 0000 57e9 2933 1e8d 0336
000000d0: ec6b e331 f7b1 1d28 956c 4731 2a07 0f36
000000e0: f3d2 fb31 f7b1 1d28 4845 6631 a1d3 0a36
000000f0: 1df4 fa31 f7b1 1d28 d10a 5431 87c4 1436
00000100: fef5 4e32 f7b1 1d28 5387 9f31 6a38 1236
00000110: 5b98 7732 0000 0000 df40 9331 8f57 1436
00000120: 8ef2 0f33 f7b1 1d28 cabc 1632 8591 1236
00000130: caa4 4833 0000 0000 31bc 1232 e1ac 8734
00000140: fee2 fe35 f7b1 1d28 c184 c634 a349 b534
00000150: 1bf2 4035 5333 fe34 28f4 0835 d15a d234
00000160: f5b1 a935 b276 bf34 9d30 9335 42f6 9d35
00000170: b3bf 7330 09e3 a835 136d 3236 dcb0 5e34
00000180: 0000 0000 f8da 6333 8a12 2b36 7193 8d31
00000190: 6adb 7524 10cb 3b31 9700 3836 69ad ad31
000001a0: 6adb 7524 8d81 5831 d970 3736 e039 9a31
000001b0: 6adb 7524 3c45 4f31 1598 3e36 ad4d 2d32
000001c0: 6adb 7524 e8d7 9931 3e7e 3d36 4bad 7332
000001d0: 0000 0000 4094 a031 d031 3f36 ab4b 4433
000001e0: 6adb 7524 5bd6 2132 0270 4236 5c40 1033
000001f0: 0000 0000 2de2 2032 a45a e934 604d 1e36
00000200: 6adb 7524 bc52 0535 1640 d334 5cbd 8835
00000210: a72c 3835 bc60 1d35 41aa 0835 51e7 dc35
00000220: e35d fb34 79c6 c935 c0b3 cf35 b2a7 8830
00000230: 05af cf35 0c46 7b32 0a9e f830 0000 0000
00000240: 5b4d 9c2f 250c 5a32 a6ea e82f 8d46 a929
00000250: 3585 b82e 2593 5a32 e9ba f82f 8d46 a929
00000260: 2cab c22e 4403 6c32 819f de2f 8d46 a929
00000270: 1ea4 b62e 8318 6132 7a03 3130 8d46 a929
00000280: 9b50 d82e 0d46 8032 b8c9 0430 0000 0000
00000290: 4d2b cb2e 005a 7232 eaaf 9930 8d46 a929
000002a0: f5ad 0c2f 374a 8732 3a0f 6a30 0000 0000
000002b0: 7a2f 1b2f 833a 3331 b2af 6b32 8d46 a929
000002c0: 6a1a 4a31 2fae 2331 4f0e cf31 6253 8431
000002d0: 08d6 7d31 cf68 5731 99ac 2a32 700e 4931
000002e0: 339f 2732 b760 1b32 c5ae dc2c aa15 2b32
000002f0: b2e0 4336 bf67 8334 0000 0000 2010 7633
00000300: 238b 2b36 50ab 5532 154f 2b28 a17b 8d31
00000310: 0eaf 3936 bfd7 6232 154f 2b28 ccf1 9b31
00000320: f337 3936 f4d3 5132 154f 2b28 e90c 9431
00000330: 29b3 4c36 1002 9932 154f 2b28 c139 cc31
00000340: 040b 4636 ad03 db32 0000 0000 5e7d cf31
00000350: 4af3 4e36 b7b2 7533 154f 2b28 7c81 4332
00000360: 12f4 4f36 30c8 8133 0000 0000 7a72 4a32
00000370: 43f1 f434 748b 2b36 154f 2b28 5d78 0c35
00000380: 1e4b db34 1e31 9b35 495e 5035 7fd8 2335
00000390: d241 1035 ad9c ff35 2625 f934 083f f835
000003a0: 3b9f e235 7ea2 5b30 fc6c f035 f7a7 fc32
000003b0: 966b c430 0000 0000 a7fc 0230 6cdf dc32
000003c0: bc54 302e d25d 6122 e83b c92d b048 e632
000003d0: cee6 152e d25d 6122 1f47 e72d 6b88 df32
000003e0: 79c6 9f2e d25d 6122 473a e42d ddef ec32
000003f0: 9c0a 052f d25d 6122 58e7 3b2e 007f ec32

exp_avg f4 [128]
7.545714e-05 0.00011011295 4.6142544e-05 -3.1493844e-05 0.00031002972 -2.0491978e-05 7.068114e-06 6.171054e-05
7.24906e-05 0.00027524112 2.6741125e-05 8.181827e-05 0.00024247004 -1.4304095e-05 -0.00019416664 0.00022649403
-0.00011968251 7.884303e-05 2.5538407e-05 -0.00030973085 0.00034448196 0.00028991417 0.00041955538 2.3094168e-05
0.000110781024 0.00032953612 -2.5510903e-05 -6.741578e-05 5.7892248e-05 0.00037418833 -1.20983705e-05 0.00017840066
0.0002832263 4.6205492e-05 4.7132435e-05 -0.00030568984 9.6261254e-05 -0.00033229298 0.00032990932 6.132912e-05
-8.9428366e-05 7.9766825e-05 -8.470357e-06 -4.668887e-05 -0.00013022673 0.0005730879 0.00020496253 0.00016905341
0.00048662402 -4.8688922e-05 -0.00033802286 6.310217e-05 -6.2452236e-05 0.00012472039 0.00013333147 0.00012370136
5.6572702e-05 0.00018048198 7.4091025e-05 -1.5152327e-05 -0.0002614303 0.00024010747 -0.00013299701 -0.0002182463
-0.0001867146 9.2281734e-05 1.0357746e-05 -0.00047192274 0.0001862343 -8.50897e-05 1.2332389e-05 0.00012442165
0.00023210655 -3.6335016e-06 -2.9176737e-05 0.0003059254 -0.0004033519 -0.00017350655 2.3424673e-05 9.464867e-05
-0.00035861228 0.00016411932 -3.7782334e-05 0.00043223795 0.00029677115 0.00010268238 0.00020782511 -0.00029247953
-0.00036991798 5.779473e-05 -0.0002828896 -0.00026885682 8.4684645e-05 -3.947858e-05 2.0953805e-05 -2.7746722e-05
8.749561e-05 -5.2543382e-05 -1.817183e-05 -5.896221e-06 0.00013380253 -0.00011406994 -0.00022458353 -0.00019602705
-0.00035863288 2.1861765e-06 8.474028e-05 -0.00047286798 -3.267643e-05 -4.9933114e-05 4.8391128e-05 -0.0001862891
-0.0003450334 -1.6115728e-05 -6.3503074e-05 0.00013963296 0.00014492832 -0.00032203103 0.00014033352 0.000314699
0.0003347756 5.656701e-05 -3.966048e-05 5.269336e-05 0.00019128044 -0.0001259399 -6.9653564e-05 0.00029150757
00000000: be3e 9e38 71ec e638 2e89 4138 4218 04b8
00000010: 7c8b a239 30e6 abb7 a32a ed36 986a 8138
00000020: 1806 9838 3d4e 9039 2152 e037 d995 ab38
00000030: 8e3f 7e39 9ffb 6fb7 3699 4bb9 077f 6d39
00000040: 0ffe fab8 8858 a538 503b d637 5f63 a2b9
00000050: 969b b439 9fff 9739 c5f7 db39 59ba c137
00000060: 1c53 e838 97c5 ac39 3f00 d6b7 9261 8db8
00000070: 54d1 7238 b52e c439 1bfa 4ab7 1011 3b39
00000080: fe7d 9439 c5cc 4138 11b0 4538 ff44 a0b9
00000090: dedf c938 9c37 aeb9 aef7 ac39 d29d 8038
000000a0: 7d8b bbb8 7d48 a738 e81b 0eb7 cbd3 43b8
000000b0: 798d 08b9 473b 163a 36eb 5639 ee43 3139
000000c0: 9221 ff39 5537 4cb8 a938 b1b9 b855 8438
000000d0: caf8 82b8 60c7 0239 e5ce 0b39 d5b5 0139
000000e0: 7a48 6d38 c33f 3d39 5161 9b38 c036 7eb7
000000f0: 9510 89b9 5cc5 7b39 1d75 0bb9 0cd9 64b9
00000100: d2c8 43b9 6187 c138 2ec6 2d37 666c f7b9
00000110: e447 4339 2f72 b2b8 35e7 4e37 2f77 0239
00000120: a161 7339 15d7 73b6 91c0 f4b7 9d64 a039
00000130: fa78 d3b9 4fef 35b9 1a80 c437 1e7e c638
00000140: 2004 bcb9 7217 2c39 7978 1eb8 ff9d e239
00000150: f397 9b39 2f57 d738 a1eb 5939 f057 99b9
00000160: 8df1 c1b9 9e68 7238 cd50 94b9 5af5 8cb9
00000170: b998 b138 cd95 25b8 f4c5 af37 a2c1 e8b7
00000180: d97d b738 0762 5cb8 b56f 98b7 27d8 c5b6
00000190: 584d 0c39 d538 efb8 2f7e 6bb9 9c8c 4db9
000001a0: e406 bcb9 3ab6 1236 97b6 b138 44eb f7b9
000001b0: 0d0e 09b8 466f 51b8 94f7 4a38 9956 43b9
000001c0: 99e5 b4b9 4330 87b7 f42c 85b8 706a 1239
000001d0: e6f7 1739 46d6 a8b9 7e26 1339 2ffe a439
000001e0: d284 af39 5d42 6d38 1e59 26b8 1103 5d38
000001f0: 7492 4839 bc0e 04b9 f912 92b8 7cd5 9839

exp_avg_sq f4 [128]
1.6572798e-06 2.2647303e-06 2.948299e-06 1.6935283e-08 3.2120292e-06 3.159623e-08 2.9127582e-07 4.4290227e-06
5.682348e-07 2.2129886e-06 9.242458e-07 2.4221622e-06 3.217168e-06 3.1816148e-07 3.0394874e-06 4.8329634e-06
2.5106826e-07 8.81636e-07 2.4630777e-08 2.1716717e-06 1.9774316e-06 3.590077e-06 3.992394e-06 1.053299e-06
2.6995778e-07 2.2879412e-06 5.18271e-08 1.4987963e-06 2.2101592e-06 2.0725176e-06 3.6156942e-07 6.041656e-07
2.1115097e-06 2.8617718e-08 2.2573599e-07 2.4309763e-06 1.1923042e-06 3.5681749e-06 5.8541373e-06 7.809969e-07
1.219473e-06 3.5724557e-07 3.6377756e-09 3.5210817e-06 3.369047e-07 3.7873465e-06 2.3867976e-06 1.2699983e-06
3.5273508e-06 1.51718e-07 3.2098917e-06 3.9759192e-07 6.3231437e-07 7.147878e-07 1.5328131e-06 6.5359916e-07
2.90869e-07 1.5982951e-06 5.0116347e-07 2.8890818e-07 1.4621603e-06 3.860198e-06 3.2082653e-06 1.6790492e-06
4.219881e-06 8.298079e-07 5.7755483e-06 3.317599e-06 2.7466533e-06 1.0793818e-06 7.0246853e-09 2.4739145e-07
5.4031634e-06 6.427997e-07 7.960552e-09 2.2964136e-06 3.9782203e-06 2.6619934e-06 1.8090368e-08 3.6917404e-06
4.092148e-06 1.3385315e-06 1.5479745e-06 3.8713865e-06 2.3885373e-06 1.3336489e-06 9.239156e-07 4.6839887e-06
2.1482108e-06 1.9597828e-06 2.7651922e-06 1.5667509e-06 3.466166e-07 1.2843294e-07 1.8119493e-07 3.6855415e-06
8.092009e-06 3.6194695e-06 3.2523e-06 6.7772103e-06 1.3960689e-06 5.548867e-07 7.291851e-07 2.649465e-06
3.1796164e-06 2.0537132e-06 3.1144962e-06 7.758214e-06 1.3146624e-07 1.3397299e-07 5.016753e-06 3.2318897e-06
5.905536e-06 4.310119e-09 2.5947609e-06 1.1181351e-06 1.3591023e-06 4.9938294e-06 2.4359645e-06 4.3860155e-06
1.4625767e-06 3.6743455e-07 2.4320427e-08 1.0868046e-06 1.5219323e-06 4.3943157e-07 2.7464666e-06 3.5534083e-06
00000000: b36f de35 c5fb 1736 64db 4536 1579 9132
00000010: 3e8e 5736 6cb4 0733 a560 9c34 049d 9436
00000020: cc88 1835 db82 1436 b019 7835 6e8c 2236
00000030: 86e6 5736 c8cf aa34 fff9 4b36 d72a a236
00000040: 8fca 8634 91a9 6c35 a793 d332 09bd 1136
00000050: 04b4 0436 0eed 7036 67f6 8536 145f 8d35
00000060: b7ee 9034 888a 1936 8098 5e33 402a c935
00000070: 3f52 1436 9515 0b36 b91d c234 f22d 2235
00000080: 76b3 0d36 07d3 f532 d661 7234 db23 2336
00000090: 4307 a035 c774 6f36 a86e c436 b3a5 5135
000000a0: c6ac a335 75cb bf34 6dfc 7931 b94b 6c36
000000b0: d4df b434 1e2a 7e36 df2c 2036 cf74 aa35
000000c0: 6db7 6c36 ede7 2234 8569 5736 9e74 d534
000000d0: 50bc 2935 d8df 3f35 0fbb cd35 fe72 2f35
000000e0: bb28 9c34 0085 d635 b187 0635 3d1b 9b34
000000f0: 723f c435 d986 8136 944d 5736 b15b e135
00000100: 8098 8d36 f7bf 5e35 95cb c136 eba3 5e36
00000110: 2553 3836 47df 9035 c95d f131 39d1 8434
00000120: d24c b536 dc8c 2c35 e1c2 0832 161c 1a36
00000130: a77c 8536 b3a4 3236 2465 9b32 9ebf 7736
00000140: 494f 8936 98a7 b335 00c4 cf35 f5e6 8136
00000150: c24a 2036 d4ff b235 ff02 7835 282b 9d36
00000160: fb29 1036 d084 0336 a491 3936 2749 d235
00000170: 9f16 ba34 61e7 0934 7c8e 4234 1f55 7736
00000180: eac2 0737 03e6 7236 1742 5a36 cb67 e336
00000190: 9060 bb35 86f3 1435 38bd 4335 76cd 3136
000001a0: 6561 5536 86d2 0936 a302 5136 4729 0237
000001b0: 2a29 0d34 37da 0f34 9555 a836 71e3 5836
000001c0: 2b28 c636 3518 9431 a721 2e36 d412 9635
000001d0: 666a b635 ab90 a736 8d79 2336 962b 9336
000001e0: c14d c435 d243 c534 2fe9 d032 52de 9135
000001f0: 3245 cc35 04eb eb34 f04f 3836 1777 6e36
