config/results/AgrConserv_Refactored_2M_Final_v4_GAMMA/Hummingbird_Aggressive/Hummingbird_Aggressive-499968.pt (torch, 574408 bytes, 36 tensors)

network_body._body_endoder.seq_layers.0.weight f4 [128, 47]
00000000: 17f7 4e3e 884c 1c3d 7c57 e33d ae38 353d
00000010: d5b1 e5bd 7c43 91bd aa4b ffbd 30ad 12bd
00000020: c48d 563e ee03 b4bd 38ee b0bc 2dfa fa3d
00000030: c18a 473e 402b 0c3d fc70 eb3d 3fbb d43c
00000040: 67ba dd3d 3aa5 0b3e dfe4 743e d7dd 263d
00000050: e72b 9c3e 51c4 95bd 41f8 6abd 3ce6 193e
00000060: 7319 53bc 0aba 093d e23f 91be 9adb f43d
00000070: 6965 113e 59e6 67be 1fbf 1bbb 6eac 1cbe
00000080: 9853 0fbe 7833 06bd d6af 0bbe 0ecd 3cbd
00000090: d282 9bbd add5 f63d 4481 e93e 2fc2 20bd
000000a0: f3bc 9d3e 1b19 c43d 5dd6 05be 93ab 5e3e
000000b0: 3928 3a3d 1c32 03be af84 98bc e1e6 4d3e
000000c0: 5dd3 ac3d e454 953d 9b68 ea3d 387b 3fbd
000000d0: 1ede 91bd dbbd fa3d 9811 a53c f434 7d3d
000000e0: c25f 033d a641 c4bc 8724 86be c887 bb3d
000000f0: 2359 90bd a684 ccbd f7ce 443d 9b90 c03d
00000100: 3f56 b13d 836e 5f3e 94bf b43e 05b2 b13d
00000110: e371 af3d 5a96 113f d7d9 d83d f1e0 cd3d
00000120: 1514 1f3d 8f8f 213e 3f3b 053d cc99 97bd
00000130: c7c3 ce3d 5c6c 7fbe b4d1 9abd bc08 5fbe
00000140: 742a ce3c 122c b13d 3643 b2bd f2f0 97bd
00000150: ae36 04bd 4dfb bb3e a2c7 30be 3367 1a3d
00000160: 8387 dd3d 182e 7c3e 0c7d ccbe be4c 1abe
00000170: 167b db3b 47cc 41bd 5027 333d d763 863d
00000180: 4de7 a53d f0e7 0fbe 1b49 bfbd 2e6d 70be
00000190: 8f99 c0bd 6fbb 4c3e d3c5 843d 0736 913d
000001a0: f90c 85be cede f63c 4dfb 463e ff4d 4ebd
000001b0: 5881 3d3d 5052 503d 518f 3fbd 631d 9fbd
000001c0: 6365 433e 686e 5ebe 92e0 13be b044 213e
000001d0: 4cd6 74bc 0ef2 233e e38b 05be 62f9 533d
000001e0: 1b0c 54bd 2e75 23be 43b7 543e ec7f 64bb
000001f0: d030 b7be cf37 fa3c 6b53 0cbc 2b4e 5fbb
00000200: 0390 973a 2673 5e3e 9dca 633d a321 853d
00000210: 81df c73c 8c3c 2f3c 08bd e5bd f7aa 0f3e
00000220: 38b0 553e 9145 0ebe 0cf5 68bd 4cb2 ec3e
00000230: 88a0 86be 72c3 71be 838c 1bbe 14e7 b7bb
00000240: ec38 d8bc 0f8d 3cbd ccff ed3d f9c4 853d
00000250: 78ad 853d 2b13 19bd 8ecd 183d bd59 b03d
00000260: 5a74 1c3c 87b7 33bd 26b6 053e 0a35 04bc
00000270: be0f d3bc fbdf dcbe 67bb 16bd 306f d53d
00000280: 8eb2 02bd d57d 223c bfca b63d 77ac f93c
00000290: 6bd4 b03d 0f90 3bbe 69a2 973d 63ac c03e
000002a0: 9bfa 73bc bece 563d e6dc 7c3e eb38 ad3d
000002b0: 174c 21be d4f6 813d f9f8 783d ffd2 09bd
000002c0: 6320 643e f6b8 423c a375 d53d c1d5 933b
000002d0: c8c2 19bd 1596 a6bd 8ba5 68bd 301e 70bd
000002e0: 353f 23be 9784 1c3d b5b1 2a3d 7e3f a5bd
000002f0: 0590 07bd 10ec 0c3d bdd5 4ebe 9879 683e
00000300: 38d9 20be 0b9a 313e 5c5e 233d c9c1 b73d
00000310: c64a 8dbe ec30 ff3d e704 df3d 2523 9dbd
00000320: c71f 703d 5311 2dbe 76db 143e d180 b13d
00000330: 05af 083e 7a3a 613c 9a37 413d 2072 bf3c
00000340: b768 5cbe 38f6 f13d dfd3 bdbd b5cc bebb
00000350: e0e9 4bbe 4748 253e 7d0e 4a3e 1504 743e
00000360: d1b3 c83d 8da8 513e 9e56 c93d bc4f f53d
00000370: 7702 5e3e 54bc 323e 6d48 97bd 4ddd 893e
00000380: 0282 d63b ca2f 2c3e 067e 60be 52af f53d
00000390: e679 cbbd 859e 01be 0b0a 3b3e d01a 323e
000003a0: 0dfa b63d 0467 b7bd a215 7ebc 0828 883c
000003b0: b5c4 6bbd 557c dabc 1d5b cc3b c9e4 e03d
000003c0: ccfb cd3d 0276 3b3d 6679 efbc 155f 473c
000003d0: 9a26 32be 47d7 e9bd ca65 6abe 1014 bbbd
000003e0: b3ad 15be 53c8 fbbd cad9 4a3d f748 71be
000003f0: 81e9 86be 4aac 043c 0dce a13b d087 16be
0.20211445 0.038158923 0.11100671 0.044243507 -0.112155594 -0.0709295 -0.12465604 -0.035809696
0.20952517 -0.08789812 -0.021597967 0.122547485 0.19486524 0.034220934 0.114961594 0.025968192
0.10826569 0.13637248 0.23915432 0.040738907 0.30502245 -0.07312835 -0.05736566 0.15029234
-0.012884486 0.033624686 -0.2836905 0.11955948 0.14198841 -0.22646464 -0.002376504 -0.15300152
-0.13996732 -0.03276393 -0.13641295 -0.046093993 -0.07593311 0.12052474 0.45606434 -0.039247688
0.3080822 0.09575101 -0.13070054 0.21745138 0.045448516 -0.12812084 -0.018617956 0.20107605
0.08438752 0.07291582 0.11445733 -0.04674837 -0.071224436 0.12243243 0.02014999 0.06181808
0.032073744 -0.023957085 -0.26199743 0.091567576 -0.070482515 -0.09986238 0.04804894 0.09402581
0.08659028 0.218195 0.35302413 0.08676533 0.08566644 0.56870043 0.10588425 0.1005267
0.03883751 0.1577742 0.032527205 -0.07402381 0.10095935 -0.2494368 -0.07559529 -0.21780676
0.025166728 0.08650984 -0.08704226 -0.074190035 -0.03227871 0.36715165 -0.17263654 0.037696075
0.108168624 0.24626958 -0.39939153 -0.15068337 0.0066980226 -0.047313955 0.043738663 0.06562012
0.08100758 -0.14053321 -0.09340116 -0.23479149 -0.09404289 0.19993375 0.064830445 0.07090383
-0.2598646 0.030135538 0.19431801 -0.05036735 0.04626593 0.05085975 -0.046767537 -0.07769277
0.19081645 -0.21721804 -0.14441136 0.15748858 -0.0149436705 0.16010305 -0.13041644 0.0517515
-0.051769357 -0.15962669 0.20773034 -0.0034866286 -0.35779428 0.03054419 -0.00856481 -0.0034073691
0.0011563305 0.21723613 0.05561315 0.06500556 0.024398567 0.010695588 -0.112176955 0.14030062
0.20868003 -0.13893725 -0.05687432 0.4622978 -0.2629435 -0.23609713 -0.1519032 -0.0056122635
-0.02639433 -0.04603296 0.11621055 0.0653171 0.06527227 -0.037371796 0.037305407 0.08610866
0.009549225 -0.043876197 0.13057765 -0.008069286 -0.025764342 -0.43139634 -0.036799815 0.10421598
-0.031908564 0.009917696 0.089253895 0.030477745 0.086342655 -0.18316673 0.07404024 0.3763152
-0.014891292 0.05244326 0.24693641 0.08458122 -0.15751682 0.06345907 0.060784314 -0.033648487
0.2227798 0.011884918 0.10422828 0.0045115654 -0.037539274 -0.081340946 -0.0567985 -0.05862254
-0.1594208 0.038212385 0.04167338 -0.08068751 -0.033096332 0.034404814 -0.20198722 0.22702634
-0.15707862 0.17343919 0.03988491 0.089725085 -0.2759611 0.12460503 0.10889607 -0.07672719
0.058624055 -0.1690114 0.14536843 0.08667148 0.13348015 0.013746852 0.047172166 0.023369849
-0.2152432 0.118145406 -0.09268927 -0.005822743 -0.19913435 0.16140853 0.1973209 0.23829682
0.09799922 0.20474453 0.09830974 0.11978099 0.21680628 0.17454654 -0.07386861 0.26926652
0.00654626 0.16815105 -0.21923074 0.1199633 -0.0993536 -0.12658127 0.1826555 0.1739304
0.08934412 -0.089551955 -0.015508087 0.01662065 -0.05756064 -0.026670614 0.0062364475 0.10981137
0.10057792 0.045766838 -0.029232692 0.012168665 -0.17397538 -0.11418014 -0.22890392 -0.09134686
-0.14617042 -0.12294068 0.049524106 -0.2356299 -0.26350024 0.008097718 0.0049378932 -0.14700246

network_body._body_endoder.seq_layers.0.bias f4 [128]
00000000: f688 6c3c 931c 59bb d9c8 ba3c 3dec 2ebc
00000010: fb41 c33c 890c 30bc fe14 283b dbf9 893c
00000020: d516 b73c 22f8 bd3c c39a 203c 6d42 c83c
00000030: c7f8 4d3c 9d22 4cbc da10 cb3c 1cfd dfbb
00000040: 3507 94bc 71b9 813c 4f9c 5b3b 06fd 223d
00000050: 3462 b33b 5193 773c 9380 5c3c 65e0 b53b
00000060: 63d3 193c 4d1b ba3c e1e6 d03b 15e5 d93a
00000070: d72c 633c fd27 083d 8543 013c 6073 a73b
00000080: c7f3 e33c d223 7dbc 6ad8 d43c 9dd2 813c
00000090: 8fcd 973c e732 963c 94e3 3b3d 8e52 3c3c
000000a0: f917 bc39 6e9d 8e3c db74 a1bc 99c7 b93b
000000b0: b193 d03c f0bf 3d3c 5693 e23a 7584 6a3c
000000c0: 9d19 813c eca5 7b3c 9b40 883c 69f3 633c
000000d0: 6b45 a23b b7b3 943c 768c 1e3d b219 c7bb
000000e0: fc97 bf3c a2bf 953b c5f3 dc3c 7f1c c73b
000000f0: d1f7 68bc ef33 213c 9b14 333c 4ece ae3c
00000100: 2b0d ec3c 4489 2b3b bba3 bdbb d505 0a3d
00000110: 6825 673c 2bee c2ba a6e3 483c 08f1 a4bc
00000120: 14fc c5bc 2ae1 da3c c46d 56bc 13e9 cd3c
00000130: f26d 633d 91a8 5d3c e33c 9f3b 9ede 35bb
00000140: 5859 4a3c 3776 4e3a 6dbb 993c cfc3 213c
00000150: 6d86 d83b d9f2 e33c 4df2 9d3c 3cf0 703c
00000160: ab5f 793c b29e 773c 1c1a 233c 8b80 313c
00000170: ae13 aa3c 8462 873c 0003 84bc 425d ffbb
00000180: ed3e 923c 5ee8 903c d68d ee3b 4248 8a3c
00000190: cd98 a83b f644 bb3a 8f4e 203c 8b78 ff3c
000001a0: 4f54 9f3c 0a7d 763c d664 b43c 511d db3c
000001b0: 0d6e 25bb c629 dfbc 4756 b13c 025c abba
000001c0: 3e01 6b3a 3fd5 92bc aee2 caba d29c b53c
000001d0: df73 81bb 1b99 ed3c c559 173c b8ef 4b3c
000001e0: d0ec 90bc e837 aa3c cd10 d43b ac3f a73c
000001f0: 2e6f 22bc bbd0 be3a 42e2 613c a544 b9ba
0.014436951 -0.0033128604 0.02280085 -0.010676441 0.023835173 -0.010745176 0.0025647278 0.016842773
0.022349754 0.023189608 0.009802523 0.024445737 0.01257152 -0.012459424 0.024788309 -0.006835593
-0.018069843 0.015835496 0.0033509915 0.039792083 0.005474353 0.015110807 0.013458389 0.0055504316
0.009388777 0.022718096 0.006375179 0.0016624058 0.013865671 0.03324126 0.007889633 0.0051101893
0.027826203 -0.015450435 0.0259821 0.015847499 0.018530635 0.018334819 0.045871332 0.011494292
0.00035876015 0.017409053 -0.019709041 0.005669546 0.02546105 0.011581406 0.0017286341 0.014313807
0.015759284 0.015359383 0.016632369 0.013913014 0.004952123 0.018152101 0.038708173 -0.006076061
0.023387901 0.0045699636 0.026971707 0.006076395 -0.01421924 0.009839042 0.010930206 0.021338608
0.028814873 0.0026174346 -0.0057873405 0.033696968 0.014108039 -0.0014872005 0.012261307 -0.020134464
-0.024168052 0.026718695 -0.013087694 0.025135553 0.055524774 0.013528959 0.004859553 -0.0027751098
0.012350403 0.0007875892 0.01876613 0.009873345 0.0066078217 0.02782576 0.019280577 0.014705714
0.015220563 0.0151135195 0.009954955 0.01083387 0.020761337 0.016526468 -0.016114712 -0.0077930996
0.017852271 0.017688926 0.0072800918 0.016880158 0.0051451684 0.001428752 0.009784355 0.031185409
0.019449381 0.01504446 0.022020739 0.026747378 -0.0025242597 -0.027241599 0.021647586 -0.0013073685
0.00089647237 -0.01792395 -0.0015478933 0.022169504 -0.0039505805 0.02900367 0.009237711 0.01244729
-0.017691046 0.020778611 0.0064717294 0.020416103 -0.009914203 0.0014558056 0.013786854 -0.0014134838

network_body._body_endoder.seq_layers.2.weight f4 [128, 128]
00000000: 9446 653d d32e 7f3d ed22 c23c d073 7dbd
00000010: cc2e 48bd 47c0 143d ee9a e6bd 0791 4cbd
00000020: 8601 463c 7ea0 d3bb 41d4 1d3c 1da2 0abe
00000030: 59fb 3c3c 77a8 c83d a2fb 08be a643 c4bd
00000040: 9259 003e e893 61bc 6262 7c3c 8391 0f3e
00000050: 3c31 633c 0220 2f3d 9290 51bc f0ed 85bd
00000060: 1f07 afbd 8a9b 21be ec2c 10be 2afb 33bd
00000070: 0440 933d 0f95 a1bd 80cb 5ebd 6055 bbbd
00000080: 3dbd 74bc f8f2 513d 7ad4 68bd 8629 76bb
00000090: 745e cb3b 06ba a63d fd22 4fbc 28a4 b9bd
000000a0: b6bc a73b b721 273d e17d a23b b6cd 35bd
000000b0: 5321 993d c5a5 40be a42e d73c 9f54 8c3d
000000c0: 7b3e 39bd 388f 9a3c 1dc1 69bb 7484 213d
000000d0: d9a8 ea3c 4d9e ea3c b1e0 f7bd 4da9 15bd
000000e0: 5f2c 14be f37e adbd e3d1 44bd 417d bd3d
000000f0: 68b6 2a3d 14ec 93bc badf 993b 0335 99bd
00000100: f257 e93d 8a91 4b3d d966 b93b 2c73 853d
00000110: 70de 29be 524b 933d 50c4 04bc 2395 cebd
00000120: 4e03 713d 127c d03d 2827 893d 1260 a6bd
00000130: 3da0 33bd 2ded d43c d3ca 553e 2dc1 64bd
00000140: cb31 ebbd 1ad2 e83c ede4 923c b964 033e
00000150: 133e 4f3d 76bb c0bd 0161 263d d050 1a3e
00000160: 5285 a13d 0c64 1abe 5100 e7bd be4a 0f3d
00000170: 17eb b6bd c77c 1a3c f1a2 afbd 6f82 1abd
00000180: a499 0b3d d543 f73d 4110 4dbd 095d e1bc
00000190: 2ffa 40bc fde4 a5bd 6852 4a3c a4d5 673c
000001a0: 22b2 19be 4b4b 9cbd 9de6 1b3d 420f d6bd
000001b0: 4c47 2cbe d78d c2bd 207d 02bc f170 be3d
000001c0: e2af 2f3d 5943 b6bd 22c0 13be 7d9d 89ba
000001d0: 3f42 3fbd 2afa e73c 125e a53d 43e1 71bd
000001e0: a35d 053e c5fc df3c 2ad8 bf3c 2194 7bbc
000001f0: e098 c8bd 002d 1e3d b336 10bd 95f1 b93d
00000200: 878c 80bc e0be 323d 1db9 d13c 2115 13be
00000210: 0366 3d3d 300f 813d a58e 673d a6a2 03bc
00000220: 2693 fa3d 4087 003d 7722 eebd 39fe 0cbd
00000230: a7ad 243e 72e5 fb3c f133 873d d3c3 9abd
00000240: 5d28 d13d a64f e2bd 162f e8ba dca3 e63c
00000250: be93 bd3d 7e59 683e a6ea edbc 8afe 1e3d
00000260: f421 01bd 17e5 06be 02b8 15bd 7060 29bd
00000270: 59ee 85bc 3605 c83b cf2f 943c e652 933d
00000280: eceb 003d 5202 e93a 5bce b7bc b848 2e3d
00000290: 7d62 023e d094 ab3c cd1c e5bc 2535 50bd
000002a0: 0fb1 50be de55 f6bb 268a 903c c2ef cabb
000002b0: 20f2 ef3d 22e4 0f3d e2b0 a03b eb30 0bbe
000002c0: 18f8 313c 14e3 2dbe 2b18 49bd 959c afbd
000002d0: 6bfc 02be fb9a f63c 620f 4e3d a3c4 9b3c
000002e0: ad02 ed3d 6697 903d 2ffb ae3c dc66 7ebd
000002f0: bb09 29be 4679 1e3c e189 353e 0c65 afbc
00000300: fabb dcbc 3a06 03be bad8 b2bc 6c31 eabd
00000310: 66fd 9ebd f593 403d ebd1 183e 429e d1bc
00000320: 4381 59bc e163 2f3d f585 bcbd b1de 7bbd
00000330: 0a37 b8bd 50e1 b8bd 4287 9abc 489f 1a3e
00000340: 710f 35be e15c 213e d353 e43d d1c9 09be
00000350: ae14 5e3c 5b21 dd3c 13d2 ad3d 66d6 52bc
00000360: 6151 1fbe b119 62bd aa3f b6bc 247b a63b
00000370: 2cca d43c 8239 473d 308c eebb 001d 70bd
00000380: 9f6d 94bd 0233 023e e72e 4a3d 1ddf bcbd
00000390: 16cd dd3c e462 0abd dfec 293d 6d1e 933d
000003a0: 8185 dbbc afdc c93d bd88 b5bd c656 2dbd
000003b0: 4335 0c3e 9d40 1bbb 2a1d b33d 2e54 3dbd
000003c0: 6dca babd 925b 273c defb eebd 983e abbd
000003d0: 1ec3 1e3c bb42 e43d c8d5 c93c 09fa b53d
000003e0: 3d3e 0e3e d572 2ebe c35b 183e 8e69 31bd
000003f0: 092e a23d d9fc fd3d ba4c 603d 8860 b6bd
0.05597551 0.062300514 0.023698295 -0.061878026 -0.048872754 0.036316182 -0.11260019 -0.049942996
0.012085324 -0.006458341 0.009633125 -0.13538404 0.011534535 0.09797757 -0.1337724 -0.095832154
0.12534168 -0.013768174 0.015404316 0.14020352 0.013866719 0.042755134 -0.012790816 -0.065395236
-0.0854628 -0.1578199 -0.14079636 -0.0439407 0.071899444 -0.07889759 -0.05439329 -0.09147143
-0.014937696 0.051257104 -0.05684326 -0.003756137 0.006206328 0.0814095 -0.012642619 -0.090645134
0.0051189316 0.040803637 0.0049588536 -0.044385634 0.07477059 -0.18813236 0.026267357 0.06852078
-0.0452256 0.01886712 -0.0035668083 0.039432958 0.028644966 0.028639937 -0.12103403 -0.03653841
-0.14470051 -0.08471479 -0.048051726 0.09252406 0.041677862 -0.018056907 0.0046958597 -0.07480814
0.11393727 0.049699344 0.0056580123 0.06516108 -0.1658876 0.071921006 -0.008103445 -0.10087039
0.058841042 0.101799145 0.066969216 -0.08123793 -0.043853987 0.025992 0.20878153 -0.05584829
-0.11484107 0.028420497 0.017931426 0.12831391 0.050596308 -0.09410755 0.040619854 0.1506989
0.07886757 -0.15077227 -0.11279357 0.03498339 -0.089315586 0.009429163 -0.085760005 -0.037722047
0.03408207 0.12073485 -0.05006433 -0.027510183 -0.011778398 -0.08100317 0.012348749 0.014150057
-0.15009359 -0.076315485 0.038061727 -0.10452129 -0.16824073 -0.0949971 -0.007964402 0.092988856
0.042892344 -0.08899564 -0.14428762 -0.0010499206 -0.046694037 0.02831753 0.08074583 -0.059052717
0.13024001 0.02734221 0.023418505 -0.015355141 -0.097947836 0.038617134 -0.035208415 0.09079281
-0.015692009 0.043639064 0.025600964 -0.14363529 0.046239864 0.06301725 0.05653252 -0.008034384
0.122350976 0.031378984 -0.116276674 -0.034422133 0.16081868 0.030749056 0.06601704 -0.07556882
0.10212777 -0.11050348 -0.0017714228 0.028154306 0.09256695 0.22690389 -0.029042553 0.038816966
-0.03152652 -0.13173328 -0.036552437 -0.041351736 -0.016349005 0.006104137 0.018089203 0.07193546
0.031474993 0.0017777181 -0.022437265 0.04254982 0.12732883 0.020944983 -0.027967835 -0.050831933
-0.20380042 -0.0075175604 0.017644 -0.006193132 0.117161036 0.035129674 0.0049038986 -0.1359288
0.010862373 -0.16981155 -0.049095314 -0.085747875 -0.12791602 0.030103197 0.05030764 0.019014662
0.11572776 0.07060127 0.021360008 -0.062109813 -0.16507618 0.0096724685 0.17728378 -0.021410488
-0.026945103 -0.12795344 -0.021831859 -0.11435208 -0.07763176 0.047016103 0.14923827 -0.025588159
-0.013275447 0.04281986 -0.09205238 -0.061491672 -0.08994873 -0.0902735 -0.018863324 0.15099823
-0.17681672 0.15758087 0.11148801 -0.13455893 0.013554735 0.026993444 0.08487334 -0.012868499
-0.15558387 -0.055200282 -0.022247154 0.0050805975 0.02597531 0.048638828 -0.0072798952 -0.058621407
-0.07247471 0.1271477 0.049361136 -0.09222243 0.027075332 -0.033785716 0.041485664 0.07183538
-0.026797058 0.09856545 -0.088639714 -0.04231908 0.13692193 -0.0023689636 0.08745797 -0.046222858
-0.09120641 0.010214703 -0.116691336 -0.08361548 0.009690074 0.1114554 0.024638072 0.08885581
0.1389093 -0.17035992 0.14878754 -0.043313555 0.07918937 0.124017425 0.054760672 -0.089051306

network_body._body_endoder.seq_layers.2.bias f4 [128]
00000000: 785d 08ba ca13 e1bb 9006 37bb f638 1d3b
00000010: d95f 43bc a45e f53b ebe1 673c 9d90 75bb
00000020: 3c7f 8c3c 9f07 983c 82b7 023c 5f1b e23b
00000030: 6115 703c d956 d4bb 2774 5abb cce0 673c
00000040: 1cde a23b e72d 2bbc 7616 233b a59c f63c
00000050: a660 683a c3d5 f3bb 3591 d33c 33ee 563a
00000060: 3297 79bc 4157 863c 95ff 9e3c 2056 9339
00000070: 837d 8abc b8e4 973c 2ac6 db3b ce61 8abc
00000080: 4e1c d53c 6289 6c3c c5bd 113b 56ef 643c
00000090: 3a60 4a3c 2513 4d3c 2d53 be3a cf59 913c
000000a0: be23 9e3a 3100 c8bb 30a7 1f3b 8a93 a63c
000000b0: 8f65 bf3c b02c 873c 772d 683c 8a29 953c
000000c0: 28fe d3bb 51c1 453b 3959 bcbb cff3 893c
000000d0: 8820 5d3c fdeb 753b a263 6239 d0c1 c73c
000000e0: aae3 c4bb a0b2 ca3c 1959 f33a 2d0c 2b3a
000000f0: 32ec a93c 991d af3c d52c 6c3c e151 96bc
00000100: 391f 023c aef7 4b3c 8c6f 75bc b77c 993c
00000110: a5b3 5d3c b9e1 513c 2f0e 033a 6366 a6bc
00000120: 4219 563c 2439 ca3b 2632 71bc bcd5 f0bb
00000130: 9bf0 103b 5587 be3c 5b05 3c3c f5ab 533c
00000140: cc2c 993c 3ea2 783c 8512 ae3c 34af ae3b
00000150: dace b63b 4e51 be3c e22f 23bc ad80 c8ba
00000160: d82d 803b b2b7 9b3c 7dba 913c e6fe 52bb
00000170: 07f1 a03c 9704 db3b 0a0b df3c bba0 de3c
00000180: 9e90 40bc 7b49 063c 7ebd 9cbc 2014 89bb
00000190: 7458 c93c 21df 743b 38a5 713c 2df0 893b
000001a0: a482 0cbb 8559 473c 8d58 993b 4881 9b3c
000001b0: dd12 9a3c c79b c1bb 9a92 d739 a9fd fd3b
000001c0: 81c0 383c 06d5 7b3c 1416 34bc 229b 333c
000001d0: 3b32 c23b 8065 433c bceb 483c 99c7 663c
000001e0: 9a44 8ebc aec0 8e3b 849d bfbc 074d ddbb
000001f0: ca3c 8ebc 68d9 ca3c 9d63 403b c322 23bc
-0.0005201916 -0.006868814 -0.0027927496 0.002399025 -0.011924707 0.0074880887 0.014152984 -0.003747023
0.017150514 0.018558322 0.007978322 0.0069002355 0.014653535 -0.0064800796 -0.0033333392 0.014152717
0.004970325 -0.010447956 0.0024885214 0.03010399 0.00088644994 -0.007441254 0.025826076 0.00081989466
-0.015233802 0.016399028 0.01940898 0.00028102193 -0.016905552 0.018541679 0.0067069726 -0.01689234
0.026014473 0.0144370515 0.0022238356 0.013973078 0.012352044 0.012516771 0.0014520638 0.01774302
0.0012065095 -0.0061035384 0.0024361126 0.020334024 0.023363857 0.0165008 0.014170996 0.018208284
-0.006469507 0.003017504 -0.005747941 0.01683989 0.013496526 0.0037524693 0.00021590156 0.02438441
-0.006008585 0.024743378 0.0018565982 0.00065249467 0.02074251 0.021376418 0.014414986 -0.01834959
0.007942014 0.012449188 -0.014980208 0.018736226 0.0135316 0.012810164 0.0004999367 -0.020312494
0.013067545 0.0061713625 -0.014721429 -0.007349698 0.0022116068 0.02325789 0.011475886 0.012919416
0.018698119 0.0151754 0.021249065 0.0053309444 0.005578858 0.023232128 -0.009960147 -0.0015297137
0.003911715 0.019008491 0.01778912 -0.0032195388 0.01964618 0.0066838968 0.027226944 0.027176252
-0.011753229 0.00819623 -0.019133326 -0.0041833073 0.02457831 0.003736444 0.014748864 0.0042095394
-0.0021440173 0.012167339 0.0046797455 0.018982545 0.018807823 -0.0059084627 0.00041117222 0.007751186
0.011276365 0.015370613 -0.010991592 0.0109622795 0.005926398 0.011926055 0.012263235 0.014085674
-0.017366696 0.0043564653 -0.023390539 -0.006753567 -0.01736297 0.02476187 0.002935625 -0.009957018

action_model._continuous_distribution.log_sigma f4 [1, 5]
00000000: 6f63 85bc 0a5d c4bb ef53 f7bc 02ce b23c
00000010: 1767 c23c
-0.016282765 -0.0059925364 -0.03019139 0.021826748 0.023730798

action_model._continuous_distribution.mu.weight f4 [5, 128]
00000000: f2f4 0abd df5d 09bd b046 483c 246d afbb
00000010: ece7 553c 910a 2c3c 170b dc3c 893f 303c
00000020: 7580 63bd e5ce 073c d55f 14bc 835a 693c
00000030: 7126 cd3d 8db6 463c 2950 663c 1257 d5bd
00000040: 6399 8b3d 4e1e 423b 96e3 20bd 5fbf 86bd
00000050: 503d 973d 321f 28bd 6488 b638 f811 c9bc
00000060: db46 96bc 58e5 e6bb 15a4 723a 2892 81bd
00000070: 8b56 eb3a df2f 2d3d 6e38 293d 30c9 8c3c
00000080: 60b0 62bc 9888 99bd 62e4 5ebd 23af 5fbd
00000090: f2b2 38bb b9aa 99bd 9ed1 863d 62ae 3f3b
000000a0: b5c2 8c3d 3789 a4bc 82eb b93d be29 00bd
000000b0: ecf2 fe3c a769 373c 2196 0a3d f524 e2bc
000000c0: 851b 11bd 7368 ee3c 2dcf 01bd 1090 973d
000000d0: defa 53bc a7e0 52bc 319b d6bc f324 72bd
000000e0: d166 463c 290b 90bc 6faa f4bd c214 0bbd
000000f0: a0ac fc3c 0bb2 423d bfeb bcbb ca4f aa3c
00000100: 162b 703c 911a cdbb ba5f 8bbb 7402 cebd
00000110: 2aba 1e3d c02b 043b 3365 623d c6f9 203d
00000120: 8e16 803c ffc7 15bd 81bb 833c 3d5d af3c
00000130: 80a9 313c 5bf7 703d 4634 1abd 5739 9fbc
00000140: 8c96 35bc 5673 9bbc a29d 0b3d e67b 1dbd
00000150: 4b0e 60bd 80e2 98bd 8a9d 513d c17d ab3c
00000160: 0822 70bd a441 f7bb b3fc 743d 9eda 1fbd
00000170: d68a 22bc bb8a a9bd dfb8 d0bd fa90 78bd
00000180: dc34 e3bc 0aba fa3b 30d5 e7bc 2bb0 ee3c
00000190: 9078 8d3d 1a0a 93bd c91c ce3c 20ad f1ba
000001a0: a06d 8cbc 9c52 1f3d e086 313d eaab 80bc
000001b0: 7726 443c c48a 80bd b98b fb3c 0820 773c
000001c0: 9183 a3bc b909 8f3d ad75 eebc e57d b83b
000001d0: 270f d23b 2d03 cf3d 80b9 4e3d 2be3 ab3d
000001e0: 410e 823c d5f0 623d 2e7e 873c 42bc dabb
000001f0: d3b0 9e3c 2c46 7d3d f51d 0cbd 6015 0e3d
00000200: dd03 b3bc c2ee 943c 6d8b 253d fdc4 813c
00000210: 8e29 233c e253 d53c f195 4abd dfc9 4c3d
00000220: 47ad 70bc e1ac 1d3c 1403 d83c 5c05 0abd
00000230: 6a31 01bd 3b72 e1bc 8bda 1cbd d4e4 153c
00000240: b215 933c e447 c73c 75bc d93b 34d3 7fba
00000250: f196 71bc f753 09bc d387 02bd 35a9 01bc
00000260: 5c19 8d3b 0bcc 36bd 8413 d73c e7a8 9abc
00000270: e817 8fba 08f1 c1bc 4a21 943d 12e7 55bb
00000280: bdf6 2c3d 7a7e 023c 571e bbbd ef35 41bd
00000290: 640c 793d 7916 4e3d ae4c a13c 42f1 d1bc
000002a0: d9fb 863c 9291 c83c 6f73 a83b 039a a6bc
000002b0: d7fa b0bc f803 2abd fc24 93bd 5cc6 92bd
000002c0: 0f89 4abd ad52 0a3d 9596 6d3d d1c8 afbc
000002d0: 193d 46bd 45d6 473c 36d7 073d 39da 43bd
000002e0: 1c3d 55bd 9311 6b3d 8a0c ecbb 5adb 07bc
000002f0: 8e0c b03c 69fb aabb a8b3 873d e99f cd3c
00000300: d437 2dbd b917 76bd 2644 d1bc bd5e 9cbb
00000310: f66c 18bc 3389 c23c c3c4 053c 361d 82bc
00000320: 13e4 253d e47d 3fbd 5d08 2f3d 86a7 393d
00000330: 269a 9c3c 482b 3c3d dfca 8f3a 42b7 f0bb
00000340: 0c1e 41bc 440e 9e3d 7678 683d 9c38 533d
00000350: 2731 433d 7801 26bd 6735 0cbd e287 eebb
00000360: 7ab7 533c ea7c 863d 3989 69bd 9e88 0c3d
00000370: 6ab8 e4bb aa7d 403d 153f fabc b639 08bd
00000380: a802 3fbd f426 9b3d e721 d93a a230 94bc
00000390: 5fe0 3b3d c679 ccbc 444d 073d 8306 8abc
000003a0: 6dbf 543c 62d2 a43c aea6 1cbc cd4a 42bd
000003b0: d7c1 40bc fc93 2b3c cf36 64bc d1d5 013d
000003c0: bff4 bf3a 3ab5 793d c67a e2bb 78bc 933c
000003d0: 7dd1 89ba 9916 903d b728 a53d 9517 aebc
000003e0: cc02 d63c 5eb9 70bd 6e52 1abb c9ec cebc
000003f0: c5dc 523c 56cc 053c 6293 1bbc 8798 e73a
-0.033925004 -0.033536788 0.012223884 -0.0053535867 0.013055783 0.010500566 0.026860757 0.010757335
-0.055542428 0.008289074 -0.009056051 0.014242771 0.10017098 0.012128484 0.014057198 -0.10416998
0.068163656 0.0029620114 -0.039279543 -0.0657947 0.07384741 -0.041045375 8.703841e-05 -0.024544701
-0.018344333 -0.007046383 0.00092560175 -0.06326705 0.0017954869 0.04228198 0.04131358 0.017185777
-0.013835996 -0.07496756 -0.05441702 -0.054610383 -0.0028182832 -0.07503266 0.0658295 0.0029248227
0.06873075 -0.02008496 0.09078123 -0.03128981 0.031121694 0.011194623 0.03383458 -0.027605513
-0.035426635 0.02910254 -0.03169172 0.074005246 -0.012938229 -0.012870944 -0.026197048 -0.05911727
0.012109474 -0.017583447 -0.1194657 -0.033955343 0.030844033 0.047533076 -0.005765408 0.02079
0.01465871 -0.0062592705 -0.004253355 -0.10059062 0.03875176 0.0020167679 0.055272292 0.039300703
0.015635755 -0.036567684 0.01608062 0.021406764 0.010843635 0.058829647 -0.037647508 -0.019436521
-0.011083256 -0.018975895 0.034085877 -0.038448237 -0.05470113 -0.074650764 0.05117563 0.020933988
-0.058626205 -0.007545667 0.059811305 -0.03902685 -0.009920796 -0.08278414 -0.10191511 -0.060685135
-0.027735166 0.007651572 -0.028299898 0.029136738 0.06907761 -0.07179661 0.02516021 -0.0018438436
-0.017142117 0.03889714 0.043341517 -0.015706975 0.011972061 -0.062764674 0.030706273 0.01508332
-0.019960197 0.06984276 -0.029108847 0.005630242 0.0064104977 0.101080276 0.050469875 0.08392938
0.015875937 0.055405457 0.01653966 -0.006675274 0.019371426 0.0618345 -0.034208257 0.034688354
-0.021852428 0.018180255 0.04041617 0.015841002 0.009958638 0.026040975 -0.0494594 0.049997207
-0.01468975 0.009623737 0.026368655 -0.033696517 -0.031541266 -0.02752029 -0.038294356 0.009148795
0.017954681 0.024326272 0.0066447803 -0.000975895 -0.01474546 -0.008381835 -0.031867813 -0.007913877
0.0043060016 -0.044628184 0.026254423 -0.018879367 -0.0010917159 -0.023674503 0.07232912 -0.003263895
0.042227495 0.007964725 -0.09136646 -0.047170576 0.060802832 0.0503144 0.019689884 -0.025627736
0.016477512 0.024483476 0.005140714 -0.02033711 -0.021603985 -0.04150769 -0.071847886 -0.0716674
-0.049447116 0.033770252 0.058004934 -0.021458061 -0.04839811 0.012197082 0.033164226 -0.047815535
-0.05206023 0.057389807 -0.007203643 -0.008292044 0.021490362 -0.0052179587 0.066260636 0.025100665
-0.04228957 -0.060081217 -0.025545191 -0.004772036 -0.009303322 0.023747062 0.008164587 -0.01588307
0.04050071 -0.046750918 0.042732585 0.04532578 0.019116472 0.045939714 0.0010970494 -0.007346065
-0.011786949 0.07717565 0.056755506 0.05156766 0.047654297 -0.040528744 -0.034230616 -0.007279382
0.012922162 0.06566794 -0.05701563 0.034309976 -0.0069799917 0.046994843 -0.030547658 -0.033258162
-0.046633393 0.07575789 0.001656589 -0.018089596 0.045868274 -0.02496041 0.03303267 -0.016848808
0.012985093 0.02011985 -0.009561224 -0.047434617 -0.011764965 0.010472294 -0.013929083 0.03169805
0.0014645084 0.060963847 -0.0069116084 0.018034205 -0.0010514703 0.0703556 0.08064406 -0.02125148
0.02612438 -0.05877053 -0.0023547667 -0.025259392 0.012870018 0.008166393 -0.009495588 0.0017669358

action_model._continuous_distribution.mu.bias f4 [5]
00000000: 53f5 213a 26f8 babb 6356 7abb 3f7e a93c
00000010: a364 813c
0.0006178219 -0.005705851 -0.0038198463 0.020690082 0.015795058

exp_avg f4 [128, 47]
00000000: c03a 50b9 f107 6438 0000 0000 1048 1cb7
00000010: 9f6d d5b8 f997 89b6 0400 0000 fb74 6ab6
00000020: 2fc4 03b9 3710 14b7 0400 0000 5c51 c3b6
00000030: 84cb a0b8 091e 23b7 0400 0000 e372 d4b6
00000040: 1ba5 20b9 c5d7 5bb7 0400 0000 c3cf 19b7
00000050: a3a1 23b9 05d1 bf36 0000 0000 d578 aeb6
00000060: 4254 22b9 b385 09b7 0400 0000 a391 3fb7
00000070: 269c 10b9 5a90 bc36 0000 0000 34e4 45b7
00000080: 1ece dcb8 1012 2cb8 0400 0000 558e 6f36
00000090: a7a7 8536 11e0 dfb8 22ef a438 a0a3 1537
000000a0: 16f6 1db9 e270 2839 2b7e df38 b6b1 b2b8
000000b0: 96df 8bb8 dbf6 6bb5 f3f3 02b9 402f 2638
000000c0: 5ea9 2ab8 0000 0000 1724 d8b5 ac71 8733
000000d0: 5075 45b6 0400 0080 2349 c4b5 1b48 2735
000000e0: af44 51b5 0400 0080 0e03 50b4 8202 65b7
000000f0: 3b06 a4b6 0400 0080 ccfa 03b6 e5b5 b237
00000100: 2ae1 a235 0400 0080 3a68 a134 c94f 9a37
00000110: 1b2f 10b7 0000 0000 5e74 44b6 9dfd 9a37
00000120: 4f1d b9b6 0400 0080 8cf3 ee34 4f4f 8136
00000130: d24f 6934 0000 0000 7efe 77b2 5671 9337
00000140: 19e4 32b7 0400 0080 4b0a a8b7 1201 d337
00000150: 84a9 6537 4529 5db7 5244 f537 845f 4438
00000160: 9018 5eb7 1dd1 7cb8 f43f 7b37 50aa 6b36
00000170: 5fb3 81b3 4949 5237 a7bb ebb6 01fa 09b8
00000180: 0000 0000 9c82 f3b6 0f29 20b8 15ea 3eb6
00000190: 0400 0080 9e88 44b6 cb25 3eb8 7fe7 47b6
000001a0: 0400 0080 e5a6 10b6 949e 29b8 58fc b6b6
000001b0: 0400 0080 ca6b 7eb6 d6bc e3b6 507b 68b5
000001c0: 0400 0080 50db 94b5 6c7b 4eb7 bd53 d6b6
000001d0: 0000 0000 792b 86b6 543a 9eb7 bbec 2eb6
000001e0: 0400 0080 c1cf ebb5 967e d7b7 587c 6eb5
000001f0: 0000 0000 8e18 27b6 95bb 6db5 26a1 e9b7
00000200: 0400 0080 6d05 b1b7 3b73 0738 d659 c4b6
00000210: b985 1836 ec0e 2838 94ac 3038 a7c7 1ab7
00000220: 42a7 31b8 d18d 9737 2a81 d8b7 6db3 a9b4
00000230: ba5d 16b7 3d67 5ab5 077f c236 0000 0000
00000240: bda8 7135 cb70 8d35 6ed8 0d36 0400 0000
00000250: 1f80 4834 3fb9 12b7 1096 2835 0400 0000
00000260: d1ad 29b3 3791 7f36 09c2 0936 0400 0000
00000270: a86a 74b4 2aa3 25b6 607a 62b5 0400 0000
00000280: 54fc 3a34 3511 4d36 0c0b 6b36 0000 0000
00000290: d52e 3435 1285 4e35 0452 9436 0400 0000
000002a0: b78b ce34 7e03 1c37 a7e7 1a34 0000 0000
000002b0: 83df 4435 4c07 3034 2b3a 8836 0400 0000
000002c0: 1967 a7b4 2f01 8736 fbb5 3836 8191 49b6
000002d0: 5adb cb36 36b7 c0b6 70af 09b7 4a5c 37b7
000002e0: 4564 8a37 a2f0 81b6 3b41 2731 44bb 3335
000002f0: c991 c937 5f7c e7b7 0000 0000 ebe1 32b7
00000300: 5e9f cb37 056e 06b7 0400 0080 5cf8 0a34
00000310: 646b 7f38 d5c8 5b35 0400 0080 a942 3e35
00000320: 770d 99b7 354c 19b7 0400 0080 f839 9135
00000330: 9772 3738 ae0d 0f36 0400 0080 11df 8035
00000340: c7ff f237 2750 6bb7 0000 0000 42d8 25b6
00000350: bd61 2f38 49df d6b7 0400 0080 7fce 7635
00000360: 78a0 23b8 b8f4 b637 0000 0000 2e8c 1e35
00000370: 1fb1 0fb7 13e4 7237 0400 0080 b178 9836
00000380: f5a7 3db7 223c 0337 bd61 b5b6 8607 7fb7
00000390: 70b9 ab38 397f 1b37 89a2 3b38 35c8 0db8
000003a0: 2b5f b437 44aa f6b2 2ed5 8437 8db1 3937
000003b0: 1a9d 0437 0000 0000 177d b436 0397 7837
000003c0: f9c7 ba35 0400 0000 b7d0 4e35 24f8 5c37
000003d0: b40e 1cb4 0400 0000 743d 1f35 a7e5 d537
000003e0: f3bc d735 0400 0000 845f 7c33 c4f0 ecb6
000003f0: 88f9 ba35 0400 0000 6376 ff33 ede0 9836
-0.00019858312 5.4366832e-05 0.0 -9.315103e-06 -0.0001017705 -4.10061e-06 6e-45 -3.4936809e-06
-0.00012566218 -8.825263e-06 6e-45 -5.8209243e-06 -7.667302e-05 -9.72255e-06 6e-45 -6.331467e-06
-0.00015320296 -1.3103655e-05 6e-45 -9.167884e-06 -0.00015605106 5.7165767e-06 0.0 -5.199671e-06
-0.00015480912 -8.196966e-06 6e-45 -1.1418396e-05 -0.0001379108 5.6196413e-06 0.0 -1.1795248e-05
-0.0001052881 -4.1024818e-05 6e-45 3.5696623e-06 3.983226e-06 -0.00010675204 7.864671e-05 8.919189e-06
-0.00015064361 0.0001606378 0.00010656969 -8.520803e-05 -6.6696826e-05 -8.7903544e-07 -0.00012488644 3.962149e-05
-4.0688894e-05 0.0 -1.6103758e-06 6.307104e-08 -2.9423572e-06 -6e-45 -1.4624424e-06 6.2317275e-07
-7.7958515e-07 -6e-45 -1.9372621e-07 -1.3650048e-05 -4.888306e-06 -6e-45 -1.9666504e-06 2.1303955e-05
1.2135472e-06 -6e-45 3.0064422e-07 1.8395383e-05 -8.594036e-06 0.0 -2.927401e-06 1.8476328e-05
-5.5168416e-06 -6e-45 4.4508158e-07 3.8537323e-06 2.1728854e-07 0.0 -1.4435157e-08 1.7576542e-05
-1.0662735e-05 -6e-45 -2.0031954e-05 2.5153658e-05 1.3688932e-05 -1.3182235e-05 2.923809e-05 4.6818997e-05
-1.323795e-05 -6.0276234e-05 1.4975656e-05 3.5116864e-06 -6.039658e-08 1.2534038e-05 -7.0253914e-06 -3.289618e-05
0.0 -7.2571693e-06 -3.818521e-05 -2.844846e-06 -6e-45 -2.9285798e-06 -4.5334727e-05 -2.978806e-06
-6e-45 -2.1554818e-06 -4.0440427e-05 -5.4533994e-06 -6e-45 -3.791169e-06 -6.7871106e-06 -8.660618e-07
-6e-45 -1.1090688e-06 -1.2307293e-05 -6.3874454e-06 0.0 -3.998572e-06 -1.8862229e-05 -2.6065816e-06
-6e-45 -1.7569329e-06 -2.5688943e-05 -8.8842853e-07 0.0 -2.4899232e-06 -8.856235e-07 -2.7850805e-05
-6e-45 -2.110257e-05 3.2293825e-05 -5.8517135e-06 2.2727602e-06 4.006822e-05 4.2122396e-05 -9.2256005e-06
-4.235586e-05 1.8066641e-05 -2.5809353e-05 -3.1609252e-07 -8.962519e-06 -8.136156e-07 5.7964385e-06 0.0
9.002504e-07 1.0538146e-06 2.1136616e-06 6e-45 1.8673062e-07 -8.745409e-06 6.2803247e-07 6e-45
-3.9506464e-08 3.8082487e-06 2.0527534e-06 6e-45 -2.2763072e-07 -2.468189e-06 -8.436964e-07 6e-45
1.7414396e-07 3.0557396e-06 3.502416e-06 0.0 6.7123375e-07 7.6934623e-07 4.4202916e-06 6e-45
3.8472146e-07 9.299138e-06 1.4426642e-07 0.0 7.334094e-07 1.6393932e-07 4.0598875e-06 6e-45
-3.1181187e-07 4.0234513e-06 2.7524063e-06 -3.0036028e-06 6.0754073e-06 -5.7433745e-06 -8.206684e-06 -1.0929138e-05
1.6497574e-05 -3.872513e-06 2.4338778e-09 6.6955204e-07 2.4028954e-05 -2.759526e-05 0.0 -1.0662227e-05
2.4273697e-05 -8.012638e-06 -6e-45 1.2942604e-07 6.0896753e-05 8.1876107e-07 -6e-45 7.087752e-07
-1.8245291e-05 -9.137254e-06 -6e-45 1.0820213e-06 4.373732e-05 2.1316623e-06 -6e-45 9.601664e-07
2.8967754e-05 -1.4025753e-05 0.0 -2.4712795e-06 4.1814277e-05 -2.5614763e-05 -6e-45 9.194263e-07
-3.9011677e-05 2.1810047e-05 0.0 5.9063575e-07 -8.564703e-06 1.4477427e-05 -6e-45 4.5440033e-06
-1.1304383e-05 7.822209e-06 -5.4055986e-06 -1.5200936e-05 8.188456e-05 9.268341e-06 4.4735647e-05 -3.3803477e-05
2.1501988e-05 -2.8715597e-08 1.5834896e-05 1.1068199e-05 7.904391e-06 0.0 5.3789804e-06 1.4817112e-05
1.391628e-06 6e-45 7.70447e-07 1.3170797e-05 -1.4533981e-07 6e-45 5.932154e-07 2.5498519e-05
1.607374e-06 6e-45 5.8760193e-08 -7.061377e-06 1.3930703e-06 6e-45 1.1895897e-07 4.556138e-06

exp_avg_sq f4 [128, 47]
00000000: a3b4 e133 df93 1532 0000 0000 336d 8330
00000010: 6d73 d633 d590 9b2f f70d df2b 3511 452e
00000020: 325e e133 024b ad2f f70d df2b eef1 692e
00000030: b68e df33 bbe1 a72f f70d df2b 4768 6e2e
00000040: 393e e433 128d 4730 f70d df2b f35d b62e
00000050: 6480 eb33 88d4 ca2f 0000 0000 6c27 a72e
00000060: 60de e333 348e 6e31 f70d df2b 5a76 572f
00000070: f15a f033 9cbb fa30 0000 0000 1009 3f2f
00000080: 6f20 df32 a937 b433 f70d df2b 5fe1 8432
00000090: 280d ad32 951e 1533 d629 a732 8b9b 0c33
000000a0: 66d5 f832 b809 7a33 754c dd32 0c2a 7733
000000b0: 6be1 9733 8fd6 512e 2995 3e33 0d57 ac32
000000c0: faad fb30 0000 0000 54f5 332f ea9e ad32
000000d0: 7cec 9c2f 4052 172a 2cf7 c22d 32ce b132
000000e0: 8337 972f 4052 172a 4cbe ce2d 5c9e b032
000000f0: b3c4 c62f 4052 172a 09d8 ef2d 3a71 b132
00000100: fdec ac2f 4052 172a 1382 002e 2bc9 b232
00000110: 9438 ed2f 0000 0000 3b65 122e 525a ac32
00000120: 69b2 6230 4052 172a f307 562e 3494 ae32
00000130: ecec 8930 0000 0000 a42b 682e c299 8a31
00000140: d41f 9232 4052 172a bda1 5031 8409 8f31
00000150: 5e57 d631 bc48 7b31 0669 e231 d612 a931
00000160: 7c0a 3332 5cf8 af31 54d9 2132 46da 5932
00000170: d94a 382d 64cb cd31 1be9 6f32 3425 0931
00000180: 0000 0000 52d0 232f bade 7e32 6b65 8d2e
00000190: a0eb 6b26 de04 152d 810d 8132 f690 a02e
000001a0: a0eb 6b26 0f53 312d d763 8332 cdd6 ec2e
000001b0: a0eb 6b26 7d4f 552d 5cce 8432 c96f 052f
000001c0: a0eb 6b26 37b6 622d 3941 8432 f928 1c2f
000001d0: 0000 0000 0086 952d 14c0 8132 a1da 3230
000001e0: a0eb 6b26 c7f7 e52d 00c4 8432 7f22 662f
000001f0: 0000 0000 2e41 ec2d 4611 6c31 93fd 4f32
00000200: a0eb 6b26 b530 2c31 75ff 4b31 c8e9 a431
00000210: 9f05 4931 e7cb 9f31 a388 7e31 cd20 0632
00000220: 59f2 8b31 7f4a 0432 fa14 2832 4d65 ae2c
00000230: 69b9 b431 2a5a c630 9fa4 0430 0000 0000
00000240: 73e7 952d 69dd ad30 1565 7e2f 056f a22b
00000250: 3d7e ed2c 90d5 ba30 9e10 832f 056f a22b
00000260: ebc3 072d c054 ce30 facc 6f2f 056f a22b
00000270: 8766 112d d883 aa30 839c bb2f 056f a22b
00000280: b4a7 142d d18c db30 f7f2 6d2f 0000 0000
00000290: 8be8 232d 6db9 b830 2fb1 0330 056f a22b
000002a0: fdac 532d 783c e430 c0d0 7f2f 0000 0000
000002b0: 8935 5d2d 6f93 c72f 0f66 d030 056f a22b
000002c0: 4aa6 9a2f 9006 a72f a5d0 4030 9936 bb2f
000002d0: a8a4 1b30 e82e 1330 733c 7a30 1553 1d30
000002e0: b8ab a830 5b08 b330 05c1 e42b a0f5 6a30
000002f0: 876e b132 2078 8731 0000 0000 4271 962f
00000300: 248a 9a32 0324 4630 8d62 242a 8288 542e
00000310: 6532 a832 0cf6 3f30 8d62 242a c277 732e
00000320: fe81 b132 47e9 5030 8d62 242a 827f 7b2e
00000330: 0e54 bc32 3155 8230 8d62 242a 3874 7e2e
00000340: 1370 bd32 a175 4a30 0000 0000 015c 942e
00000350: 8e52 ac32 66df 3531 8d62 242a f5ac ec2e
00000360: a799 c332 a681 9530 0000 0000 1d97 e52e
00000370: 5a42 bd31 de99 a132 8d62 242a 7ac0 8531
00000380: c60b 9f31 8173 fb31 7a99 8a31 2607 0632
00000390: 4341 c631 5184 5132 1e2c dd31 f502 8932
000003a0: 7ced 8b32 c2b1 022d ade4 5232 3ff0 a731
000003b0: ae78 d72f 0000 0000 1d47 7e2e 3931 a031
000003c0: c478 c62d ec41 5824 ba46 1a2c 137b a131
000003d0: 3ae2 982d ec41 5824 3676 1a2c 9caa a631
000003e0: 4d18 222e ec41 5824 d6a6 352c 4fbd a331
000003f0: 134f 442e ec41 5824 11a5 892c 5daa a731
1.05102366e-07 8.7065635e-09 0.0 9.562541e-10 9.9861474e-08 2.8297245e-10 1.5848979e-12 4.4807897e-11
1.0494513e-07 3.1521813e-10 1.5848979e-12 5.3192943e-11 1.0410206e-07 3.0537514e-10 1.5848979e-12 5.420755e-11
1.06283956e-07 7.259625e-10 1.5848979e-12 8.2930905e-11 1.09663944e-07 3.6894598e-10 0.0 7.6012835e-11
1.0610961e-07 3.4714391e-09 1.5848979e-12 1.9596183e-10 1.1192413e-07 1.8243216e-09 0.0 1.7374568e-10
2.5975366e-08 8.392028e-08 1.5848979e-12 1.546931e-08 2.0145833e-08 3.471958e-08 1.9460384e-08 3.2737756e-08
2.8968042e-08 5.82165e-08 2.5762555e-08 5.754741e-08 7.072489e-08 4.7711664e-11 4.4373483e-08 2.0063021e-08
1.8312101e-09 0.0 1.6367113e-10 2.0212116e-08 2.8544267e-10 1.344003e-13 2.2165013e-11 2.0699279e-08
2.7506183e-10 1.344003e-13 2.3503997e-11 2.056111e-08 3.6155753e-10 1.344003e-13 2.7267093e-11 2.0657001e-08
3.1455008e-10 1.344003e-13 2.921936e-11 2.0813408e-08 4.315025e-10 0.0 3.3286467e-11 2.0064508e-08
8.2471857e-10 1.344003e-13 4.8665027e-11 2.0323661e-08 1.0035399e-09 0.0 5.2789453e-11 4.033809e-09
1.701111e-08 1.344003e-13 3.0359921e-09 4.1629296e-09 6.238152e-09 3.6566652e-09 6.5894055e-09 4.9206887e-09
1.0421555e-08 5.1214055e-09 9.420848e-09 1.2680692e-08 1.0475809e-11 5.989408e-09 1.3964633e-08 1.9957271e-09
0.0 1.4898774e-10 1.4835388e-08 6.429953e-11 8.1851335e-16 8.47075e-12 1.5023717e-08 7.301708e-11
8.1851335e-16 1.0079728e-11 1.5295809e-08 1.0770194e-10 8.1851335e-16 1.2125298e-11 1.5460664e-08 1.2135994e-10
8.1851335e-16 1.28870725e-11 1.5396482e-08 1.4202674e-10 0.0 1.6998847e-11 1.5104924e-08 6.5066713e-10
8.1851335e-16 2.6144321e-11 1.5455953e-08 2.0930634e-10 0.0 2.685904e-11 3.4352339e-09 1.2106642e-08
8.1851335e-16 2.505698e-09 2.9685598e-09 4.799606e-09 2.9252545e-09 4.65069e-09 3.7039534e-09 7.807285e-09
4.072984e-09 7.70035e-09 9.7836566e-09 4.956624e-12 5.259768e-09 1.4432022e-09 4.825526e-10 0.0
1.7042123e-11 1.2650335e-09 2.3137077e-10 1.1541606e-12 6.7499604e-12 1.3593979e-09 2.3840568e-10 1.1541606e-12
7.717364e-12 1.501256e-09 2.1809746e-10 1.1541606e-12 8.265061e-12 1.24066e-09 3.412631e-10 1.1541606e-12
8.4500636e-12 1.597437e-09 2.1641343e-10 0.0 9.317112e-12 1.3440463e-09 4.7909315e-10 1.1541606e-12
1.20323725e-11 1.660637e-09 2.3266278e-10 0.0 1.2574283e-11 3.6302647e-10 1.5162999e-09 1.1541606e-12
2.8130592e-10 3.0381786e-10 7.0145695e-10 3.4053896e-10 5.662266e-10 5.3544946e-10 9.1035374e-10 5.7234334e-10
1.2272414e-09 1.3026339e-09 1.6253948e-12 8.547776e-10 2.0655774e-08 3.9426737e-09 0.0 2.7365316e-10
1.7990779e-08 7.2083156e-10 1.4600318e-13 4.8324462e-11 1.958069e-08 6.983505e-10 1.4600318e-13 5.535817e-11
2.0664626e-08 7.6001466e-10 1.4600318e-13 5.7184042e-11 2.1924304e-08 9.482958e-10 1.4600318e-13 5.7856137e-11
2.2053461e-08 7.365433e-10 0.0 6.746604e-11 2.0060977e-08 2.6465954e-09 1.4600318e-13 1.0762761e-10
2.277086e-08 1.0878025e-09 0.0 1.04405574e-10 5.5081673e-09 1.8812838e-08 1.4600318e-13 3.8926915e-09
4.6288475e-09 7.3181927e-09 4.033777e-09 7.801452e-09 5.769978e-09 1.2195486e-08 6.436962e-09 1.5950244e-08
1.6289725e-08 7.429115e-12 1.2275604e-08 4.8876525e-09 3.919402e-10 0.0 5.7816075e-11 4.662209e-09
2.2563625e-11 4.6893372e-17 2.1923977e-12 4.6997086e-09 1.7380864e-11 4.6893372e-17 2.1950337e-12 4.850632e-09
3.685612e-11 4.6893372e-17 2.581426e-12 4.7654463e-09 4.4635472e-11 4.6893372e-17 3.9121002e-12 4.8797077e-09

exp_avg f4 [128]
00000000: 7e2a 19b9 a18e 0037 e3b0 e7b7 4623 8d36
00000010: 1cd9 cb36 bc09 8937 593d efb7 bfe4 3db9
00000020: 544e 5fb9 7521 8a38 617a d637 a93b a438
00000030: 94dd 7c38 71a3 cf37 c3ad 90b8 506e b438
00000040: 4bca b4b7 b550 65b7 ece8 39b7 8a64 03b9
00000050: dd37 0739 0d30 b6b7 4670 a238 4be2 45b8
00000060: 75f4 59b8 ad5e a5b7 07b0 1cb8 d354 cab8
00000070: 78b6 1fb9 2261 d537 81d6 02b9 5332 7cb8
00000080: c8d3 5e38 b80f 8537 41c4 23b8 6ab2 34b8
00000090: 9b34 79b8 5618 45b7 0ae9 95b8 787f 86b5
000000a0: 1f9e 28b9 9444 36b8 b1ea 23b7 55c1 20b9
000000b0: 6495 9b36 af5e e537 aad5 8638 4206 1d36
000000c0: 3fdc 1bb7 bd8c 92b7 c784 3fb8 7e9c 1a36
000000d0: 1870 85b7 1735 bfb8 8407 c8b8 382d aeb7
000000e0: 9154 aeb8 cf93 5eb8 c347 a2b8 fe74 98b7
000000f0: 7f2a 60b8 b5bb cd38 3946 3638 9f29 85b8
00000100: 45e6 1cb8 6cdc 1e38 586f b9b8 c966 18b9
00000110: b05a 09b9 359b 6338 6b23 f435 94d5 5b38
00000120: ed2f 0b38 7192 7535 b222 c736 b31a 0fb9
00000130: 1c52 2ab8 d940 08b8 6dd1 2337 abfc 13b7
00000140: da37 63b8 7706 be38 cc89 69b8 83d1 5e38
00000150: 2516 ccb7 72c8 c7b8 3481 a0b8 fe38 9cb7
00000160: c430 f7b8 a1c6 63b9 40b8 4eb8 a743 08b8
00000170: c980 20b8 2b2a e3b5 52d6 0838 8d1e a6b7
00000180: 900b bab8 4d44 4d38 e422 44b8 9873 24b9
00000190: b753 c5b7 769c f438 68ff 71b8 fc81 fbb8
000001a0: 96d9 5eb9 3001 bab7 75b6 4db9 e18c afb9
000001b0: f7d5 4736 9e74 a838 2c48 41b8 0f52 d038
000001c0: fcea 35b9 1150 a137 b752 2ab9 7e29 a9b8
000001d0: fff5 79b8 9248 feb8 01a8 4537 1e86 d638
000001e0: f5aa 8038 f42f 37b8 d7f3 9e36 1c7c aeb8
000001f0: c1cf d137 c62d 42b8 6986 cab8 59e0 0e37
-0.00014607047 7.662603e-06 -2.7619715e-05 4.206234e-06 6.0751463e-06 1.6336206e-05 -2.8519587e-05 -0.00018109659
-0.00021296117 6.586585e-05 2.5567775e-05 7.831242e-05 6.0287843e-05 2.4752431e-05 -6.898821e-05 8.603616e-05
-2.1551872e-05 -1.3668255e-05 -1.1081091e-05 -0.00012530587 0.00012895414 -2.1718466e-05 7.7456745e-05 -4.7179212e-05
-5.19645e-05 -1.971362e-05 -3.7357237e-05 -9.64791e-05 -0.00015231397 2.543681e-05 -0.00012477675 -6.012835e-05
5.312616e-05 1.5862155e-05 -3.9045004e-05 -4.3081505e-05 -5.941522e-05 -1.1747781e-05 -7.1482806e-05 -1.0020876e-06
-0.00016080633 -4.345605e-05 -9.7702e-06 -0.00015330811 4.6367513e-06 2.7343018e-05 6.429416e-05 2.3398466e-06
-9.29e-06 -1.7470093e-05 -4.5661607e-05 2.3038879e-06 -1.5907033e-05 -9.1174785e-05 -9.538143e-05 -2.0763473e-05
-8.312718e-05 -5.3066582e-05 -7.7381286e-05 -1.817429e-05 -5.344534e-05 9.810125e-05 4.345758e-05 -6.349687e-05
-3.7407754e-05 3.787542e-05 -8.842227e-05 -0.0001453414 -0.00013099122 5.4265565e-05 1.8189725e-06 5.241258e-05
3.3184817e-05 9.148271e-07 5.934701e-06 -0.00013647489 -4.060763e-05 -3.248532e-05 9.764318e-06 -8.820712e-06
-5.4173033e-05 9.06111e-05 -5.5679862e-05 5.3124048e-05 -2.4329007e-05 -9.526395e-05 -7.6534605e-05 -1.8623188e-05
-0.00011786961 -0.00021722402 -4.9285823e-05 -3.2487933e-05 -3.8266913e-05 -1.692509e-06 3.2624528e-05 -1.9802968e-05
-8.871325e-05 4.893942e-05 -4.6762536e-05 -0.00015683321 -2.3523213e-05 0.0001166397 -5.7696743e-05 -0.00011992824
-0.00021252627 -2.217348e-05 -0.00019618294 -0.00033483564 2.9777855e-06 8.032586e-05 -4.6082e-05 9.9334975e-05
-0.00017349044 1.922998e-05 -0.00016243277 -8.0662765e-05 -5.9595328e-05 -0.00012125181 1.17812315e-05 0.000102292965
6.135359e-05 -4.367526e-05 4.7371536e-06 -8.320084e-05 2.5011484e-05 -4.6295834e-05 -9.6571464e-05 8.516095e-06

exp_avg_sq f4 [128]
00000000: 3960 f333 0c34 b832 ecb4 8932 c05a 0631
00000010: 2034 d132 0ee3 b831 cb6f 2b32 a4e9 b933
00000020: 1535 c133 9c57 cb33 eafc 4d32 2850 9732
00000030: f743 9733 c1a9 4d32 9309 9a31 7680 3332
00000040: b12d 2532 319c c731 e4e4 e231 ffa5 cd32
00000050: 4426 8333 5b7c 3632 dd40 2034 0328 d232
00000060: a099 5833 494e 1234 4568 2b32 063b 2833
00000070: 7ab6 d533 3f6b 2633 e91d 6b33 9c67 3533
00000080: f72a 9d33 6bd1 1c31 3788 1532 c5c6 3234
00000090: b5df 2233 b3bc 0b34 c338 2034 88b2 3b32
000000a0: 629e 7533 6d03 c432 a149 2e31 2b24 ac33
000000b0: 810d e631 2464 6133 fb92 a132 f6a1 2533
000000c0: 75ae 2a33 b386 6f32 8ad8 1334 f592 3532
000000d0: e94c af32 6b2f de32 c5fc 8b32 3974 1033
000000e0: 52ce 7d32 5cd1 1a34 8abb 0e33 9175 4032
000000f0: e8e0 4e33 219e 7133 0e28 f933 90c2 b533
00000100: 0058 8234 5965 ac32 2d20 1334 239b 3834
00000110: a245 0134 784f be32 190f 5b30 3651 d932
00000120: 2116 d431 c98a 4832 2e8d 0431 cf87 1b34
00000130: 898b 1033 8e2d bb33 16ce 4031 19f9 a133
00000140: 12c5 8333 c85e 0633 900b 6433 5385 7032
00000150: 9f83 b333 6e0d 4233 600b a533 9392 f133
00000160: d8e0 ac33 2000 f933 fce9 e732 a312 d732
00000170: a061 9632 7153 0131 f11f 8431 34dd 9d32
00000180: 5af8 f933 7970 a634 1734 3f32 a949 df33
00000190: 848c 8432 a96d 9933 16be 2933 f1b5 9d32
000001a0: 8d34 c833 8b38 3132 90b7 c133 569d 9234
000001b0: f164 fc30 5225 3432 e176 2a33 5906 ef33
000001c0: 3c27 1e33 99ae db30 4211 b833 b9d5 8f33
000001d0: 400f ac33 6ea0 2b33 e4e3 1a32 1f4f 7d33
000001e0: 855a e431 71d4 5333 9657 2331 1239 1f32
000001f0: 9e5f 9b33 eda6 4032 038e e332 dda4 9f32
1.1333072e-07 2.1444087e-08 1.6031173e-08 1.9551152e-09 2.4354506e-08 5.380918e-09 9.978929e-09 8.657233e-08
8.9969184e-08 9.46886e-08 1.19900765e-08 1.7615164e-08 7.043848e-08 1.1971168e-08 4.4830784e-09 1.044838e-08
9.614653e-09 5.809419e-09 6.6034875e-09 2.3940627e-08 6.107123e-08 1.06220694e-08 1.4924758e-07 2.4465413e-08
5.043114e-08 1.362579e-07 9.977218e-09 3.916923e-08 9.951778e-08 3.8747427e-08 5.4742404e-08 4.223658e-08
7.3186975e-08 2.2820028e-09 8.703913e-09 1.6649854e-07 3.7922025e-08 1.3014032e-07 1.4921811e-07 1.0925426e-08
5.7187556e-08 2.2818961e-08 2.5362186e-09 8.015953e-08 6.695416e-09 5.2477972e-08 1.8809706e-08 3.856436e-08
3.9739877e-08 1.3942258e-08 1.3769218e-07 1.0569001e-08 2.0407656e-08 2.5865765e-08 1.6296676e-08 3.3633317e-08
1.477345e-08 1.4418532e-07 3.3232517e-08 1.1202602e-08 4.8167664e-08 5.6256003e-08 1.1602252e-07 8.46386e-08
2.4278415e-07 2.0069523e-08 1.3702147e-07 1.7192774e-07 1.2039393e-07 2.215505e-08 7.969319e-10 2.5299055e-08
6.172528e-09 1.1673088e-08 1.928878e-09 1.4484907e-07 3.365452e-08 8.7161524e-08 2.8056824e-09 7.542457e-08
6.13601e-08 3.128551e-08 5.3095903e-08 1.4000153e-08 8.359279e-08 4.518136e-08 7.68548e-08 1.1249099e-07
8.050273e-08 1.1594989e-07 2.6998343e-08 2.503777e-08 1.7506693e-08 1.8819402e-09 3.845337e-09 1.8377797e-08
1.1640141e-07 3.1001744e-07 1.1129507e-08 1.03976454e-07 1.5430722e-08 7.144565e-08 3.952126e-08 1.8359943e-08
9.322785e-08 1.0315612e-08 9.020653e-08 2.7309096e-07 1.8364102e-09 1.0485865e-08 3.968933e-08 1.11304594e-07
3.6822925e-08 1.5983971e-09 8.571307e-08 6.697832e-08 8.012148e-08 3.995995e-08 9.015796e-09 5.8978113e-08
6.6459642e-09 4.932048e-08 2.3769409e-09 9.267994e-09 7.2351426e-08 1.1213825e-08 2.6490858e-08 1.8585007e-08
