config/results/AgrConserv_Refactored_2M_V1/Hummingbird_Aggressive/Hummingbird_Aggressive-499968.pt (torch, 574408 bytes, 36 tensors)

network_body._body_endoder.seq_layers.0.weight f4 [128, 47]
0	0x3b20b3d7	0.0024521255
1	0xbe31f888	-0.17379963
2	0x3d591a88	0.053003818
3	0xbd725121	-0.0591594
4	0x3e938b6f	0.28817317
5	0x3cee795e	0.029110607
6	0x3d8cdae2	0.06877686
7	0xbe06ed91	-0.13176562
8	0xbc854c90	-0.01627186
9	0x3deb589a	0.11491509
10	0x3d80cab8	0.062886655
11	0xbe169cf3	-0.14708309
12	0x3db7020b	0.089359365
13	0xbe5b489a	-0.21414414
14	0x3e837440	0.2567463
15	0xbcb46f80	-0.022025824
16	0x3cc58b4e	0.024114277
17	0xbc818954	-0.015812553
18	0x3e378b28	0.17924178
19	0x3d8dea14	0.069294125
20	0xbdfe11ef	-0.12405764
21	0x3e1af244	0.1513148
22	0xbe36e0d9	-0.1785921
23	0xbc4ac303	-0.012375596
24	0x3dd211c6	0.10257296
25	0x3c319364	0.010838363
26	0xbc33fed8	-0.010986052
27	0xbd13d07b	-0.036087494
28	0x3d64fc8d	0.055904914
29	0xbd948d4b	-0.07253512
30	0x3cf822ec	0.03029009
31	0x3c67df42	0.01415235
32	0xbdb22888	-0.08699137
33	0xbe152d7d	-0.14568134
34	0xbde142e4	-0.109990865
35	0xbb962520	-0.0045820624
36	0xbd9a55fe	-0.07535933
37	0x3dfec414	0.12439743
38	0x3ea41fab	0.3205541
39	0xbe378895	-0.17923196
40	0x3e838fcc	0.25695646
41	0xbddc72f0	-0.1076411
42	0xbc431664	-0.011907194
43	0xbe73325e	-0.23749682
44	0xbe085148	-0.13312256
45	0xbce0bea8	-0.027434662
46	0xbe316a35	-0.17325671
47	0xbe13201a	-0.14367715
48	0xbbd9d01a	-0.006647122
49	0x3de72287	0.112858824
50	0x3e1971e6	0.14984855
51	0x3e3be6d6	0.18349776
52	0xbe107c36	-0.14109883
53	0xbdb3e7cc	-0.08784446
54	0x3d556a59	0.052103374
55	0xbe8e0ef1	-0.27745774
56	0xbc15105e	-0.0090981405
57	0x3e4e1c5a	0.20128003
58	0xbe632c4b	-0.22184865
59	0x3e1d141a	0.153397
60	0x3e974b4a	0.29549628
61	0x3e9d965b	0.30778775
62	0x3d8538e4	0.06504992
63	0x3e62bc28	0.22142088
64	0x3d0e935d	0.034808505
65	0x3e69287b	0.22769348
66	0x3ce017ba	0.027355064
67	0x3e3fa83f	0.18716525
68	0xbdefa284	-0.11700919
69	0xbda9692a	-0.082720116
70	0xbe1f4050	-0.15551877
71	0xbdb69d66	-0.0891674
72	0x3dafd7b5	0.08586065
73	0xbd90b6b9	-0.070661016
74	0xbd7b7f13	-0.061400484
75	0xbe18ccca	-0.14921871
76	0xbc75419f	-0.014969259
77	0xbea353a7	-0.3189976
78	0x3e046542	0.12929252
79	0x3d1b3b17	0.03789815
80	0x3e47b736	0.19503483
81	0x3e86e43c	0.26346004
82	0xbde0d6bb	-0.109784566
83	0x3e20fcf3	0.15721492
84	0x3e1ee658	0.15517557
85	0xbd4ef5ad	-0.050527263
86	0x3de7e1bd	0.11322353
87	0xbdc9f702	-0.09861566
88	0xbe8310b8	-0.25598693
89	0xbe2e4da7	-0.1702181
90	0x3e6766fc	0.22597879
91	0xbd6bd5f5	-0.057577092
92	0xbcd33745	-0.02578319
93	0x3eb87772	0.3602863
94	0xbdcfd804	-0.101486236
95	0xbdfe1dc7	-0.12408023
96	0xbdda70ba	-0.10666032
97	0x3e688d1e	0.22710082
98	0x3c94bfc7	0.018157853
99	0xbe024bf1	-0.12724282
100	0xbe1d77e0	-0.1537776
101	0xbe0b44d5	-0.13600476
102	0xbe0a7f7e	-0.13525197
103	0x3e156358	0.14588678
104	0x3d258621	0.04041112
105	0xbd06cec7	-0.032912042
106	0x3eb9de27	0.363023
107	0x3c6f96ae	0.014623327
108	0x3dec50b1	0.11538828
109	0xbe818c15	-0.25302187
110	0x3db13b0a	0.08653839
111	0xbdf98606	-0.12183766
112	0xbd50558b	-0.05086283
113	0xbbd100fb	-0.0063782907
114	0x3e27d4cf	0.16389774
115	0x3e4e8157	0.20166527
116	0x3e569a96	0.20957407
117	0xbd1bba1f	-0.038019296
118	0xbd052f08	-0.032515556
119	0x3d49c466	0.049259566
120	0xbe016de2	-0.12639573
121	0xbda12be1	-0.07869697
122	0x3d3adf32	0.045623012
123	0xbe905967	-0.2819321
124	0xbd10b2f0	-0.035326898
125	0x3d53575b	0.05159698
126	0xbe5c293b	-0.21500103
127	0xbd148a8e	-0.03626495
128	0xbe41d8ee	-0.18930408
129	0xbc9747a5	-0.01846678
130	0xbc3f765a	-0.011685932
131	0x3dc8273a	0.09773107
132	0x3b4d34e1	0.0031312036
133	0xbe130a82	-0.14359477
134	0x3df14c8b	0.117821775
135	0xbe0e8e93	-0.13921575
136	0x3ddee439	0.10883374
137	0x3e08ab27	0.1334654
138	0xbc33b00f	-0.010967269
139	0xbce4f3d0	-0.02794829
140	0x3e6a8779	0.22903241
141	0x3d9713b0	0.07376802
142	0x3c8707f0	0.016483277
143	0xbe7fa9ff	-0.24967192
144	0xbd4d5d2c	-0.050137684
145	0xbe8ffc42	-0.28122145
146	0x3d42dec1	0.047575716
147	0x3d19c4ca	0.03754119
148	0xbe585a17	-0.21128117
149	0x3e37c44a	0.17945972
150	0xbe9d0e01	-0.30674747
151	0xbdafef4e	-0.085905656
152	0x3e49b7dc	0.19699043
153	0x3daa36ad	0.0831121
154	0xbe7fc7d5	-0.24978574
155	0x3d8abb2b	0.06773981
156	0xbd83be0f	-0.06432735
157	0x3d604ba5	0.05475964
158	0x3e280073	0.16406421
159	0x3d0a7316	0.03380116
160	0x3e184378	0.14869487
161	0x3ea64f28	0.32482266
162	0xbc427706	-0.011869198
163	0xbda02522	-0.078195825
164	0xbd929cc1	-0.07158805
165	0x3ddecb62	0.10878636
166	0xbd7da97d	-0.061929215
167	0xbeb23586	-0.3480646
168	0xbe411ec3	-0.18859391
169	0xbe459b3a	-0.19297495
170	0xbde426e7	-0.111402325
171	0x3a6dbd25	0.0009069017
172	0x3df68d5e	0.120386824
173	0x3e2b0c11	0.16703822
174	0xbb044b10	-0.0020186342
175	0x3e1a53fc	0.150711
176	0xbdeb1066	-0.11477737
177	0x3e081f82	0.1329327
178	0xbca0bec2	-0.01962221
179	0x3dcd83fc	0.1003494
180	0x3c1e6dbe	0.009669719
181	0x3d037a42	0.032099016
182	0xbdc955e7	-0.09830838
183	0xbe13475c	-0.1438269
184	0x3b11b3aa	0.0022232332
185	0x3d94d6d9	0.072675414
186	0xbb19633a	-0.002340509
187	0x3de36c8e	0.111046895
188	0xbe47a5b8	-0.1949681
189	0x3e5c33ef	0.21504186
190	0x3d7c191d	0.061547387
191	0x3dadb0a7	0.084809594
192	0xbdd4a416	-0.103828594
193	0x3de53d10	0.111932874
194	0x3e2176ee	0.15768024
195	0xbda798a6	-0.08183412
196	0x3daff974	0.08592501
197	0x3dc1a61b	0.0945551
198	0xbd4c21ee	-0.049837045
199	0x3de59f18	0.11211985
200	0xbe18c0cb	-0.14917295
201	0xbb8d9d4b	-0.0043217293
202	0x3e0eec5b	0.1395735
203	0x3eb7a3b7	0.35867092
204	0x3e0f932b	0.14020984
205	0x3d23b690	0.039969027
206	0xbe12fc70	-0.1435411
207	0x3d90848a	0.0705653
208	0xbdf55cc9	-0.11980588
209	0xbcf0f2a3	-0.029412573
210	0xbcce607c	-0.025192492
211	0xbda04f01	-0.07827569
212	0xbb5a642f	-0.0033323874
213	0xbe72fa17	-0.23728214
214	0xbe14764f	-0.14498256
215	0xbdf6efd2	-0.12057461
216	0x3c5a20cc	0.013313483
217	0xbe957582	-0.29191214
218	0xbd556344	-0.05209662
219	0x3e2e8f7e	0.17046925
220	0xbcde78bb	-0.027157178
221	0x3d2439b6	0.0400941
222	0x3d397da9	0.045285854
223	0x3c36a36a	0.011147359
224	0x3b02707c	0.0019903472
225	0xbd111bdf	-0.03542697
226	0xbe2ad749	-0.16683687
227	0xbe6a5891	-0.22885348
228	0x3e18bcdc	0.14915794
229	0xbe5063ac	-0.20350522
230	0xbd161c5f	-0.03664815
231	0x3d848d5f	0.06472277
232	0xbdde7b7f	-0.10863399
233	0xbdc5ff52	-0.09667839
234	0x3d49e46b	0.049290102
235	0x3e85bc12	0.2612005
236	0xbef4bb27	-0.47799036
237	0x3ebccddd	0.3687581
238	0xbd363d85	-0.044492263
239	0x3bfe067d	0.0077522383
240	0x3ebda551	0.3704019
241	0x3c2bf0c9	0.010494419
242	0xbe2c20f1	-0.16809441
243	0xbe470b3e	-0.19437882
244	0x3dc77e28	0.09740859
245	0x3de9845c	0.11402199
246	0x3e041814	0.1289981
247	0x3e4f3276	0.20234093
248	0x3d516f5c	0.05113159
249	0xbe43703c	-0.19085783
250	0xbd75e6d3	-0.060034584
251	0x3e0f321c	0.13983959
252	0xbddded37	-0.10836261
253	0x3c6934e9	0.014233806
254	0xbe81ce8d	-0.25352898
255	0x3db21589	0.08695514

network_body._body_endoder.seq_layers.0.bias f4 [128]
0	0xbbece4c9	-0.0072294218
1	0x3c5dcd6f	0.013537749
2	0x3c6a886d	0.014314753
3	0xbbae0a12	-0.005311259
4	0x3bf6cba0	0.007531598
5	0x3c6d21b6	0.014473369
6	0x3c963313	0.018334901
7	0xbbe98e6e	-0.0071275746
8	0xbbe084d6	-0.006851773
9	0xbc3f4b19	-0.0116756195
10	0x3c998f1f	0.018745003
11	0x3cbf01d3	0.0233163
12	0xbc823691	-0.01589516
13	0x3c248784	0.010042075
14	0xbc444b05	-0.011980777
15	0x3c20a014	0.009803791
16	0x3b63ac12	0.0034740013
17	0xbc2632bb	-0.010143931
18	0xba962b88	-0.0011457065
19	0x3b6e81b2	0.0036393222
20	0x3c561083	0.01306546
21	0x3a80b9a5	0.0009820951
22	0x39992779	0.00029211844
23	0x3b84b521	0.0040499126
24	0xbc0e42ad	-0.008682889
25	0x3bef6c4b	0.0073066107
26	0x3c17f94e	0.009275747
27	0x3a194c28	0.0005847835
28	0xbcacf5b6	-0.021113258
29	0x3cb828df	0.022480426
30	0x3cd0b383	0.025476223
31	0x3c14985b	0.0090695275
32	0xbc66f990	-0.014097586
33	0xbb66f71f	-0.003524251
34	0x3c56db45	0.013113801
35	0x3c04e1d7	0.008110485
36	0x3c8cb4da	0.01717608
37	0x3c48fc5c	0.012267198
38	0xbc011840	-0.007879317
39	0x3cc3edce	0.023917105
40	0xbbff9696	-0.0077999337
41	0x3ca99da1	0.020705046
42	0x3ba42d97	0.0050103175
43	0x3b895698	0.004191231
44	0xbbe70a6b	-0.0070508025
45	0xbc2c9bac	-0.010535162
46	0xbbfad028	-0.0076542087
47	0x3c85d496	0.01633672
48	0x3c067b14	0.008208055
49	0x3c5bb099	0.013408803
50	0xbbfb732e	-0.0076736426
51	0xbba8fb62	-0.0051569203
52	0xbc52c102	-0.012863399
53	0x3ae11f87	0.0017175534
54	0x3ca1dbe2	0.019758169
55	0x3c52ad20	0.012858659
56	0xbc724688	-0.014787324
57	0x3b64bdcb	0.0034903164
58	0x3c2b8ec6	0.010471052
59	0xbbe8229b	-0.0070842034
60	0x3bbdfce9	0.0057979715
61	0x3d0b0629	0.03394142
62	0xbb94171f	-0.004519358
63	0x3d215cc0	0.039395094
64	0x3b9a7d6d	0.004714659
65	0x3ae10088	0.0017166296
66	0x3bb89799	0.005633306
67	0x3c61152d	0.013737959
68	0x3bf71b20	0.0075410753
69	0x3b183e9a	0.0023230673
70	0x3c3b8c70	0.011447057
71	0x3b8ea64b	0.0043533198
72	0xbb8fddd8	-0.0043904595
73	0xbb8db06d	-0.00432401
74	0xbc84fc60	-0.016233623
75	0x3ba4d922	0.005030767
76	0xbc889387	-0.016671909
77	0x3bfdd250	0.0077460185
78	0x3c37b632	0.011212872
79	0xbbb1a64c	-0.0054214355
80	0x3b4912e9	0.0030681437
81	0x3c9cd392	0.019143853
82	0xbb6873c2	-0.0035469388
83	0xbb90565c	-0.004404826
84	0xbb8917b8	-0.0041837357
85	0x3b77c95e	0.0037809233
86	0xbc5101d4	-0.0127567835
87	0xbba50c75	-0.0050368854
88	0xba4032fc	-0.0007331816
89	0x3ad0e1f1	0.0015936476
90	0x3c259ee0	0.0101086795
91	0x3b85aa8e	0.0040791696
92	0x3c3c93d1	0.011509852
93	0x3c3ff8e6	0.011717057
94	0x3c51047a	0.012757415
95	0xbc271a91	-0.010199205
96	0xbc55447b	-0.013016815
97	0xbba0fe80	-0.0049131513
98	0x3b5dcac9	0.0033842793
99	0x3c13064c	0.008973669
100	0x3b25418f	0.0025216078
101	0xbb6c4efa	-0.0036057816
102	0x3c743158	0.014904343
103	0xbb774e3c	-0.003773584
104	0xbcb7745b	-0.02239435
105	0x3c3cd5f1	0.011525617
106	0x3940507a	0.00018340527
107	0x3bb151ef	0.0054113786
108	0x3c128b8f	0.008944406
109	0xbc8beca7	-0.017080618
110	0x3c118262	0.008881183
111	0x3c83283f	0.016010402
112	0x3c1fe272	0.009758579
113	0xbb021ac0	-0.001985237
114	0x3c318601	0.010835172
115	0x3b0d8984	0.0021596858
116	0x3ca31d37	0.019911392
117	0x3b5324f3	0.0032218068
118	0xbc87cd99	-0.016577529
119	0x3c6c490c	0.014421713
120	0x3c81192d	0.015759075
121	0x3b585181	0.0033007564
122	0x3c85a053	0.0163118
123	0x3ceebab6	0.029141765
124	0xbb982e1f	-0.00464417
125	0x3a7ccd35	0.00096436153
126	0x3bb45cab	0.005504211
127	0x3bbb4f1f	0.005716219

network_body._body_endoder.seq_layers.2.weight f4 [128, 128]
0	0x3ddd61ca	0.108096674
1	0x3e076c2a	0.13224855
2	0x3d4a9b5c	0.04946457
3	0x3c36e47f	0.011162876
4	0x3c484535	0.0122235315
5	0xbdc917f4	-0.09819022
6	0xbe0e03cf	-0.1386864
7	0xbda0a8be	-0.07844685
8	0xbd52bb6c	-0.05144827
9	0x3cfa5964	0.030560203
10	0x3e0b2e82	0.1359196
11	0xbd0a4f4d	-0.033767033
12	0xbda28e16	-0.07937257
13	0xbcff94be	-0.031198855
14	0xbceb4c5a	-0.02872293
15	0xbda11ae3	-0.07866456
16	0x3dd77673	0.10520639
17	0x3e17f9e2	0.14841416
18	0xbdc8920e	-0.09793483
19	0xbd00ccf9	-0.031445477
20	0xbdbbaf9e	-0.09164356
21	0x3d2fe420	0.042942166
22	0x3d8046e2	0.0626352
23	0xbc2ee74c	-0.010675263
24	0xbd8d032e	-0.06885372
25	0x3df99446	0.12186484
26	0xbccc116a	-0.024910647
27	0xbd37d1bc	-0.044877753
28	0x3d6fb4f5	0.058522183
29	0xbde19ed7	-0.110166244
30	0xbd93d5db	-0.07218524
31	0xbe2493b7	-0.16071974
32	0x3ca1831b	0.019715836
33	0x3d99a2c0	0.07501745
34	0x3ddf30b4	0.10897961
35	0xbd036ef6	-0.032088242
36	0x3e13009b	0.143557
37	0x3d70dcef	0.05880445
38	0x3c8129b4	0.015766956
39	0xbc7e1ffd	-0.015510556
40	0xbdc4fc75	-0.09618465
41	0x3ca93101	0.02065325
42	0x3d07cb4f	0.033152875
43	0xbd520caf	-0.051281627
44	0x3dba352d	0.09092174
45	0xbc11f718	-0.008909009
46	0x3c0aa777	0.008462778
47	0xbd6664fd	-0.056248654
48	0x3d8a2d26	0.06746893
49	0x3cf014ee	0.029306855
50	0xbdfcc0ee	-0.12341486
51	0x3c2519a9	0.010076919
52	0xbce370f4	-0.027763821
53	0xbd843b6c	-0.06456646
54	0x3da58d4c	0.08083591
55	0xbe05c615	-0.13063844
56	0xbd3faf64	-0.046798125
57	0xbe1b82ee	-0.15186664
58	0x3ceb5792	0.02872828
59	0x3dd422ca	0.10358198
60	0xbe0562fd	-0.13026042
61	0xbd8787f8	-0.06617731
62	0x3c85dbdb	0.016340187
63	0x3d47cfba	0.048782088
64	0xbd766c51	-0.060161892
65	0x3c139cb3	0.009009528
66	0xbc0a7364	-0.008450363
67	0x3ab76ac3	0.001399361
68	0x3d53a460	0.051670432
69	0x3d585ced	0.052822996
70	0xbdcf76c8	-0.101300776
71	0xbd89d965	-0.06730918
72	0xbdd95ecd	-0.10613785
73	0xbe159ec5	-0.14611347
74	0xbd9590b5	-0.07302991
75	0x3c3d84d7	0.011567316
76	0xbe003021	-0.1251836
77	0xbcbc4ed5	-0.022986809
78	0xbd344022	-0.044006474
79	0x3dd5525f	0.10416102
80	0x3c635d70	0.013877258
81	0xbdfe1342	-0.12406017
82	0xbdbdc838	-0.09266704
83	0x3db09017	0.08621233
84	0xbdd9cffe	-0.106353745
85	0x3d0dcada	0.034617282
86	0xbe1bc110	-0.15210366
87	0x3defa915	0.11702172
88	0x3c9125f3	0.01771829
89	0xbbd2684e	-0.0064211255
90	0xbd9756b8	-0.07389587
91	0xbc11b06c	-0.00889216
92	0xbdb8f132	-0.09030379
93	0xbdcffbd5	-0.10155455
94	0xbda12c97	-0.07869833
95	0x3d7136d0	0.058890164
96	0x3dad07cb	0.08448752
97	0x3da86c57	0.08223789
98	0xbd6bba11	-0.057550494
99	0xbe064ec5	-0.13115986
100	0xbe2483d0	-0.16065907
101	0xbde3a86a	-0.11116107
102	0xbdae6428	-0.08515197
103	0x3d3b3183	0.045701515
104	0xbd12c990	-0.035836756
105	0x3b50b878	0.0031848233
106	0xbaf98229	-0.0019035983
107	0x3c1bfc17	0.009520552
108	0x3cec9b58	0.028882667
109	0xbc89d925	-0.016827175
110	0x3b61b51e	0.003444023
111	0xbda32096	-0.079652
112	0xbd0edd84	-0.034879223
113	0xbdb65357	-0.089026146
114	0x3e152182	0.14563563
115	0xbd32360a	-0.043508567
116	0xba895e42	-0.0010480362
117	0x3d7096ec	0.05873768
118	0xbcc69ae8	-0.024243787
119	0x3ddbb89f	0.10728573
120	0x3c22bf2d	0.009933275
121	0x3cb5be6d	0.022185529
122	0x3cd43079	0.02590202
123	0xbe0ee28b	-0.13953607
124	0xbd18fc57	-0.037350025
125	0x3df86855	0.12129275
126	0x3d452f7e	0.048140995
127	0xbdf8e27b	-0.12152573
128	0xbd7782bb	-0.06042741
129	0xbde97aae	-0.114003524
130	0x3ab55128	0.001383339
131	0xbd92c8da	-0.07167216
132	0xbbe7dec5	-0.0070761167
133	0xbd673287	-0.05644467
134	0xbdcb3492	-0.09922136
135	0xbddf9b89	-0.10918338
136	0xbdae038e	-0.08496772
137	0xbc893bf3	-0.016752219
138	0x3d1d4ba0	0.0384022
139	0xbd83483b	-0.06410261
140	0xbc8c5d5e	-0.017134365
141	0xbe4dbddb	-0.20091955
142	0x3d8c8f7e	0.068633065
143	0x3e4af70c	0.19820803
144	0x3e59db61	0.21275093
145	0x3d545437	0.051838126
146	0xbd961700	-0.07328606
147	0xbd56db39	-0.05245516
148	0xbe128abe	-0.14310738
149	0x3d4158b4	0.047203735
150	0xbdde9e25	-0.108700074
151	0x3e334f48	0.17510712
152	0xbd8ecc71	-0.06972588
153	0xbe57edf4	-0.21086866
154	0xbcddbd0f	-0.02706769
155	0x3dc964f5	0.09833709
156	0xbd651506	-0.055928253
157	0x3d4d057f	0.05005407
158	0xbd2f37ed	-0.042777944
159	0x3ce1d785	0.027568588
160	0xbd441736	-0.0478737
161	0xbc7d6680	-0.015466332
162	0xbdf3094b	-0.11867007
163	0x3dd47fc5	0.103759326
164	0x3d0a9f41	0.033843283
165	0x3ddcf00b	0.10787972
166	0xbca0199e	-0.019543465
167	0xbcbb7dcb	-0.022887131
168	0xbdb98622	-0.09058787
169	0x3d0bb5c7	0.034108903
170	0x3da5d351	0.08096946
171	0x3dcbf285	0.09958366
172	0x3dac6cd4	0.08419195
173	0xbcc37b17	-0.023862405
174	0x3d2296b4	0.039694503
175	0x3d7a8cf1	0.06116957
176	0x3c1fd7ac	0.00975601
177	0xbca3c0d5	-0.01998941
178	0xbdf67419	-0.120338626
179	0x3df40264	0.119145185
180	0xbdb731e2	-0.08945061
181	0xbe21a65d	-0.15786119
182	0xbd4487dc	-0.047981128
183	0x3d338acb	0.043833535
184	0xbc3c270d	-0.01148392
185	0xbdf597a2	-0.11991812
186	0x3d73961c	0.059469327
187	0x3dd7b7fa	0.105331376
188	0xbc6f3713	-0.014600533
189	0x3c95ab28	0.01827009
190	0xbdfbaa6f	-0.12288367
191	0xbcd1af1d	-0.025596196
192	0x3d379c1b	0.04482661
193	0x3cec97f6	0.028881054
194	0xbc76580e	-0.015035642
195	0x3de22c0e	0.11043559
196	0xbe2783c0	-0.16358852
197	0xbd434faa	-0.047683395
198	0xbdf46252	-0.119328156
199	0x3e1bbb8e	0.15208265
200	0xbe3d3f08	-0.18481076
201	0xbddb8bc4	-0.107200176
202	0x3c8cb0cb	0.017174145
203	0xbd4d25ec	-0.050084993
204	0x3d3c1883	0.045921814
205	0xbdfbf943	-0.12303402
206	0x3e058bd6	0.13041624
207	0x3c8d23c2	0.017228965
208	0xbdaed1da	-0.0853612
209	0x3dd60540	0.1045022
210	0x3dbf0dd0	0.093288064
211	0x3dca0870	0.098648906
212	0x3d4de231	0.05026454
213	0x3a852ffb	0.0010161394
214	0xbe5a45b6	-0.21315655
215	0x3d842147	0.0645166
216	0x3c515f45	0.012779062
217	0x3d535270	0.05159229
218	0xbd2fa824	-0.04288496
219	0x3da4968a	0.080365255
220	0xbe781a53	-0.24228792
221	0xbbab366d	-0.005224994
222	0x3de7cc88	0.11318308
223	0x3dfe836a	0.12427409
224	0xbd3f41e8	-0.046693712
225	0xbd090ec3	-0.033461343
226	0x3dede07b	0.11615082
227	0xbde63edb	-0.112424575
228	0xbdee51bf	-0.116366856
229	0xbcef6c2a	-0.029226381
230	0xbdf3521f	-0.11880898
231	0x3ce1bd33	0.027556038
232	0xbb1c632b	-0.002386282
233	0x3d75d7c0	0.06002021
234	0x3dbcdbba	0.09221597
235	0x3cc0d105	0.023537168
236	0x3d3a4447	0.04547527
237	0x3cfe3e1d	0.031035477
238	0x3cd4962b	0.025950512
239	0xbc8d876e	-0.017276492
240	0x3d3ae375	0.045627076
241	0x3d7b3db1	0.06133813
242	0x3d2306e9	0.039801512
243	0xbca0d41f	-0.019632397
244	0xbddbf40e	-0.10739909
245	0xbe0e42d9	-0.13892688
246	0xbd2eda9c	-0.04268895
247	0x3c7e711d	0.015529898
248	0x3d7bbfd5	0.061462242
249	0x3d743e20	0.05962956
250	0xbdbb4d9f	-0.091456644
251	0xbd76cffe	-0.06025695
252	0x3e167ec3	0.14696793
253	0xbe8bf049	-0.2733176
254	0xbdb3d45f	-0.08780741
255	0xbdc2a053	-0.09503236

network_body._body_endoder.seq_layers.2.bias f4 [128]
0	0x3a195ddb	0.00058504724
1	0xbb394ae5	-0.00282734
2	0x3c8849c9	0.016636746
3	0x3bc01a8c	0.0058625396
4	0x3c826ab7	0.015920026
5	0x3bc9afb6	0.0061549796
6	0xbb906391	-0.0044064005
7	0x3ca1dff1	0.019760104
8	0x3a71944f	0.000921552
9	0x3c736e46	0.014857834
10	0x3c6cc33a	0.0144508425
11	0x3bb02568	0.005375553
12	0x3c07a9da	0.008280242
13	0x3a037aee	0.00050155714
14	0xbb14a354	-0.002268036
15	0xbbeec945	-0.007287177
16	0x3b7a9733	0.0038237094
17	0xba7b5b91	-0.00095885346
18	0x3c3aa5b8	0.0113920495
19	0xbb067371	-0.0020515586
20	0x3c0e44c9	0.008683392
21	0xbb887332	-0.004164123
22	0x39565e21	0.00020443696
23	0x3ca3ee9d	0.02001124
24	0x3a64eaa5	0.00087324745
25	0x3ba6c2ac	0.0050891247
26	0x3b4a76c9	0.0030893555
27	0x3b894afd	0.0041898475
28	0x3c2100db	0.009826864
29	0x3a725a2f	0.0009245006
30	0x3bdcee7d	0.006742297
31	0x3c1956d5	0.009359081
32	0xbbae66d6	-0.0053223176
33	0xbb80633c	-0.0039180797
34	0xbc13edf6	-0.009028902
35	0xbc31a7fc	-0.010843273
36	0x3be9f84b	0.0071401945
37	0xbc1e3f51	-0.0096586505
38	0xbab3e4ee	-0.0013724843
39	0x3c899b38	0.016797647
40	0xbb85596e	-0.0040694987
41	0xbc4c9338	-0.012486272
42	0x39f9961b	0.00047604818
43	0x3b4b1cf7	0.0030992606
44	0x3c2e7765	0.010648583
45	0x3a0308a3	0.00049985404
46	0x3c10e048	0.008842535
47	0xbbdd032f	-0.0067447643
48	0x3ceefc6d	0.0291731
49	0x3aac77d1	0.0013158267
50	0x3b7a43b6	0.0038187332
51	0xbaa30c57	-0.0012439591
52	0x3c338400	0.010956764
53	0x3bd64f6d	0.00654023
54	0x3c25325e	0.010082809
55	0x3c4f7e57	0.012664399
56	0x3c3c3bad	0.011488837
57	0x3be5204e	0.0069923764
58	0x3bd92e78	0.006627854
59	0xba2de2fe	-0.0006633251
60	0xbae9777c	-0.0017812098
61	0xbc2ecc76	-0.0106688645
62	0x3bd2ba34	0.0064308885
63	0xb98f85db	-0.00027374816
64	0xbb99d4b3	-0.004694545
65	0x3bb37d11	0.0054775556
66	0x3be0714e	0.0068494445
67	0xbc16008e	-0.009155406
68	0x3cc1e72d	0.023669804
69	0xb9c92827	-0.00038367623
70	0xbb694c90	-0.0035598613
71	0xbc7031bc	-0.014660295
72	0x3c1699a4	0.009191904
73	0x3c80044b	0.015627047
74	0x3c05c2f8	0.00816416
75	0xbc4d2437	-0.012520841
76	0x3b899e45	0.0041997754
77	0x3b99748d	0.0046830834
78	0x3bb393d9	0.0054802713
79	0xbb5c5cbc	-0.003362461
80	0xba6d7395	-0.00090580556
81	0x3855ab7a	5.0942857e-05
82	0xbc3ec746	-0.01164419
83	0xbc5683d5	-0.013092955
84	0xbc3a39dd	-0.011366335
85	0xbbb382d5	-0.005478243
86	0x3c588f32	0.013217734
87	0x3b9116b5	0.0044277557
88	0x3bc6edae	0.006070814
89	0x3c5ddf6a	0.013542036
90	0xbb6ba036	-0.0035953647
91	0x3c6e33c7	0.014538712
92	0x3c3f8ba3	0.011691007
93	0x3ba7e0f1	0.0051232507
94	0x3c3e4922	0.011614116
95	0x3bfa10c0	0.0076313913
96	0x3c38f8c0	0.011289775
97	0xbc71b2a8	-0.014752068
98	0x3b045424	0.0020191753
99	0x3c93bd88	0.018034711
100	0xbb9b917e	-0.0047475686
101	0xbb3772da	-0.002799204
102	0x3c157e91	0.009124414
103	0xbba9f548	-0.0051867105
104	0xb9bc5ddb	-0.00035928082
105	0xbab89bde	-0.0014084538
106	0x3c5a3331	0.013317869
107	0x3bd488b3	0.0064860224
108	0xbbcde8ce	-0.006283856
109	0xbba7a4d3	-0.005116084
110	0xbb6cb56a	-0.0036118873
111	0xb9cf74b6	-0.00039569073
112	0x3c4b452a	0.012406627
113	0xbb4e5512	-0.0031483811
114	0xba82acf4	-0.0009969757
115	0xbc1c5cf7	-0.009543649
116	0xbac30fc9	-0.0014882024
117	0x3bcc07e3	0.006226526
118	0xba2de14f	-0.0006633
119	0x3c38fa05	0.011290078
120	0x3be3f5ee	0.0069568073
121	0x3bf1c46d	0.007378152
122	0x3b4178d9	0.0029521494
123	0x3bbcf002	0.005765916
124	0xbc6f30bd	-0.014599022
125	0x3c72966d	0.014806372
126	0x3c204ee0	0.00978443
127	0xbc1c9a07	-0.009558207

action_model._continuous_distribution.log_sigma f4 [1, 5]
0	0x3ce310e1	0.02771801
1	0x3d0129d6	0.03153404
2	0xbace1fd0	-0.0015726034
3	0x3d1e75aa	0.038686432
4	0x3bfaa85e	0.0076494655

action_model._continuous_distribution.mu.weight f4 [5, 128]
0	0x3d11d2a7	0.035601284
1	0xbcb83d5b	-0.022490194
2	0x3d2c4cf8	0.04206559
3	0x3b897848	0.004195247
4	0x3ab05872	0.0013454093
5	0x3d121548	0.035664827
6	0xbc520073	-0.01281749
7	0xbbe7629e	-0.0070613166
8	0x3d2cb36f	0.04216331
9	0x3cd0c5db	0.02548497
10	0x3c0832b1	0.008312867
11	0xbc8a31c1	-0.016869428
12	0xbb02409b	-0.0019874934
13	0xbccb38e2	-0.024807397
14	0xbc828cd5	-0.015936295
15	0xbbcff213	-0.006345996
16	0x3c6548bc	0.013994392
17	0xbd793ae9	-0.060847197
18	0xbd5564b7	-0.052098002
19	0x3bc5a463	0.0060315593
20	0xbab6bf47	-0.0013942503
21	0x3cdf3806	0.027248394
22	0xbcd26d7e	-0.025686976
23	0xbc19ff49	-0.009399244
24	0x3c709d62	0.0146859605
25	0x3d9ce3ec	0.0766066
26	0xbc564719	-0.013078474
27	0xbd4ff120	-0.050767064
28	0xbd4ad847	-0.049522664
29	0x3ca2b638	0.01986228
30	0x3d854734	0.065077215
31	0xbbeb2659	-0.0071762023
32	0x3d0fec48	0.035137445
33	0x3ce148ff	0.027500628
34	0x3b69e505	0.0035689485
35	0xbbcd2901	-0.0062609916
36	0xbd65eb45	-0.056132574
37	0xbceebb1e	-0.029141959
38	0xbc9be544	-0.01903022
39	0xbd5c94d6	-0.05385288
40	0x3d233a92	0.03985078
41	0xbb43c49c	-0.0029871827
42	0x3d60f0bd	0.054917086
43	0xbd09c537	-0.033635344
44	0xbb931a8a	-0.0044892477
45	0x3c902ec9	0.017600434
46	0xbcb78947	-0.022404326
47	0xbc4c4a88	-0.0124689415
48	0xbd0da25c	-0.034578666
49	0x3d3991a3	0.045304906
50	0xbbfa24c6	-0.0076337783
51	0x3d118548	0.035527498
52	0xbb3ed67c	-0.0029119542
53	0x3c7d76a4	0.015470181
54	0xbcde8565	-0.027163217
55	0xbd1526df	-0.036414023
56	0xbbd3589b	-0.0064497716
57	0xbd5e9504	-0.05434133
58	0x3d32fe1d	0.043699373
59	0x3d09f8a6	0.033684395
60	0xbc9b0b3f	-0.018926261
61	0x3d240d10	0.04005152
62	0xbc5e50db	-0.013569082
63	0x39b137da	0.00033801683
64	0xbc18c172	-0.009323465
65	0xbba948ee	-0.0051661646
66	0x3d7c35fe	0.06157493
67	0x3cac5455	0.021036306
68	0xbda8260a	-0.082103804
69	0x3cfd2943	0.030903464
70	0x3c66efde	0.014095275
71	0x3c49fa93	0.012327808
72	0xbd1ceb76	-0.03831049
73	0xbd073109	-0.033005748
74	0x3ccc1df1	0.02491662
75	0xbbb1f724	-0.005431073
76	0x3d0ffcfd	0.035153378
77	0xbc930208	-0.017945305
78	0xbd76b399	-0.06022987
79	0xbc03d840	-0.0080471635
80	0x3cac055b	0.020998647
81	0xbd092fb5	-0.033492763
82	0x3b455924	0.0030112946
83	0xbbbd289a	-0.0057726623
84	0x3d36f847	0.04467037
85	0x3c0f2227	0.00873617
86	0xbc9e4bf1	-0.019323321
87	0x3c95e604	0.018298157
88	0x3c865640	0.01639855
89	0xbbde3811	-0.006781586
90	0x3c88d62f	0.016703693
91	0x3d1b1682	0.037863262
92	0xbd0a1a66	-0.03371658
93	0xbd395925	-0.04525103
94	0x3d991b07	0.07475858
95	0x3b740f68	0.0037240628
96	0xbd0b219a	-0.03396759
97	0x3c81c836	0.015842538
98	0xbcd28cd9	-0.025701927
99	0xbc8380e6	-0.016052675
100	0x3d0a06ac	0.03369777
101	0x3c4bb154	0.012432415
102	0xbd54f65f	-0.05199277
103	0x3d72eb87	0.059306648
104	0xbcc2128b	-0.023690483
105	0xbcc3295a	-0.023823429
106	0xbc285da7	-0.010276235
107	0x3d257ae9	0.04040042
108	0x3cf406f7	0.029788477
109	0x3bbbeb4a	0.0057348358
110	0x3befff42	0.0073241303
111	0xbbb52a43	-0.0055287196
112	0xbbdf2fd7	-0.006811123
113	0xbcabfdfb	-0.02099513
114	0x3c58bca9	0.013228574
115	0xbc542e59	-0.012950503
116	0xbbd0c865	-0.006371545
117	0xbb232ceb	-0.00248986
118	0x3d492301	0.049105648
119	0x3b9a87aa	0.0047158794
120	0xbc142fdb	-0.009044613
121	0x3d67d198	0.05659637
122	0x3c42be0f	0.011886134
123	0xbca6d5a0	-0.020365536
124	0x3b774fd9	0.0037736802
125	0xbd344081	-0.04400683
126	0x3ca2bb59	0.019864725
127	0x3d20b014	0.03923042
128	0x3c7a936f	0.01529394
129	0xbb041409	-0.0020153543
130	0xbc4ce250	-0.012505129
131	0x39b989b0	0.00035388535
132	0xbd2e36df	-0.042532798
133	0x3d0cf7c6	0.034415983
134	0xbc035c6c	-0.008017641
135	0x3d9a7754	0.07542291
136	0xbb24e905	-0.0025163305
137	0x3cfd00e6	0.030884217
138	0x3999e4bc	0.00029352854
139	0xbce74951	-0.028233202
140	0x3d74b9f5	0.059747655
141	0x3d264296	0.040590845
142	0xbb655c8f	-0.0034997796
143	0xbc35da49	-0.0110994065
144	0xbcd21f7b	-0.025649777
145	0xbc600ca2	-0.013674887
146	0xbca0409c	-0.019562058
147	0x3c3022a7	0.010750449
148	0xbc38568a	-0.011251101
149	0x3d76bfde	0.060241573
150	0xbd24a104	-0.04019262
151	0xbc97f60c	-0.018549941
152	0x3a421a2d	0.0007404413
153	0xbcf8bfdd	-0.030364925
154	0xbd84bc6a	-0.0648125
155	0xbcc3b859	-0.023891615
156	0x3bb59772	0.0055417353
157	0xbc547133	-0.012966442
158	0xbc322fd3	-0.01087566
159	0x3cf2c620	0.029635489
160	0xbce7aa71	-0.028279515
161	0x3ce4262f	0.027850239
162	0x3ba8176c	0.005129745
163	0x3cc05708	0.023479
164	0x3cda6e75	0.026663998
165	0xbc313ba7	-0.010817445
166	0x3c7887a7	0.015169061
167	0xbd8a05d2	-0.067393914
168	0xbc5feac1	-0.01366681
169	0xbd02ec81	-0.03196383
170	0x3c725ec6	0.014793104
171	0x39c035f7	0.000366613
172	0x3d1c9586	0.038228534
173	0x3c911601	0.017710688
174	0x3ad58701	0.0016290845
175	0xbd051a4b	-0.032495778
176	0x3d18c25f	0.03729474
177	0x3c1df908	0.009641893
178	0xbc52a5f2	-0.012856947
179	0x3c563458	0.013074003
180	0xbca7b862	-0.020473663
181	0xbc29c153	-0.0103610335
182	0x3cb831f6	0.02248476
183	0xbc3ab9a1	-0.011396796
184	0xbd1cc73a	-0.038275935
185	0x3d323383	0.043506157
186	0xbd39f712	-0.04540164
187	0xbb608b43	-0.0034262694
188	0xbcbedbb1	-0.023298116
189	0x3bc1278b	0.0058946065
190	0x3ccf73a1	0.02532369
191	0x3d24cf4b	0.040236752
192	0xbc36e909	-0.011163958
193	0xbad67861	-0.001636278
194	0x3d808c0f	0.06276714
195	0x3cbaafaa	0.022788841
196	0xbc92b97c	-0.017910711
197	0x3bcb9650	0.006212987
198	0x3c93714b	0.017998358
199	0xbbdbe628	-0.0067107864
200	0xbcdb86e4	-0.02679772
201	0x3d039b73	0.03213067
202	0xbd281900	-0.041039467
203	0xbc541a03	-0.012945655
204	0xbb9d2bd5	-0.004796485
205	0x3cab436d	0.020906175
206	0x3d433f0e	0.047667556
207	0xbd66bd46	-0.05633285
208	0xbc81b4e2	-0.015833322
209	0xbcad83d5	-0.021181026
210	0xbc0d0783	-0.008607748
211	0xbc9ea4ae	-0.019365635
212	0xbc574da0	-0.013141066
213	0xbcdcd7da	-0.026958395
214	0x3d59de07	0.053190257
215	0x3ca71773	0.020396924
216	0x3c1093ec	0.00882433
217	0xbcafe78e	-0.021472719
218	0x3c2e3d7f	0.010634779
219	0xbcdf4462	-0.027254287
220	0x3d2ce7b9	0.042213175
221	0x3c99a314	0.01875452
222	0x3bd86536	0.006603862
223	0x3c6fe849	0.014642783
224	0xbc488b7d	-0.012240288
225	0xbc01ea84	-0.007929448
226	0x3c7f08b4	0.01556604
227	0xbcb1c659	-0.021701025
228	0x3c9f2842	0.019428376
229	0xbce0069e	-0.027346905
230	0x3cac3df9	0.021025645
231	0x3c57086d	0.013124567
232	0xbc8af122	-0.016960684
233	0xbba0460e	-0.0048911637
234	0x3cc487fb	0.023990622
235	0x3cfe745c	0.031061344
236	0xbc46d6d8	-0.012136184
237	0xbcf2a587	-0.029619945
238	0x3cb5a32e	0.022172537
239	0x3c13785e	0.009000866
240	0x3c44214e	0.011970831
241	0x3c11716f	0.008877142
242	0xbb40a71b	-0.0029396478
243	0xbc5d0985	-0.013491039
244	0xbd337346	-0.043811105
245	0x3ca85873	0.020549988
246	0xbd517116	-0.051133238
247	0x3cb7568c	0.022380136
248	0x3d0bca8e	0.034128718
249	0x3d5c2cdb	0.053753715
250	0x3cc5c0cb	0.024139782
251	0xbd0bd572	-0.034139104
252	0x3cf8aa0b	0.03035452
253	0x3d258600	0.040410995
254	0xbc1bad36	-0.009501746
255	0x3cad6e18	0.02117066

action_model._continuous_distribution.mu.bias f4 [5]
0	0xbbf7b1c8	-0.007559035
1	0x3b1da4c0	0.0024054497
2	0x3988d178	0.00026096008
3	0xbc928a6e	-0.017888274
4	0x3b889733	0.004168415

exp_avg f4 [128, 47]
0	0x385c760b	5.2562023e-05
1	0xb701f209	-7.745352e-06
2	0x00000000	0.0
3	0xb42f8ddb	-1.6349752e-07
4	0x3736555f	1.0867922e-05
5	0x380e3436	3.3904063e-05
6	0x00000000	0.0
7	0x372fd83f	1.0481162e-05
8	0x36f492c9	7.2888547e-06
9	0x381d3731	3.7483118e-05
10	0x00000000	0.0
11	0x37433aa1	1.1636556e-05
12	0x376876f5	1.3855974e-05
13	0x3801abd0	3.091601e-05
14	0x00000000	0.0
15	0x372abba6	1.017648e-05
16	0x370acf2e	8.273679e-06
17	0x381915c0	3.64983e-05
18	0x00000000	0.0
19	0x375b53b2	1.3072904e-05
20	0x374ae33f	1.2093048e-05
21	0x380910f2	3.2679127e-05
22	0x00000000	0.0
23	0x37666ec0	1.3734854e-05
24	0x36781fb0	3.6973324e-06
25	0x382b9df0	4.0916668e-05
26	0x00000000	0.0
27	0x378a5330	1.648962e-05
28	0x3755bdab	1.273995e-05
29	0x38065a1f	3.203202e-05
30	0x00000000	0.0
31	0x377cd4d1	1.5069921e-05
32	0x37729b8a	1.4460538e-05
33	0x37fc61d4	3.0086296e-05
34	0x00000000	0.0
35	0x37dd960f	2.641513e-05
36	0xb6c268a6	-5.793833e-06
37	0x37cb04dc	2.4201749e-05
38	0x37a1db86	1.929492e-05
39	0x369c8393	4.6644795e-06
40	0x37a9506b	2.0183817e-05
41	0x36fcc6e7	7.5333405e-06
42	0xb6d3b95f	-6.30987e-06
43	0x3730b493	1.0532461e-05
44	0x37dc1137	2.623406e-05
45	0x343542e9	1.688128e-07
46	0x346e6fc6	2.220614e-07
47	0x3680f61b	3.8433477e-06
48	0xb77a0ebf	-1.49045945e-05
49	0x00000000	0.0
50	0xb5c5638d	-1.4706617e-06
51	0x379859a4	1.8161554e-05
52	0xb7f4851b	-2.9149049e-05
53	0x00000000	0.0
54	0xb6ee69a0	-7.105249e-06
55	0x37c4f928	2.3481043e-05
56	0xb810925e	-3.446859e-05
57	0x00000000	0.0
58	0xb716521f	-8.959817e-06
59	0x36b04321	5.2530236e-06
60	0xb7883c54	-1.6240556e-05
61	0x00000000	0.0
62	0xb6c24b2b	-5.7904012e-06
63	0x364a9798	3.0188585e-06
64	0xb76afd07	-1.4006399e-05
65	0x00000000	0.0
66	0xb61f19b8	-2.3707817e-06
67	0xb6754f6a	-3.655407e-06
68	0xb6f5fccf	-7.331e-06
69	0x00000000	0.0
70	0xb7206203	-9.559563e-06
71	0x36ced148	6.163642e-06
72	0xb7913fa0	-1.7314975e-05
73	0x00000000	0.0
74	0x369cdf57	4.6751625e-06
75	0xb618c5af	-2.2764832e-06
76	0xb712257b	-8.711005e-06
77	0x00000000	0.0
78	0xb7d70275	-2.5631141e-05
79	0xb77db3c7	-1.5121833e-05
80	0x3692394e	4.35781e-06
81	0x00000000	0.0
82	0xb7c36f6f	-2.3297702e-05
83	0x37224740	9.672542e-06
84	0xb7a523fc	-1.968629e-05
85	0xb7b038c3	-2.1007267e-05
86	0xb759e8ce	-1.2988412e-05
87	0xb8532b15	-5.0346443e-05
88	0x37495d0a	1.2002196e-05
89	0xb85f0b7c	-5.317804e-05
90	0xb681436f	-3.85235e-06
91	0xb72b0f95	-1.0196022e-05
92	0x319cd5b8	4.5644946e-09
93	0xb753c037	-1.2621334e-05
94	0x38475505	4.7524478e-05
95	0xb7fe9276	-3.034736e-05
96	0x00000000	0.0
97	0xb6bf735b	-5.7056727e-06
98	0x37d6e1f0	2.5615998e-05
99	0xb71054d6	-8.602821e-06
100	0x00000000	0.0
101	0x338a0dfd	6.42867e-08
102	0x3789bdc5	1.6420041e-05
103	0x351f34fe	5.930923e-07
104	0x00000000	0.0
105	0x359866dc	1.1354819e-06
106	0x37cc43f7	2.4350344e-05
107	0xb6f631f8	-7.3371884e-06
108	0x00000000	0.0
109	0x3534fe89	6.742562e-07
110	0x360fc609	2.1423932e-06
111	0x37797d5e	1.4870746e-05
112	0x00000000	0.0
113	0x36b8ac93	5.5037176e-06
114	0x37b02840	2.0999578e-05
115	0xb685b91c	-3.9852584e-06
116	0x00000000	0.0
117	0x3393fca7	6.891178e-08
118	0xb697a4f7	-4.519355e-06
119	0x37b130f6	2.1122843e-05
120	0x00000000	0.0
121	0x37601064	1.3355257e-05
122	0x37bfb6d1	2.2854105e-05
123	0xb6c3fd3d	-5.8409337e-06
124	0x00000000	0.0
125	0xb75695bc	-1.2790257e-05
126	0xb62e3010	-2.5955997e-06
127	0x37a43fa0	1.9579951e-05
128	0x00000000	0.0
129	0x378485e5	1.5797976e-05
130	0x37baa922	2.2251686e-05
131	0x3735b25a	1.0829966e-05
132	0x36b129ac	5.2798623e-06
133	0xb8027761	-3.1105596e-05
134	0xb7e180dc	-2.6882095e-05
135	0x36d4d276	6.342593e-06
136	0xb81048a5	-3.439993e-05
137	0x36044bb0	1.9713589e-06
138	0x3730e0ad	1.0542729e-05
139	0xb44fd2b4	-1.935503e-07
140	0xb7331d03	-1.0675986e-05
141	0xb702957e	-7.78341e-06
142	0xb5970be1	-1.1253834e-06
143	0x00000000	0.0
144	0x34d22922	3.9145476e-07
145	0xb7751878	-1.4608835e-05
146	0x36bd45c7	5.640762e-06
147	0x00000000	0.0
148	0x3579cc78	9.305727e-07
149	0xb5d61b89	-1.5952256e-06
150	0xb6f76430	-7.372837e-06
151	0x00000000	0.0
152	0xb5dcb8c1	-1.6445048e-06
153	0xb79b476e	-1.8510702e-05
154	0x3720194a	9.542631e-06
155	0x00000000	0.0
156	0x359f7b7d	1.1882363e-06
157	0x36849138	3.9508122e-06
158	0xb758be27	-1.2918877e-05
159	0x00000000	0.0
160	0xb68bcf40	-4.16665e-06
161	0xb782d1e4	-1.5594946e-05
162	0x36de5777	6.626298e-06
163	0x00000000	0.0
164	0x3606193e	1.998225e-06
165	0x374ce3d5	1.2212394e-05
166	0xb7b06b26	-2.103073e-05
167	0x00000000	0.0
168	0xb7310c36	-1.0552865e-05
169	0xb78c4124	-1.6719634e-05
170	0x37020cc2	7.751574e-06
171	0x00000000	0.0
172	0x368807ca	4.0540226e-06
173	0xb7218bb4	-9.628875e-06
174	0x351f542b	5.9354596e-07
175	0x00000000	0.0
176	0x364cc868	3.051502e-06
177	0xb6b39c53	-5.3528142e-06
178	0xb7588061	-1.2904494e-05
179	0xb7419836	-1.1539136e-05
180	0x36954db7	4.4495932e-06
181	0x36c00e10	5.723683e-06
182	0x371d56bc	9.378124e-06
183	0xb6ca13ca	-6.022373e-06
184	0x375e6025	1.32546165e-05
185	0xb708990e	-8.1418675e-06
186	0xb3e0e3a7	-1.04722226e-07
187	0xb58ed087	-1.0640514e-06
188	0x36d34e54	6.2974086e-06
189	0xb77e4f89	-1.5158098e-05
190	0x00000000	0.0
191	0xb486aac2	-2.5083688e-07
192	0xb60e9c67	-2.1250687e-06
193	0xb6e428ec	-6.7996934e-06
194	0x00000000	0.0
195	0xb6206c26	-2.3904809e-06
196	0x3733cabf	1.0716437e-05
197	0xb7a4c32b	-1.9641206e-05
198	0x00000000	0.0
199	0xb6b4647f	-5.3761173e-06
200	0x35d2b876	1.5699904e-06
201	0xb73012a0	-1.0494754e-05
202	0x00000000	0.0
203	0xb6485070	-2.9849143e-06
204	0xb50e11f1	-5.292523e-07
205	0xb70cda73	-8.395512e-06
206	0x00000000	0.0
207	0xb5ce80c7	-1.5385675e-06
208	0xb5e4aa26	-1.7036843e-06
209	0xb6f24796	-7.2204957e-06
210	0x00000000	0.0
211	0xb6dd0221	-6.586561e-06
212	0xb7253269	-9.846503e-06
213	0x35630450	8.4570365e-07
214	0x00000000	0.0
215	0x36ef159f	7.125272e-06
216	0x358ec435	1.0636928e-06
217	0xb72793f7	-9.988426e-06
218	0x00000000	0.0
219	0xb79426ad	-1.7660985e-05
220	0xb64736e7	-2.9685268e-06
221	0xb6bef442	-5.6908766e-06
222	0x00000000	0.0
223	0xb78cc75e	-1.6782138e-05
224	0x37829965	1.5568638e-05
225	0xb6c4fa97	-5.8704277e-06
226	0xb6d96429	-6.478764e-06
227	0xb791bc89	-1.737314e-05
228	0xb7fe29bb	-3.0298592e-05
229	0xb6d4967b	-6.3356106e-06
230	0xb7905470	-1.7205457e-05
231	0x35fa8eb5	1.8667985e-06
232	0xb69d6c53	-4.691575e-06
233	0x334c7c12	4.7610293e-08
234	0xb51d7e99	-5.867128e-07
235	0xb905d910	-0.0001276473
236	0x3801e6ff	3.097113e-05
237	0x00000000	0.0
238	0xb5d06841	-1.552755e-06
239	0xb7490168	-1.1980861e-05
240	0xb8b17745	-8.4622334e-05
241	0x00000000	0.0
242	0xb7cc729b	-2.4372062e-05
243	0x35a5b819	1.2347037e-06
244	0xb8cd2e51	-9.783789e-05
245	0x00000000	0.0
246	0xb7e06a43	-2.6752363e-05
247	0xb767c790	-1.3815137e-05
248	0xb8ad9e7f	-8.278805e-05
249	0x00000000	0.0
250	0xb7daf70f	-2.610267e-05
251	0xb795c3f6	-1.7853436e-05
252	0xb8a52670	-7.874973e-05
253	0x00000000	0.0
254	0xb7d64540	-2.5543035e-05
255	0xb780335d	-1.5282707e-05

exp_avg_sq f4 [128, 47]
0	0x3227d66d	9.769434e-09
1	0x307108a6	8.768758e-10
2	0x00000000	0.0
3	0x2f2922cd	1.5382824e-10
4	0x30e4fe67	1.6661489e-09
5	0x3211948b	8.473886e-09
6	0x00000000	0.0
7	0x30306f5b	6.418667e-10
8	0x309ce8cf	1.1416662e-09
9	0x32236796	9.5114014e-09
10	0x00000000	0.0
11	0x3054017f	7.7127277e-10
12	0x3108cf02	1.9908275e-09
13	0x32106620	8.405124e-09
14	0x00000000	0.0
15	0x303d06b7	6.876734e-10
16	0x30d2f08e	1.5347881e-09
17	0x321bdaee	9.071966e-09
18	0x00000000	0.0
19	0x308b96cd	1.0156441e-09
20	0x3104a922	1.930467e-09
21	0x321007b1	8.383652e-09
22	0x00000000	0.0
23	0x307b99de	9.1531926e-10
24	0x31101078	2.096412e-09
25	0x321270ec	8.523994e-09
26	0x00000000	0.0
27	0x30e353d9	1.6540255e-09
28	0x311a8007	2.2482725e-09
29	0x320e887f	8.2965235e-09
30	0x00000000	0.0
31	0x30c1e250	1.410692e-09
32	0x310b0e32	2.0235231e-09
33	0x3211b1f7	8.480575e-09
34	0x00000000	0.0
35	0x30cc108a	1.4847654e-09
36	0x30d48694	1.546328e-09
37	0x317a935d	3.6463554e-09
38	0x31136b8b	2.1452446e-09
39	0x3139339f	2.6950386e-09
40	0x316bc315	3.4307892e-09
41	0x3173d92c	3.5484602e-09
42	0x3165947e	3.3408294e-09
43	0x3132b60f	2.6005897e-09
44	0x31ba32dc	5.4190945e-09
45	0x2d4a7b4f	1.1509751e-11
46	0x2f1f0ee6	1.4466259e-10
47	0x329d2673	1.829469e-08
48	0x31c2d0ae	5.6698672e-09
49	0x00000000	0.0
50	0x3006e175	4.906931e-10
51	0x31087ba5	1.9860888e-09
52	0x32b59ebe	2.114336e-08
53	0x00000000	0.0
54	0x30ca3624	1.4712822e-09
55	0x30c5a92e	1.438172e-09
56	0x32bebc33	2.2204494e-08
57	0x00000000	0.0
58	0x30e45434	1.6613115e-09
59	0x311b902b	2.2637419e-09
60	0x32bb5bec	2.1811466e-08
61	0x00000000	0.0
62	0x30dd258f	1.6090541e-09
63	0x3144cac1	2.8637006e-09
64	0x32b89971	2.1490196e-08
65	0x00000000	0.0
66	0x31190760	2.2268623e-09
67	0x31a4ebe1	4.7998445e-09
68	0x32aca878	2.0100046e-08
69	0x00000000	0.0
70	0x310a0e15	2.0089648e-09
71	0x317b0b8a	3.6531866e-09
72	0x32b23ef1	2.075055e-08
73	0x00000000	0.0
74	0x31809795	3.742523e-09
75	0x3196dc2c	4.390605e-09
76	0x32b3b342	2.091986e-08
77	0x00000000	0.0
78	0x3169c44b	3.4017542e-09
79	0x3112fe37	2.13903e-09
80	0x32b989e7	2.1599545e-08
81	0x00000000	0.0
82	0x319e8f4f	4.6146975e-09
83	0x319d8578	4.584475e-09
84	0x3203228f	7.633061e-09
85	0x31a06472	4.668032e-09
86	0x32065dc5	7.821147e-09
87	0x31f79ae9	7.2062574e-09
88	0x323f51d4	1.1136269e-08
89	0x31e56a03	6.6768293e-09
90	0x320869da	7.94031e-09
91	0x32586bbd	1.2597352e-08
92	0x2dea9509	2.6668905e-11
93	0x300d0b8a	5.13119e-10
94	0x328a4cf6	1.6100312e-08
95	0x3122795c	2.3643087e-09
96	0x00000000	0.0
97	0x2ff0c02a	4.3792286e-10
98	0x313e460e	2.768846e-09
99	0x3281351d	1.504173e-08
100	0x00000000	0.0
101	0x3095be98	1.0895347e-09
102	0x30a5afd7	1.2055307e-09
103	0x3294b263	1.7310589e-08
104	0x00000000	0.0
105	0x30b960a2	1.3487986e-09
106	0x3188efbd	3.985376e-09
107	0x3275772d	1.4287974e-08
108	0x00000000	0.0
109	0x3098179d	1.1066167e-09
110	0x311b1837	2.2569233e-09
111	0x3288d96a	1.5931352e-08
112	0x00000000	0.0
113	0x30e78ae8	1.6846942e-09
114	0x31a10e14	4.687317e-09
115	0x3261fffa	1.3154926e-08
116	0x00000000	0.0
117	0x30c1e1ac	1.4106738e-09
118	0x312f5f28	2.5519942e-09
119	0x328b6658	1.622827e-08
120	0x00000000	0.0
121	0x313c9bc5	2.7446145e-09
122	0x31c132a2	5.6227956e-09
123	0x325136a8	1.21778285e-08
124	0x00000000	0.0
125	0x31191783	2.2277795e-09
126	0x30ba2036	1.3542436e-09
127	0x32947f6e	1.7287416e-08
128	0x00000000	0.0
129	0x3150ecaa	3.0402512e-09
130	0x314a560e	2.9443785e-09
131	0x31dbaf98	6.3937016e-09
132	0x31830c40	3.8139945e-09
133	0x31b26d5a	5.1929137e-09
134	0x31c3b5b4	5.695904e-09
135	0x31fcf2e7	7.36178e-09
136	0x31ba9931	5.4307283e-09
137	0x31b6e6d1	5.323138e-09
138	0x32235746	9.507692e-09
139	0x2d91a68d	1.6558555e-11
140	0x2fdab46c	3.9782166e-10
141	0x3193d8d6	4.3029145e-09
142	0x3015810f	5.438929e-10
143	0x00000000	0.0
144	0x2ea32a11	7.419854e-11
145	0x30285367	6.1236566e-10
146	0x3192601b	4.260085e-09
147	0x00000000	0.0
148	0x2fac6e56	3.1365016e-10
149	0x3032b4a1	6.501271e-10
150	0x3195a91e	4.355697e-09
151	0x00000000	0.0
152	0x2fc3572c	3.5532233e-10
153	0x3094c9b7	1.0825748e-09
154	0x318582a5	3.885662e-09
155	0x00000000	0.0
156	0x2faa633e	3.0993336e-10
157	0x304be344	7.4173934e-10
158	0x3192f9f9	4.277578e-09
159	0x00000000	0.0
160	0x3004cae0	4.8309623e-10
161	0x30c725c0	1.4489885e-09
162	0x316f221e	3.479847e-09
163	0x00000000	0.0
164	0x2fcb4279	3.6972717e-10
165	0x30b2596a	1.2976618e-09
166	0x317b1850	3.6539127e-09
167	0x00000000	0.0
168	0x303b8d38	6.823089e-10
169	0x30934281	1.0714559e-09
170	0x3183612a	3.823648e-09
171	0x00000000	0.0
172	0x302e09de	6.3314853e-10
173	0x306a9da6	8.5352736e-10
174	0x318fd411	4.185957e-09
175	0x00000000	0.0
176	0x304c1739	7.424777e-10
177	0x30758cf7	8.9330804e-10
178	0x30ca8515	1.4735259e-09
179	0x3073b9bd	8.8666835e-10
180	0x30dcc7af	1.606386e-09
181	0x30d7a6ab	1.5690679e-09
182	0x310135ff	1.8802664e-09
183	0x30d6dc98	1.5633246e-09
184	0x30cd69f4	1.4945827e-09
185	0x31383d25	2.681028e-09
186	0x2cd4949a	6.0419005e-12
187	0x2ee5ae69	1.0444696e-10
188	0x31cc90dc	5.95365e-09
189	0x31648bd7	3.3257856e-09
190	0x00000000	0.0
191	0x2f62d381	2.0629722e-10
192	0x2f209cc8	1.4607615e-10
193	0x32165b10	8.751854e-09
194	0x00000000	0.0
195	0x302228e7	5.899338e-10
196	0x2ffc468f	4.5888668e-10
197	0x3211ff92	8.498221e-09
198	0x00000000	0.0
199	0x30245bd4	5.979335e-10
200	0x2fb9379c	3.3690817e-10
201	0x3211be1e	8.4833385e-09
202	0x00000000	0.0
203	0x302e16cd	6.3333233e-10
204	0x30a42163	1.194206e-09
205	0x32050cd7	7.744538e-09
206	0x00000000	0.0
207	0x30426bdb	7.073006e-10
208	0x30897680	1.0001742e-09
209	0x320864d1	7.939165e-09
210	0x00000000	0.0
211	0x305d95c2	8.061215e-10
212	0x31043dbd	1.9243622e-09
213	0x31ff392b	7.427976e-09
214	0x00000000	0.0
215	0x309404b5	1.0769755e-09
216	0x30f65d50	1.7925377e-09
217	0x3202e1b0	7.618311e-09
218	0x00000000	0.0
219	0x30a6aff7	1.2128102e-09
220	0x3086fea5	9.822158e-10
221	0x320a54ec	8.051966e-09
222	0x00000000	0.0
223	0x310bbd25	2.0334678e-09
224	0x30ef5531	1.7413752e-09
225	0x3136a240	2.6576714e-09
226	0x30e00774	1.6300263e-09
227	0x31501dfb	3.0285026e-09
228	0x312cd3a9	2.514961e-09
229	0x31898d86	4.003314e-09
230	0x3130071e	2.5615416e-09
231	0x314f76c7	3.0189982e-09
232	0x31a3b860	4.7648854e-09
233	0x2d39a052	1.0551631e-11
234	0x2f15b127	1.3614408e-10
235	0x33035fc5	3.0587916e-08
236	0x30b19bf8	1.2922774e-09
237	0x00000000	0.0
238	0x2ffb1bde	4.5676435e-10
239	0x311228f5	2.1269078e-09
240	0x32f56ac7	2.857031e-08
241	0x00000000	0.0
242	0x31114474	2.1139188e-09
243	0x310f8e36	2.0890076e-09
244	0x32fec805	2.966045e-08
245	0x00000000	0.0
246	0x31270aed	2.430791e-09
247	0x316ede01	3.4759753e-09
248	0x32f2a40e	2.8247111e-08
249	0x00000000	0.0
250	0x3118f3ab	2.225742e-09
251	0x31bba0f9	5.4607168e-09
252	0x32ddc493	2.5817178e-08
253	0x00000000	0.0
254	0x314944e9	2.928852e-09
255	0x31bccb53	5.4946354e-09

exp_avg f4 [128]
0	0x383bc98a	4.4771972e-05
1	0xb7385728	-1.0987547e-05
2	0x378eb770	1.7013139e-05
3	0xb716758d	-8.968066e-06
4	0xb715bb8f	-8.9247615e-06
5	0xb8ca9771	-9.660319e-05
6	0xb647106f	-2.9662876e-06
7	0xb78bbc82	-1.6657872e-05
8	0x36631552	3.3838046e-06
9	0xb7079412	-8.081102e-06
10	0xb652a81f	-3.1390298e-06
11	0xb8b79ed8	-8.755707e-05
12	0xb793ce31	-1.7619781e-05
13	0xb7761b41	-1.4669088e-05
14	0x36d7e277	6.4338633e-06
15	0xb796d7d2	-1.7981893e-05
16	0xb80888bf	-3.255228e-05
17	0x37a18d37	1.9258454e-05
18	0x356d381c	8.837103e-07
19	0xb825b79b	-3.951006e-05
20	0x362a6a46	2.5393833e-06
21	0xb7630a75	-1.3532689e-05
22	0x370c87e6	8.376292e-06
23	0xb69959d6	-4.5702136e-06
24	0xb6cd2dbc	-6.1148003e-06
25	0x38a64020	7.927441e-05
26	0xb778896e	-1.481395e-05
27	0xb6d0ccdd	-6.2227323e-06
28	0x3675a754	3.6605243e-06
29	0xb87cc5d8	-6.026574e-05
30	0xb874a3cc	-5.832668e-05
31	0x3650e293	3.1126299e-06
32	0x37748d53	1.4576438e-05
33	0xb6e2bb69	-6.7571423e-06
34	0xb8274d54	-3.988792e-05
35	0xb7e93196	-2.7798855e-05
36	0x37c8a1c0	2.3917179e-05
37	0x36ac6aa3	5.1384136e-06
38	0xb63a5aa7	-2.7768926e-06
39	0xb8b9c86b	-8.858818e-05
40	0x365d4a81	3.2974933e-06
41	0x3702733c	7.775434e-06
42	0xb701e85a	-7.743098e-06
43	0xb83a5654	-4.4426255e-05
44	0xb62fbc00	-2.6186462e-06
45	0x37298d3f	1.0106071e-05
46	0x36a601a7	4.947378e-06
47	0xb7b68482	-2.1757794e-05
48	0x38b7e6bf	8.7691e-05
49	0x3746b496	1.1843766e-05
50	0xb820cf4e	-3.834004e-05
51	0xb727ea3c	-1.0008513e-05
52	0x37a30077	1.943133e-05
53	0x37355fcb	1.0810744e-05
54	0x36b9fc42	5.5427963e-06
55	0xb75add05	-1.3045273e-05
56	0x3684dd24	3.9596507e-06
57	0xb7866c88	-1.6024584e-05
58	0xb7cbb13e	-2.428202e-05
59	0x35897714	1.0241952e-06
60	0xb75251a1	-1.2535981e-05
61	0x36ff53b1	7.609335e-06
62	0x38549359	5.0681967e-05
63	0xb858be53	-5.1675666e-05
64	0x37160661	8.942182e-06
65	0x380b73b5	3.3247943e-05
66	0xb6ada4e5	-5.174998e-06
67	0xb78138a5	-1.5404376e-05
68	0x378ae1f5	1.6556101e-05
69	0x3861f301	5.3870495e-05
70	0xb7b81fa2	-2.194924e-05
71	0xb683cbcd	-3.9278298e-06
72	0x35455b67	7.3521227e-07
73	0xb72fae6e	-1.0471425e-05
74	0xb81036a1	-3.4383153e-05
75	0x380560d7	3.179986e-05
76	0x375e39b0	1.3245663e-05
77	0xb8117523	-3.4679786e-05
78	0xb8695535	-5.5630884e-05
79	0x38123b17	3.4864144e-05
80	0xb7d1ec79	-2.5024858e-05
81	0x35e620bd	1.7145863e-06
82	0xb6d0bc8d	-6.2208333e-06
83	0x38dacc80	0.00010433141
84	0xb704a70f	-7.9067095e-06
85	0x37f91d3f	2.9696732e-05
86	0x372f686f	1.0455128e-05
87	0x366f28b1	3.563746e-06
88	0xb80adf7c	-3.31099e-05
89	0x37a86b3b	2.0077094e-05
90	0xb868ed38	-5.5534038e-05
91	0x36d5fc61	6.3772754e-06
92	0x38280bfd	4.0065486e-05
93	0xb80f45be	-3.415881e-05
94	0x37735d36	1.4505631e-05
95	0x37644119	1.3605016e-05
96	0x37c59f12	2.3558303e-05
97	0x37b377e6	2.1394295e-05
98	0x37851a9f	1.5867232e-05
99	0x382c5837	4.1090152e-05
100	0x36aaf250	5.0946037e-06
101	0xb681f744	-3.873285e-06
102	0x349219c4	2.7213366e-07
103	0x37b0fae6	2.1097669e-05
104	0x370b7043	8.311184e-06
105	0xb801cfe3	-3.0949606e-05
106	0xb7406186	-1.1466798e-05
107	0xb6fd2e2c	-7.5453627e-06
108	0x37294907	1.0090188e-05
109	0x3765c43c	1.3695153e-05
110	0x362ff9d3	2.622245e-06
111	0xb7d580f5	-2.5451629e-05
112	0xb799127c	-1.8247629e-05
113	0xb704d646	-7.9177025e-06
114	0x383d2a17	4.510031e-05
115	0xb79af811	-1.8473746e-05
116	0xb75a6b10	-1.301874e-05
117	0x3543d06c	7.2946455e-07
118	0xb6d35ac8	-6.2988584e-06
119	0x356a4c88	8.728316e-07
120	0xb80d2e5a	-3.3660188e-05
121	0x3865dc91	5.4803273e-05
122	0x3737d5ec	1.0957458e-05
123	0xb894a94e	-7.0887254e-05
124	0xb778c770	-1.4828387e-05
125	0x37195f2b	9.141669e-06
126	0xb54d8621	-7.6563634e-07
127	0xb88c067f	-6.67693e-05

exp_avg_sq f4 [128]
0	0x3237f88c	1.0708515e-08
1	0x32cc1719	2.375923e-08
2	0x329d5bcd	1.8318952e-08
3	0x31ad118c	5.0369575e-09
4	0x32182d98	8.857931e-09
5	0x33086983	3.176093e-08
6	0x310b85e2	2.0303266e-09
7	0x32c51870	2.2944931e-08
8	0x3257e23c	1.2566087e-08
9	0x32cf0940	2.4102178e-08
10	0x3406710a	1.2520846e-07
11	0x32dd0e3d	2.5734261e-08
12	0x3276d3bd	1.4367228e-08
13	0x331f55bb	3.7098044e-08
14	0x320d579d	8.227201e-09
15	0x32a0c452	1.8715728e-08
16	0x32601d84	1.3045227e-08
17	0x31cab0dc	5.8990803e-09
18	0x3046dc72	7.234525e-10
19	0x328901a0	1.5949638e-08
20	0x3323a75f	3.8103618e-08
21	0x31882aa8	3.9629704e-09
22	0x32978745	1.7640227e-08
23	0x31f23352	7.0489614e-09
24	0x315a2e3b	3.1749454e-09
25	0x331b1133	3.6104392e-08
26	0x32d9fde9	2.537759e-08
27	0x32ddf063	2.5837101e-08
28	0x309f8474	1.1606418e-09
29	0x330ec7f0	3.3243793e-08
30	0x33eb9de3	1.097176e-07
31	0x3187c5db	3.9515107e-09
32	0x32a5aa56	1.9285988e-08
33	0x324799a0	1.1618255e-08
34	0x33a6563a	7.745662e-08
35	0x32b17d20	2.0662412e-08
36	0x335f0c0d	5.1932194e-08
37	0x31850568	3.871424e-09
38	0x32e7f3f8	2.7002883e-08
39	0x33a0447a	7.4630364e-08
40	0x3224bfe5	9.589688e-09
41	0x31612fb5	3.2768928e-09
42	0x31a15bd2	4.6961555e-09
43	0x338b61b9	6.4904675e-08
44	0x3156db10	3.1265621e-09
45	0x31f0a87c	7.0040738e-09
46	0x32c80ac9	2.3287969e-08
47	0x3295bfe5	1.7433146e-08
48	0x337b8552	5.8561746e-08
49	0x3293130b	1.7121712e-08
50	0x3228b42d	9.819854e-09
51	0x31025698	1.8966713e-09
52	0x3216305d	8.742146e-09
53	0x32f5b3ae	2.8603463e-08
54	0x310ff6f1	2.0949609e-09
55	0x33b72dbd	8.529921e-08
56	0x331899b7	3.553006e-08
57	0x30f3b25e	1.7731272e-09
58	0x32379158	1.0685049e-08
59	0x3212cd76	8.545035e-09
60	0x330f0f92	3.3308943e-08
61	0x324f3e78	1.206319e-08
62	0x32f54196	2.8551579e-08
63	0x32290165	9.837412e-09
64	0x328c11ce	1.6306242e-08
65	0x3259e1e5	1.2682425e-08
66	0x32c2225b	2.2600195e-08
67	0x3287c97d	1.5807695e-08
68	0x335889db	5.0416798e-08
69	0x33c3d7b8	9.119634e-08
70	0x33953918	6.9487385e-08
71	0x3268979e	1.3538651e-08
72	0x337c13d5	5.869136e-08
73	0x3174fa06	3.5648795e-09
74	0x33181805	3.5412103e-08
75	0x3285fe4d	1.559888e-08
76	0x31bc5303	5.4809575e-09
77	0x32db0e5c	2.5501485e-08
78	0x328278f2	1.5188991e-08
79	0x32c10dd3	2.2474444e-08
80	0x3229a415	9.874403e-09
81	0x31fef986	7.4207405e-09
82	0x30d6488f	1.5591172e-09
83	0x33b2a376	8.318504e-08
84	0x32c8a356	2.3357341e-08
85	0x330aebc0	3.2345042e-08
86	0x331017c2	3.354922e-08
87	0x312cf7a6	2.5170066e-09
88	0x33828d36	6.079283e-08
89	0x32f4daaa	2.8504775e-08
90	0x32c0aa11	2.2429079e-08
91	0x3352e450	4.9102084e-08
92	0x33dcf7f8	1.02896536e-07
93	0x315b7a5e	3.1938252e-09
94	0x33001166	2.9818146e-08
95	0x31892442	3.991347e-09
96	0x32406a28	1.1200008e-08
97	0x32ab2cc4	1.9927377e-08
98	0x332c2d5e	4.0088132e-08
99	0x32fe3155	2.9591925e-08
100	0x32a017da	1.8637298e-08
101	0x324f2de0	1.2059417e-08
102	0x3239ae55	1.0808056e-08
103	0x32e10494	2.619553e-08
104	0x2fcd2348	3.7314352e-10
105	0x32624331	1.3170209e-08
106	0x31afe2af	5.1189413e-09
107	0x3169129c	3.391654e-09
108	0x32d62d58	2.4933499e-08
109	0x31eb9305	6.8561143e-09
110	0x31293d6b	2.4627649e-09
111	0x33a9ea98	7.912348e-08
112	0x323db3f7	1.1042167e-08
113	0x314e719d	3.0041527e-09
114	0x337611f7	5.7292677e-08
115	0x33199d4b	3.5766146e-08
116	0x33731b08	5.660243e-08
117	0x3072a367	8.8271296e-10
118	0x30e2c3a8	1.6499273e-09
119	0x315efd49	3.2449228e-09
120	0x32a9d9e2	1.9773271e-08
121	0x3370e3ba	5.608647e-08
122	0x32e03759	2.6102201e-08
123	0x3330023d	4.098023e-08
124	0x33195d1e	3.5707778e-08
125	0x3150efd4	3.040431e-09
126	0x32a7e289	1.9544375e-08
127	0x3313c0df	3.440152e-08
