config/results/Curriculum_2M_v1/Hummingbird_Aggressive/Hummingbird_Aggressive-499968.onnx (onnx, 97764 bytes, 7 tensors)

network_body._body_endoder.seq_layers.0.weight f4 [128, 47]
00000000: 3fc4 4f3e 46e2 683d 8108 ea3d 4713 c63d
00000010: 171c 2fbe c9ed 4fbd 8db1 b6bd f728 813e
00000020: 4111 bbbd 1e20 d5bd b60c c1bc 77ee 18be
00000030: da27 3bbe 1be4 c23c 0471 26bc c3d1 1cbc
00000040: 538d 653e 56e6 f5bc 42e0 433d 4ac0 5f3e
00000050: a0ef 6e3e 6a16 49be fc3d 633e b5ed 203e
00000060: b68f 27bd 0db2 f0bc 5e54 a63d aad8 133d
00000070: 2ec6 e0bd 9904 59bd d864 0d3d 2725 893a
00000080: d2bd 21be 090a d03d d782 e1bd 6fde a33d
00000090: 00d3 c0bd 029b 06bd cf18 00be fae4 713e
000000a0: e658 8e3d 06b9 4bbe ce21 873e 6e1b 443e
000000b0: 4704 04be 5046 673d a4f1 7bbd f3a6 973c
000000c0: 5905 cebe 41de 263d 23c0 553e 5080 ffbb
000000d0: debf ef3d 97ca 66be 5b57 973a 4bc6 c8bc
000000e0: a873 893e d2b7 4d3e fa83 53bd 0dea 5fbe
000000f0: b4a3 5d3d 6a05 c23d 137f c8bd e643 23bd
00000100: 7605 173d 6ca1 d03c 51f6 843e e064 fbbb
00000110: 0c72 c83d 2987 44be a048 c1bd 1d5d 8e3c
00000120: df52 003e b71f 103d 9b5a 0e3e 53fa bcbe
00000130: a4bf 6ebd 4767 4dbe 7ca6 693d 0ac2 5b3c
00000140: 90df 14be 920d f03c bfae 2bbe 43be 4f3c
00000150: 600c 9c3d 8af1 dfbd a158 7b3d c4d7 643c
00000160: ad6a 993e 77b8 18be 8738 c53d 35a1 1ebc
00000170: 9cda 4e3e f495 213d b0c2 e63c 8eb5 b9bd
00000180: a537 50be 474e 973e b5d5 8dbd 9c89 80bd
00000190: 004e 22be 4896 f5bc 9ccc 30be 696d 3abe
000001a0: 5184 a7bc 79e5 2a3e ce92 3ebe de1c d13d
000001b0: 20bb 123b 31bd 71be 20c9 483a faf5 7f3d
000001c0: 5c1d efbd 1ae4 bcbd 006b b13e d74d 893d
000001d0: 00ac ef3d fb53 83bd eaa3 6ebb f4fc 3a3e
000001e0: cb66 52bd ade9 dc3d b298 073e 3a2f 17be
000001f0: d957 03be 930c b7bd d1c3 b73b e7d2 e9bd
00000200: 9007 9abe f605 bdbd ef9b 2bbe 29f3 39bd
00000210: 4c3a 613c ab5f b13e c1f5 7dbe 83a4 bc3d
00000220: 6fa7 a1be d772 0d3d 74fa b43d 18cf 92bd
00000230: 9a05 1e3e a3c5 913b d681 20be 73a5 133e
00000240: e974 8abc fc2c d63c c8fb 993d 4866 a3be
00000250: 2ed0 7fbe 3629 0c3d cb4d 23bc c831 5b3e
00000260: 814b 0b3c 92ab 3bbe af3c 2a3e d2dd 003d
00000270: 0f10 613e d772 0c3e 5066 373c 55e4 afbd
00000280: 2bf1 a83d e217 0f3d ed0b 063e efae 323e
00000290: 27b8 59bd 0760 4cbe 1838 9f3e d691 7d3d
000002a0: ab5f aebd e398 133c 3f37 efbd 612f 5bbd
000002b0: 2682 60bd 46fb 343e 793f 733e 3cff bbbd
000002c0: 0aeb 823c bda6 debd ae1e 1bbc dd9a 833d
000002d0: 4050 3ebe 1928 ea3d 7a24 263d 6a46 04be
000002e0: fab4 a4be c8b5 94bd b8ae a7bc 4589 303e
000002f0: 8d2b 04be 66b2 9c3e 8d39 d83d a055 bd3c
00000300: 6ddc e1bd 2f94 bbbc 823f 173d 93e3 a63d
00000310: b455 103e ba72 19be 5435 fd3d 9de4 13bc
00000320: 61f0 49be d5ee 913d 3d26 afbd 474c 663e
00000330: 0335 17be 98de 50be abcd 2c3e 4d42 113e
00000340: ab12 f73d 1acf 4fbd f91f 7d3e 2079 18be
00000350: 43da 963d 3a59 0e3d 38a8 4b3e 8a26 42bd
00000360: 3555 ccbd 43f8 6d3e 5b71 433d 384b 44be
00000370: 1ffb 883d c188 bdbd 160f 83bd 643f 92be
00000380: a7d9 833d 98c3 6d3d 53e4 27bd a5ad 3cbb
00000390: 185e 9cbd 3906 493d d847 843d bad7 3a3d
000003a0: 99d6 19bd 6e05 97bd 51c6 81be 95d9 9d3e
000003b0: 7eaf 1fbe 892c a83a d440 27be 4d13 c93d
000003c0: 1a7f febb 5aac 5b3d fc01 9c3d 83ed 8bbe
000003d0: 6381 043d 6e68 093e 5e5f 8e3c 70cb a43d
000003e0: cb11 143c 01e6 4a3e bb3d 923a 7160 cd3c
000003f0: 3964 a13e 316c 0f3d 854b 8f3b 140d e73c
0.20289706 0.056856416 0.11427403 0.096716456 -0.17100559 -0.05076388 -0.08920584 0.25226566
-0.0913415 -0.104065165 -0.023565631 -0.14934717 -0.18276921 0.02379041 -0.010158781 -0.0095714955
0.22417192 -0.03001706 0.04782129 0.21850696 0.23333597 -0.19637457 0.22191614 0.15715678
-0.040908538 -0.029381776 0.081215605 0.0360953 -0.109753 -0.0529829 0.03452 0.0010463343
-0.15795067 0.10158164 -0.11011284 0.0800141 -0.09415245 -0.03286267 -0.12509464 0.23622504
0.0695055 -0.198948 0.26392978 0.19151089 -0.12892257 0.05646354 -0.061509743 0.018512225
-0.40238455 0.0407393 0.20874076 -0.0077972785 0.11706518 -0.2253822 0.001154642 -0.024508616
0.2684605 0.20089653 -0.051639535 -0.21866627 0.054111198 0.09473689 -0.097898625 -0.039859675
0.036870442 0.025467597 0.25969175 -0.0076719373 0.09787378 -0.19192185 -0.0943768 0.017378384
0.12531613 0.035186496 0.1390175 -0.36909732 -0.05828823 -0.20058928 0.057043537 0.013412962
-0.14538407 0.029303346 -0.16765879 0.012679639 0.07619548 -0.10934742 0.06136382 0.013967458
0.299642 -0.14914118 0.09629922 -0.009681989 0.2020058 0.039449647 0.028169006 -0.09067832
-0.20333727 0.29551908 -0.06925527 -0.06276247 -0.15850067 -0.029978886 -0.17265552 -0.18205799
-0.020448836 0.166891 -0.18610689 0.10210584 0.0022389367 -0.23607327 0.00076593645 0.06249044
-0.11675522 -0.092231944 0.34651947 0.067043 0.11702728 -0.064125024 -0.0036413618 0.18260556
-0.051367562 0.107867576 0.13241842 -0.14764109 -0.1282648 -0.08937945 0.00560806 -0.114171796
-0.30083895 -0.092296526 -0.16758703 -0.04539791 0.013746809 0.346433 -0.24800779 0.092110656
-0.31573054 0.034533348 0.08836833 -0.07168406 0.15431824 0.004448609 -0.15674528 0.14418583
-0.01690145 0.026144497 0.075187266 -0.31913972 -0.24981758 0.03421899 -0.009967278 0.21405709
0.008501888 -0.18327168 0.16624711 0.031461544 0.21978782 0.13715683 0.011193827 -0.08588473
0.08249124 0.034934886 0.13090487 0.17449544 -0.053154137 -0.19958507 0.31097484 0.061906658
-0.08514341 0.009008619 -0.11680459 -0.05351198 -0.05481162 0.17673978 0.23754682 -0.091795415
0.015981216 -0.108716466 -0.009467764 0.06426022 -0.185853 0.11433429 0.04056213 -0.12917486
-0.32169324 -0.072612345 -0.020469055 0.17239864 -0.12907238 0.30604857 0.10557852 0.023112118
-0.11028371 -0.022897808 0.0369258 0.08148875 0.14095193 -0.14985171 0.12363687 -0.009026674
-0.19720604 0.07125632 -0.08552215 0.22490035 -0.14766316 -0.20397413 0.16875331 0.14185448
0.120641075 -0.050734617 0.24719228 -0.14889956 0.07365849 0.03475306 0.19888389 -0.047400035
-0.099771895 0.23239236 0.047715526 -0.19169319 0.066885225 -0.09254599 -0.06399362 -0.28563988
0.06437998 0.05804786 -0.04098923 -0.0028790024 -0.076351345 0.0490782 0.064590156 0.04561589
-0.037558172 -0.073740825 -0.25346616 0.30830064 -0.15594289 0.0012830655 -0.16333324 0.098181345
-0.0077666165 0.053631164 0.07617566 -0.27329645 0.032349955 0.13418743 0.017379459 0.08046615
0.009037445 0.19814302 0.0011157313 0.0250704 0.31521776 0.03501529 0.0043730163 0.028204478

network_body._body_endoder.seq_layers.0.bias f4 [128]
00000000: db25 32ba 3b60 b53c 3136 a63c 7c85 5d3c
00000010: 981c 8b3c ea83 0b3c 3c6d 64bc 8dc3 533c
00000020: 5d34 803c cb78 76bc b9d4 8dbc cff3 933a
00000030: cc36 c73b 651b 0f3c aa24 b83c e597 84bb
00000040: be75 daba 1224 983b feca 2d3b bdbf 813a
00000050: d876 7b3c ef14 643c 082f d0bb 5f88 823c
00000060: bd84 7c3b 92dd 633b 23b0 a93c 3dca 643c
00000070: 2af5 87bc c86c 253b bce8 843c c60f 83bc
00000080: 7381 3a3c 15a8 f93b 79ac 5f3c 2069 743c
00000090: f683 4b3c f9dc c83b 1802 403c 8592 663c
000000a0: ed5b d8bb a69f 313b 8937 073d 50bf 053a
000000b0: c38c 91bc b6ba 79bc cc6c 093c 020d 95bb
000000c0: d259 c73c bb2d ce3c d761 e03a c6ee 7eba
000000d0: dcf7 a23c 66e7 4f3c 1c8a db3c c09b 79ba
000000e0: 514c 833b 7f47 a43c 5855 a63b ac49 863b
000000f0: 6551 b63c 9cdd 363b 1ee9 d03c c968 94bb
00000100: e037 c8bb 53f3 aa3c e235 e7bb c14a c63c
00000110: 0d03 873c 5687 ac3c a217 f13b f0c8 56bb
00000120: 1d1b 3a3c a039 673c f2d9 203c d7cc f7ba
00000130: df27 893c fad9 433c be99 963c 561d 26bc
00000140: 9ca4 053b 8e6f aa3c 374f 303c d67b 5d3b
00000150: 8c9f 423c f59d 05bb 9b94 94bc b990 cf3b
00000160: 9c1e 643c b34e 193c fc73 f33c 1e39 3abc
00000170: af27 d33c 045f 883b 624f 3d3b 077e 9f3b
00000180: ddec ab3b 8035 62bc d773 963c f106 c5ba
00000190: 883b 8a3c 65d9 383d 6a36 943c d001 beba
000001a0: bb6e 6f3c 367b c5bb 4c25 37bc 5459 1d3b
000001b0: bfe9 faba d47b 18bc 24cb e53c a188 e83b
000001c0: 4c8e 163d 8f45 5d3c ccef eb3b a99d ba3b
000001d0: 46d2 2c39 d001 093c 60e1 d7bb 5128 0b3c
000001e0: 1bf4 aebb eba5 b1bb 5108 643c 57ce 383c
000001f0: fd79 52bc bf90 f4bb a310 0b3c 3149 e43b
-0.0006795802 0.022140613 0.020289512 0.013520595 0.016981408 0.0085153375 -0.013942059 0.012925041
0.015649969 -0.015043448 -0.017313348 0.0011287871 0.0060795303 0.008734559 0.02247842 -0.0040464276
-0.001666717 0.004642972 0.0026518698 0.0009899061 0.015348159 0.013921007 -0.006353263 0.015934167
0.0038531267 0.0034769517 0.020713871 0.013964233 -0.016596396 0.002524184 0.016224258 -0.015998732
0.011383402 0.007618914 0.0136519605 0.014917642 0.012421599 0.0061298576 0.011719249 0.014073019
-0.0066027553 0.0027103215 0.033011947 0.0005102055 -0.017767316 -0.015242269 0.008387756 -0.00454867
0.024334822 0.02516829 0.0017119002 -0.0009724911 0.01989358 0.012689447 0.026799254 -0.0009521805
0.0040069004 0.020053623 0.0050760917 0.004098138 0.022255609 0.0027903086 0.025501784 -0.004529093
-0.0061101764 0.02086798 -0.007055984 0.024205567 0.016480947 0.021060627 0.0073575536 -0.0032773577
0.011359003 0.01411286 0.009817587 -0.0018905652 0.016742645 0.011953825 0.018383857 -0.01013883
0.0020392304 0.020805147 0.010761074 0.0033795736 0.011878859 -0.002038834 -0.018137267 0.006334391
0.0139233135 0.009357142 0.029718392 -0.011366157 0.025775759 0.0041617174 0.0028886427 0.0048673186
0.005246742 -0.013806701 0.018365784 -0.0015031976 0.01687409 0.0451292 0.018092353 -0.001449639
0.014613803 -0.006026651 -0.011178326 0.0024009543 -0.0019143148 -0.009306867 0.028050967 0.0070963656
0.0367568 0.013505354 0.007200217 0.005695064 0.00016481531 0.008362249 -0.006588146 0.008493499
-0.0053391582 -0.0054213903 0.013917998 0.011279664 -0.012846467 -0.007463544 0.008487853 0.006966733

network_body._body_endoder.seq_layers.2.weight f4 [128, 128]
00000000: d1e7 203d b786 29bd 928b ec3c 6a80 a33c
00000010: 5e94 86bd 7495 8c3c be59 b03d 348f bfbc
00000020: 9ffd ec3d 2568 e6ba 6e10 d83d d4b8 ad3c
00000030: f5c4 85bd 9e81 aebd d8c2 a73d 9917 353d
00000040: be03 283e 84c4 553d f7ca fabd d694 203e
00000050: cb08 cdbd bcf9 ba3d 1574 303d 19a2 393e
00000060: 890a ca3d de67 f23c 83a1 62bd dbd8 203d
00000070: 6e19 25bc 195e e63c 9ae4 c8bc f050 833d
00000080: a621 d13d 1193 553b b0fe f53d 3a91 f03d
00000090: 48e3 b9bd cad3 6e3d 5143 14bd 02dc 783d
000000a0: 7ce0 e0bc 6eeb 00be 6a9e 2d3e 0225 3b3e
000000b0: e8b0 4cbc 1d32 06be a906 b4bd acdf 563d
000000c0: bd1a 3b3d a28c 283c 42a2 bd3c 6f27 47bd
000000d0: fe9f 22be e885 86bd c866 a5bd b9bf 2c3d
000000e0: 9885 8abd 8bd6 64be 9aeb f5bc 06c9 9ebd
000000f0: 87e3 19bc 4d17 71bd a74a dcbc ee50 34be
00000100: b361 2f3c aa64 4ebd 8d21 a53c 26b2 343e
00000110: f75a e03d 8b0a f53c b74d 0c3e 1541 e6bc
00000120: 7077 5bbd 0a34 c13d 9cee 233c b205 923d
00000130: 79dc 05bc 229e 1a3e db5a 03be fad9 dc3c
00000140: 0de5 92bd 744f 3c3d e37e 22bc b621 a0bd
00000150: 4cf5 5ebb 1c3f f63c 644f 19bd 3324 0b3e
00000160: ca30 28bd 2d26 dcbd e0a5 49bd 1041 7b3d
00000170: 46e9 a6bd 8e98 463b 06bf 98bc 66e0 12be
00000180: e6a9 293d 9763 63be a528 acbc ea24 d2bd
00000190: d841 923c b99d b53c b3c2 df3d 5345 abbd
000001a0: d4f2 ccbd 3901 96bd 7b10 44bd 9ae4 2b3d
000001b0: 81b4 3b3d 1965 8b3d 21d1 aabc 0108 35be
000001c0: f20b c0ba 7aff d1bd 1e36 0b3e 7467 01bd
000001d0: aacf 403e 7973 3c3b dcce d8bd e314 ab3d
000001e0: 6c09 c13c 1327 2ebe 55f8 43bd bc52 c33d
000001f0: 2521 033e b9af 5ebd 53a3 813d 7257 273d
00000200: 1e4d 153e 3122 e9bc 9dd4 2bbe 5e8d 8cbc
00000210: 8b84 48bd 2607 b5bd 4b13 2abc 1f03 bcbb
00000220: 79b0 c53d ce33 fc3d 4e95 a3ba 4a12 1bbe
00000230: fb7d 64bc 59b8 47bd 5a45 debd e92a 2abe
00000240: fe2c a0bd 5b6c e8bc 2ae8 63be c6e0 e23d
00000250: 9968 d93d 0b61 b2bd be8f b1bc 7dff 243d
00000260: 6ddf 41bd 80fc 4ebd 1f1f a9bd 11e3 4b3d
00000270: 2e3f 8cbb 6dd3 b93d 7f27 13be 99b5 a2bd
00000280: 8b2a ca3d e980 043e 7022 193d 431d 6d3e
00000290: a507 09be 6fa6 78bd 2c62 6dbc 1106 16be
000002a0: d7f7 123d aa00 343e be48 e4bd a7ee ccbd
000002b0: a004 72bc 3322 18be 3c20 003d c0d3 77bd
000002c0: 0e83 b4bc f6c0 24bd adbc f9bd 8949 06be
000002d0: 6315 203e 5fe0 01be 799d e83d 7cd8 b4bd
000002e0: f366 80bc b121 87bd 216a 6a3e 0772 b73d
000002f0: 3189 f43c 2359 2b3e cf43 64bd b286 1c3e
00000300: 53f5 8d3d c067 22bd 9876 57bd eebb 573c
00000310: c331 72bd 7773 d73d 5e05 bd3d 6b70 febd
00000320: 3dcf 683d 06eb d5bd fd15 593c 53ea 2a3d
00000330: 8b71 77bd 3669 6cbd c832 163d 9933 aebc
00000340: bbc6 803c fdf9 c83d 004a 063d 51a7 3a3d
00000350: 22b0 803b b360 ed3d f677 933c a808 91bc
00000360: 34a5 b4bd 93f5 813d e0c6 fbbc 4f1e 7fbd
00000370: be46 28bd a8f8 c1bd 6d66 04be 420c f7bc
00000380: 3784 cdbd 460c b53d 58f1 cfbc 72d5 693d
00000390: 380a 49bd 8fcd c3bd 16ef 9b3c 2393 8cbd
000003a0: 4f06 a23d 0af6 16bd 564f 9b3d 46ac ebbc
000003b0: a070 1bbe 173b 8ebd 5530 86bd 4333 103e
000003c0: cae9 2d3e bd96 373c 7105 803d 8bc8 73bd
000003d0: dc2d 0cbc 3f3d 20be 0aa3 bf3d ba06 d93c
000003e0: 0a9b 593d 7d4f 3fbc 4c33 393d 9188 85bd
000003f0: e6dd 803d 5700 0c3e 6ab7 aebd 8b4b 113e
0.039283577 -0.04138824 0.028875146 0.019958694 -0.065712675 0.017161109 0.08610867 -0.023383714
0.11571812 -0.0017578645 0.10550009 0.021206297 -0.06531707 -0.08520816 0.0819146 0.044211958
0.16407678 0.052189365 -0.12245744 0.15681776 -0.10011443 0.09129664 0.043079454 0.18128242
0.09865291 0.029590543 -0.05532981 0.03926931 -0.010076864 0.028121041 -0.024523068 0.06411922
0.10211496 0.003258888 0.120114684 0.1174645 -0.090765536 0.058307447 -0.03619701 0.06075669
-0.027450792 -0.1258981 0.16954961 0.18275836 -0.01249335 -0.13105054 -0.08790333 0.052459404
0.045679796 0.010287436 0.02314866 -0.04862159 -0.15881345 -0.06568509 -0.080762446 0.04217503
-0.06763762 -0.22347467 -0.03001957 -0.07753186 -0.009392626 -0.058860112 -0.026891066 -0.17608997
0.010704446 -0.05038897 0.0201576 0.17646083 0.1095485 0.029912254 0.13701521 -0.028107205
-0.0535807 0.09433754 0.010005619 0.071299925 -0.008170241 0.15099385 -0.12827627 0.026959408
-0.07172594 0.04597421 -0.009917947 -0.0781893 -0.003402072 0.03005939 -0.03742923 0.13588028
-0.041062154 -0.10749469 -0.049230456 0.061341345 -0.08149962 0.0030303332 -0.018645775 -0.14343414
0.041421793 -0.2220596 -0.021015475 -0.10260947 0.017853662 0.022169935 0.10925808 -0.08362832
-0.10007253 -0.07324452 -0.04786728 0.04196606 0.04582644 0.06806392 -0.020851674 -0.17678834
-0.0014651997 -0.102538064 0.13594863 -0.0315928 0.18829218 0.002875535 -0.1058633 0.08353593
0.023564063 -0.17007093 -0.04784425 0.09537265 0.12805612 -0.0543668 0.0632998 0.04085488
0.14580199 -0.028458687 -0.16780324 -0.017157253 -0.048954528 -0.08839254 -0.010380576 -0.0057376768
0.096528 0.123145685 -0.0012480409 -0.15143695 -0.013946052 -0.048759792 -0.108530715 -0.16617931
-0.078210816 -0.02837198 -0.22256532 0.110780284 0.106156535 -0.08709916 -0.021674987 0.040282715
-0.047332216 -0.05053377 -0.08257889 0.049777094 -0.0042799925 0.090735294 -0.14370535 -0.07944793
0.09871396 0.129398 0.037386358 0.23155694 -0.13381822 -0.0607056 -0.014488738 -0.14650752
0.03588089 0.17578378 -0.11146687 -0.10006457 -0.0147716105 -0.14856796 0.03128074 -0.060504675
-0.022035148 -0.040223084 -0.1219419 -0.13113989 0.15633158 -0.12683247 0.113581605 -0.088303536
-0.01567409 -0.06598223 0.22892047 0.08957296 0.029850574 0.16733222 -0.05572873 0.15285757
0.069315575 -0.039649725 -0.052603334 0.0131673645 -0.059129488 0.1052007 0.09229539 -0.12423786
0.056838263 -0.10445218 0.013249871 0.041727375 -0.060411017 -0.057717524 0.036669523 -0.021264838
0.015719762 0.098133065 0.032785416 0.04556972 0.0039272467 0.115907095 0.018001538 -0.017704323
-0.088205725 0.06345668 -0.03073448 -0.062284764 -0.04108309 -0.094712555 -0.12929697 -0.030157212
-0.100349836 0.088402316 -0.025383636 0.057088323 -0.04908201 -0.095606916 0.019034903 -0.068640016
0.079113595 -0.036855735 0.075834915 -0.02876867 -0.15179682 -0.06944864 -0.06552187 0.14082055
0.16983715 0.011205372 0.06251038 -0.059517425 -0.008555856 -0.15648364 0.09357269 0.026492465
0.053126372 -0.011676666 0.045214936 -0.065201886 0.06292324 0.13672005 -0.08531077 0.14188974

network_body._body_endoder.seq_layers.2.bias f4 [128]
00000000: b6eb 903c b8c8 5b3c 94cc 913b 2a34 8b3c
00000010: bccf 04bc bcd2 9b3b 0091 893b 41c8 4b3c
00000020: b62f 51bc 627d 18bc 41f5 963c cdda 803c
00000030: cd94 073c 9357 73bc 3da1 8a3c 76cd 093c
00000040: 678a 0c3c 7f73 1ebc cdbd d1bb 8673 cd3c
00000050: b097 533c ed48 9f3a 0ee4 4dbb 0ea5 4a3c
00000060: f886 4d3b 8510 30b9 4f94 aabb ff05 963b
00000070: 178a 763c ca39 773c 8cd7 74bb f72f 243b
00000080: 424e 2d3b 3598 1f3c cc1e c438 0cee 833c
00000090: d797 87b9 5750 193b 37da 96bb 9f56 093c
000000a0: 099a 82bb 39e3 30ba f70c b0bb a3de 773c
000000b0: 12d8 9539 746b 913a 8da0 ccbb c7a0 703c
000000c0: d8e5 ca3b 0078 d8bb f8bc dc3a 8a42 94b9
000000d0: 541b 8f3c aea5 113c 2baf 643c ce57 3c3c
000000e0: 4373 5f3c 193a d6bb 977e 4c3c c8aa 313c
000000f0: cc8f b93a daab 5c3c f5fd 943c 3b24 653c
00000100: 4aa5 493c 1d25 443c 90e7 163c ff89 ef3c
00000110: fb8a 863b 7aae 00bc 9097 0d39 6cad fa3b
00000120: d49c 1a3c 2289 033c be02 933c d5f2 273c
00000130: 484b 703c bafe a1bb 5d26 803c a528 4d3c
00000140: b3d2 78bc 1057 8b3c dc42 253b 35c3 14bb
00000150: 8f7e b83b d96c 1d3b de37 423c 80da 793c
00000160: bdd7 823c a443 2b3c 2b51 ff3b 192d 853b
00000170: c6b8 3a3b b095 b7bb f50a c83c b23e 8f3c
00000180: a0a3 5f3c 30c7 a03b 39ff b2bb 7860 463c
00000190: 1439 b03b 77e9 6dbb dcb0 ec3b 50f1 b53a
000001a0: c834 c039 07f5 43bc 051f 5b3c 1fce 803b
000001b0: 6747 0abc 48c5 64bc 1375 1c3c 40dd 403b
000001c0: 92ce 903c abf6 09bc 13ad 163c 5e6b 65ba
000001d0: fd8c 3f3c c0d2 48b6 80ba 3f3c db80 8c3c
000001e0: 3601 313c a7b9 35bc baef ab3c 0b50 293b
000001f0: b5b2 733b ac4d 203b 3543 c43b ade2 4d3c
0.01769052 0.013414554 0.0044494364 0.016992647 -0.008106168 0.004755346 0.0041981936 0.012437881
-0.012767723 -0.009307237 0.018427493 0.015729332 0.008275223 -0.014852422 0.016922588 0.008410802
0.00857792 -0.009671091 -0.0064008 0.0250795 0.012914583 0.0012152471 -0.0031416449 0.012368454
0.0031360965 -0.00016790822 -0.005205668 0.0045783515 0.015047572 0.015089462 -0.0037359921 0.0025053003
0.002644435 0.009740879 9.351745e-05 0.01610472 -0.00025862336 0.0023393834 -0.00460365 0.0083824685
-0.0039856476 -0.0006747726 -0.0053726393 0.015128764 0.0002858048 0.0011094646 -0.006244725 0.01468677
0.0061919503 -0.006606102 0.0016840985 -0.00028278335 0.017469086 0.008889599 0.013957779 0.011495544
0.01363832 -0.0065376875 0.012481353 0.01084394 0.0014157235 0.013468707 0.018187502 0.013985689
0.012307474 0.011971739 0.009210482 0.029240606 0.004105923 -0.007854098 0.0001350327 0.007650068
0.009436805 0.0080283005 0.017945644 0.010250767 0.014666386 -0.004943696 0.015643293 0.012521897
-0.015186953 0.017009288 0.0025216853 -0.002269936 0.0056303213 0.0024021177 0.01185414 0.015249848
0.015972013 0.0104531385 0.0077916584 0.004064214 0.0028491481 -0.005602561 0.024419287 0.01748595
0.013649851 0.0049065575 -0.005462554 0.012107961 0.005377898 -0.0036302486 0.0072232317 0.0013881121
0.0003666042 -0.011960275 0.013374095 0.0039308215 -0.008439875 -0.013963051 0.009549397 0.002942875
0.017676625 -0.008420627 0.009196538 -0.00087516557 0.011691329 -2.9924995e-06 0.01170218 0.017151287
0.010803511 -0.011091626 0.020988334 0.0025835063 0.0037185375 0.0024460359 0.005989457 0.012566251

action_model._continuous_distribution.log_sigma f4 [1, 5]
00000000: 1973 71bc 0392 353d f47c 023a 81b3 343c
00000010: 1483 d63c
-0.014736914 0.0443287 0.0004977726 0.011029125 0.02618555

action_model._continuous_distribution.mu.weight f4 [5, 128]
00000000: 173e e33c 6c96 cc3c 20fe e43c f249 d93c
00000010: 9545 9d3c 994b fbbc 2118 ca3c 0647 a2bc
00000020: 5cf2 c93a b65d a63c 7fbd bd3c a46a 40bd
00000030: 7daa 04bd 0add 54bb d56c 32bd c4da 3abc
00000040: 2802 59bc 965c 7abc 2533 1b3d 5a59 4bbc
00000050: 0c8f dc3c 48b6 d9bb 68fb dbbb e555 003d
00000060: e03c 373d e1c2 3f3a cd02 573c 98a6 573d
00000070: af29 993c a88a db3b a359 053d 43ac 5abc
00000080: c9a7 90bc b554 723d 46d7 14bd f8c8 083d
00000090: 0598 243d 8bf2 053d 2871 9e3c e20b eb3c
000000a0: 136e d73c a607 053d 98ff 34bd 4d19 c1bb
000000b0: b013 24bd 1d45 aebd 1232 b13c 868f 8e3c
000000c0: 2551 c63c 4425 72bd 2663 30bc ec8d 273c
000000d0: 6f5c 82bd 8327 7dbd 551d 54bc 9b0b 69bc
000000e0: 143a 5fb9 97bd 0f3c 5530 6e3d 50f6 843d
000000f0: f31d 6fbb 3cf0 0c3d 385d 97bc 8936 8a3d
00000100: c806 f2bb db08 813c 287d 303d c022 673c
00000110: 969b e5bb 2e6a ffbc de3d cbbc 7256 a6bd
00000120: 2ef6 16bb 4744 ac3c 9c93 53bd 720e d8bc
00000130: 1ee3 85bd 67f6 a03c 0e5e 853d b52a ce3b
00000140: cba2 dcbc dd0e 6c3d 33fd 92bc 5214 0a3d
00000150: 6026 213d 9741 3fbc bb03 4e3b d6c1 be3c
00000160: 82d9 19bd 6806 87bc ff4b 893c d600 083d
00000170: 4bd4 53bd 3868 a5bc ad86 e3bc ba6c bfbb
00000180: 5a02 133c 06c3 54bd b84e 3bbd d705 0c3d
00000190: f404 6ebb c4c0 9fbc a020 d03c f9a5 1a3d
000001a0: f034 3cbb ade9 d6bc 7115 8ebd edfc 0d3d
000001b0: 87bd 25bd d127 023d 80b3 49bd 9cab 903c
000001c0: 4725 283c 8607 57bd d568 95bc 5b1e 13bc
000001d0: a94f 0dbd 39e4 db3c 9bc3 2b3c 8ff5 ad3b
000001e0: 9e6a 663c 9e7a b23c 6f6e 2d3c 0d20 f33c
000001f0: c663 7f3d 6b07 a13c 4a0a 97bc a661 91bc
00000200: 4514 fc3c 4324 2ebd bd50 e53c 5f61 cc3c
00000210: cc80 9cbc 1a09 463d 6df2 a0bd 2d01 ebbb
00000220: 0ed6 d2b9 6f87 d33c f6dc 023d ec4d a63c
00000230: fa9d 01bb 43cc fabc 9895 6e3c 4221 12bd
00000240: 92df 8aba a200 2b3c 9d73 be3c eab1 a83c
00000250: 393d 34bd 7e9c 963c 803d 553d 6b80 d5bc
00000260: 8fa4 a93c abd5 3bbd 4027 a13c cda0 11bd
00000270: 8247 a33c e9e8 e3bc 1ef8 c9bb 267c 09bb
00000280: 1d75 563b d31a 23bd 21ef b8bb 5059 4dbb
00000290: 9b0b 95bc 3b7d 9ebc aee2 053d 253c cdbb
000002a0: a23c bd3c cb16 fa3b 8788 3abc 6d10 9a3c
000002b0: 8a4e c53c 8845 0a3b 4503 6fbd a2e2 49bb
000002c0: 59f6 5ebc e7ce 65bc 1732 0f3d ac35 ae3c
000002d0: 3270 9d3c 51aa de38 4c67 43bd d7e4 39bc
000002e0: 0c5b f63b 5b76 303c d44d 2a3d 8eff c03c
000002f0: 86eb 003d 7f51 7a3b 807d 3f3d 73d6 88bc
00000300: 3e5c 45bc 811b 94bc 05f0 1b3d 5880 873d
00000310: 7df0 45bd f914 263b be5d 373d 4335 c3bb
00000320: 7531 12bd 3945 453c 1969 5bbc 56fc 5f3c
00000330: 8894 d83b 9395 8e3c 09a5 313d a223 f9bc
00000340: f00f 8d3c a30e 153d 8cc8 22bd cd30 293c
00000350: ead8 8a3c f7dc 933c 2595 f2bc 7be1 2ebc
00000360: bc24 fe3b 4827 0ebd fdb9 0fbd c03d 293d
00000370: 791e 983b 00c2 7e3c 2794 dd3c e036 843c
00000380: f6eb 0e3b 166e 00bd 5766 6b3c bdcf e83b
00000390: 789c 2a3d a996 a33c e3c7 26bc 049c 80bd
000003a0: 39b1 1dbd ba12 babc 97d7 553c 7e21 a8bc
000003b0: 5ed2 da3b e74f 04bd 32f7 963c c46d cfbc
000003c0: 4442 e83c 382d 2f3c c257 3e3c 34f8 b8bc
000003d0: fcb6 dfbc 4f5d 3fbd e813 ddbc 447c 033d
000003e0: d09d ba3c d0b8 48bc 7ecf e43b 93fa 1e3d
000003f0: 439c 3e3c 424b 37bd a48c 67bd 6be3 113d
0.027739568 0.02497407 0.027953207 0.026524518 0.019198218 -0.030675696 0.024669709 -0.019809257
0.0015407312 0.020308357 0.023161648 -0.0469767 -0.032389153 -0.0032480382 -0.04356082 -0.011404697
-0.013245143 -0.015280863 0.037890572 -0.01241144 0.026923679 -0.006644044 -0.0067133196 0.031331915
0.04473579 0.0007315111 0.013123226 0.05264911 0.018696634 0.0066998787 0.032556187 -0.013346734
-0.017658131 0.059162814 -0.036338113 0.033394784 0.04018404 0.03270201 0.019341066 0.02869219
0.026297605 0.032477997 -0.044189066 -0.0058929087 -0.040057838 -0.08509276 0.02163032 0.017402422
0.024208615 -0.05911757 -0.010765826 0.010226708 -0.063652866 -0.06180526 -0.012946446 -0.014223958
-0.00021288573 0.008773229 0.05815156 0.06492293 -0.0036486357 0.034408793 -0.018477067 0.06748683
-0.0073860623 0.015751293 0.04308811 0.014107406 -0.0070070727 -0.03117856 -0.024809774 -0.08121957
-0.0023034918 0.02102865 -0.051654443 -0.026374076 -0.0653746 0.019648744 0.0651208 0.006291712
-0.026933094 0.057631362 -0.017943 0.033710785 0.039343238 -0.011673353 0.003143533 0.023285788
-0.037560947 -0.016482547 0.01675987 0.033203922 -0.05171613 -0.020191297 -0.02777418 -0.0058418186
0.008972729 -0.0519438 -0.04572937 0.034185257 -0.003631887 -0.019501098 0.025406182 0.03775594
-0.0028718077 -0.026234472 -0.069376834 0.034665037 -0.04046395 0.031776253 -0.04924345 0.017659955
0.010262794 -0.05249741 -0.018238464 -0.008979405 -0.034499798 0.026842223 0.010483648 0.005308814
0.014063505 0.021786984 0.010585411 0.029678369 0.06235101 0.019656857 -0.018437523 -0.017746758
0.030771384 -0.04251505 0.0279926 0.024948774 -0.019104384 0.048348524 -0.07858739 -0.007171771
-0.00040213804 0.025821416 0.031949006 0.020300828 -0.0019778 -0.030614978 0.014562033 -0.03567625
-0.0010595194 0.010437163 0.023248488 0.020592649 -0.0440037 0.018385168 0.052060604 -0.026062211
0.02070835 -0.045858067 0.019672036 -0.035553742 0.019931559 -0.027821021 -0.006163611 -0.002097854
0.0032723614 -0.039820503 -0.0056437408 -0.0031333752 -0.01819401 -0.019346824 0.03268688 -0.0062632733
0.023100201 0.0076321117 -0.01138509 0.01880666 0.024085302 0.0021098573 -0.058352727 -0.003080525
-0.013608539 -0.01402638 0.03495988 0.021265827 0.019218538 0.00010617509 -0.047705933 -0.011346064
0.007518178 0.010770406 0.04157813 0.023559358 0.031474613 0.0038195548 0.046750546 -0.01670382
-0.012045918 -0.018079521 0.038070697 0.066162765 -0.04832505 0.002534209 0.044767134 -0.005957277
-0.035691697 0.01204043 -0.013391756 0.013671001 0.006609503 0.017405307 0.04337028 -0.030412499
0.017219514 0.03639091 -0.039742038 0.010326576 0.016949136 0.0180497 -0.029612133 -0.010673876
0.007755844 -0.03470543 -0.03508948 0.041318655 0.0046423045 0.015549183 0.027048184 0.016139448
0.0021808124 -0.031354986 0.014367661 0.0071048425 0.041653126 0.019969301 -0.010179493 -0.062797576
-0.03849909 -0.022714008 0.013051889 -0.020523783 0.0066779098 -0.032302763 0.018428419 -0.025320895
0.02835191 0.010691933 0.011617603 -0.02257929 -0.027308933 -0.046719845 -0.026987031 0.03210093
0.022780329 -0.012251094 0.006982743 0.038813185 0.011633935 -0.044749506 -0.05653061 0.035617273

action_model._continuous_distribution.mu.bias f4 [5]
00000000: 7924 183b 0c34 dd3a 143f 1ebc 25ad 963c
00000010: c5ab 11ba
0.0023215099 0.0016876473 -0.009658594 0.018393109 -0.00055569067
