config/results/AgrConserv_Refactored_2M_V1/Hummingbird_Conservative/Hummingbird_Conservative-999960.onnx (onnx, 97764 bytes, 7 tensors)

network_body._body_endoder.seq_layers.0.weight f4 [128, 47]
00000000: 3148 bcbd a6f9 e2bc 2189 33be d8a3 ec3d
00000010: 13ec f1bd bd23 afbd 8077 74be 7a80 a33e
00000020: 1aca 7cbc 10e4 4cbe ac43 abbd c615 823e
00000030: 6f6a 9bbd 34c9 823d 3667 0abe 77e6 9d3c
00000040: 29ef 36bd ab80 acbd f745 f3bd 1b2b 883e
00000050: f85f 23be b8ab 143e 965f 4d3e de2f 83bd
00000060: 986e b7be 96e8 843e 8d92 693e 5c13 383c
00000070: 24d4 16be 2b84 99bd 7032 5cbe 5567 c43d
00000080: f2bb 483e e504 bcbd 2dd4 473d 55b2 a43c
00000090: 84aa 0ebe ae9f e5bd ba94 1cbe 6f63 ba3e
000000a0: cca4 76bd 930e 31be c918 3dbd 14ba 453c
000000b0: e290 4e3b 1b23 813e 9555 03bd d24c 6b3e
000000c0: 9402 1e3e 9167 433e 12f6 9b3c 822b 84be
000000d0: 64f4 783e b060 fbbc e8b6 723d 9abd b8bc
000000e0: 2491 533c 68cd 4d3d 1ac0 03be 5e58 77bd
000000f0: 3c90 ebbd 5d81 2cbe 163b 733e c390 e3bd
00000100: cd67 33bc 31bf 593d d58a 033e 3bb7 943d
00000110: 0fee 04bd 2027 4d3d 29d8 44be 44bd 903e
00000120: 7cf7 093e cb33 6dbc 6dac ca3d 24cb 40bc
00000130: 141b 81bd f20e d2bd 58c1 763d 5c5c 403e
00000140: 2975 90be 4516 1c3d 45f4 a33c c734 8d3e
00000150: 6471 2a3e b91b 94bb 4955 753d ccd7 b1bd
00000160: fb43 39bd bfaf 09be d2ac 653e a759 ae3b
00000170: 9e70 77bb a089 663e 5197 823d e4ee 8dbc
00000180: c638 08be 374f a2bc bef9 10bd 955b 8b3d
00000190: 6de0 9ebd 1db9 b03d cf48 9dbd 2b30 163e
000001a0: 92f1 493d 8b36 be3d c4fe 9fbd f03d 59be
000001b0: ceae c0bd 75ef 933e 4ed8 ccbe 191e 6c3e
000001c0: e105 bf3d b931 573e 1882 3ebe 06ec 0d3e
000001d0: c2f8 8fbd 34b7 6c3e 7e8c 4dbc 5495 8c3d
000001e0: bef4 fa3d e7dd 013e 3cfc a83c af28 d4bd
000001f0: dc4c 013e b5be c7bd 6913 2e3e fe44 8b3e
00000200: ea34 acbd 09e1 7b3b f880 e13d 7cd0 09be
00000210: e542 92bd fa8a 9b3d ab55 fbbd c681 0fbe
00000220: 1df1 55bd 6210 583b 5944 a3bd 2a58 473e
00000230: 6737 203a 74ad 04bd cc71 773d e62c 82bd
00000240: b43a 48bd 432a d43d 4994 e63d 9ec7 91be
00000250: dfcc ffbc 0a2c c9bd e06e 8c3d 205a 21bd
00000260: 5665 a43e ad9c a43d d34d fc3d ad2f d03d
00000270: 16a1 9abd d156 b1be 8668 d3bd e1d3 6d3e
00000280: 049a c73c 7a01 4a3e a162 40bc 5428 0abe
00000290: 14d2 54be da45 25bc 6a8f c83d caf1 aabd
000002a0: e03e 18be 1146 1e3e c591 5f3e a592 ff3d
000002b0: 337b c33e 4623 0c3e ba4b 5fbd 5073 8a3e
000002c0: f511 7dbe fd2c 24be 537e 17be de8c 623e
000002d0: d13d 8fbd 7fb0 52bb 1eb1 2fbe 060d 4f3e
000002e0: 24e8 253d 31c8 dabd ec41 93be e077 413e
000002f0: a8dd 6d3e c7c9 443d e6ac 373e 2fad 87be
00000300: 7cb3 5b3e bf17 093e c1c2 05be 029c 6b3d
00000310: 07e6 d8bd 4aa0 033e abe5 5e3d d9f8 193d
00000320: c959 80bc 64a7 19bd 4558 883d 83d6 173e
00000330: 39fb abbd 64bf 9a3d e91c 32be 7165 0abe
00000340: 5277 8e3d 77ed cd3d 4e93 8c3b 36e3 173e
00000350: a424 413e 5ec9 3c3d 1071 633e 0bd0 12be
00000360: af5f a8bd 59bb 10be 3234 37bd bfa1 893d
00000370: b2b0 ccbd 23a2 913d 9c95 48bc cb9f 6cbc
00000380: ad9d 3ebd e2c0 6abe 8239 76be 8c14 2dbd
00000390: 1369 303c 4d88 4bbd 800d 9a3e a964 fcbe
000003a0: 231d 3ebe dde4 88be 70ad 043d 4f52 723e
000003b0: a817 7fbd 853a 643e 494b f0bd 9503 513c
000003c0: 421d 85bd 8fa0 c6bd 04aa 803d 6a56 ef3d
000003d0: e982 2d3e ff0d 973b 0cc2 163e 49b9 dd3d
000003e0: 3024 90bd 52c4 f33d 9884 2a3e 4c30 9ebe
000003f0: ea17 193d 6056 d43d a1e5 433e 7f22 8fba
-0.09193457 -0.027706932 -0.1753278 0.11554688 -0.11812606 -0.085517384 -0.2387371 0.31933957
-0.015429044 -0.20008874 -0.08362517 0.25407237 -0.0758866 0.06386033 -0.13515934 0.019274933
-0.044661675 -0.08422979 -0.11878579 0.26595387 -0.15954578 0.1451863 0.20055994 -0.06405614
-0.35826564 0.259587 0.22809811 0.011235084 -0.14729363 -0.07495912 -0.21503615 0.095900215
0.19602945 -0.09180621 0.04878633 0.020104567 -0.13932234 -0.11212097 -0.1529111 0.36403987
-0.060215756 -0.17290716 -0.046166215 0.01206829 0.0031519462 0.25222096 -0.03206404 0.22978523
0.15430671 0.19082476 0.019038234 -0.25814444 0.24311978 -0.030685753 0.059256464 -0.022551347
0.012913022 0.05024472 -0.1286625 -0.060387008 -0.1150212 -0.16846223 0.23753008 -0.111115955
-0.010950041 0.05316085 0.12845929 0.07261511 -0.032453593 0.05008614 -0.19223084 0.28269398
0.13473314 -0.01447768 0.09896169 -0.0117671825 -0.06303993 -0.10256757 0.06024298 0.18785232
-0.28214386 0.038107175 0.020013938 0.27579328 0.16644818 -0.0045199064 0.059895787 -0.08683738
-0.045230847 -0.13445948 0.22429207 0.005320746 -0.0037756334 0.22513437 0.063765176 -0.017325826
-0.13302907 -0.019813163 -0.035394423 0.06804577 -0.077576496 0.086290576 -0.07679903 0.14666812
0.049302645 0.09287747 -0.078122646 -0.21215034 -0.09408341 0.2889363 -0.40008777 0.23058356
0.09327293 0.21015061 -0.18604314 0.13859567 -0.07029869 0.23116761 -0.012545703 0.068644196
0.12253712 0.12682305 0.020628087 -0.10359322 0.12626976 -0.09753171 0.16999592 0.27201074
-0.0840853 0.0038433692 0.11010927 -0.13458437 -0.07141665 0.07594867 -0.12272199 -0.14014348
-0.052231897 0.003296875 -0.07972021 0.19467226 0.0006111771 -0.03239198 0.06041126 -0.0635622
-0.04888411 0.10359623 0.11258752 -0.28472608 -0.03122562 -0.09822853 0.06857085 -0.03939259
0.32108563 0.08037696 0.12319531 0.101653434 -0.07550256 -0.34636548 -0.10322671 0.23225357
0.024365433 0.19727126 -0.011742265 -0.13491946 -0.20783263 -0.010087455 0.09792979 -0.08346899
-0.14867735 0.15456416 0.2183295 0.12479142 0.3817993 0.13685331 -0.054515578 0.270411
-0.24713881 -0.16032787 -0.14794283 0.22124049 -0.069942124 -0.0032148657 -0.17157409 0.20219812
0.04050459 -0.10682715 -0.28761232 0.18893385 0.23229086 0.048043992 0.1793705 -0.26499316
0.21455187 0.13387965 -0.13062574 0.057521828 -0.10590749 0.12854114 0.054418247 0.037590835
-0.015667813 -0.03751315 0.06657461 0.14827923 -0.08397526 0.07556036 -0.17393841 -0.1351526
0.06956352 0.100550584 0.004290021 0.14832768 0.18861634 0.046090476 0.22211099 -0.14337175
-0.08221375 -0.14133967 -0.04472751 0.06720304 -0.099946395 0.07111003 -0.012242701 -0.0144423945
-0.04653709 -0.22925141 -0.24045375 -0.042255923 0.010767239 -0.049690533 0.30088425 -0.49295548
-0.18565802 -0.2673711 0.032391965 0.2366421 -0.06227842 0.22287948 -0.117331095 0.012757202
-0.06499721 -0.09698593 0.06282428 0.11686404 0.1694447 0.0046098228 0.1472246 0.10826356
-0.07038152 0.119026795 0.16652143 -0.30896223 0.03737632 0.10368037 0.19130565 -0.0010920315

network_body._body_endoder.seq_layers.0.bias f4 [128]
00000000: f8bb 993c 44ad 353d 2661 473c 9ff0 89ba
00000010: a815 f23b ee0b 9f3c 8a93 46bb d125 8f3b
00000020: e02c 8bbc fdc4 b83c 4344 f63b 4524 a73b
00000030: 8bbf d3bc 7508 3a3c 21eb 7a3b baf5 913c
00000040: 9da1 9c3c eb15 093d a35e 5d3c f945 9abb
00000050: fb19 333c f7c7 ccbc e82a 153b 16ce 053d
00000060: 9221 863c 7f66 013d 21e9 97bc 1795 2f3c
00000070: 9c15 0cb9 39b7 c73b caf2 323d b676 653b
00000080: c92d 3c3d 663e 433c 3a16 113d 7f23 83bb
00000090: df49 c6bb 4c4c d43c f41d 01bc e00b 333d
000000a0: 01ea d9bb 52b1 f73b 7e75 3b3c 0131 40bb
000000b0: 9e81 32ba 641c b1b9 d703 debc f486 ee3a
000000c0: 089e cb3b 0d84 14bc 6b92 663c f1e9 9c3c
000000d0: dd8f 09bc 1c1e b6ba 0af3 d33c 26d1 ecb9
000000e0: cbd3 88bc 66d3 a63c e9e0 d93c f183 223d
000000f0: 53c0 ecbb 0217 dcbb f36a a4bb b064 d13c
00000100: 8e6f 51bc abe4 253c 30f7 183d e4ac e1ba
00000110: b02b e0bb b087 1c3d 7516 7a3c 087c 32bc
00000120: 4a4c 733c a69a c6ba 4572 533b 0ab5 583c
00000130: 5835 393a 8bba 263d e317 f43c c76b f13b
00000140: 966d 7339 42b4 7abc 8e39 ddbc c0b8 5cba
00000150: 090d 963b ca21 8d3c 1d3b 993c ccbe 9f3c
00000160: e809 2b3c ae32 d53b cb2f 0f3d e03c d53c
00000170: 7c98 aebb 92f3 9b3c 2971 bd3c 9bc9 ce3c
00000180: 3e89 613c 11ac a03b 4069 473c 9b86 923c
00000190: 83db 21bc 4964 5b3a 6824 64bc 3739 ae3b
000001a0: 02bf cb3b 11e1 a73b 6fa5 0abc 0e58 00ba
000001b0: 2332 d43b adde 1a3d c443 16b9 3c4b 2b3d
000001c0: 252d c83c b7fd a4bb da74 c03c a997 993c
000001d0: 8480 0ebc f644 dcbb 5f79 e83c 9386 bf3c
000001e0: c5b8 2e3c 630c b5b9 c6fd aa3c 12d1 a03c
000001f0: e91a 703c 8992 b23c 9bc7 073d 65f8 df3c
0.018766388 0.044354692 0.012169158 -0.0010523981 0.0073878355 0.019414868 -0.0030300342 0.0043685217
-0.016989172 0.022554869 0.0075154616 0.005100759 -0.02584817 0.011354555 0.003828712 0.017817367
0.019120032 0.03346817 0.013511333 -0.0047080484 0.010931487 -0.024997694 0.002276117 0.032667242
0.01637343 0.03159189 -0.018543782 0.010716698 -0.0001335949 0.00609484 0.043688573 0.0035013384
0.0459421 0.011916732 0.035421588 -0.004002034 -0.0060512866 0.025915287 -0.007880677 0.043712497
-0.00665021 0.00755898 0.011441587 -0.0029326084 -0.00068094756 -0.00033781223 -0.02710144 0.0018198178
0.006213907 -0.0090646865 0.014072995 0.01915452 -0.008396116 -0.0013894471 0.025872726 -0.00045169255
-0.016702553 0.020364475 0.026596503 0.03967661 -0.0072250753 -0.00671661 -0.005017632 0.025560707
-0.012782944 0.0101253195 0.03734511 -0.0017217663 -0.0068411455 0.03821534 0.015264143 -0.010893829
0.014849732 -0.001515229 0.0032264155 0.013226757 0.0007065139 0.040705245 0.029796546 0.0073675844
0.0002321511 -0.015301766 -0.027004983 -0.0008419864 0.0045791906 0.017228026 0.018704945 0.019500159
0.010439374 0.0065062856 0.03495769 0.026030004 -0.005328236 0.019037042 0.023125248 0.025242617
0.013765631 0.0049033244 0.01217109 0.01788645 -0.009878996 0.00083691307 -0.013924696 0.005316879
0.0062178383 0.0051232656 -0.008462294 -0.00048959337 0.0064757033 0.037810016 -0.0001433036 0.041819796
0.02443559 -0.005035128 0.02349322 0.018749075 -0.008697633 -0.006722088 0.028378187 0.0233796
0.01066417 -0.0003453224 0.020872962 0.019630942 0.014654853 0.021798389 0.033149343 0.027340123

network_body._body_endoder.seq_layers.2.weight f4 [128, 128]
00000000: 6317 2c3e 2a3c ae3d d9fe 063e 714b 81bc
00000010: 4ca5 dbbd 1985 4bbe ec3e dcb9 2b63 e03c
00000020: fa3a 933d cbca b8bd b076 753d d60a 4ebd
00000030: 0d11 aebd 425b 9abd 055a b2bd c1d0 13be
00000040: 2847 4fbc 3ac4 c4bd 16a9 98bd 737c f23d
00000050: 7008 27be b12a fb3d b4c3 8dbd 6986 efbd
00000060: c3b9 003d 7c3c 473c 2bf1 653d 5609 a0bd
00000070: 6b91 bebd dc39 bb3d 5e36 b3bb f034 d83d
00000080: d7ee b3bd 6570 23bd 6277 18be db69 82bd
00000090: 6f2b 81bc 442e 91bb 6250 093e f9c2 5d3d
000000a0: c871 89bd 165d eb3c b0b5 e13d 7167 82bd
000000b0: 14e4 e53d 44c0 b43d 6551 e8bc 3106 12bd
000000c0: 581b 5f3c b573 1bbe 7db1 33bc 240b ddbd
000000d0: 03f9 b53d b884 d13d 49aa 193d 9bab bdbd
000000e0: 07f2 fb3d 17df e2bb f81d 363e 47ae 233d
000000f0: d2e1 9abd 3ec1 0d3e 3e3a 9dbd 08c2 c1bd
00000100: 4061 bdbc cd73 693e 8f02 21be 19b6 573d
00000110: 4336 87be 165c 96bd 4526 bc3c 0d48 df3d
00000120: 500c c1bd ed21 b5bd 315f 14be 9ded 583e
00000130: 9893 eb3d 8a6c bdbd ed4e 063e f10f a93d
00000140: c6a3 2bbd 496a 8f3c a42b 43bd f444 9a3e
00000150: b975 443e f196 2dbd f2c8 94bc fbfd 1fbd
00000160: 41a6 1d3c 7d51 d3bc 2e02 7d3d 26da 223e
00000170: aa1f 683d 7b1b 26bd ca7a e03d 65c8 b5bc
00000180: 82eb d23d ac34 173e 4137 303d 90b8 d03d
00000190: 70fb 663d debc 51bd 5e8e 023d a639 d83c
000001a0: bd3a e8bd 8cb9 ec3d cddd 47bc e0f7 cc3d
000001b0: 369d 793c 1397 503d 2b8d d13d 12e6 15be
000001c0: d1fe 22be ed87 9cbc 840a 1f3e 1a84 08bd
000001d0: b609 8b3e c73d 903d 5d1c ad3d 3c8d ed3c
000001e0: 879a 393e 678f 303d c0a2 77be 07f1 803d
000001f0: 3328 1cbd 9ce2 54bd 1c0f 51be 1103 6ebe
00000200: a36d 963d 9b9e 603d 3580 253e 0d21 fbbd
00000210: f2c7 103d 6349 2dbd e9d6 423d 6619 97bd
00000220: 3684 b4bc 43a4 e4bd bff2 643d 3b55 563d
00000230: 5544 25bd 6469 5c3c 6698 09bd 33b3 063e
00000240: 3fcf 8e3c 19f9 a3bd 307d 283c 495e fe3d
00000250: df5e a7bd b5bd 25bd 67fb 8dbd a4a2 14bd
00000260: 55fc 1abe f68d 913d 6839 f9bb a069 cebd
00000270: 3b17 1a3d f631 fd3c 9e9e 9dbd 077b 8b3d
00000280: 7ba2 1cbe f2db a63b ebf9 e93c 7a36 5c3c
00000290: a168 503c 85e0 133d c56a 163d d736 683b
000002a0: 8058 c83d 18da c3bc 9274 513e 92db 9f3d
000002b0: 1cca 0f3e 2238 393d 513a d93d b887 91ba
000002c0: 9f12 f13d e7d5 65bd 9484 1f3e 855a 523d
000002d0: 8389 5e3c 98ed 993c 4b77 543e 42fb 35bd
000002e0: 2462 803d f3d2 643d b599 c83d 5892 1d3d
000002f0: a1d2 4a3e d66d 813d 75a3 173d 23ef 4bbe
00000300: 5dbe 1cbe c099 683d faa6 27bd e999 e7bc
00000310: 6a5c 8ebd f98b b0bd a2f6 493b 7adb 193b
00000320: cc28 05be d3bf 37bd 29fb 89bc 82b5 2e3e
00000330: 0187 bd3c 735c 59be d43e 243d fd66 213d
00000340: 1adc 34bd 504a e2bc dafa 68be d525 78bd
00000350: b5e7 c93d 0943 883d 33f9 763d 5c56 9e3c
00000360: 21ed efbd 1c8a febc c43d cabd 9b93 ab3d
00000370: 0964 843d 1bbe 9dbd 4386 4b3b 1092 02bd
00000380: 148a 733e afff 763d f67f 38bc 7654 45bd
00000390: 7cca a6bc 3be3 983d 1000 413e 61f5 08be
000003a0: 7cda e73c 226e 9cbd ddd2 1a3a fe99 c1b9
000003b0: 7282 073d 8287 b3bd e7db c0bb 75b6 45be
000003c0: b0a3 a13d 8ec8 4bbd 5e68 253e a4fe ce3c
000003d0: 062b f53d 2a17 583d c50d c73d 2385 8b3d
000003e0: c166 8bb9 bc23 333d e812 87bd 7681 833d
000003f0: 940f 0b3d af1a 1bbd 86ca 32be 866d 123d
0.16805796 0.08507569 0.13183154 -0.015783044 -0.10724887 -0.19874991 -0.0004200855 0.027391037
0.07188983 -0.09023055 0.059927642 -0.050303303 -0.08499346 -0.07536937 -0.08708576 -0.14435102
-0.012651242 -0.0960774 -0.074541256 0.11840143 -0.16311812 0.12264002 -0.06922093 -0.116955586
0.031427156 0.012160417 0.0561382 -0.07814281 -0.0930508 0.09141895 -0.0054691276 0.10556972
-0.087857895 -0.03990211 -0.14889291 -0.063678466 -0.015767781 -0.004430564 0.1340957 0.05414102
-0.06711155 0.02873091 0.11020982 -0.06367386 0.11225143 0.08825734 -0.028359124 -0.035650436
0.013617359 -0.15180857 -0.0109676095 -0.107931405 0.08885386 0.10230392 0.037515912 -0.09261247
0.123020224 -0.006923567 0.1778487 0.039961126 -0.07562603 0.13843247 -0.076771244 -0.09460837
-0.023117661 0.2279808 -0.15723632 0.052663896 -0.26408586 -0.07341783 0.022967467 0.109024145
-0.094261765 -0.088443615 -0.14489438 0.21184392 0.11502761 -0.09249218 0.13116045 0.08254994
-0.041904233 0.017506735 -0.04764904 0.30130732 0.19185533 -0.042380277 -0.018162224 -0.039060574
0.009622158 -0.025795693 0.061769657 0.1590353 0.056670822 -0.04055355 0.1096092 -0.022190282
0.10298826 0.14766186 0.043021444 0.101914525 0.056392133 -0.05120551 0.031874053 0.026394676
-0.113393284 0.11558828 -0.0121988775 0.10008216 0.015235236 0.050925326 0.10232004 -0.14638546
-0.15917517 -0.019107783 0.15531355 -0.033329107 0.27155846 0.07043033 0.084526755 0.02899801
0.18125354 0.04310551 -0.24183178 0.06295972 -0.038124274 -0.051973924 -0.2041592 -0.23243357
0.0734513 0.054838758 0.16162188 -0.12262163 0.035346933 -0.042306315 0.047568236 -0.07377891
-0.0220357 -0.11164143 0.055895563 0.052327376 -0.04034837 0.013452861 -0.033592604 0.13154297
0.017432807 -0.08006496 0.010283753 0.12420327 -0.08172392 -0.04046412 -0.06932717 -0.03628792
-0.1513532 0.07107155 -0.0076057203 -0.1007874 0.03761981 0.030907612 -0.076962695 0.06810575
-0.15296356 0.0050921375 0.028561553 0.013440723 0.012720258 0.03610279 0.036722917 0.0035433078
0.09782505 -0.023907706 0.20454624 0.078055516 0.14041942 0.045219548 0.10606826 -0.0011103069
0.1177113 -0.056112196 0.15577918 0.051355857 0.01358259 0.018790051 0.20748632 -0.04442907
0.06268719 0.05586524 0.09794942 0.038469642 0.19806911 0.06319778 0.03702112 -0.19915442
-0.15306993 0.056787252 -0.040930726 -0.028271632 -0.0695122 -0.08620448 0.003081717 0.0023476765
-0.13003844 -0.044860672 -0.016843395 0.17061427 0.023135664 -0.21226673 0.04009898 0.039404858
-0.044155218 -0.027623326 -0.22751942 -0.060582954 0.09858648 0.06653411 0.06029625 0.019328289
-0.117151506 -0.031071715 -0.09875062 0.08377763 0.06464393 -0.07702275 0.0031055368 -0.031877577
0.23783141 0.060302433 -0.011260977 -0.04817625 -0.020360224 0.07465216 0.1884768 -0.13374855
0.028302424 -0.07638194 0.0005906055 -0.00036926562 0.033083387 -0.087660804 -0.0058855894 -0.19307883
0.07892549 -0.04975181 0.16153094 0.025267906 0.11971097 0.052756466 0.09719423 0.06812503
-0.00026588704 0.04373525 -0.06595403 0.06421177 0.033950403 -0.037867244 -0.17460069 0.03574898

network_body._body_endoder.seq_layers.2.bias f4 [128]
00000000: ddc4 ceb9 1cec fcbb 28cb dc3c 787b 4a3c
00000010: 1827 59ba e71c a33c 7891 823c 31a1 c3bb
00000020: e540 6ebb ca35 9f3a b682 c53c 5165 893c
00000030: 6c26 873c cb9b 6c3b 11b3 2e3c 3b7a dd3c
00000040: 9047 3f3c cf2b a33c 8c7f ee3c 4899 f4bc
00000050: 859f 963a 2c8c 463c 7689 193c 5a29 c13c
00000060: 4092 923a 720f 013d af37 e9ba 096a f83c
00000070: c748 fe3b 11ca 9a3c b8b7 ebb9 cf14 543c
00000080: ebf0 e03b 109f 073c 682c 103b e17f 9e3c
00000090: 83e9 b6ba 7a1d 173b c4b1 153c feae aaba
000000a0: b8df 2f3c ac35 0dbc e724 cfbb 9ecb a33c
000000b0: fd39 3f3a 73ac bb3c 6e15 883b c493 57bb
000000c0: 3891 e0ba 225e f83c 9c83 e13c 557b 9f3c
000000d0: f115 d63b ba37 853b c5cc d03b 9242 083b
000000e0: fe42 853c 302a b93c 1b1e 3b3c 4773 c8bb
000000f0: fa5e 6f3c 4eea dc3a 67fd 59bb 07d1 273c
00000100: 3ca7 f7bb b92a 1bbc a78a a93b 25de 4eba
00000110: 3025 1cbc a012 b53b c161 83bb cb2b 853c
00000120: deed a43c 8396 a0ba 7f8a c03c 4d84 dd3c
00000130: 84bc 22bc 54fb f83b a4c6 c43c 4155 223a
00000140: fcf9 a53c 88ae d73a a800 aeba c28e 593c
00000150: 0e32 6fb8 9a6e cf3b b6b7 3b3c 9d3c 8137
00000160: 626c 2dbc efa8 7f3c 51f6 c73c 6726 443c
00000170: ef15 b2bb cd0a 933c 0a4d 4abc e3d0 813c
00000180: 82c4 7a3c 0b0d f3ba e0c2 343c 54ce 33bc
00000190: d372 d73c 877a 03bb a033 6c3c 31b7 cc3b
000001a0: 21cd c33b f98d 1f3d a6f2 033d 0804 e13b
000001b0: 2c63 b93c 8ee8 bc3c 07f4 ea3a 633c 973c
000001c0: 8b01 a5ba c525 c73c 2a64 023c 5cfa 5d3c
000001d0: d98b 893c 97c8 1e3c 1bec b53c 05c9 cb3c
000001e0: 5e2a 78bc 9f0d 223c 80d0 ecba 51cf 783b
000001f0: c765 ca3c ac71 0abc 2b54 453c 76c0 1bbc
-0.00039438056 -0.007718576 0.026952341 0.012358539 -0.00082837185 0.019911243 0.015938506 -0.0059701432
-0.0036354598 0.0012146768 0.02411018 0.016771944 0.016497813 0.0036103602 0.01066281 0.027035823
0.011674777 0.01991835 0.029113553 -0.029858246 0.0011491632 0.0121183805 0.009371152 0.023579288
0.0011182502 0.03150887 -0.0017793084 0.030323999 0.0077601406 0.01889518 -0.00044959574 0.012944414
0.006864657 0.00827767 0.0021999124 0.019348087 -0.001395509 0.002305834 0.009136621 -0.0013022122
0.010734491 -0.008618753 -0.006321538 0.019994553 0.00072947127 0.022909379 0.0041529452 -0.0032894472
-0.0017133122 0.030318324 0.027528577 0.019467989 0.0065333773 0.004065481 0.0063720667 0.0020791632
0.016267296 0.022603124 0.011420752 -0.0061172578 0.0146100465 0.0016854496 -0.0033262612 0.010242707
-0.0075577777 -0.009470635 0.0051739994 -0.00078913785 -0.009530351 0.005525902 -0.004009456 0.016256234
0.020132955 -0.0012251887 0.02350354 0.027040625 -0.009932641 0.00759832 0.0240205 0.00061925134
0.020260803 0.0016455213 -0.0013275342 0.013278665 -5.7028657e-05 0.0063303234 0.011457374 1.5406224e-05
-0.0105849225 0.015604242 0.024409445 0.011972046 -0.0054347436 0.017949486 -0.012347469 0.015846675
0.01530564 -0.0018543316 0.01103279 -0.010974485 0.02629987 -0.0020062046 0.014416605 0.006247424
0.005975381 0.038953755 0.03221383 0.0068669356 0.022630297 0.02306011 0.0017925509 0.018461412
-0.0012588961 0.024310002 0.007958451 0.01354846 0.016790317 0.009691379 0.02220731 0.024876127
-0.01514682 0.009890943 -0.0018067509 0.0037965367 0.024706734 -0.008449953 0.012043993 -0.0095063355

action_model._continuous_distribution.log_sigma f4 [1, 5]
00000000: d04a 5e3d 0a84 593b 0fec 9e3c 1db7 8c3c
00000010: 7701 8d3d
0.054270566 0.0033190274 0.01939967 0.017177159 0.06885045

action_model._continuous_distribution.mu.weight f4 [5, 128]
00000000: 408b 5ebc cb93 15bc e4be e43a f172 983c
00000010: f856 ebbc b11f 1a3d a922 4c3c 4c67 6cbc
00000020: e6fa 043d 94a8 8cbc 4093 a93c 0fb6 313d
00000030: 3048 6c3c 061f aebc a476 fc3c b0a4 e4bc
00000040: 4182 5e3c 65ca 173c f221 4abc 8c8a edbb
00000050: b626 503d 139d abbc 2481 0cbc c071 82bc
00000060: 3788 8abc 9cbd cbbc bdc2 ea3c 1909 683b
00000070: 5af2 c93c f5e4 193c 9189 4dbc 397b a5bc
00000080: 4206 853c cd81 9f3c 7277 c33c 54a8 43bd
00000090: ea26 12bd caa1 193b 8530 d13b c19e ca3c
000000a0: a3ed 203d 082e 80bc 4103 f3bc 9739 ca3c
000000b0: b2b4 c53b 6abf a33c 670c 60bc 7ac0 96ba
000000c0: 54ca 99bc b506 35bc 12af 39bd db43 ebbc
000000d0: fb84 383c f281 bb3b e37b e33b fb21 6e3d
000000e0: 57b0 0b3d ddbf 2f3d f267 843c 9f19 b43b
000000f0: e983 e03c aa99 1ebd c858 18bd f593 d13b
00000100: 08f5 7cba c279 02bc 9c48 be3b 028a d23c
00000110: 6bce d93b 7445 00bc de43 01bd 46f5 453d
00000120: 814b 433d 14dc d03c 348f 173d 938c 4c3d
00000130: 5493 b63a dd33 c439 31b2 ebbb d2e4 1abc
00000140: e58a 893c 0d3e e3bc 8ec8 61bb 4ffe 5fbb
00000150: 36be 7d3b ce8b 14bd 7797 443d af12 083c
00000160: 5f42 e63c 4616 bd3c 531b b6bc fc42 e538
00000170: 885a 35bc 4e01 833c 0d02 aa3c 8708 5dbd
00000180: 84cb e83c 4087 f43b d404 09bb 80ca 013b
00000190: 2013 27bb 0e23 d13b 2947 003d 8ee0 da3c
000001a0: 42dd e6b9 446d adbb 2afe e4bc e157 50bd
000001b0: 2299 f4bc bdab c9bc 9577 8f3c 08a4 82bd
000001c0: b97b 99ba 4fe3 06bc 404d 53bc dc1b acbc
000001d0: 49ac 73bd e06a adbc a731 1d3b 6d71 9d3c
000001e0: 2a19 703c 4bab 063d b9d2 103d a398 a7bc
000001f0: a99b c8bc d96b d83c 8f2b 8bbc 91d2 22bd
00000200: d1fb 343d 8434 9a3d 1fb0 2dbd 235a 803c
00000210: 3fd5 cbbc 7fa3 18bc fa9f 05bc ae62 8a3a
00000220: e58b 08bc 9b85 84bb 97c5 84bd 5819 77bd
00000230: 7790 683d b4c9 b1bc 7815 49bd 1445 01bd
00000240: 5126 bcba c908 14bd 4627 323a 58de b93c
00000250: 168d 6d3d 6ae0 d5bc 7201 f4bc e711 36bd
00000260: fe97 273d 84bd 8ebd d3b3 c63c a549 6ebd
00000270: 564d 203d ec9a 06bd 3a1a 893c 49e8 01bc
00000280: 221d e23c 133a 003d 7a2b 1c3d 7d84 64bd
00000290: d9df 87bb 0d07 0bbd 70ad c53c c14a 423d
000002a0: 71e7 99bc 41eb 843d 39e9 fabb 84ba 1abd
000002b0: a1f8 563d 9a96 55bd 2fea 19bd 5edf 813d
000002c0: 244e dfb9 331b 63bd 1716 29bd 7e0d 34bd
000002d0: ec73 cc3b c86f e93c 976c 20bd b9f7 b53c
000002e0: a339 c3bc 840c 2a3b 4634 26bd 5a8e 0bbd
000002f0: 02d6 febc ce56 a2bb 0f3b df3c b208 9aba
00000300: 989c 463d 6d70 073d 4224 0b3d baa7 a13c
00000310: ee28 97bc 8a9a 5f3d 5248 453c 5da0 723c
00000320: a38d 443c e135 423d c5a1 a9bc 58fe a83a
00000330: cf8d 513d d0ba 1bbd b530 cbbc ad48 0b3d
00000340: c0d9 76bd 7320 3fbc 0bdf a63d 1773 71bb
00000350: 1a33 7f3d 04c0 b5bc 21f3 7e3d 41e6 903d
00000360: 7353 443c da49 8abd 0e08 0bbd 63c8 42bd
00000370: 7aa0 a73c 073d 03bd c283 b1bb 4696 75bc
00000380: 9675 39bd cbb6 723d f643 c3bc 0213 f03b
00000390: e67c dabc 8650 54bc d2f2 af3c ed41 b53c
000003a0: 9110 303d 9868 e6bd f445 54bb 3c1b 4f3d
000003b0: 9510 70bd f4b7 5abd 9d57 27bd 0c3b 33bd
000003c0: 64fb 333d 1ec1 a2bd ae2a cd3b 0188 833a
000003d0: e2d4 bebc d0a4 863c 9477 32bd 0bab 92bd
000003e0: efe6 9a3c bfd6 3cbc 79fe 283b 90d0 733d
000003f0: b50c 10bd 0f46 8c3d 9840 fd37 93f0 01bc
-0.0135830045 -0.009129475 0.0017451909 0.018609496 -0.028727993 0.03762788 0.0124594355 -0.014428925
0.032465838 -0.017170228 0.020700097 0.043386515 0.014421508 -0.021255028 0.030818291 -0.02791056
0.01358086 0.009264563 -0.012337195 -0.007249182 0.050818168 -0.020948922 -0.008575711 -0.01592338
-0.016910655 -0.024870686 0.028657312 0.0035405813 0.024651695 0.0093929665 -0.012545005 -0.020200359
0.016238336 0.019471074 0.023860667 -0.047767952 -0.035681643 0.002344238 0.006383958 0.024733903
0.039289128 -0.01564695 -0.029664638 0.024685664 0.0060335035 0.019988734 -0.013674832 -0.0011501454
-0.018773235 -0.011048962 -0.045332976 -0.02871888 0.011262174 0.005722278 0.0069422587 0.058137875
0.034103718 0.042907584 0.016162846 0.0054962183 0.02740665 -0.038720764 -0.037194043 0.0063958117
-0.00096495496 -0.0079636 0.0058069956 0.025700573 0.0066469214 -0.007829059 -0.031558864 0.048329614
0.047679428 0.025495566 0.037001804 0.04993875 0.0013929405 0.00037422674 -0.007192873 -0.009453969
0.016789863 -0.027739549 -0.0034451815 -0.003417868 0.003871811 -0.03626614 0.04799601 0.008305236
0.02810782 0.02308191 -0.022229826 0.00010932048 -0.011068948 0.015991833 0.020752931 -0.05396321
0.028417356 0.007462412 -0.0020907419 0.0019804537 -0.0025493577 0.0063823527 0.031317864 0.026718404
-0.00044033868 -0.0052925665 -0.027953226 -0.050865058 -0.029858176 -0.024618024 0.017513076 -0.06378943
-0.0011709846 -0.0082329055 -0.012896836 -0.021009378 -0.059490476 -0.021169126 0.0023985894 0.019219125
0.014654437 0.0328782 0.03535721 -0.020458525 -0.024488287 0.026418613 -0.016988544 -0.039751593
0.044185463 0.07529548 -0.04240429 0.01566798 -0.024881957 -0.009316324 -0.008155817 0.0010557973
-0.008334135 -0.0040442473 -0.06483 -0.060326904 0.056778397 -0.021702625 -0.04909274 -0.03156002
-0.0014354681 -0.03614119 0.00067960133 0.02268903 0.05799588 -0.026107986 -0.029785845 -0.044450667
0.040916435 -0.06969741 0.024255669 -0.0581757 0.039136253 -0.03286259 0.016736139 -0.007928916
0.027601782 0.031305384 0.0381274 -0.055790413 -0.0041465578 -0.03394227 0.024130553 0.047434572
-0.018787118 0.064901836 -0.007657197 -0.03777553 0.052483205 -0.052145578 -0.03757685 0.06341432
-0.00042592094 -0.05544586 -0.041280832 -0.04395818 0.006239405 0.028495684 -0.03916606 0.02221285
-0.023831194 0.0025947401 -0.040577196 -0.034071304 -0.031107906 -0.0049541956 0.027249841 -0.0011751859
0.048489183 0.033066202 0.033970125 0.019733299 -0.018452134 0.05459074 0.012041168 0.014808741
0.011996659 0.047414664 -0.02070702 0.0012893183 0.05116063 -0.038019955 -0.024803499 0.034004856
-0.060266256 -0.011665451 0.08148011 -0.003684228 0.062304594 -0.022186287 0.062243585 0.070751674
0.0119827865 -0.06752367 -0.03394323 -0.047554385 0.020462263 -0.032040622 -0.005417318 -0.014989441
-0.045278154 0.059256356 -0.023836117 0.0073264847 -0.026670884 -0.012958651 0.02147809 0.022126162
0.04298455 -0.112504184 -0.0032390328 0.050563082 -0.058609564 -0.053398088 -0.04085504 -0.043757483
0.043940917 -0.079469904 0.0062611913 0.0010035039 -0.02329487 0.01643601 -0.04357107 -0.0716153
0.018908946 -0.011525809 0.0025786443 0.059525073 -0.03516837 0.068493 3.0190029e-05 -0.0079308925

action_model._continuous_distribution.mu.bias f4 [5]
00000000: 142f eb3a 03d4 4abc 21d2 30bc 5fe2 ce3b
00000010: 083e 9b3a
0.0017943108 -0.012379649 -0.010792286 0.0063136066 0.0011844048
