config/results/AgrConserv_Refactored_2M_Pre-Final_v3/Hummingbird_Aggressive/Hummingbird_Aggressive-999960.pt (torch, 574408 bytes, 36 tensors)

network_body._body_endoder.seq_layers.0.weight f4 [128, 47]
000000 d6 13 d4 3d 3b ac 04 3d 42 1b 81 be 1e a5 31 3e
       0.10355346 0.032390814 -0.2521611 0.17348143
000010 85 03 01 bf 1d 93 a8 3e 6c 53 9b 3d 0b 29 93 3d
       -0.50395995 0.3292474 0.07584271 0.07185563
000020 ec e2 c5 3d 91 d2 7c 3e 0e e5 e4 3d 60 74 59 be
       0.096624225 0.246897 0.11176501 -0.212358
000030 68 00 d8 bb 20 0b 00 3d e1 ae 90 be 8c f5 53 3e
       -0.0065918453 0.03126061 -0.28258422 0.20699137
000040 ca dd 4f 3e 2f 5b 5e 3c 69 af fa ba 4a 54 63 3e
       0.2029945 0.013571545 -0.0019125763 0.22200122
000050 b9 cb 84 bd 9d cb ea bc 03 c4 43 bc 26 1b 1f be
       -0.064841695 -0.028661544 -0.011948588 -0.155377
000060 dc 45 14 bd d4 5f c8 3d 33 66 ba 3b 26 a5 d1 3d
       -0.036199436 0.09783903 0.0056884526 0.10236578
000070 66 bc 09 be 55 4a 8e be 76 d2 e2 3d 28 34 04 3d
       -0.13450775 -0.27791086 0.110752985 0.032276303
000080 29 9c a8 bd dd ea cd 3d 3f 72 13 bd 62 28 4f 3e
       -0.0823291 0.10054562 -0.035997625 0.20230249
000090 3c 1e 6b be a5 d3 a1 bd 5f 71 00 3d 72 b7 89 bc
       -0.22960752 -0.07901696 0.03135812 -0.016811106
0000a0 79 c9 97 3e bf 4e 81 be 55 d5 9f 3d 6f a9 9f bd
       0.296459 -0.2525539 0.07804362 -0.07795989
0000b0 7e 24 af 3e 85 16 06 3e 38 70 92 3c ba 3e 7d 3e
       0.3420753 0.13094528 0.017875776 0.2473096
0000c0 9a 05 ee bd b0 e8 91 bd 34 41 7e be 1e e2 54 3e
       -0.11622162 -0.0712446 -0.2482956 0.20789382
0000d0 27 3e 1a 3e b1 72 1b 3e e2 34 d2 3d 6d ec a3 3d
       0.15062772 0.1518047 0.10263993 0.08004079
0000e0 6a ee 62 3c 1a 98 25 bd ae fb 3e 3d fc 9a 02 3e
       0.013850788 -0.04042826 0.04662674 0.12754434
0000f0 44 53 c9 3d 54 ce 2b 3e 82 b1 f9 3d 63 3c 38 3e
       0.09830335 0.16777927 0.1219206 0.17991786
000100 53 bf 91 3e e8 72 81 bd b6 44 d6 3d cb ac 1f 3d
       0.2846628 -0.06320745 0.10462324 0.038983148
000110 da f1 09 3d 68 b2 86 3e 2a 46 4b 3e f4 7e c0 3d
       0.033677913 0.26307988 0.19850984 0.093992144
000120 96 ab 29 3e 4d 2d 6d 3e 5a 48 37 3e 35 1b ed bd
       0.16569361 0.23161812 0.17898694 -0.11577455
000130 ed 31 06 3e 82 4f 8c bd ce 0c 54 3e f2 6c 15 3c
       0.13104983 -0.068511024 0.2070801 0.009120213
000140 e8 b4 c0 3d 4a d8 11 be dd 42 0e 3d 4a 03 a1 3c
       0.09409505 -0.14242664 0.034731735 0.019654889
000150 4d c8 74 bc 14 40 be 3d 58 6b aa 3d e9 53 16 3e
       -0.014940334 0.09289566 0.083212554 0.14680447
000160 db 7e 2b be e2 34 30 3d d3 4e bc 3d 09 50 0a 3e
       -0.1674761 0.043019183 0.09194722 0.13507093
000170 d7 f1 29 bc e4 03 dc 3c cb e8 8d bd bf d8 f2 bc
       -0.0103726005 0.026857324 -0.06929167 -0.029644368
000180 0b 6c 8d bc 2e dd cf bd 46 62 00 be 82 fb 39 3e
       -0.017263433 -0.101496086 -0.12537488 0.18162349
000190 1a e3 85 3b 22 16 dd bd 46 30 95 be 86 2f 82 bd
       0.0040859105 -0.10795237 -0.29138392 -0.063567206
0001a0 1a 2e 17 3e bc 90 af bb 66 fa 4a 3c 3b 0b d0 bd
       0.1476368 -0.00535783 0.012388801 -0.10158392
0001b0 9d 1f 85 3d ab a9 bb 3d c6 00 89 be d7 eb 01 3e
       0.065001704 0.09163221 -0.26758403 0.12687622
0001c0 7b 87 15 3e 00 13 0c 3e 5a d5 ea bc 2c 17 1b 3d
       0.14602463 0.13679123 -0.028666187 0.037863895
0001d0 1d 77 12 be 12 75 d8 be bb 47 fd 3a 75 bc 34 be
       -0.1430325 -0.42276818 0.0019323746 -0.17650016
0001e0 cc 09 66 3d d9 c1 18 be 58 e5 15 bd 39 22 55 bd
       0.056161687 -0.14917697 -0.036595672 -0.05203459
0001f0 01 46 dc bd 27 3d 58 bc c3 46 3c be 9c 18 d0 3c
       -0.1075554 -0.013198174 -0.18386368 0.02540236
000200 9f bc 09 3e 25 62 5f be 80 5b e9 bc 45 40 65 3d
       0.1345086 -0.21814783 -0.028486013 0.055969495
000210 77 84 b0 3d b7 c0 44 be 2a 0a 32 bd 43 41 ef bd
       0.08619016 -0.1921414 -0.043466724 -0.116823696
000220 dc 0d 63 3c e1 ab 15 be 10 14 14 be f7 c0 01 3e
       0.013858285 -0.14616348 -0.14460778 0.12671266
000230 fe db a0 bd 17 ee 21 be 92 6d 8f 3d 40 91 13 3e
       -0.0785446 -0.1581348 0.07003321 0.14410877
000240 9b 8e 1d 3d 21 c4 24 be d4 b7 d1 3d 67 f2 50 3c
       0.038466077 -0.16090442 0.102401406 0.012753106
000250 66 37 36 be 80 41 17 be 87 71 7f be 56 5b 13 be
       -0.1779457 -0.1477108 -0.24945651 -0.1439031
000260 f4 70 62 bc 5a b0 02 3e 67 01 28 be 30 e0 76 3e
       -0.013820875 0.12762585 -0.16406785 0.24108958
000270 d5 7e 10 be eb 36 5b bc dd 96 bf bd 4f 9e 04 3e
       -0.14110883 -0.013379793 -0.09354947 0.12951015
000280 56 2c 71 bd a4 11 3a bd 19 ec 3e 3d fd 6e f0 3c
       -0.058880173 -0.04542698 0.04661188 0.029349798
000290 f0 67 fe bd f3 52 9a be 16 0f ac be 1f 5c 9f 3d
       -0.12422168 -0.3014141 -0.3360526 0.077812426
0002a0 91 59 cd bd 57 f6 f0 bd cc 3c 9c be 2e f1 8a bc
       -0.10026849 -0.117657356 -0.30515134 -0.016960707
0002b0 6c 6d 01 be 4a 9e 64 3b c2 1a 91 3c cf 92 f0 3d
       -0.12639397 0.0034884387 0.017712954 0.117467515
0002c0 4d 9c be 3d 1c 71 49 be c0 cc 73 be f8 cb b9 bd
       0.09307156 -0.19672054 -0.23808575 -0.09072107
0002d0 5c b5 93 3d 7a 9e ba bd 54 66 87 bd ca 17 85 3e
       0.07212326 -0.09112258 -0.066113144 0.25994712
0002e0 f5 16 2c 3e 7f 4f bf 3e 35 a1 5f bd 67 ab ec 3c
       0.16805632 0.37365338 -0.0545971 0.028890325
0002f0 ed 24 3d be 67 70 53 3d 0f b0 63 bd a8 40 01 bd
       -0.18471117 0.051620867 -0.055587824 -0.0315558
000300 36 4c 85 3e 87 c1 89 be 67 e3 a1 bd 98 b2 71 3e
       0.26034707 -0.26905462 -0.07904702 0.23603284
000310 d7 75 a3 3d a0 5d fe bc 09 76 d9 bd 5b 7d 77 3d
       0.079814605 -0.031050503 -0.106182165 0.060422283
000320 16 a2 b2 be 52 43 1d 3e ca bc d1 bc ac 0d b4 3d
       -0.34889287 0.15357712 -0.025602717 0.0879167
000330 d9 7c 56 3d 90 b6 8a bd bb 4a c0 3b de 6e 4a be
       0.052365158 -0.06773102 0.0058682836 -0.19768855
000340 a0 69 12 bc 89 b4 97 3d 41 6b 65 3e 95 3e e9 3c
       -0.008936316 0.07407481 0.22404195 0.028472224
000350 b7 64 23 3e c3 1b f0 3d e4 3e 47 be 3d bb 31 bd
       0.15956388 0.11724045 -0.19457585 -0.043391455
000360 08 1b 86 3b 70 19 63 3e b6 0f 1e 3e 01 df 49 3e
       0.004092578 0.22177672 0.15435681 0.19713975
000370 05 f1 1c 3d 18 f8 34 3e 2d 88 1b be 69 ba b0 3d
       0.03831579 0.17672765 -0.15188666 0.08629305
000380 fb ec 1b bc d7 47 2e bb 1b ef 96 3c df 97 9e 3d
       -0.00951695 -0.0026593113 0.018424561 0.07743811
000390 d7 55 5d 3e 89 be f0 3d 42 c3 64 be a7 4c 4b bd
       0.21614777 0.11755092 -0.2234011 -0.04963365
0003a0 60 9c 75 be 95 5c a6 be 47 bb 68 bd ee e4 9f 3e
       -0.23985434 -0.3249251 -0.056819227 0.31229347
0003b0 bd b2 29 3c be ef 0c bd c9 40 d4 bb 9c 90 2a bd
       0.010357556 -0.034408323 -0.0064774496 -0.041641816
0003c0 1e 7f 97 be ed 1a b2 bd df 92 da bd cb 5c 72 be
       -0.2958917 -0.08696542 -0.10672545 -0.2366821
0003d0 f3 bf 67 be bc 78 2e 3d f9 35 f3 bc 10 be 3a 3c
       -0.22631817 0.04259561 -0.029688822 0.0113978535
0003e0 20 9b 47 be 39 c7 e8 3d a5 7c c2 bd bd ab b6 be
       -0.19492769 0.11366124 -0.0949643 -0.356779
0003f0 05 dd 82 be c8 a9 4b 3e 8f 31 3a 3c 6f 0a 04 3e
       -0.2555925 0.19888985 0.011364355 0.12894605

network_body._body_endoder.seq_layers.0.bias f4 [128]
000000 c8 7f 0c 3d 8a f0 e7 3c d5 4b e5 bc 82 2d 2f bd
       0.03430155 0.02831294 -0.027990261 -0.04276801
000010 24 d6 a7 3c 1b ec 4e bc 3c e9 5d bc df 79 95 3b
       0.020487852 -0.012629534 -0.013544377 0.0045616473
000020 9c 30 84 3c 6e 27 41 3d 2b 38 81 bc 3d 55 d2 3b
       0.01613646 0.047156744 -0.015773853 0.0064188526
000030 96 48 9e 3b af b7 d8 3c c1 98 d0 3b a8 b1 5e 3d
       0.0048304303 0.026454775 0.006365866 0.054368645
000040 73 2e 75 3c bf 05 4d bc 28 29 b4 3c 0d 0f 00 3c
       0.014964688 -0.012513577 0.021992281 0.007816088
000050 58 2d 3f 3c 51 5e 77 3b 83 78 75 bc 26 8d a8 3c
       0.011668526 0.0037745426 -0.0149823455 0.020575117
000060 ec 35 18 bb cf 8e ba 3c 86 d8 25 3d ee 7d ca 3c
       -0.00232255 0.022773175 0.040489696 0.024718251
000070 03 78 80 3c ac 6f 94 bc 1c 87 10 3d 92 39 74 3c
       0.015682226 -0.018119656 0.0352851 0.014906304
000080 3f b8 cb 3b 49 d6 bb 3c 0e 87 9c 3c 5a cf 0d 3d
       0.006217032 0.022929328 0.019107368 0.034621574
000090 d8 30 57 bc 7f 3d 4e 3b c4 41 ba 3c c4 9b 2b 3c
       -0.013134204 0.003146976 0.022736438 0.010474149
0000a0 fa e3 d0 bb 45 a4 d8 3c 41 50 bf ba 44 0b dc 3c
       -0.006374833 0.026445517 -0.0014596061 0.02686084
0000b0 4a 0f 20 3b 5b be 7b 3d 75 61 3c 3c ce 75 04 bd
       0.0024423175 0.061460834 0.011497845 -0.03233891
0000c0 0d 95 aa bb 33 28 c3 3c 6e d8 00 3b be 95 d3 3c
       -0.0052057565 0.02382288 0.0019660252 0.025828239
0000d0 85 c7 dd 3c 84 38 e5 3b 00 c8 d0 3c 1c 70 dd 3c
       0.027072677 0.0069952626 0.025485992 0.027030997
0000e0 de 8f 27 3d ed ee 68 ba 24 fe cd ba 1e f7 5d 3c
       0.040908687 -0.00088857004 -0.0015715999 0.013547687
0000f0 58 d1 12 3c 1b f8 20 3c e1 84 76 3b 2e af d3 3b
       0.008961044 0.009824778 0.0037615823 0.006460092
000100 4d 1e 2b 3c 4d 73 2e 3d d4 4c 93 3a f8 79 ba bc
       0.010444236 0.04259043 0.0011238107 -0.022763237
000110 6a 34 88 bc 63 53 52 3b 37 1d 97 bb bf fc b7 bc
       -0.016626555 0.003209316 -0.004611637 -0.022459386
000120 9a f3 a9 3b d8 2d c9 3b b3 91 af 3c 98 4c af 3c
       0.0051865103 0.006139498 0.02143178 0.021398827
000130 95 14 d1 3b 9f 28 25 3d 15 be d3 3c 30 5b 8f bc
       0.0063806274 0.040321942 0.025847474 -0.017499536
000140 37 e9 2d 3c 19 3e aa 3c 3e 09 09 3d 15 34 a0 3c
       0.010614685 0.020781564 0.03345608 0.019556085
000150 83 41 92 3c 61 78 4d 3d 44 e0 cb 3c 53 4b 75 bc
       0.017853504 0.05016363 0.024887212 -0.014971572
000160 fd e2 a8 3c 20 83 2b 3c 31 00 59 3c 42 1d d8 bc
       0.020616049 0.010468274 0.013244675 -0.026381139
000170 e4 9d 53 3b 2c 66 f7 3c 4d 77 7e bb f5 35 48 3b
       0.0032290155 0.030200087 -0.0038828433 0.003054974
000180 03 cd c0 3c f5 79 cf bc 6a 04 08 3a 23 bc 4c bc
       0.023535257 -0.025326708 0.0005188646 -0.012496027
000190 e2 11 11 bd 0d e6 2e 3d 9b 0b 86 3c 5a 24 06 3d
       -0.035417445 0.042699862 0.016362956 0.03274951
0001a0 17 df 2d 3d 59 5b 98 3c 2e 6c 65 3c 8c 12 9a 3c
       0.042449083 0.018598245 0.014002843 0.018807672
0001b0 b8 bf fa 3b fb 9b fd 3b 7b 8b 26 bc 3a f3 85 3c
       0.007652249 0.0077395416 -0.010165091 0.016351331
0001c0 53 35 be bb 64 5c aa 39 b3 f5 32 3d fa f5 b1 3c
       -0.0058046966 0.00032493763 0.04369135 0.021723736
0001d0 1e 23 02 3d 2d c6 0c bd 26 59 37 3c 9e 45 a3 3a
       0.03177177 -0.034368683 0.011190688 0.0012456661
0001e0 b4 b8 bf 3b 79 ac 2d 3d 78 67 24 bc 6f 6e b0 bc
       0.0058508758 0.04240081 -0.0100344345 -0.021537034
0001f0 ce 58 bf 3b 1f d8 fa 3b 9b 3c 07 3c 80 7d d7 3c
       0.0058394438 0.007655158 0.008254196 0.02630496

network_body._body_endoder.seq_layers.2.weight f4 [128, 128]
000000 60 f4 e8 bc 31 29 4f bd ea e6 06 be 2d 89 49 bd
       -0.02843684 -0.050576393 -0.13174024 -0.049203087
000010 9e 47 ab bc e7 c0 65 3d 12 c0 ff bc 84 e1 1b bd
       -0.020908173 0.05609217 -0.031219516 -0.038056865
000020 f0 70 03 3d 5c 17 04 bc 33 53 41 3d c7 bb c8 3d
       0.032090127 -0.00806221 0.047198486 0.09801441
000030 37 f7 dd 3d 21 d5 8e 3d 51 1f 51 bd 53 a7 1d bc
       0.10838168 0.06974245 -0.051055256 -0.009622413
000040 63 75 8d bd f7 c6 47 be a6 af de bd 4b 81 bb bc
       -0.06907155 -0.19509493 -0.10873346 -0.0228888
000050 d3 48 8a 3d 55 3e 0e bd d7 31 b0 bd 2a 12 07 3d
       0.06752171 -0.034727413 -0.08603256 0.032976307
000060 1e 84 7b 3c 99 d8 4b bc 6d e5 19 bc 60 59 eb bc
       0.015351323 -0.012441778 -0.009393078 -0.02872914
000070 b7 43 ef bb 14 70 4a bc f4 d5 42 3e 9c 61 57 bd
       -0.0073017734 -0.012355823 0.19026929 -0.052583322
000080 9f 23 e9 bc cd 1f e1 bd ec d3 17 bd 1e 18 f6 bd
       -0.028459368 -0.10992394 -0.03706734 -0.12016319
000090 e6 14 a1 3d 21 7f 3c 3e e2 24 fb 3a ea 64 2f 3e
       0.07865314 0.18407871 0.0019160772 0.1712834
0000a0 18 60 3a 3e a4 eb 08 3e 81 e6 07 bd 1a 8f 06 3e
       0.1820072 0.1337114 -0.03317881 0.13140526
0000b0 0f 8d 80 bc 4a 29 4a 3e f2 d0 b1 bc a4 73 16 bd
       -0.015692262 0.19742313 -0.021706078 -0.036731377
0000c0 78 8a fa bb e9 13 92 be 3a 46 6e bc 57 3d 9c bc
       -0.0076459013 -0.28530815 -0.0145431105 -0.019072218
0000d0 54 a6 4f 3d 39 86 dd 3d 04 1f 70 3d 43 c9 da 3d
       0.050695732 0.108166166 0.05862333 0.10682919
0000e0 ff 84 13 3e 0f 6a f0 bc 0d 77 a1 bd ed b8 af bc
       0.14406203 -0.029347448 -0.07884035 -0.021450484
0000f0 f3 f1 21 be d7 8e d3 3d ed a3 33 bd 99 7c 9e 3d
       -0.15814953 0.10329979 -0.043857504 0.07738609
000100 3f 88 6f 3d 33 f1 8b 3c d3 70 a6 bd ba 18 04 bd
       0.058479544 0.017082786 -0.08126988 -0.032250144
000110 9b ed ea 3d 1c 81 55 bc 89 58 bc 3d cb b4 11 be
       0.11471101 -0.01303127 0.09196574 -0.14229123
000120 ab bc 23 be 57 9b 0f be aa 77 53 be 39 bc aa bd
       -0.1598994 -0.14024101 -0.20651117 -0.08336682
000130 7a 91 94 bd d8 d4 3f 3d 73 c8 b3 3d de af c1 bb
       -0.0725431 0.046833843 0.08778467 -0.0059108576
000140 cf 7e c2 bc 8a a4 95 bc 64 61 0d 3d a0 4e 42 3c
       -0.023742108 -0.018266935 0.034516707 0.011859566
000150 6e 96 99 3d 60 9b 31 be 72 e4 8d bd 28 07 6e bd
       0.07499395 -0.17344427 -0.06928338 -0.058112293
000160 44 bb db bd 11 3e ae bd d4 9f 1f be 58 8b 83 bd
       -0.107290775 -0.08507932 -0.15588313 -0.06423062
000170 9b 1c c2 3d d2 78 8f bd f8 17 cc bd 10 60 31 bd
       0.09478112 -0.070054665 -0.09965509 -0.043304503
000180 d4 65 bd 3d 88 8d f0 3b 1a cd a7 bc df c0 4d be
       0.09247938 0.0073410906 -0.020483542 -0.20093106
000190 29 c8 2b be 8a cd 46 3d 60 99 bd bc f2 5d 85 bc
       -0.16775574 0.04853586 -0.023144424 -0.016280148
0001a0 9e fd f0 3d d6 3c a2 3d c6 b9 0f be ce ce 1f bd
       0.11767124 0.0792176 -0.1403571 -0.039015584
0001b0 05 de 66 3c ce 3e 14 bd 32 1c 4e bd 9c 31 03 3e
       0.0140910195 -0.036192708 -0.050319858 0.12811893
0001c0 59 fc 96 3d 0a d0 bf 3b 27 d9 a0 bd 9b 6f 40 bd
       0.0737235 0.0058536576 -0.078539185 -0.046981435
0001d0 56 ee 74 be c9 4a 18 3a c2 cc d2 3d b9 d4 1b 3d
       -0.23919043 0.00058094837 0.10292961 0.038044665
0001e0 10 99 cb bd c1 c3 13 3e 92 63 06 be 7e 5d 04 bc
       -0.09941304 0.14430143 -0.1312392 -0.008078931
0001f0 07 5a d2 bd 74 e1 e3 bd 16 8b c8 bc 71 ac 1d 3d
       -0.102710776 -0.11126986 -0.024480384 0.03849453
000200 60 73 dd bd d4 c6 e1 3d 31 e3 e0 bc d9 db 46 bc
       -0.10813022 0.110242516 -0.027452083 -0.012137377
000210 df c4 a0 3d 59 6e 16 3e 7d d1 1a 3e b9 97 55 bc
       0.0785005 0.14690532 0.15118976 -0.013036662
000220 73 37 55 3c 73 ac c6 bc 89 09 6c be e2 db eb 3d
       0.013013708 -0.024252152 -0.23050512 0.11516549
000230 1f c8 f7 bc f4 70 10 3e 51 ec 00 be 51 d2 7c 3a
       -0.030246792 0.14105588 -0.12590148 0.00096443767
000240 3b 51 a3 3d 25 18 71 bd ef f5 44 3d 06 61 69 bc
       0.07974478 -0.058860917 0.048086103 -0.014244324
000250 f9 c9 ab 3d 1a 40 44 be 05 84 ae 3d 43 cc 36 be
       0.083881326 -0.19165078 0.085212745 -0.17851357
000260 a2 ac 22 3d cb 01 21 bd 4d 75 09 3d 32 a9 43 bd
       0.039715417 -0.03930835 0.033559132 -0.04776878
000270 48 84 35 bd d5 8e 67 3d 34 66 00 be 06 04 0f 3e
       -0.044315606 0.0565327 -0.12538987 0.13966379
000280 92 7e 10 3c fb 78 50 bd 8c fc 52 bd 90 e1 23 3c
       0.008819239 -0.050896626 -0.05151038 0.010002509
000290 a6 ee e6 bd ad 31 a4 3d 56 43 6d bc a0 46 6e bc
       -0.11275987 0.080172874 -0.014481386 -0.0145432055
0002a0 ad 5b 56 3d 4a 0a 67 3c 6e 0d 17 be 93 18 04 3e
       0.052333523 0.014101574 -0.14751217 0.129
0002b0 f3 13 f1 bb c7 66 71 bd f4 fd 99 bd e2 48 5c be
       -0.0073571145 -0.058935907 -0.07519141 -0.21512178
0002c0 e6 26 09 bd 7a 0a f6 3c 01 3c d5 bd 9a 9f 00 be
       -0.033484362 0.030034292 -0.104118355 -0.12560883
0002d0 69 17 4b 3d 23 e8 27 be f0 3d 5e 3d e9 7f 01 be
       0.049582873 -0.16397147 0.054258287 -0.1264645
0002e0 99 33 2a 3c 00 2b d1 bc a1 81 50 bd d9 9c 4e 3b
       0.010388278 -0.0255332 -0.050904874 0.0031526594
0002f0 e5 29 45 3e 23 d0 ae bd 6e d1 89 bd 0b f2 ed bd
       0.19254263 -0.08535793 -0.06729399 -0.11618432
000300 21 53 ba 3d 17 81 97 bd 39 9a eb 3d 84 46 85 bd
       0.09097887 -0.07397669 0.11504025 -0.065075904
000310 1e e6 9b bd 9f a5 05 be 10 17 dd b8 7c c7 85 bd
       -0.07612251 -0.1305146 -0.00010542397 -0.06532189
000320 c6 fe 5b bd 76 eb b3 bd 45 f8 ee 3d 20 02 59 bb
       -0.053709768 -0.08785145 0.116684474 -0.003311284
000330 cc 0b 03 3e 00 e1 e2 3d 34 22 3f bb c9 6d 93 bb
       0.12797469 0.110780716 -0.0029164674 -0.0044991714
000340 41 b1 b9 3d 31 7d 81 3d 82 37 c4 3d 69 bf b1 bd
       0.090670116 0.063227065 0.095809 -0.08679087
000350 6b 66 b7 bd 73 ca de 3d 11 49 37 3d ad 61 fd 3b
       -0.089550816 0.10878458 0.044747416 0.007732591
000360 ad c5 dc 3d 34 38 f2 bb 2e 13 00 be 07 3b 4e 3b
       0.10779891 -0.007391954 -0.12507316 0.0031468289
000370 7d 02 41 be 94 4d e2 3c 92 7f 04 3b 40 d1 37 3e
       -0.18848605 0.027624883 0.002021764 0.17950916
000380 b5 31 49 3d 2c 94 be 3c 01 6d c3 3d ea 68 74 bd
       0.04911967 0.023264013 0.09542275 -0.059670366
000390 aa b0 59 3c e6 72 25 3d f9 a4 12 3d fd d4 5b bd
       0.013286749 0.04039278 0.03580186 -0.05366992
0003a0 e2 24 25 bd 42 e4 55 bc bf b0 fe 3c fe 7a dd 3c
       -0.040318377 -0.013054909 0.031090138 0.027036186
0003b0 d8 f5 b7 3d 2e fd a3 3d 7d 90 24 be 27 d8 df bd
       0.08982438 0.080072746 -0.16070743 -0.109299
0003c0 22 99 ba 3c 8e 51 71 ba 44 29 1f be 2e 90 47 bd
       0.022778098 -0.0009205573 -0.15543085 -0.048721485
0003d0 28 cb 31 3e 5b fe d2 bd 2b 7f 96 bd 2c a1 30 3d
       0.17362654 -0.10302421 -0.07348474 0.043122455
0003e0 68 5b 61 3c a9 b4 fb 3d 16 fd 5f bd 9a 67 b1 bd
       0.013754703 0.122903176 -0.05468472 -0.086623386
0003f0 2b 7c b0 bd cc d5 1f be 3f 5a d2 3c ac 40 38 bd
       -0.08617433 -0.15608901 0.025677798 -0.04498355

network_body._body_endoder.seq_layers.2.bias f4 [128]
000000 71 1e 1f 3c 86 cf 8c 3c ba c7 bb 3b 48 75 00 3d
       0.009711848 0.017188799 0.0057305964 0.031361848
000010 38 d1 b7 bb a5 91 8a 3c 88 45 b1 3c 74 fa 25 bc
       -0.0056096576 0.016915152 0.0216396 -0.010130513
000020 79 c9 1b 3c dd 1b 1a 3c 2b e1 63 3c 61 d1 f4 3c
       0.009508484 0.009406057 0.013908665 0.029884996
000030 a0 48 44 3c bf 45 88 3c 7d f1 a6 3b 30 e8 b7 3c
       0.011980206 0.01663482 0.0050947056 0.022449583
000040 43 ff 80 3a 8b 0a aa 3c 75 c3 d9 3c 03 15 b6 3b
       0.0009841699 0.02075698 0.026582459 0.005556704
000050 3f 10 7c ba e8 ea af 3b d8 42 08 3a df db c5 bb
       -0.0009615458 0.005368579 0.0005197949 -0.0060381736
000060 39 c3 f5 3b 7d f5 c3 3b 96 fb 9a 3b ee 37 b9 3c
       0.007500079 0.005980192 0.0047296984 0.022609677
000070 1d 60 e6 3c b2 44 70 3c 97 b5 b5 3c aa b5 de 3c
       0.028122002 0.014664816 0.022181315 0.027186234
000080 b2 9e da bb 99 b1 40 3c 83 fe 89 3c 8b 70 a3 bb
       -0.00667175 0.011761093 0.016844993 -0.0049877814
000090 da a8 f3 3b a0 a8 6b 3c 2f 38 fb 3c 30 0a e1 3c
       0.0074359 0.014383465 0.030666439 0.027470678
0000a0 cf e8 1d 3c 2d 16 2a 3c 2a ee 80 bb 96 85 9c 3c
       0.009638025 0.010381264 -0.0039346414 0.019106667
0000b0 0e af 8e bc 48 ea af 3c e0 9f 02 3d 2a df a1 bc
       -0.017417457 0.021474019 0.03189075 -0.019759733
0000c0 7c 90 b7 3c 29 c1 b1 3c 11 db 1e 3a 00 c5 8a bb
       0.022407763 0.021698551 0.0006059865 -0.00423491
0000d0 dd 59 7b 3c ec 26 e5 3c fc 59 a8 bb 2b b7 6a 3c
       0.015341249 0.027972661 -0.00513768 0.014325897
0000e0 44 0f 64 3c e6 4b dd 3c 0e fe 67 3c e9 69 1d 3c
       0.013919655 0.02701373 0.014159692 0.0096077705
0000f0 db 11 8d 3c 59 f6 e7 3c d8 3a 5e bc 56 91 52 3c
       0.017220428 0.02831571 -0.013563834 0.012852034
000100 eb 91 d7 3c df 32 83 bc 37 1a 7e 3c ff bc 35 3c
       0.026314696 -0.016015468 0.01550918 0.011092423
000110 3a b3 71 bc d7 ec f4 3c c7 97 cd 3c c9 7b 6e 3b
       -0.014752204 0.02989809 0.025096787 0.00363897
000120 ea 95 e5 3c 51 a6 f2 3c 1d 4b 9b 3b 23 cd bf 3c
       0.028025586 0.029620321 0.004739179 0.023413246
000130 14 34 ba 3c e1 0e eb 39 a2 33 b4 bc a4 c3 72 3c
       0.02272991 0.00044833779 -0.021997277 0.014817152
000140 59 f0 8e 3c ca 2e bf 3c 1d 19 a3 3c 13 33 00 3b
       0.017448591 0.02333774 0.019909436 0.0019561693
000150 98 ad ae 3c e0 92 05 bc 66 fb c9 3c 24 2f c9 3c
       0.02132301 -0.0081526935 0.024656009 0.024558611
000160 ee cb 1c 3c 0f ed 89 3c bd 99 c5 3a 75 02 1d 3d
       0.009570105 0.016836671 0.0015075725 0.03833242
000170 3b 78 87 3c 9c bf 64 3c 35 8d 2b 3b 0f 66 05 3c
       0.016536823 0.013961699 0.0026176695 0.008142008
000180 92 01 a1 3c e0 d2 5c 3c e3 79 05 3d 03 80 08 3d
       0.01965407 0.013478011 0.032586943 0.033325206
000190 ec fa 8c bb 52 75 9a 3c d9 54 19 3c 80 3b 59 bb
       -0.004302373 0.01885477 0.009358608 -0.0033147037
0001a0 2f 60 69 3b f7 c6 80 3c 99 82 ac 3c 03 b3 96 3c
       0.0035610308 0.015719874 0.021058368 0.018395906
0001b0 a1 a1 85 3c 70 91 05 3a 2d 5a 84 bc ab 67 af 3c
       0.016312422 0.0005095219 -0.01615628 0.021411737
0001c0 d5 4b 40 3c e6 8b 78 3c d3 97 1a 3c 4a 72 7d 3c
       0.01173683 0.015170073 0.009435612 0.015469143
0001d0 11 75 69 3a ae 43 9d bc 78 78 68 3c 81 24 58 3c
       0.0008905689 -0.019197311 0.014188878 0.013192297
0001e0 e5 fe 5b 3c d3 db 1c 3c 08 8e 7e 3c 7e 2d c4 bc
       0.013427471 0.009573895 0.015536793 -0.023947474
0001f0 90 73 b8 3c a5 e5 87 3c b4 d4 41 3a 83 a2 c1 3c
       0.022516042 0.016588995 0.0007394061 0.023637062

action_model._continuous_distribution.log_sigma f4 [1, 5]
000000 12 e2 78 bc 38 01 c2 bb 07 42 19 bc a8 21 3e 3c
       -0.015190618 -0.0059205554 -0.009354121 0.011604704
000010 9c d2 08 3c
       0.008350994

action_model._continuous_distribution.mu.weight f4 [5, 128]
000000 1e 43 83 3d 6e 9e 08 bc 66 34 82 bd 0d 8e 00 3c
       0.06409286 -0.008338554 -0.063576505 0.007846368
000010 c5 f2 51 3b 7d 4d dd 3b a5 d7 a4 3c 8e 93 08 bd
       0.003203557 0.006753622 0.020122359 -0.033343844
000020 b8 54 0b 3d f9 22 13 bd e7 86 41 3d 1c 35 24 3c
       0.03401634 -0.035922024 0.047247794 0.010022428
000030 44 39 27 bd 06 6a b1 38 08 8f 13 bc dd 04 dc bd
       -0.040826097 8.459766e-05 -0.009006269 -0.10743115
000040 6a c6 60 3c f2 4c bb 3d 03 6b a0 bb 24 bd 37 3c
       0.013719181 0.091455355 -0.0048955693 0.011214528
000050 ea e8 c2 bd 9a 5c 24 3d 4e 04 8a 3d 1f 9b a7 3c
       -0.09517081 0.040127374 0.06739102 0.02045971
000060 60 77 70 3d 9d d3 64 3d 89 85 0d 3d c2 71 27 3d
       0.058707595 0.055865873 0.034551177 0.040879972
000070 98 48 84 3d ad 45 01 3e cc 31 ed bc 93 c7 af 3d
       0.06459159 0.12624235 -0.028954409 0.08582988
000080 23 59 a9 bd 07 85 69 3d fd ae 46 bd 48 b6 e2 bc
       -0.082689546 0.05701163 -0.048506726 -0.02767481
000090 56 52 5a 3c 66 e4 dc 3c ed 5b dc 3b 7f 3d 34 bd
       0.0133252945 0.026964378 0.0067248256 -0.04400396
0000a0 94 1d f7 bb bd 4c 0c 3d ba 87 24 3c ae 6d d6 3b
       -0.007541368 0.03425287 0.010042125 0.0065438366
0000b0 d4 c3 bf 3a 1b e3 b7 bd dd 9e dd bc 67 03 30 bd
       0.0014630505 -0.08978864 -0.027053291 -0.042971995
0000c0 ef c9 ad 3c 83 a6 9f 3d 8a 78 6c bc bb ac cb bc
       0.021214454 0.077954315 -0.014433036 -0.024862638
0000d0 7e d2 fd 3c 1a 86 e9 3d 76 70 97 3c b2 af 95 3d
       0.03098416 0.11402531 0.018486243 0.07308902
0000e0 63 5f 8a 3d c8 f6 bd bd 29 d4 ec bc f8 50 8e bc
       0.06756475 -0.092755854 -0.02890976 -0.017372593
0000f0 d0 51 35 3c 28 a0 c6 3a 69 97 02 bd 75 80 96 bc
       0.011066869 0.0015153931 -0.031882677 -0.0183718
000100 14 8b 86 3d c0 ba 93 3c 36 a7 47 bd 55 8b c7 ba
       0.06569496 0.018033385 -0.04874345 -0.0015224019
000110 ed 54 3f bc cb bc b0 3d 53 49 82 3c 13 ab 7a bd
       -0.011677963 0.086297594 0.015904104 -0.061198305
000120 75 f0 cc bb b9 13 1c 3d 9e c6 23 3d b5 88 ac bd
       -0.0062542506 0.038104746 0.039984338 -0.08424512
000130 22 5b 16 3d dc 4a 3f 3d e3 7e 3f bb 09 f1 2e bb
       0.036708005 0.04670225 -0.0029219917 -0.002669396
000140 2a 08 9f 3c ef d0 9d 3d 3f bc a2 3d 81 5b 8b bd
       0.019413073 0.077058665 0.07946061 -0.06804562
000150 75 f0 1a 3d 06 21 24 3d 5e 14 16 bd 24 1a 55 3c
       0.037826974 0.040070556 -0.036640517 0.013006721
000160 64 0d 49 3d f9 21 08 3d d3 46 2e 3c a3 ba 8d 3c
       0.049085036 0.033235524 0.010637003 0.01730091
000170 c5 c3 cd 3b 1d d1 8c 3d 40 67 67 3d 42 19 f1 3c
       0.006279441 0.06875823 0.05649495 0.02943099
000180 02 ad bc bb 64 77 62 3d 27 9e c1 bc 9a ed 89 bd
       -0.005757929 0.05528964 -0.023634983 -0.06734772
000190 ab 59 3e 3d 73 99 57 bd cf a5 ca 3b 5e d5 f6 bb
       0.046472233 -0.052636575 0.0061843167 -0.0075327596
0001a0 71 3c 30 3d f0 60 4a 3d b4 5f d2 bc ec 91 73 3d
       0.04302639 0.049408853 -0.0256804 0.059465334
0001b0 6f 84 56 bd 3b 0f 22 bd 77 8d 31 bc f2 fc ef 3c
       -0.052372392 -0.039565306 -0.0108369505 0.029295418
0001c0 a7 ab 53 3c 54 3d 51 bd bf a6 97 bc 43 d6 56 3d
       0.012919343 -0.051083878 -0.018512128 0.05245043
0001d0 e7 e1 8b bb c5 c2 de 3c de f5 19 bd 21 04 c1 3c
       -0.004268873 0.027192483 -0.037587993 0.02356154
0001e0 23 77 af 3d 6d 6c 1b 3c cb 9d 54 bd b2 c2 94 bc
       0.085676454 0.0094863 -0.051908296 -0.018159244
0001f0 8e e5 a9 bd d5 75 25 bd 10 4b e1 3c 6f 0d 3d bd
       -0.08295737 -0.040395577 0.027501613 -0.04615539
000200 8e c7 9a 3c 73 69 53 bd f7 07 19 bd cb af 55 bd
       0.018893983 -0.051614236 -0.03736111 -0.052169602
000210 51 9f a5 3c 3a b2 e9 ba b4 30 41 bd d2 3d 31 3d
       0.02021757 -0.0017829605 -0.047165588 0.043271847
000220 60 d5 ca 3c 24 aa 8c bc 72 06 f4 3c 68 7a 57 bd
       0.024759948 -0.017170973 0.02978823 -0.05260697
000230 ec 65 14 bd 3e 3d f1 3c 2f 37 a0 3c a0 46 87 bc
       -0.036230013 0.029448148 0.019557564 -0.016513169
000240 58 c2 aa bc 4e b8 00 bd 98 78 c4 bc ee 63 f0 bc
       -0.020844623 -0.031425767 -0.023983285 -0.029344525
000250 74 ff c4 bb eb 3c c9 3b 93 36 6a bc 9f fa 74 3c
       -0.0060118977 0.006141295 -0.014295238 0.014952331
000260 51 7c a7 3c 46 17 1c bc ac 3e ac 3c 17 30 5d bd
       0.02044502 -0.009527033 0.021025978 -0.05400094
000270 1a 4a 3a bc 17 01 eb 3c e0 4a 5a bd 4e ab 02 3d
       -0.011370206 0.028687043 -0.053294063 0.03190165
000280 14 f2 54 3c 01 cc d1 3b 4f 91 09 bc 90 7c 0c 3d
       0.012997169 0.006402493 -0.008396461 0.03429848
000290 6d 1e da 3c f7 cd 65 3c 70 47 79 bd 59 b0 47 bd
       0.026625836 0.014026157 -0.060859144 -0.048752163
0002a0 38 d3 6a bc 58 42 2d bd 37 90 94 39 7b b2 3e bd
       -0.014332585 -0.0422996 0.00028336208 -0.04655693
0002b0 c0 2f d7 3c f4 8b b5 bc 61 79 19 bd b6 8e e4 3c
       0.026267886 -0.022161461 -0.03746927 0.027900081
0002c0 bd b2 69 bd 39 3e 1d bc 2c ad 52 3c db f6 a8 3c
       -0.057055224 -0.009597355 0.01285867 0.020625522
0002d0 b6 63 f4 bc 52 8e 99 bc cb e5 17 3d ee fa ce 3a
       -0.029832702 -0.018744621 0.037084382 0.0015791336
0002e0 6b ce 61 3b 9b 08 14 bd ef 9b d3 bc d0 39 dd bc
       0.003445531 -0.03614102 -0.02583119 -0.027005106
0002f0 e5 56 0f 3c 7f 8b 5e bd 90 5a 0b 3d 51 cd 88 bd
       0.008748745 -0.054332253 0.034021914 -0.06679786
000300 ee 3c 75 bc 3c ad 9b 3d 3d dc 05 bd f9 f1 e4 bc
       -0.01496814 0.07601401 -0.03268074 -0.027947413
000310 51 2f 07 3d 6d a9 bc 3a ba f5 77 bd 47 2d df 3c
       0.03300411 0.0014393755 -0.060537077 0.02724327
000320 d7 b5 33 bd 95 de 9b bc 69 2c ef bb b5 87 0c bd
       -0.043874588 -0.019027034 -0.0072989953 -0.034309108
000330 d1 dc 2b bd 3a 74 d8 3c 74 81 7e 3d 93 ec 04 bd
       -0.041958634 0.026422609 0.062135175 -0.032452177
000340 f2 e7 0d bd 96 61 07 bd f3 34 4a 3c 86 85 f1 bb
       -0.03464503 -0.03305205 0.012341726 -0.0073706536
000350 7f d0 50 3c f7 5f 82 3d 25 d2 15 bd 8c ed 88 bb
       0.012745022 0.0636596 -0.036577363 -0.0041787084
000360 ec f9 1c bd 9e 01 01 bd 51 64 2e 3c e6 c6 39 3c
       -0.03832428 -0.031495683 0.0106440345 0.011338925
000370 a9 2e af 3b ad ad 19 3b 66 2f 97 3c 37 3d c2 bb
       0.0053461385 0.0023449466 0.018455219 -0.0059277075
000380 a8 0a c2 3c a3 b9 0f bc 9d 5f 6d bd 35 0b 25 bd
       0.023686722 -0.008772287 -0.057952512 -0.04029389
000390 84 a1 69 3b bb f6 65 3b 39 d3 b0 bc 15 19 ce 3c
       0.003564925 0.003508969 -0.021585094 0.025158444
0003a0 bf f0 3f bc b8 09 1c 3c 34 d6 ed bc 4d 42 35 bd
       -0.011715113 0.0095238015 -0.029032804 -0.044252682
0003b0 fe 94 2f bd 5f 28 fe 3b 9d 6a 7f 3d 39 34 ff bc
       -0.0428667 0.0077562775 0.062357534 -0.031152831
0003c0 e7 31 ab bc 3f 6e 42 bd 2c 0b 4b 3d b9 7d c2 3c
       -0.020897819 -0.04746842 0.0495712 0.02374159
0003d0 b7 71 89 bc ab 65 6e 3d 79 e5 3f bd 7e 15 d4 bc
       -0.016777856 0.058202427 -0.0468497 -0.025889155
0003e0 e9 c3 e0 bc a1 13 26 3d b3 b6 b0 bc b9 2d a0 3d
       -0.027437167 0.040546063 -0.021571493 0.07821221
0003f0 14 d8 1d bd ce 8f 3e bd ec 25 92 bb 2e af 40 bd
       -0.038536146 -0.04652386 -0.004460087 -0.047042064

action_model._continuous_distribution.mu.bias f4 [5]
000000 66 51 e2 ba d7 fb d9 bc 1e 0d 84 3b 27 7b 56 bc
       -0.001726669 -0.026609344 0.004029884 -0.013090885
000010 8c 9d e7 ba
       -0.0017670854

exp_avg f4 [128, 47]
000000 cd d7 4c 39 1c 8d ff 37 00 00 00 00 55 bd 0e 37
       0.00019535348 3.0464078e-05 0.0 8.507942e-06
000010 56 52 f9 b6 a2 e0 7c 39 00 00 00 00 71 8c 78 38
       -7.4303634e-06 0.00024116275 0.0 5.9258604e-05
000020 51 f4 29 39 80 43 96 38 00 00 00 00 6f 2e 02 38
       0.00016208111 7.16513e-05 0.0 3.103766e-05
000030 0f 9a 38 38 8e ef 46 39 00 00 00 00 f7 d6 5c 38
       4.4012497e-05 0.00018971993 0.0 5.265229e-05
000040 f0 19 bf 38 18 89 15 39 00 00 00 00 e7 1f 16 38
       9.112421e-05 0.00014260819 0.0 3.57925e-05
000050 af 80 62 b7 0d 9f 81 39 00 00 00 00 d6 8c b5 38
       -1.3500611e-05 0.000247233 0.0 8.656985e-05
000060 8f 94 ec 37 80 83 57 39 00 00 00 00 68 64 a0 38
       2.820257e-05 0.00020552985 0.0 7.648097e-05
000070 bf 59 67 b7 c5 c5 81 39 00 00 00 00 56 1c df 38
       -1.3789569e-05 0.00024752147 0.0 0.000106387466
000080 b2 9e a9 38 b9 46 20 39 00 00 00 00 74 50 b1 38
       8.088107e-05 0.00015285135 0.0 8.455003e-05
000090 e9 5d 0b b9 0c e5 e6 37 8d 99 ba 37 1f ca 33 39
       -0.00013291057 2.7524795e-05 2.224443e-05 0.00017146066
0000a0 6c ee 98 b8 1d 91 4a 39 10 7a 96 b8 2e 4a 53 b9
       -7.292334e-05 0.0001931828 -7.175293e-05 -0.00020150162
0000b0 25 12 cb b8 b4 34 a7 36 98 22 0a 39 7e fa e9 37
       -9.683174e-05 4.9831233e-06 0.00013173593 2.7892409e-05
0000c0 09 c0 82 37 00 00 00 00 91 ef 6f 34 84 12 9f 37
       1.5586631e-05 0.0 2.2345763e-07 1.8962899e-05
0000d0 bc 3f 07 38 00 00 00 00 fd 4e 1b 37 a0 02 88 37
       3.2245865e-05 0.0 9.257111e-06 1.6213686e-05
0000e0 af c7 12 38 00 00 00 00 dc 34 6e b6 1b bd 53 38
       3.4995082e-05 0.0 -3.5495532e-06 5.048244e-05
0000f0 b3 f9 42 35 00 00 00 00 ec b2 5d b5 39 b2 6f b8
       7.263399e-07 0.0 -8.258928e-07 -5.7148023e-05
000100 9f 3d e3 38 00 00 00 00 13 82 96 36 56 2d e4 b7
       0.00010835681 0.0 4.485491e-06 -2.720083e-05
000110 d5 6f a4 38 00 00 00 00 cc 85 b0 37 1a 82 b4 b6
       7.84096e-05 0.0 2.1043139e-05 -5.379564e-06
000120 48 59 6d 38 00 00 00 00 8b 11 32 b6 da f0 53 38
       5.6588353e-05 0.0 -2.6534278e-06 5.053063e-05
000130 fd 79 35 35 00 00 00 00 aa 33 a9 36 7e 35 fd 38
       6.760527e-07 0.0 5.042607e-06 0.00012073944
000140 fe d0 91 b8 00 00 00 00 53 f0 cc b7 6b 0c 92 38
       -6.9530666e-05 0.0 -2.4430605e-05 6.9641355e-05
000150 9a 84 31 37 12 35 10 37 6b 00 93 b8 e8 f4 8f b7
       1.0580896e-05 8.595425e-06 -7.009584e-05 -1.7160972e-05
000160 33 da 0b 38 34 bb 9d b7 c7 e1 cf b7 a1 c8 96 b6
       3.3343396e-05 -1.8803032e-05 -2.4781459e-05 -4.4937046e-06
000170 8e 92 d9 35 e7 eb cc 38 59 7a 2e 37 71 77 a8 b6
       1.6210413e-06 9.771418e-05 1.03996945e-05 -5.020695e-06
000180 00 00 00 00 90 94 aa 34 16 5f 1d b7 6e 6d 6a 37
       0.0 3.177306e-07 -9.380068e-06 1.39729655e-05
000190 00 00 00 00 4d 95 82 36 23 72 79 b7 3e 40 a3 37
       0.0 3.891683e-06 -1.4868131e-05 1.946103e-05
0001a0 00 00 00 00 d7 ba d6 36 d4 17 5b b7 14 13 94 37
       0.0 6.399448e-06 -1.3058965e-05 1.7651859e-05
0001b0 00 00 00 00 97 1d b8 36 38 8b 18 36 0f ae 1b 36
       0.0 5.487072e-06 2.27308e-06 2.3198115e-06
0001c0 00 00 00 00 cc 4c b5 36 68 17 b3 35 81 ad 5a 36
       0.0 5.4031607e-06 1.3343351e-06 3.2585524e-06
0001d0 00 00 00 00 58 0a b6 35 60 cf 0e 37 1c 82 83 b6
       0.0 1.3563067e-06 8.512143e-06 -3.919251e-06
0001e0 00 00 00 00 d8 bd 9e 36 b7 1d 6e 36 83 3c 8c 35
       0.0 4.7308677e-06 3.548206e-06 1.0448424e-06
0001f0 00 00 00 00 1e 56 0b b6 6e fb 95 b7 94 82 bc 37
       0.0 -2.076274e-06 -1.7879265e-05 2.2472152e-05
000200 00 00 00 00 ac 2d a9 35 da 83 10 37 75 b0 26 34
       0.0 1.2604773e-06 8.613768e-06 1.552415e-07
000210 62 e1 e5 33 87 d3 67 b7 f0 23 45 b3 2e 04 34 37
       1.07046404e-07 -1.3817923e-05 -4.590032e-08 1.0729809e-05
000220 09 70 8e b6 b7 11 a7 b5 7a 21 10 b7 90 99 4a b4
       -4.2449724e-06 -1.2447625e-06 -8.590863e-06 -1.8868582e-07
000230 86 0a 45 b7 0f b8 ae b4 eb 9f 0f 36 00 00 00 00
       -1.1744565e-05 -3.2543946e-07 2.1401745e-06 0.0
000240 b1 a7 e8 30 a1 57 57 37 bc 7e 42 b7 00 00 00 00
       1.6927882e-09 1.2835401e-05 -1.1592809e-05 0.0
000250 1d 5f 8b b5 85 d8 3c 37 a4 ff 27 b7 00 00 00 00
       -1.0383989e-06 1.1256086e-05 -1.0013497e-05 0.0
000260 ff 8d 20 b6 29 6f 21 36 3b 17 9c b5 00 00 00 00
       -2.392451e-06 2.4055573e-06 -1.1629667e-06 0.0
000270 26 ce 45 35 b4 1f 01 37 aa 8d d8 b6 00 00 00 00
       7.3688204e-07 7.696381e-06 -6.4537935e-06 0.0
000280 c5 db 2e b6 09 5e 0f 36 ed e9 6f b5 00 00 00 00
       -2.6055943e-06 2.1363396e-06 -8.9374845e-07 0.0
000290 b9 de 79 35 9d 33 e4 b5 57 7d 45 36 00 00 00 00
       9.308383e-07 -1.7002345e-06 2.9428245e-06 0.0
0002a0 98 a0 a4 34 1c 79 02 35 db 11 4b 35 00 00 00 00
       3.0664228e-07 4.860501e-07 7.5649376e-07 0.0
0002b0 eb a5 4d 35 21 c5 65 35 f3 91 cf 34 00 00 00 00
       7.6609894e-07 8.559601e-07 3.8662947e-07 0.0
0002c0 d1 ae 93 b5 92 95 b8 b5 b6 ae e6 35 46 38 3e b4
       -1.1003232e-06 -1.3752599e-06 1.7187183e-06 -1.7715601e-07
0002d0 d9 62 3c 36 30 90 f6 b5 ac 86 19 b6 07 1b 73 b4
       2.807172e-06 -1.8370392e-06 -2.2877166e-06 -2.2640971e-07
0002e0 6b 9d 95 36 b8 92 f8 b5 f7 c5 53 33 d9 a7 3c 36
       4.458872e-06 -1.8520141e-06 4.9307314e-08 2.8111883e-06
0002f0 8b 37 65 b8 ab e8 30 b6 00 00 00 00 3b cd 08 35
       -5.4649583e-05 -2.6361474e-06 0.0 5.09626e-07
000300 4f 99 e6 b7 b2 25 e3 b7 00 00 00 00 c0 8c 9a b7
       -2.7489526e-05 -2.7078062e-05 0.0 -1.8423772e-05
000310 4b ed ac b7 d7 68 0e b8 00 00 00 00 34 12 82 b7
       -2.0614496e-05 -3.3953078e-05 0.0 -1.5505684e-05
000320 c8 53 1f 38 a8 19 c2 b8 00 00 00 00 58 a5 00 b8
       3.798658e-05 -9.25542e-05 0.0 -3.0671566e-05
000330 3a 46 c3 b8 fb ac 21 38 00 00 00 00 ff 2e bd 35
       -9.311405e-05 3.8546492e-05 0.0 1.4095275e-06
000340 43 45 36 37 6b 38 89 b8 00 00 00 00 75 5c d4 b7
       1.0864172e-05 -6.543178e-05 0.0 -2.5315423e-05
000350 52 f1 0b b8 71 dc b1 b7 00 00 00 00 b3 bc ed b7
       -3.336493e-05 -2.1202695e-05 0.0 -2.8340472e-05
000360 db f5 bb b7 fa e3 06 b8 00 00 00 00 4c 92 a9 35
       -2.2406623e-05 -3.216041e-05 0.0 1.2634059e-06
000370 4c 3f d5 36 6e 87 7f b8 00 00 00 00 a5 80 22 b7
       6.3552634e-06 -6.0922866e-05 0.0 -9.685905e-06
000380 f9 5a 99 38 0b dd 69 36 8c b0 59 36 8f 95 a7 b8
       7.3125535e-05 3.484837e-06 3.2438284e-06 -7.991038e-05
000390 ab 1d 2b 38 78 fe a2 b8 9c 4d fd 37 ba c9 31 38
       4.0797207e-05 -7.7721605e-05 3.019609e-05 4.238796e-05
0003a0 13 08 c2 38 63 7e 28 b5 b4 0c 46 38 fe e4 97 38
       9.252145e-05 -6.2768794e-07 4.721871e-05 7.242894e-05
0003b0 52 b3 53 37 00 00 00 00 55 f1 0e 36 37 00 28 38
       1.2618331e-05 0.0 2.1300123e-06 4.005452e-05
0003c0 bf b1 3c 38 00 00 00 00 3a 8c 89 37 47 99 ab 38
       4.4988232e-05 0.0 1.639697e-05 8.1824655e-05
0003d0 67 f6 57 36 00 00 00 00 e1 61 dc 36 ea 91 ae b6
       3.2180922e-06 0.0 6.5679055e-06 -5.2025907e-06
0003e0 19 42 bd 38 00 00 00 00 80 e3 d3 37 3d ad bc 38
       9.024534e-05 0.0 2.5259098e-05 8.996807e-05
0003f0 42 44 a5 b6 00 00 00 00 3c 32 ef b2 8f 14 08 37
       -4.9253294e-06 0.0 -2.7846106e-08 8.111018e-06

exp_avg_sq f4 [128, 47]
000000 17 c9 6c 34 98 53 9c 32 00 00 00 00 e5 d2 a3 2f
       2.2052369e-07 1.8198804e-08 0.0 2.9799377e-10
000010 26 84 84 31 55 3a 76 34 00 00 00 00 aa 76 9c 32
       3.856729e-09 2.2931756e-07 0.0 1.8214752e-08
000020 8b 9d fa 32 57 8c 52 34 00 00 00 00 cb b7 97 32
       2.9175473e-08 1.960883e-07 0.0 1.7662293e-08
000030 e6 f4 5a 32 fd ae 72 34 00 00 00 00 4c de a6 32
       1.27449535e-08 2.2601667e-07 0.0 1.9426032e-08
000040 da 23 32 33 02 11 42 34 00 00 00 00 87 27 c2 32
       4.147646e-08 1.8073845e-07 0.0 2.2602547e-08
000050 79 1c e8 32 ea f8 5f 34 00 00 00 00 e6 8a d0 32
       2.7021303e-08 2.0859048e-07 0.0 2.427755e-08
000060 7c 88 56 33 9b c5 3d 34 00 00 00 00 5a eb 16 33
       4.994989e-08 1.7673885e-07 0.0 3.5138648e-08
000070 67 b0 21 33 ce 44 53 34 00 00 00 00 ce 33 1c 33
       3.764617e-08 1.9675937e-07 0.0 3.6368696e-08
000080 ce a9 95 33 e0 11 2b 34 00 00 00 00 dd 7f e8 32
       6.9692405e-08 1.5932119e-07 0.0 2.70665e-08
000090 d8 de c3 33 22 16 68 32 08 59 b7 31 6e 2d 1d 34
       9.12093e-08 1.350921e-08 5.3361227e-09 1.4638292e-07
0000a0 71 38 c4 32 da 0e 3c 34 c0 73 16 33 50 91 06 34
       2.284307e-08 1.7514267e-07 3.502987e-08 1.2532587e-07
0000b0 82 c1 04 34 ce cd 46 2f c0 2f ec 32 32 3b c0 34
       1.2363856e-07 1.8081112e-10 2.749573e-08 3.5805857e-07
0000c0 9a bd ac 32 00 00 00 00 e7 0b f9 2f 2e 77 5d 33
       2.0109656e-08 0.0 4.5301293e-10 5.1563966e-08
0000d0 93 c7 ab 34 00 00 00 00 4f 58 e0 32 7a b3 98 33
       3.199644e-07 0.0 2.611719e-08 7.110698e-08
0000e0 1b 04 a7 34 00 00 00 00 80 f6 ee 32 8f b8 3d 33
       3.110916e-07 0.0 2.7818942e-08 4.4172847e-08
0000f0 6b b7 b3 34 00 00 00 00 52 c5 fb 32 15 a9 a3 33
       3.3474802e-07 0.0 2.9309977e-08 7.621035e-08
000100 2b 20 a5 34 00 00 00 00 87 64 21 33 4d 4f 64 33
       3.075705e-07 0.0 3.7577163e-08 5.315751e-08
000110 24 d4 ae 34 00 00 00 00 fc 0e 29 33 52 17 b2 33
       3.2564378e-07 0.0 3.9362007e-08 8.293013e-08
000120 ca 56 9f 34 00 00 00 00 be 1c 78 33 54 50 71 33
       2.9679205e-07 0.0 5.776814e-08 5.6185243e-08
000130 d0 3b ab 34 00 00 00 00 1f 46 86 33 62 34 2a 34
       3.189475e-07 0.0 6.252616e-08 1.585154e-07
000140 d6 86 69 34 00 00 00 00 69 94 25 33 a3 69 0f 34
       2.1748869e-07 0.0 3.8552034e-08 1.3356343e-07
000150 39 cb ce 32 ea 1b 3d 32 92 28 61 34 70 fc 23 33
       2.4073971e-08 1.1007595e-08 2.0969517e-07 3.8180985e-08
000160 da 8f 98 34 f1 19 57 33 f5 00 44 34 68 83 59 34
       2.8416872e-07 5.0082182e-08 1.825427e-07 2.0257505e-07
000170 d9 e3 a2 2f fb e9 2d 33 a1 f3 80 32 7d ad c8 30
       2.9629524e-10 4.0492505e-08 1.501195e-08 1.4601224e-09
000180 00 00 00 00 28 23 a8 2d 2e d1 10 30 79 7c 85 32
       0.0 1.9115001e-11 5.2684157e-10 1.5539841e-08
000190 00 00 00 00 8f 05 a8 30 9b e9 51 30 5e 2b 86 32
       0.0 1.2225189e-09 7.636573e-10 1.5619374e-08
0001a0 00 00 00 00 b8 7d b7 30 b9 d5 e1 30 b6 52 7c 32
       0.0 1.3350734e-09 1.6431648e-09 1.4687137e-08
0001b0 00 00 00 00 22 8c aa 30 be ca 9e 30 da 67 84 32
       0.0 1.2408956e-09 1.1553636e-09 1.5414049e-08
0001c0 00 00 00 00 02 60 f3 30 ae 4d 22 31 7a f2 71 32
       0.0 1.7707864e-09 2.3618258e-09 1.4083179e-08
0001d0 00 00 00 00 9c ec d2 30 f9 b5 95 31 86 30 52 32
       0.0 1.5346759e-09 4.3571586e-09 1.2234642e-08
0001e0 00 00 00 00 b8 55 12 31 f5 82 50 31 fd 11 66 32
       0.0 2.1294522e-09 3.0342424e-09 1.3391852e-08
0001f0 00 00 00 00 3d e9 23 31 c5 3d a9 31 02 fa 39 32
       0.0 2.3852202e-09 4.9255697e-09 1.08252625e-08
000200 00 00 00 00 e0 96 f6 30 14 b6 cb 31 a5 ca 7c 30
       0.0 1.7941737e-09 5.9287775e-09 9.196504e-10
000210 54 75 03 30 3a d4 1d 32 68 f4 cd 30 b5 d3 5b 32
       4.7824256e-10 9.1868575e-09 1.4985178e-09 1.2795614e-08
000220 75 d7 04 31 49 bb 17 32 0d 19 19 32 9a e2 45 2d
       1.9331001e-09 8.8319405e-09 8.911468e-09 1.1248469e-11
000230 44 a6 bd 30 30 fc 63 30 ef 05 26 2e 00 00 00 00
       1.3798815e-09 8.29405e-10 3.77493e-11 0.0
000240 7b 70 a4 2b ac ba 11 2f 57 90 51 30 00 00 00 00
       1.168412e-12 1.3253992e-10 7.6238876e-10 0.0
000250 50 85 85 2e 07 67 32 2f 73 01 48 30 00 00 00 00
       6.071821e-11 1.6225608e-10 7.2761636e-10 0.0
000260 a3 90 8d 2e 28 48 af 2e 27 da 5e 30 00 00 00 00
       6.43763e-11 7.970896e-11 8.107314e-10 0.0
000270 9b c1 9b 2e a3 df 3d 2f d6 4b 46 30 00 00 00 00
       7.082975e-11 1.7268902e-10 7.213975e-10 0.0
000280 3e 17 be 2e 91 fd 0a 2f 8c 6a 58 30 00 00 00 00
       8.644328e-11 1.2641112e-10 7.8731754e-10 0.0
000290 db dc d0 2e 33 1f 61 2f 0d 7e 3d 30 00 00 00 00
       9.497977e-11 2.0474715e-10 6.893693e-10 0.0
0002a0 7d bd 11 2f 7a 77 0e 2f 98 9a 52 30 00 00 00 00
       1.3254993e-10 1.2957271e-10 7.6617246e-10 0.0
0002b0 72 8e 28 2f d1 ee cc 2f 45 98 08 30 00 00 00 00
       1.5330118e-10 3.7277073e-10 4.96929e-10 0.0
0002c0 09 cc b3 2e 60 f2 b1 2f 08 dc 51 2e 5b 76 b8 2d
       8.1762215e-11 3.236833e-10 4.7716525e-11 2.0970939e-11
0002d0 e9 70 0e 30 bb d4 af 2e 29 82 3e 30 e3 37 f7 2e
       5.1819754e-10 7.995867e-11 6.9306566e-10 1.1242187e-10
0002e0 43 02 05 30 1b bd 04 30 61 89 2e 2b 42 3e dc 2e
       4.838833e-10 4.8290055e-10 6.200787e-13 1.0015501e-10
0002f0 07 64 30 34 c6 6e 81 32 00 00 00 00 c7 37 64 2f
       1.6427667e-07 1.506795e-08 0.0 2.0756295e-10
000300 ba bb 0e 33 4f e9 17 34 00 00 00 00 81 9f 45 32
       3.3232688e-08 1.4147848e-07 0.0 1.1503176e-08
000310 2f 1d 4d 33 79 15 09 34 00 00 00 00 97 1b 47 32
       4.7756824e-08 1.2766931e-07 0.0 1.1589598e-08
000320 15 0a 25 32 c4 d6 33 34 00 00 00 00 ec 63 79 32
       9.606556e-09 1.6748805e-07 0.0 1.4516427e-08
000330 6c c6 6c 33 74 26 02 34 00 00 00 00 20 eb 7f 32
       5.5128496e-08 1.2121183e-07 0.0 1.4896415e-08
000340 77 e5 ac 32 ba 99 27 34 00 00 00 00 c5 e2 9f 32
       2.0127784e-08 1.5609012e-07 0.0 1.8613159e-08
000350 be a4 6b 33 55 cc 02 34 00 00 00 00 e1 ef d8 32
       5.4865033e-08 1.2181529e-07 0.0 2.5254794e-08
000360 11 97 df 32 5d 34 21 34 00 00 00 00 76 12 ef 32
       2.6029314e-08 1.5013343e-07 0.0 2.7831657e-08
000370 7f 5f 9d 33 f7 42 d2 33 00 00 00 00 b1 38 a0 32
       7.328253e-08 9.791068e-08 0.0 1.8652232e-08
000380 97 9e 84 33 d4 82 09 32 86 fd 84 31 a7 0a cc 33
       6.175576e-08 8.004196e-09 3.870528e-09 9.501428e-08
000390 93 d1 94 32 32 70 15 34 59 c1 c5 32 f4 32 c5 33
       1.7324771e-08 1.3917523e-07 2.3021743e-08 9.182796e-08
0003a0 58 77 d6 33 ed 25 02 2f 3f a0 89 32 90 b8 01 33
       9.98686e-08 1.1836905e-10 1.602177e-08 3.020301e-08
0003b0 94 35 2d 31 00 00 00 00 96 1f 10 2e 6e 60 f8 31
       2.520527e-09 0.0 3.2769863e-11 7.2287127e-09
0003c0 54 93 da 32 00 00 00 00 1d 0b 0d 31 96 0d 14 32
       2.5445537e-08 0.0 2.0524518e-09 8.617823e-09
0003d0 e1 7c d7 32 00 00 00 00 1f 57 16 31 51 b9 b7 31
       2.5086083e-08 0.0 2.1877395e-09 5.347069e-09
0003e0 b5 f7 e9 32 00 00 00 00 03 99 22 31 c0 2c 23 32
       2.7237414e-08 0.0 2.366108e-09 9.498024e-09
0003f0 c2 cd cc 32 00 00 00 00 03 35 46 31 8e 9b e1 31
       2.3842293e-08 0.0 2.8842926e-09 6.5660464e-09

exp_avg f4 [128]
000000 11 16 75 39 fe c8 56 38 b1 1c 9a 36 17 c7 a6 35
       0.00023373241 5.1208764e-05 4.5928978e-06 1.2425907e-06
000010 8a df 64 b8 fc 58 b2 38 63 2f 02 39 f6 f6 ab b9
       -5.4567623e-05 8.504276e-05 0.00012415419 -0.00032799662
000020 c9 98 25 ba 60 0d fa 38 3a d1 8e 38 da c6 b3 b8
       -0.0006317017 0.0001192342 6.810059e-05 -8.572424e-05
000030 2b df 1d 37 eb db df 39 7b 5a c6 b6 9e c7 18 b9
       9.40989e-06 0.00042697726 -5.911393e-06 -0.00014570213
000040 ac c2 df b8 1b 30 94 38 1c 6f b9 38 73 a3 ac b8
       -0.00010669729 7.06615e-05 8.842183e-05 -8.232044e-05
000050 7a 31 77 b7 d0 67 52 b8 9a f2 7b b8 57 fb 48 39
       -1.4733867e-05 -5.0164585e-05 -6.0069004e-05 0.00019167118
000060 f9 41 3a 37 88 db 65 b9 c7 42 89 b9 51 46 02 ba
       1.1101824e-05 -0.00021920924 -0.0002618043 -0.00049695844
000070 bf fa 77 39 a9 c9 13 b8 42 83 b7 38 2b e8 9c 38
       0.00023649166 -3.523534e-05 8.750569e-05 7.481904e-05
000080 ad 57 d0 38 b5 67 19 b8 93 f1 cd 38 4f d1 db b9
       9.934544e-05 -3.6574627e-05 9.8201584e-05 -0.00041926882
000090 b6 ab 70 b8 58 58 e5 38 5c 23 4a b9 22 19 c8 39
       -5.7380377e-05 0.00010936026 -0.00019277394 0.00038165698
0000a0 9b 8f ae b8 f5 14 7f 39 b0 aa e5 37 57 67 33 39
       -8.323715e-05 0.00024326502 2.737841e-05 0.00017109267
0000b0 af 3b 37 b9 3e c9 49 b8 6c 82 3c b8 93 44 32 b6
       -0.00017474474 -4.8109556e-05 -4.4944158e-05 -2.6563982e-06
0000c0 92 c2 0c b9 21 2a 21 b8 09 70 81 b9 d7 f6 0b 39
       -0.00013423924 -3.8424627e-05 -0.0002468827 0.00013348028
0000d0 30 a3 09 38 03 e6 16 39 a3 0a e9 38 87 fc 86 38
       3.2815326e-05 0.00014390801 0.00011112287 6.436655e-05
0000e0 a6 6b ce b8 ef 86 bd b7 ae 4e 47 b8 c3 42 d7 38
       -9.8428965e-05 -2.2593389e-05 -4.7518573e-05 0.00010264434
0000f0 6c b2 f2 b8 c5 fa f0 39 be 89 06 b9 3b d0 12 39
       -0.00011572693 0.00045963205 -0.00012830549 0.00014001217
000100 00 f7 db 38 21 11 74 39 71 5f 6e 38 42 46 a4 b6
       0.00010488741 0.00023276034 5.683251e-05 -4.89576e-06
000110 26 8b ba 37 f0 39 68 38 87 a1 58 b5 e4 c1 d7 37
       2.2237724e-05 5.536707e-05 -8.0701324e-07 2.5720285e-05
000120 01 33 7d b9 69 c2 33 b9 a7 e7 0e 39 6e fe d1 b9
       -0.0002414696 -0.00017143194 0.00013628473 -0.0004005315
000130 20 e0 11 3a bd 7b a9 39 3b 04 b3 38 73 3a d5 b8
       0.0005564708 0.00032326384 8.536173e-05 -0.000101675185
000140 29 aa 99 38 e5 0c 03 39 2e 25 11 b9 5f d2 b1 b9
       7.327303e-05 0.00012497937 -0.00013842128 -0.0003391681
000150 89 1d 39 37 82 aa 29 ba ba 2a f0 36 5f 14 fc 36
       1.1033736e-05 -0.0006472246 7.1575314e-06 7.5125567e-06
000160 71 cf 3f b8 e8 a5 81 b8 65 04 ac b8 3b ce 50 b7
       -4.5731143e-05 -6.182102e-05 -8.202418e-05 -1.2445783e-05
000170 82 42 13 37 3b ae 5f b7 00 03 8f b9 8f 23 1c 38
       8.777368e-06 -1.3332402e-05 -0.0002727732 3.7226415e-05
000180 86 20 f4 b7 57 ca af 38 6b b1 dd b8 50 3e 18 b9
       -2.9102212e-05 8.382339e-05 -0.00010571148 -0.00014519063
000190 cc b1 87 b7 f4 1c e8 39 de a5 96 38 48 3a fc 38
       -1.6176047e-05 0.0004427206 7.1834525e-05 0.00012027152
0001a0 9a 6c a0 b8 47 12 23 39 f5 3d e3 37 75 f2 51 b9
       -7.649623e-05 0.000155517 2.708936e-05 -0.00020022115
0001b0 bc 06 1b b9 3c 0a 03 b7 4a 2a 25 38 9f 0c 94 38
       -0.0001478446 -7.810591e-06 3.937845e-05 7.059541e-05
0001c0 44 5b c4 b5 ad ce 80 37 a0 f6 0d 38 4d df f2 37
       -1.46297e-06 1.535503e-05 3.3846707e-05 2.895263e-05
0001d0 29 95 c2 b9 66 2f 05 36 fc 6a aa 39 53 1c 14 38
       -0.00037113696 1.9846134e-06 0.00032504636 3.531233e-05
0001e0 f9 d9 a3 b7 9a 4d 7f b8 c1 8d 92 b9 73 16 ba 37
       -1.9532616e-05 -6.086901e-05 -0.00027952905 2.2183382e-05
0001f0 db 7a f6 37 c7 42 4c b8 c2 cc bd b8 f3 68 f9 b7
       2.9382694e-05 -4.869958e-05 -9.0503614e-05 -2.9731984e-05
