config/results/AgrConserv_Refactored_2M_V2/Hummingbird_Aggressive/Hummingbird_Aggressive-999960.onnx (onnx, 97764 bytes, 7 tensors)

network_body._body_endoder.seq_layers.0.weight f4 [128, 47]
-0.012027972 -0.31577167 -0.12152664 0.015775675 0.08410211 0.06909659 -0.063716374 0.10889665
-0.09975931 0.08178889 -0.10719647 -0.09614211 0.061779838 -0.0027893141 -0.10263939 -0.1077466
-0.0409189 -0.025487445 0.1894358 -0.04326762 -0.023113608 -0.07856952 0.14639324 0.17717431
0.08438777 -0.02368809 -0.28916442 -0.15259354 0.18304978 -0.07458044 0.0048906454 0.107156
0.08912752 0.019560145 -0.23870301 -0.08226038 -0.11056042 0.05214453 -0.06269164 0.0014016478
0.12856849 0.14568478 0.21211116 -0.16275598 -0.20330665 0.13927667 0.17474899 -0.102591015
0.09243596 0.14923525 0.067156285 0.0016953276 -0.120779775 -0.1272216 -0.13405406 0.12254886
-0.12996215 0.0905387 -0.057590008 -0.017248204 -0.21896969 -0.011318696 0.107254386 -0.064549536
0.10449123 -0.0063013425 -0.0062883906 0.19872266 -0.03903575 -0.104717635 -0.006177994 -0.107284434
0.20270932 0.057227593 0.16589639 0.063866764 -0.014763419 -0.059969656 0.045774 0.25470042
0.028111193 -0.09660834 -0.039540485 0.0098587405 -0.03830355 0.037270505 -0.024385776 0.20303291
0.20868737 -0.43328926 -0.35652208 0.0021615806 0.14490528 0.063519284 -0.15959983 0.28282714
0.24463841 0.010544419 0.08885687 0.10826395 0.010414289 0.28210732 0.0290684 0.16952854
-0.2482391 -0.25279376 -0.09594449 -0.10673387 0.16550903 -0.06517598 -0.15489721 -0.14124578
0.04051314 0.14854926 0.022617089 -0.075864285 0.052798223 -0.25173646 -0.16385709 -0.1615493
-0.049503244 0.032361895 0.10943106 0.13596794 -0.020638335 0.21114928 -0.1767435 0.120057665
0.12291008 0.05745243 0.15405244 -0.22670914 -0.059424844 0.21439515 -0.12398097 0.13955663
0.12762982 0.16459176 0.1014516 -0.10901733 0.012196442 0.17702892 -0.101139344 -0.019462867
0.027326226 -0.08640445 -0.058829684 -0.17291617 -0.0957488 -0.09991183 0.15475632 0.048114553
0.033985402 -0.05963062 0.023838073 -0.06877615 -0.07799349 0.24217033 -0.12727389 -0.12750882
0.029177729 0.047591265 0.0009496686 0.07580031 0.08668188 -0.1928715 0.3008048 0.0979027
0.046073474 0.005974616 -0.15573724 -0.004998357 -0.053607803 -0.2492587 0.22822538 -0.27231804
-0.04522799 -0.12846926 0.15650046 -0.04870158 0.15162408 -0.23112805 0.011472269 -0.1972282
-0.07287428 0.19838385 0.012955514 0.11543998 -0.07699002 -0.14838019 -0.080486685 -0.10158567
-0.122971006 0.01811424 0.080306746 -0.1244044 0.095364384 0.0670465 -0.043072492 -0.18131906
0.08696044 -0.11050374 0.14317103 -0.24139622 0.08443407 -0.047110375 0.046720162 -0.12870857
-0.05637345 0.04035905 -0.3463422 -0.18072377 0.024891013 -0.21824136 0.2351674 -0.19541156
-0.102731936 0.16998279 -0.011298728 -0.16370761 -0.2665889 -0.26263943 0.20185527 -0.14662448
0.19140476 0.08933737 -0.015185826 -0.15193088 0.033985246 -0.17338187 0.008033254 -0.01775031
-0.07287045 0.14864928 -0.08092855 0.25091967 -0.113149665 -0.100581296 -0.28486058 0.18135859
-0.029959412 -0.23033229 -0.30341768 0.035202995 0.19428773 0.04582422 -0.31195176 0.10797928
-0.088750966 -0.19365795 0.110897236 0.06265639 -0.10804774 0.10165888 0.061585303 0.039841585
00000000: f910 45bc d3ac a1be f6e2 f8bd fd3b 813c
00000010: ba3d ac3d 8382 8d3d bb7d 82bd 3505 df3d
00000020: 9c4e ccbd ef80 a73d d389 dbbd 28e6 c4bd
00000030: db0c 7d3d edcc 36bb 9a34 d2bd 40aa dcbd
00000040: 949a 27bd 0ccb d0bc 75fb 413e 6339 31bd
00000050: c058 bdbc 0ee9 a0bd 1ce8 153e 2f6d 353e
00000060: 7fd3 ac3d 860d c2bc 5c0d 94be 7b41 1cbe
00000070: 6771 3b3e a1bd 98bd b541 a03b 9b74 db3d
00000080: 7d88 b63d 993c a03c 906e 74be 2178 a8bd
00000090: 806d e2bd 8195 553d 7964 80bd 7fb7 b73a
000000a0: 75a7 033e 642e 153e ab33 593e 81a9 26be
000000b0: 9e2f 50be 8b9e 0e3e 66f1 323e 3d1b d2bd
000000c0: 114f bd3d 20d1 183e 3c89 893d c135 de3a
000000d0: 635b f7bd 6146 02be 7845 09be e6fa fa3d
000000e0: cc14 05be 5b6c b93d 80e3 6bbd 1b4c 8dbc
000000f0: 9739 60be 0d72 39bc 30a8 db3d 8c32 84bd
00000100: 7fff d53d 7e7b cebb d80e cebb f47d 4b3e
00000110: f3e3 1fbd 3376 d6bd c570 cabb f1b7 dbbd
00000120: 0893 4f3e 7b67 6a3d bee0 293e 94cc 823d
00000130: 44e2 71bc bea2 75bd 857d 3b3d 1868 823e
00000140: 7249 e63c 98da c5bd 34f5 21bd 8e86 213c
00000150: 2fe4 1cbd f5a8 183d aec4 c7bc dce7 4f3e
00000160: 24b2 553e 17d8 ddbe 108a b6be 4ea9 0d3b
00000170: 0d62 143e 6616 823d 236e 23be b8ce 903e
00000180: 7e82 7a3e 80c2 2c3c 97fa b53d 7db9 dd3d
00000190: b2a0 2a3c 5f70 903e da20 ee3c e498 2d3e
000001a0: 6432 7ebe 2f6e 81be 8b7e c4bd 4a97 dabd
000001b0: 337b 293e fc7a 85bd 609d 1ebe bca2 10be
000001c0: 1bf1 253d 4c1d 183e 7947 b93c bc5e 9bbd
000001d0: f342 583d 9ae3 80be 27ca 27be 2e6d 25be
000001e0: eac3 4abd e88d 043d 641d e03d 2e3b 0b3e
000001f0: ba11 a9bc 8437 583e 40fc 34be cbe0 f53d
00000200: 48b8 fb3d 3d53 6b3d ecbf 1d3e 7126 68be
00000210: 7767 73bd 678a 5b3e bce9 fdbd efe7 0e3e
00000220: 64b1 023e be8a 283e dbc5 cf3d 7a44 dfbd
00000230: 96d3 473c 1247 353e 2522 cfbd 9770 9fbc
00000240: 40db df3c d1f4 b0bd 65f7 70bd f010 31be
00000250: f217 c4bd 939e ccbd 7178 1e3e c413 453d
00000260: 4734 0b3d 3d3f 74bd 1048 c33c 83da 8cbd
00000270: 0dbb 9fbd 80fb 773e 1654 02be ac91 02be
00000280: 2206 ef3c 0fef 423d 2ef3 783a 313d 9b3d
00000290: 4586 b13d 1b80 45be 1603 9a3e 3681 c83d
000002a0: 8ab7 3c3d b6c6 c33b 9579 1fbe 42c9 a3bb
000002b0: db93 5bbd ac3d 7fbe eab3 693e 456d 8bbe
000002c0: fc40 39bd 728d 03be a841 203e 4f7b 47bd
000002d0: 5843 1b3e d5ac 6cbe 2ff6 3b3c 30f6 49be
000002e0: 1c3f 95bd 2325 4b3e 5d43 543c cc6b ec3d
000002f0: f2ac 9dbd faf0 17be 34d6 a4bd 260c d0bd
00000300: 39d8 fbbd 5164 943c dd77 a43d bcc7 febd
00000310: 674e c33d ad4f 893d c86c 30bd b4ab 39be
00000320: 5118 b23d c94f e2bd 6d9b 123e 9230 77be
00000330: c5eb ac3d cff6 40bd a45d 3f3d 2ecc 03be
00000340: d9e7 66bd 884f 253d c453 b1be a70f 39be
00000350: 3de8 cb3c aa7a 5fbe b9cf 703e f819 48be
00000360: 1f65 d2bd f80f 2e3e 4d1e 39bc f8a2 27be
00000370: 577e 88be ad78 86be 26b3 4e3e ba24 16be
00000380: 9cff 433e 83f6 b63d f9cd 78bc c593 1bbe
00000390: 1d34 0b3d 048b 31be e99d 033c 1969 91bc
000003a0: 1a3d 95bd 8437 183e debd a5bd 8b78 803e
000003b0: 03bb e7bd 91fd cdbd 3fd9 91be 11b6 393e
000003c0: 716d f5bc 3adc 6bbe 9059 9bbe 0431 103d
000003d0: 5df3 463e 2db2 3b3d 24b8 9fbe 3e24 dd3d
000003e0: 11c3 b5bd 454e 46be 171e e33d fe51 803d
000003f0: 2248 ddbd 8832 d03d df40 7c3d ee30 233d

network_body._body_endoder.seq_layers.0.bias f4 [128]
0.020422325 0.033964176 0.011214423 0.01835364 -0.035142466 0.021642765 0.011838104 0.005008899
0.023173207 0.011569977 0.032549765 -0.0036804734 0.0088049555 -0.0012926328 -0.00065038825 0.01496188
0.020806361 0.02049549 0.014826064 -0.0016091133 0.0071862815 0.011297597 -0.009277071 -0.0036563815
-0.02308783 0.0034761468 -0.039244916 0.012422953 0.019356824 0.009750599 0.026679577 -0.004020477
-0.016244162 0.02681278 -0.034957785 -0.011519756 0.027040808 -0.0020222093 0.043716423 -0.006791944
0.024003616 -0.015224854 0.020757994 0.027664622 0.0083914455 0.027501732 0.020883827 0.009664763
0.012186202 -0.023364434 0.011412867 0.022732815 0.018703647 -0.005839306 0.035888672 0.0115844915
-0.0010327824 -0.0056460444 0.021649664 0.006105658 -0.005972 0.0071149957 0.016703326 -0.00020789202
0.028582882 0.021522462 0.007921852 0.008455535 0.019726176 0.0038759583 0.03354283 0.0015189322
0.022489304 -0.016924247 0.0053031915 0.015129497 0.003087158 0.063649945 -0.0035361205 0.006612678
-0.0047720075 0.010556919 0.021567741 0.021443598 0.007413648 -0.0007734585 0.028242983 -0.0018063957
0.029838113 0.0063653714 0.015614549 -0.0022567746 -0.0014321521 0.018597156 -0.011867437 0.0072436873
0.01389451 0.0131951505 0.00927043 -0.0074690245 0.017979594 -0.004958579 0.0010386471 -0.015207402
0.025988057 -0.0072559617 0.0098132705 0.008515889 0.0003066354 -0.034952745 0.014898811 0.0129404
0.035541497 0.003134272 -0.024034912 0.056117702 0.022946602 0.02146718 0.006174129 -0.0012615086
0.026896449 0.027361615 0.024140337 0.014421373 0.02786683 0.007218189 -0.020562684 0.007522126
00000000: b84c a73c 051e 0b3d b3bc 373c 5f5a 963c
00000010: 8cf1 0fbd 2b4c b13c 9bf4 413c b121 a43b
00000020: bdd5 bd3c 0090 3d3c e752 053d 1934 71bb
00000030: a942 103c 8f6d a9ba d17e 2aba ac22 753c
00000040: 1a72 aa3c 28e6 a73c 05e9 723c e2e8 d2ba
00000050: e67a eb3b 8e19 393c dbfe 17bc e79f 6fbb
00000060: b022 bdbc 11d0 633b 47bf 20bd a489 4b3c
00000070: 3492 9e3c fac0 1f3c 218f da3c 35be 83bb
00000080: 7a12 85bc 7aa6 db3c e52f 0fbd 5cbd 3cbc
00000090: af84 dd3c 0b87 04bb fe0f 333d f58e debb
000000a0: 3ba3 c43c ab71 79bc ab0c aa3c eba0 e23c
000000b0: 467c 093c 504b e13c 8f14 ab3c f458 1e3c
000000c0: a3a8 473c c566 bfbc 09fd 3a3c 2b3a ba3c
000000d0: 6438 993c a657 bfbb 0000 133d e1cc 3d3c
000000e0: 6d5e 87ba 7402 b9bb a35a b13c f911 c83b
000000f0: c4b0 c3bb e924 e93b 6ad5 883c 97fd 59b9
00000100: a626 ea3c e04f b03c a8ca 013c 1689 0a3c
00000110: ca98 a13c ca03 7e3b 3564 093d e816 c73a
00000120: 7d3b b83c b8a4 8abc 65c6 ad3b b6e1 773c
00000130: eb51 4a3b e75a 823d 42be 67bb 2aaf d83b
00000140: 805e 9cbb edf6 2c3c d5ae b03c 7caa af3c
00000150: 30ee f23b ecc1 4aba d45d e73c 95c4 ecba
00000160: 0f6f f43c 9b94 d03b 2ad4 7f3c 65e6 13bb
00000170: 0db7 bbba 1059 983c a36f 42bc 745c ed3b
00000180: cda5 633c 7930 583c 00e3 173c b8be f4bb
00000190: f149 933c 937b a2bb 3723 883a 7828 79bc
000001a0: e8e4 d43c 6bc3 edbb d7c7 203c 3a86 0b3c
000001b0: e8c3 a039 9c2a 0fbd 241a 743c f903 543c
000001c0: f693 113d 5c68 4d3b dde4 c4bc addb 653d
000001d0: 83fa bb3c f1db af3c 5950 ca3b 3459 a5ba
000001e0: f155 dc3c 7725 e03c f5c1 c53c 9f47 6c3c
000001f0: fa48 e43c 8f86 ec3b 1373 a8bc 2b7c f63b

network_body._body_endoder.seq_layers.2.weight f4 [128, 128]
0.025127068 0.18626046 -0.012993737 -0.08854637 -0.075665064 -0.057978258 0.11014159 -0.23550124
-0.082206294 -0.16724505 0.14518674 0.019832617 -0.020712119 -0.12592967 -0.07775587 0.0064703613
-0.08462238 0.009187162 0.04280495 -0.070216745 -0.07664023 0.12280013 -0.0683524 -0.101045825
-0.2172789 -0.06501533 -0.05743076 0.029954849 0.09331467 0.12800162 -0.25892588 -0.021355264
-0.023912137 -0.07869396 0.022644496 -0.006683098 0.040686026 0.040959865 -0.049819723 0.18332204
0.060534846 0.10309304 -0.11515035 -0.1289907 -0.099708214 0.1649249 -0.074034646 0.065683864
-0.0062755863 -0.03874527 -0.121802665 -0.0027274333 0.17037262 0.107801385 0.08585083 -0.108008385
-0.07255949 0.15346837 -0.0490651 0.076652795 0.02457642 0.04576116 0.012493174 0.06039642
0.0596928 0.27819097 0.03924129 0.034279857 0.024270875 -0.12145607 0.105536975 0.031882994
-0.089155346 -0.07749225 -0.09776985 0.10650338 0.03005048 -0.1302156 -0.07097906 -0.010294326
-0.023564622 -0.14169478 -0.058908362 -0.116975136 -0.18335806 -0.19279927 0.026545158 -0.029643046
0.067830704 -0.0864832 0.13518065 -0.058668625 0.037713427 -0.10251483 0.030388443 -0.060732365
0.056245487 0.035139 -0.16770266 -0.13148637 0.074358776 0.041187655 -0.03453035 -0.1199651
-0.059622448 0.11596641 -0.06903719 -0.01996202 0.015408016 -0.054926265 0.062184907 0.0028361056
0.15498154 -0.15214136 0.019243043 0.08009524 -0.109234564 -0.12445694 -0.07252583 0.043838788
-0.08391816 0.022305058 0.02689298 -0.03928498 -0.0862519 -0.08501227 -0.0869106 0.18318902
0.055760916 0.14257054 0.032791488 -0.107099794 -0.029408196 0.06056912 -0.047212537 0.017059682
-0.108046174 -0.1197215 -0.00071122206 -0.0033573273 0.04792169 -0.048147757 -0.1456005 0.011025468
-0.056369714 0.002248773 -0.004717944 -0.02638519 0.023173707 0.086152375 0.14180185 0.06717189
-0.11744 0.021418646 0.04924624 0.25983325 0.15860288 -0.030989252 -0.16982295 0.032216687
0.18298227 0.0028965892 -0.054849025 -0.05709918 0.025450239 -0.06770278 -0.1071234 0.030142369
-0.080882914 -0.05146724 0.035517957 -0.1252253 -0.057813562 0.09491734 0.036086615 -0.12962574
-0.031813018 -0.007239783 0.043507803 -0.073414415 0.05202413 -0.09134662 0.037649028 -0.16194446
0.017727723 0.0100691775 0.14262001 -0.08147982 -0.030657928 -0.06019134 0.08878012 -0.015380892
-0.055312216 0.10226954 -0.09640723 0.0374106 0.11818731 0.017444717 -0.009430222 0.080482975
-0.16521324 0.05652593 -0.17108405 0.038328644 0.043777015 -0.10475144 0.05503761 -0.039302137
0.17883831 0.033049613 0.014821939 -0.026793867 -0.104534306 0.0645422 0.090701886 0.055867396
-0.019764913 0.131706 -0.11027619 0.14655589 -0.17270342 -0.2198969 -0.01700389 -0.07751472
0.011385175 -0.030218067 0.15036999 0.00056015956 0.07235302 -0.014309374 -0.009745011 -0.053194318
-0.08113769 -0.06535292 0.016659886 0.10927332 0.1785406 0.11282947 -0.1252886 -0.045796424
0.005150553 0.053036172 -0.11605321 0.15373334 -0.12076418 -0.02386801 -0.06974327 -0.0021676458
0.05336334 0.16025518 -0.046965595 0.038338736 -0.03534669 0.06157342 0.008217092 0.06835093
00000000: 48d7 cd3c 10bb 3e3e afe3 54bc cd57 b5bd
00000010: 49f6 9abd 9c7a 6dbd ea91 e13d 3d27 71be
00000020: c65b a8bd 4942 2bbe d5ab 143e 0378 a23c
00000030: 76ac a9bc b5f3 00be 783e 9fbd 5305 d43b
00000040: 804e adbd c085 163c 3e54 2f3d cccd 8fbd
00000050: 8ef5 9cbd a27e fb3d 58fc 8bbd 1df1 cebd
00000060: 5c7e 5ebe c226 85bd 843c 6bbd df63 f53c
00000070: c31b bf3d db12 033e ef91 84be 3cf1 aebc
00000080: 63e3 c3bc 4d2a a1bd f380 b93c e4fd dabb
00000090: 64a6 263d 88c5 273d c40f 4cbd c6b8 3b3e
000000a0: 63f3 773d 7222 d33d f2d3 ebbd 2316 04be
000000b0: d233 ccbd 13e2 283e 7a9f 97bd 4385 863d
000000c0: 6fa3 cdbb 5cb3 1ebd ad73 f9bd bdbe 32bb
000000d0: 2976 2e3e f9c6 dc3d 8fd2 af3d 8033 ddbd
000000e0: 129a 94bd d026 1d3e 7cf8 48bd 24fc 9c3d
000000f0: 7d54 c93c 0e70 3b3d 2bb0 4c3c 3d62 773d
00000100: 7080 743d 0c6f 8e3e 7abb 203d 0969 0c3d
00000110: b7d3 c63c f6bd f8bd c523 d83d be97 023d
00000120: 1497 b6bd 42b4 9ebd 8f3b c8bd 721e da3d
00000130: 6d2c f63c 3d57 05be 785d 91bd 88a9 28bc
00000140: 980a c1bc 7018 11be e549 71bd a990 efbd
00000150: 37c2 3bbe 2c6d 45be 3b75 d93c f9d5 f2bc
00000160: d3ea 8a3d 1b1e b1bd cc6c 0a3e 834e 70bd
00000170: 6579 1a3d 4cf3 d1bd 2ff1 f83c 80c2 78bd
00000180: ab61 663d e9ed 0f3d 3fba 2bbe 5da4 06be
00000190: 6a49 983d 63b4 283d b26f 0dbd 43b0 f5bd
000001a0: ab36 74bd cc7f ed3d 5f63 8dbd 6487 a3bc
000001b0: e771 7c3c 5dfa 60bd 9ab5 7e3d f5dd 393b
000001c0: 7bb3 1e3e f2ca 1bbe 96a3 9d3c f908 a43d
000001d0: 5fb6 dfbd 48e3 febd 6c88 94bd 4d90 333d
000001e0: 49dd abbd 19b9 b63c ab4e dc3c 4ae9 20bd
000001f0: d6a4 b0bd ea1a aebd 2ffe b1bd e795 3b3e
00000200: 8f65 643d 03fe 113e 5e50 063d 2357 dbbd
00000210: 75e9 f0bc 5317 783d ef61 41bd bfc0 8b3c
00000220: 5047 ddbd 8c30 f5bd 4e71 3aba 9b06 5cbb
00000230: 8949 443d 9536 45bd 4c18 15be 2aa4 343c
00000240: eee3 66bd 2660 133b fc98 9abb c125 d8bc
00000250: c9d6 bd3c a870 b03d 8134 113e 6a91 893d
00000260: 6284 f0bd 2876 af3c 6db6 493d dd08 853e
00000270: cb68 223e 2cdd fdbc 11e6 2dbe a5f5 033d
00000280: b45f 3b3e b4d4 3d3b 5fa9 60bd d4e0 69bd
00000290: 057d d03c c1a7 8abd 8363 dbbd 21ed f63c
000002a0: f1a5 a5bd 50cf 52bd 477b 113d 103b 00be
000002b0: eacd 6cbd 0664 c23d 8fcf 133d 9cbc 04be
000002c0: 5e4e 02bd b43b edbb 3d35 323d 4c5a 96bd
000002d0: 4117 553d f013 bbbd de35 1a3d c5d4 25be
000002e0: bb39 913c 31f9 243c fb0a 123e e4de a6bd
000002f0: 5626 fbbc 328b 76bd 5ad2 b53d 2300 7cbc
00000300: 108f 62bd b172 d13d 2771 c5bd db3b 193d
00000310: 300c f23d 39e8 8e3c 3881 1abc 42d4 a43d
00000320: a92d 29be bc87 673d a830 2fbe 7ffe 1c3d
00000330: 874f 333d ec87 d6bd 1e6f 613d 47fb 20bd
00000340: 6421 373e 085f 073d b8d7 723c d07e dbbc
00000350: 1516 d6bd b32e 843d e9c1 b93d 36d5 643d
00000360: 07ea a1bc f0dd 063e 7cd8 e1bd bf12 163e
00000370: 2ad9 30be a72c 61be be4b 8bbc 0ac0 9ebd
00000380: e388 3a3c e18b f7bc 97fa 193e acd7 123a
00000390: d22d 943d dd71 6abc 8aa9 1fbc 49e2 59bd
000003a0: 842b a6bd c0d7 85bd 507a 883c b1ca df3d
000003b0: 59d3 363e 2313 e73d a84b 00be 0895 3bbd
000003c0: f8c5 a83b 753c 593d 4ead edbd 466c 1d3e
000003d0: 3653 f7bd d886 c3bc 8fd5 8ebd 100f 0ebb
000003e0: 8593 5a3d ef19 243e ff5e 40bd 1409 1d3d
000003f0: b1c7 10bd 6934 7c3d fba0 063c 93fb 8b3d

network_body._body_endoder.seq_layers.2.bias f4 [128]
0.017054215 0.006720135 0.012967678 0.015133692 0.023670703 0.021655029 0.0024164084 0.009228202
0.020380698 0.00345997 0.0057478375 0.013686439 0.010247251 -0.011134166 0.006261027 -0.011932678
0.0005794501 0.0065948735 0.008319169 0.029547947 -0.0022276624 0.008980783 0.029039951 0.020187596
0.010771498 -0.002228803 -0.009763908 0.015776798 0.013316762 0.016912095 0.014747883 0.035287797
-0.006476216 -0.004957779 -0.00803909 0.008946069 0.010454356 0.01404358 0.0074417437 -0.013517282
0.016397733 -0.00287063 0.017930934 0.03150611 0.025801744 0.011032396 -0.014781662 -0.0038303796
0.012303669 -0.016847089 0.016560804 0.03141868 0.016053867 0.00390878 0.00026459678 -6.913343e-05
0.021693539 0.0059551783 -0.0026505736 0.016882831 0.004941066 0.0027682378 0.03160065 0.021226434
0.008889455 0.013661172 0.02158085 0.01287788 -0.006077215 0.0032850718 0.013665089 -0.0004659595
0.014053966 0.019293603 0.013048573 0.0055721444 -0.014290378 0.020824647 -0.017522074 0.022456663
-0.0022331297 0.014972217 0.016660854 0.018910898 0.024913715 -0.002781347 0.0034963498 -0.016371852
0.016599538 0.006569952 -0.009996901 -0.012825525 0.0036066254 0.008896162 0.01394482 -0.0010212202
0.034167625 0.004671642 0.022706032 0.0023805995 0.020066235 0.0060436814 0.0014095386 0.011376027
0.020491434 0.010204209 0.020472746 0.0148572875 0.011670669 0.0035607596 0.010850472 -0.013682059
0.0057834256 0.011697717 0.010340282 -0.010126764 0.014551395 0.024536949 0.025659941 0.01689858
0.026749607 -0.002818936 0.019957233 0.01956323 0.012216343 0.018470533 0.017036 0.018278219
00000000: 48b5 8b3c 9434 dc3b 6276 543c 4ef3 773c
00000010: 10e9 c13c e365 b13c 9b5c 1e3b e231 173c
00000020: 6cf5 a63c aac0 623b 5b58 bc3b 163d 603c
00000030: 16e4 273c 146c 36bc 4d29 cd3b 4781 43bc
00000040: 3de6 173a cf19 d83b 204d 083c 890e f23c
00000050: f9fd 11bb 2224 133c 31e5 ed3c 7560 a53c
00000060: f07a 303c 1c11 12bb ccf8 1fbc 583e 813c
00000070: 8c2e 5a3c 3c8b 8a3c 1ba1 713c f089 103d
00000080: 7036 d4bb dd74 a2bb 63b6 03bc 8892 123c
00000090: bf48 2b3c 0b17 663c dfd9 f33b 9777 5dbc
000000a0: 8a54 863c 2e21 3cbb e5e3 923c 8d0c 013d
000000b0: 2e5e d33c 39c1 343c c92e 72bc 1b07 7bbb
000000c0: 5495 493c e802 8abc 86aa 873c e0b0 003d
000000d0: 6683 833c 3915 803b 94b9 8a39 bafb 90b8
000000e0: a6b6 b13c a823 c33b 3fb5 2dbb dd4d 8a3c
000000f0: aae8 a13b 536b 353b af6f 013d 0fe3 ad3c
00000100: 14a5 113c 1cd3 5f3c 53ca b03c befd 523c
00000110: 6023 c7bb 5c4a 573b 8ae3 5f3c 074c f4b9
00000120: 9b42 663c 9e0d 9e3c afc9 553c 8996 b63b
00000130: 3122 6abc 7398 aa3c 748a 8fbc 09f7 b73c
00000140: b359 12bb 084e 753c 587c 883c 07eb 9a3c
00000150: d917 cc3c 4247 36bb 0423 653b 431e 86bc
00000160: c1fb 873c c048 d73b 0bca 23bc 2722 52bc
00000170: 225d 6c3b 35c1 113c d078 643c 77da 85ba
00000180: 5af3 0b3d 9314 993b 0002 ba3c d503 1c3b
00000190: f261 a43c 130a c63b 44c0 b83a 8462 3a3c
000001a0: a7dd a73c 8e2f 273c 76b6 a73c fb6b 733c
000001b0: 5536 3f3c a25b 693b 2ec6 313c b72a 60bc
000001c0: e482 bd3b c8a7 3f3c 496a 293c baea 25bc
000001d0: f968 6e3c b601 c93c cc34 d23c e46e 8a3c
000001e0: fe21 db3c e6bd 38bb 5a7d a33c 1143 a03c
000001f0: 0e27 483c 844f 973c 158f 8b3c 34bc 953c

action_model._continuous_distribution.log_sigma f4 [1, 5]
-0.01967268 0.0024853663 0.02654564 0.056364484 -0.0115103
00000000: 9a28 a1bc 87e1 223b 3e76 d93c 72de 663d
00000010: b395 3cbc

action_model._continuous_distribution.mu.weight f4 [5, 128]
0.0013249372 0.011929586 0.0013182756 -0.018702507 -0.013527836 -0.044278566 -0.06707917 -0.00764725
-0.0904046 -0.05379292 0.030697856 0.019061418 -0.038531635 0.03660205 -0.027550032 0.011906467
0.043443464 0.075635314 -0.012817852 0.03943658 0.011554139 -0.035473987 -0.043920945 0.030578148
0.079510055 -0.043753434 -0.013154386 0.03595939 -0.044769228 0.0058135 -0.038066205 -0.055228207
0.0119361365 0.019665282 -0.017798152 0.05730681 0.0014082668 -0.025684545 -0.02897033 0.0036047853
-0.03486333 0.024858618 -0.070987225 0.023878077 -0.026041707 -0.008526901 0.010918399 0.024343932
0.00081544917 0.019974563 -0.0019909944 0.15293436 -0.03284482 -0.018278029 -0.01766192 -0.0037465782
-0.09874831 0.04186823 0.03111255 -0.055856768 0.06448655 -0.073371515 -0.020209095 -0.079341
0.057556666 -0.014753448 -0.1003016 0.0031000522 0.014048606 0.025803192 0.039334744 -0.0441789
-0.029843882 -0.041671008 0.040981654 -0.03396342 0.013122054 0.057366177 0.073516734 0.0068286927
-0.0072234636 0.009349824 -0.020026477 -0.06126937 -0.048748646 0.012089658 0.038367555 -0.011182532
0.04416329 0.01055273 0.055715565 0.0162731 0.01458758 0.01189057 -0.04552621 0.056614816
0.021393996 0.065061 -0.020703426 0.047776505 0.07861646 -0.007708989 0.0033805561 -0.0005352487
-0.03782793 0.033855896 0.121654175 -0.098102674 -0.003980307 0.038295843 0.03184972 0.027570928
0.09543928 -0.044956703 0.051557172 0.05721372 0.048926678 -0.0010209554 -0.06954477 -0.06863354
0.07546073 -0.024207756 0.0058728345 -0.009399582 0.004929981 0.002794062 -0.03143882 0.051069316
0.004618357 0.02220563 -0.017142119 0.026391195 -0.027400661 0.013915915 -0.027479418 -0.050441884
0.016742777 0.028008819 0.064428605 0.01226259 0.0027161962 0.010588044 -0.00066111184 0.012489653
-0.013064231 -0.046093863 -0.049752753 -0.016197216 0.037036758 0.0068165213 0.028457642 -0.052290764
-0.018807927 0.032842815 0.040046006 -0.07499265 -0.014816846 -0.0038674166 0.06075528 0.03994719
0.012084783 -0.035076812 0.0318933 -0.04269544 -0.049851295 -0.04866367 0.055839553 0.03226122
-0.042080853 0.046546727 -0.015417392 -0.023854671 -0.024176616 0.05233501 -0.03371303 -0.019394463
-0.026040645 0.0073555494 -0.04165388 0.049609583 0.0783172 -0.02994063 -0.013601855 -0.022505797
0.015011952 -0.0052906834 -0.015414218 0.05623989 0.020468056 -0.0150693515 0.029941447 0.08544407
-0.010061581 0.04584275 0.07720709 0.075349614 0.028953556 0.035976604 0.0031112274 0.043018647
0.03907264 0.05686847 0.055772226 0.022553232 0.04558529 0.036455046 -0.009273797 -0.042787254
0.0352329 -0.015435638 0.037818808 0.00873258 0.008562437 -0.0029637688 0.040508315 0.03836438
-0.06346179 -0.027520064 0.004005576 0.022961397 0.0010197541 0.041552853 0.0288836 -0.06541102
-0.016591713 0.021309724 -0.034704395 0.027453318 0.0065122475 -0.012027979 0.019738054 -0.037401542
0.0057746903 -0.017889947 0.031053236 -0.004249011 -0.054874964 -0.016342092 -0.027592072 0.026794083
-0.024016399 0.0007675462 0.013909873 -0.0018629455 -0.04487266 -0.050615568 -0.00816614 -0.008119511
0.005852729 0.00044517027 0.0010774306 0.0029349313 -0.07591824 0.033435613 0.026769048 -0.022852406
00000000: 84a9 ad3a 4f74 433c fdc9 ac3a 0036 99bc
00000010: dba3 5dbc 715d 35bd ce60 89bd c895 fabb
00000020: 0c26 b9bd f755 5cbd 127a fb3c b126 9c3c
00000030: 59d3 1dbd 08ec 153d 9bb0 e1bc 5813 433c
00000040: c6f1 313d b0e6 9a3d f801 52bc 4088 213d
00000050: 924d 3d3c 2c4d 11bd 73e6 33bd 067f fa3c
00000060: 2bd6 a23d cd36 33bd 7e85 57bc 274a 133d
00000070: f05f 37bd 2c7f be3b 4feb 1bbd f936 62bd
00000080: c98f 433c 1619 a13c 6ecd 91bc 8cba 6a3d
00000090: 9895 b83a 6568 d2bc 2f53 edbc 433e 6c3b
000000a0: dacc 0ebd 4da4 cb3c c061 91bd f59b c33c
000000b0: 6b55 d5bc 6ab4 0bbc 16e3 323c ed6c c73c
000000c0: dec3 553a b2a1 a33c 587b 02bb d39a 1c3e
000000d0: 4a88 06bd cebb 95bc bbaf 90bc 2789 75bb
000000e0: 8e3c cabd 057e 2b3d bfdf fe3c 11ca 64bd
000000f0: 8611 843d ce43 96bd 8b8d a5bc 897d a2bd
00000100: 8ac0 6b3d 72b8 71bc ed6a cdbd 3f2a 4b3b
00000110: 202c 663c 3761 d33c 781d 213d eff4 34bd
00000120: 287b f4bc 38af 2abd 61dc 273d 3a1d 0bbd
00000130: e2fd 563c ccf8 6a3d f18f 963d 3ac3 df3b
00000140: ceb2 ecbb 0130 193c 910e a4bc 97f5 7abd
00000150: a9ac 47bd b313 463c 4c27 1d3d f036 37bc
00000160: 91e4 343d 5ce5 2c3c 0136 643d 2a4f 853c
00000170: bf00 6f3c aad0 423c b179 3abd f0e4 673d
00000180: 7642 af3c b43e 853d 3b9a a9bc 4cb1 433d
00000190: ab01 a13d b09b fcbb 528c 5d3b ef4f 0cba
000001a0: 76f1 1abd 7bac 0a3d d325 f93d 0eea c8bd
000001b0: 3c6d 82bb 1adc 1c3d da74 023d 6ddc e13c
000001c0: ab75 c33d 8524 38bd 9d2d 533d ef58 6a3d
000001d0: 5767 483d 94d1 85ba 7d6d 8ebd be8f 8cbd
000001e0: 288b 9a3d 584f c6bc e870 c03b b400 1abc
000001f0: ae8b a13b 951c 373b fec5 00bd 0f2e 513d
00000200: 9655 973b 95e8 b53c a16d 8cbc 5932 d83c
00000210: 5a77 e0bc 94ff 633c 841c e1bc 269c 4ebd
00000220: 2628 893c c072 e53c 25f3 833d 08e9 483c
00000230: 3602 323b 7a79 2d3c 774e 2dba 67a1 4c3c
00000240: 5b0b 56bc ebcc 3cbd 8bc9 4bbd 06b0 84bc
00000250: dbb3 173d 205d df3b 0020 e93c d72e 56bd
00000260: 1513 9abc 3086 063d 4807 243d bf95 99bd
00000270: 5bc2 72bc 7c74 7dbb 87da 783d aa9f 233d
00000280: 41ff 453c b4ac 0fbd 8da2 023d 6ae1 2ebd
00000290: df30 4cbd 8e53 47bd 04b8 643d 5724 043d
000002a0: f95c 2cbd c8a7 3e3d 3b99 7cbc df6a c3bc
000002b0: 0a0e c6bc 3c5d 563d ad16 0abd 23e1 9ebc
000002c0: 3153 d5bc d206 f13b 429d 2abd 6b33 4b3d
000002d0: c564 a03d 0d46 f5bc 51da 5ebc 145e b8bc
000002e0: b1f4 753c 785d adbb eb8b 7cbc cd5b 663d
000002f0: a0ac a73c 71e5 76bc c447 f53c 4dfd ae3d
00000300: 54d9 24bc 9cc5 3b3d c01e 9e3d e650 9a3d
00000310: 0230 ed3c 345c 133d bce5 4b3b 5234 303d
00000320: a20a 203d eaee 683d 6b71 643d 8ec1 b83c
00000330: a4b7 3a3d e351 153d 20f1 17bc b041 2fbd
00000340: 6050 103d c2e5 7cbc e5e7 1a3d 1813 0f3c
00000350: 7749 0c3c ca3b 42bb 0cec 253d f823 1d3d
00000360: 41f8 81bd c271 e1bc 3541 833b 8a19 bc3c
00000370: 45a9 853a 5333 2a3d 4d9d ec3c 36f6 85bd
00000380: 58eb 87bc bb91 ae3c 3226 0ebd c8e5 e03c
00000390: b164 d53b 0011 45bc b3b1 a13c 5c32 19bd
000003a0: 9d39 bd3b f08d 92bc 5b63 fe3c 4a3b 8bbb
000003b0: 92c4 60bd dadf 85bc c508 e2bc 447f db3c
000003c0: 0abe c4bc 2735 493a 3ce6 633c 142e f4ba
000003d0: 65cc 37bd 4552 4fbd 46cb 05bc b307 05bc
000003e0: 40c8 bf3b be65 e939 9238 8d3a fa57 403b
000003f0: 067b 9bbd c8f3 083d c34a db3c f834 bbbc

action_model._continuous_distribution.mu.bias f4 [5]
0.0004421327 -0.0057524517 0.0013973019 0.026399724 0.008616886
00000000: 0cce e739 107f bcbb ac25 b73a 3c44 d83c
00000010: d72d 0d3c
