config/results/AgrConserv_Refactored_2M_V2/Hummingbird_Aggressive/Hummingbird_Aggressive-1499968.onnx (onnx, 97764 bytes, 7 tensors)

network_body._body_endoder.seq_layers.0.weight f4 [128, 47]
0	0x3b93735d	0.0044998364
1	0xbea9c0cb	-0.33154902
2	0xbdf8e2f6	-0.12152664
3	0x3ce25659	0.027629064
4	0x3dd49e40	0.10381746
5	0x3d91c7b5	0.07118169
6	0xbd827dbb	-0.063716374
7	0x3e02c2ab	0.12769572
8	0xbdac0b50	-0.08400595
9	0x3dab7e12	0.083736554
10	0xbddb89d3	-0.10719647
11	0xbd9ed31f	-0.07755112
12	0x3d9e9293	0.077428006
13	0xbbdac29b	-0.006676031
14	0xbdd2349a	-0.10263939
15	0xbdbd7826	-0.09251432
16	0xbce73fc6	-0.028228652
17	0xbcc606b2	-0.024173114
18	0x3e41fb75	0.1894358
19	0xbd0ccb65	-0.03437366
20	0xbc43710d	-0.011928809
21	0xbd8a4c46	-0.06752829
22	0x3e15e81c	0.14639324
23	0x3e39a170	0.1812799
24	0x3dc81734	0.09770051
25	0xbcd20ec9	-0.025641816
26	0xbe940d5c	-0.28916442
27	0xbe19d0dd	-0.15021081
28	0x3e46d7f0	0.19418311
29	0xbd8867da	-0.06660433
30	0x3ba041b5	0.0048906454
31	0x3dd44dbe	0.10366391
32	0x3dc5278a	0.09626682
33	0x3d015fe0	0.031585574
34	0xbe746e90	-0.23870301
35	0xbd93641c	-0.07196829
36	0xbdee9d34	-0.11651078
37	0x3d9800fc	0.07422063
38	0xbdb1b153	-0.086764
39	0x38c2c21a	9.286795e-05
40	0x3e223af9	0.15842809
41	0x3e1bbd7a	0.15208998
42	0x3e6dc1b4	0.23218423
43	0xbe3f45fe	-0.18679044
44	0xbe469336	-0.19392094
45	0x3df16b32	0.11788024
46	0x3e3e5e07	0.18590556
47	0xbd98e58b	-0.07465657
48	0x3d872dd0	0.06600535
49	0x3e18d120	0.14923525
50	0x3d9ff792	0.07810892
51	0x3ccd34ff	0.025049685
52	0xbdfe9b86	-0.124320075
53	0xbe024661	-0.1272216
54	0xbdd82dd3	-0.10555615
55	0x3e0e1b05	0.13877495
56	0xbe0ac0f3	-0.13550167
57	0x3db96c5b	0.0905387
58	0xbd0c05ca	-0.03418521
59	0x3b1c9faf	0.002389889
60	0xbe6007d1	-0.21877982
61	0xbc39720d	-0.011318696
62	0x3e06b45c	0.13154739
63	0xbd44cf70	-0.04804939
64	0x3dd3477e	0.103163704
65	0xbbce7b7e	-0.0063013425
66	0x3bff2a3e	0.007787018
67	0x3e5dc735	0.21658023
68	0xbd142543	-0.036168348
69	0xbdd67633	-0.104717635
70	0x3b89e25e	0.0042078933
71	0xbdb41660	-0.0879333
72	0x3e4e9201	0.20172884
73	0x3d6a677b	0.057227593
74	0x3e31d213	0.17365293
75	0x3dab719c	0.08371279
76	0xbc27b7d7	-0.010236702
77	0xbd75a2be	-0.059969656
78	0x3d46972e	0.04848402
79	0x3e8c0145	0.2734472
80	0x3d267e2a	0.040647663
81	0xbdc5da98	-0.09660834
82	0xbd0557e2	-0.032554515
83	0x3b000ab5	0.0019537632
84	0xbc5adbea	-0.013358096
85	0x3c75576a	0.014974454
86	0xbcee44ae	-0.029085483
87	0x3e7021c1	0.23450376
88	0x3e64a74d	0.22329445
89	0xbee48c83	-0.44638452
90	0xbebb1945	-0.36542717
91	0x3d066028	0.032806545
92	0x3dfe1f9d	0.124083735
93	0x3db4e0d5	0.08831946
94	0xbe2da8bd	-0.169589
95	0x3e9d933e	0.307764
96	0x3e7a827e	0.24463841
97	0x3c4a58fb	0.012350316
98	0x3db85939	0.09001393
99	0x3dde5389	0.10855777
100	0x3c2aa0b2	0.010414289
101	0x3e8ba633	0.27275237
102	0x3d1f7de4	0.038938418
103	0x3e2de52a	0.1698195
104	0xbe7e3264	-0.2482391
105	0xbe8444e3	-0.25833806
106	0xbdc26be7	-0.09493237
107	0xbddf5a84	-0.10905936
108	0x3e297b33	0.16550903
109	0xbd9651ce	-0.07339822
110	0xbe198189	-0.1499082
111	0xbe0e4832	-0.13894728
112	0x3d25f11b	0.04051314
113	0x3e14ab06	0.14518365
114	0x3cadaafa	0.021199692
115	0xbda6264a	-0.08112772
116	0x3d5842f3	0.052798223
117	0xbe83491f	-0.25641724
118	0xbe2a039a	-0.16602936
119	0xbe230746	-0.15920743
120	0xbd4ac3ea	-0.049503244
121	0x3ce52a34	0.027974226
122	0x3ddbe9d6	0.1073796
123	0x3e0513fa	0.12995902
124	0xbca911ba	-0.020638335
125	0x3e55b2b6	0.20868954
126	0xbe38f928	-0.18063796
127	0x3df433fb	0.11923977
128	0x3dfbb848	0.12291008
129	0x3d7a2533	0.061070632
130	0x3e1aca87	0.1511632
131	0xbe6a4a65	-0.22879942
132	0xbd810e15	-0.06301514
133	0x3e5683af	0.20948671
134	0xbe192a8c	-0.14957637
135	0x3e0da11b	0.13830988
136	0x3e15b3ca	0.14619365
137	0x3e1df4fe	0.15425488
138	0x3dd02b5b	0.101645194
139	0xbdd09141	-0.10183955
140	0x3c1b7e0a	0.009490499
141	0x3e3a959d	0.18221135
142	0xbdd5cfb0	-0.10440004
143	0xbc9f7097	-0.019462867
144	0x3c878ba8	0.016546085
145	0xbdaca458	-0.084297836
146	0xbd642afb	-0.055705052
147	0xbe3110f0	-0.17291617
148	0xbdab8b66	-0.083761975
149	0xbdc30576	-0.09522526
150	0x3e2032cb	0.15644376
151	0x3d4513c4	0.048114553
152	0x3d3f5442	0.046711214
153	0xbd69d156	-0.057084404
154	0x3d1bba9c	0.03801976
155	0xbd8cda83	-0.06877615
156	0xbd8ad700	-0.06779289
157	0x3e7a9165	0.24469526
158	0xbdfc2e20	-0.12313485
159	0xbe0291ac	-0.12750882
160	0x3d2ab01e	0.041671865
161	0x3d5f3868	0.054497153
162	0x3ae47f14	0.0017432892
163	0x3d9b3d31	0.07580031
164	0x3db65455	0.08902804
165	0xbe4311b9	-0.1904973
166	0x3e9e15dc	0.30876052
167	0x3dc88136	0.0979027
168	0x3d67e867	0.05661812
169	0x3c17a7b0	0.009256288
170	0xbe11f916	-0.14255175
171	0xbba3c942	-0.004998357
172	0xbd41b478	-0.04729125
173	0xbe6f5ddd	-0.2337565
174	0x3e6934cf	0.22774051
175	0xbe8b6d45	-0.27231804
176	0xbd393733	-0.045218658
177	0xbe07e89f	-0.13272332
178	0x3e20a3e0	0.15687513
179	0xbd329233	-0.043596458
180	0x3e15e820	0.1463933
181	0xbe7c8b8d	-0.2466261
182	0x3c598999	0.013277435
183	0xbe5f325d	-0.21796556
184	0xbd90da59	-0.070728965
185	0x3e57be34	0.2106865
186	0x3c439fc3	0.011939946
187	0x3df7e2a1	0.12103773
188	0xbdba47e9	-0.09095747
189	0xbe07bc68	-0.13255465
190	0xbda4d634	-0.080486685
191	0xbdce6387	-0.10077577
192	0xbe10fc1a	-0.14158669
193	0x3c811452	0.01575676
194	0x3da477dd	0.080306746
195	0xbe20194d	-0.15634651
196	0x3da562a6	0.08075456
197	0x3d863809	0.065536566
198	0xbd306cc8	-0.043072492
199	0xbe55a70a	-0.20864502
200	0x3d93bb32	0.07213439
201	0xbdee5f8c	-0.11639318
202	0x3e129b6d	0.14317103
203	0xbe891413	-0.26773128
204	0x3d9bd707	0.076093726
205	0xbd3cbdf6	-0.0460796
206	0x3d3f5da4	0.046720162
207	0xbe0dcd2f	-0.13847803
208	0xbd8f7104	-0.07003978
209	0x3d009650	0.03139335
210	0xbeb153c4	-0.3463422
211	0xbe42a8bb	-0.19009678
212	0x3c7d8b54	0.015475113
213	0xbe5b49ca	-0.21414867
214	0x3e70cfb9	0.2351674
215	0xbe455064	-0.19268948
216	0xbddd8464	-0.10816267
217	0x3e1c0f61	0.15240242
218	0xbc391e4d	-0.011298728
219	0xbe2c36b8	-0.16817749
220	0xbe913dd6	-0.2836749
221	0xbe87df2e	-0.2653746
222	0x3e4eb326	0.20185527
223	0xbe194027	-0.14965878
224	0x3e48a839	0.19595422
225	0x3da3bd07	0.079950385
226	0xbbe192ed	-0.00688397
227	0xbe189a5e	-0.14902636
228	0x3d05ff84	0.03271438
229	0xbe3b917b	-0.18317215
230	0x3c313793	0.010816473
231	0x3c28491d	0.010271338
232	0xbdadca35	-0.084858336
233	0x3e2f8399	0.17140044
234	0xbdb5bb1e	-0.088735804
235	0x3e8674ac	0.2626089
236	0xbdec999a	-0.11552735
237	0xbdcdfd91	-0.100581296
238	0xbe95c999	-0.2925537
239	0x3e4b0357	0.19825493
240	0xbce55e8f	-0.02799919
241	0xbe6bdc3a	-0.23033229
242	0xbe905fde	-0.2819814
243	0x3d57d64b	0.0526946
244	0x3e49fff5	0.19726546
245	0x3d3bb22d	0.04582422
246	0xbe939408	-0.28823876
247	0x3dfafc6f	0.12255179
248	0xbd9ed879	-0.07756133
249	0xbe464e45	-0.19365795
250	0x3e02838f	0.12745498
251	0x3d9404bc	0.072274655
252	0xbdd5a2de	-0.10431455
253	0x3dd03288	0.10165888
254	0x3d93da5d	0.07219384
255	0x3d5f9185	0.054582138

network_body._body_endoder.seq_layers.0.bias f4 [128]
0	0x3d0bbfbd	0.034118403
1	0x3d60af06	0.054854415
2	0x3c14d594	0.009084124
3	0x3cc30edb	0.023810795
4	0xbd3d10ba	-0.04615853
5	0x3d0725fa	0.0329952
6	0x3c7f2541	0.015572847
7	0x3a9fec55	0.001220117
8	0x3cd1f33b	0.025628677
9	0x3c169ada	0.009192193
10	0x3d29457b	0.041326027
11	0xbbe09b3b	-0.0068544424
12	0x3c64039d	0.013916877
13	0xbb74a65a	-0.0037330599
14	0xbbfc8aef	-0.007706992
15	0x3c84c0e0	0.016205251
16	0x3cdc4717	0.026889367
17	0x3cbe2ada	0.023213793
18	0x3ca9e11b	0.020737221
19	0xbbab415d	-0.005226298
20	0x3c61003f	0.013732969
21	0x3c6e244e	0.014535023
22	0xbc8bdfa1	-0.017074408
23	0x3be66036	0.007030512
24	0xbd019eec	-0.0316457
25	0x3c8724de	0.016497072
26	0xbd3a9b57	-0.0455583
27	0x3ca53708	0.020167843
28	0x3cbd1159	0.023079561
29	0x3c82944e	0.015939858
30	0x3cf780b8	0.030212745
31	0x3b50576c	0.0031790389
32	0x3bb602b9	0.005554524
33	0x3d0a45c3	0.033757936
34	0xbceb90a2	-0.02875549
35	0xbb50a683	-0.003183753
36	0x3d164255	0.036684353
37	0xbc94631c	-0.018113665
38	0x3d448e63	0.047987353
39	0xbb3c8ef9	-0.0028771742
40	0x3cff3760	0.031154335
41	0xbc5d827f	-0.013519882
42	0x3d14ae8d	0.036299277
43	0x3d0df82e	0.03466051
44	0x3c2e19fe	0.010626314
45	0x3d13150e	0.03590875
46	0x3d27e00b	0.04098515
47	0x3beea5e4	0.0072829593
48	0x3c8119ec	0.01575943
49	0xbd07b9e2	-0.033136256
50	0x3cff9c71	0.031202527
51	0x3cc69cec	0.024244748
52	0x3d1d7653	0.03844292
53	0x3cf65ae6	0.03007264
54	0x3d2512b4	0.04030104
55	0x3c6a9c8d	0.014319551
56	0x3b8cee70	0.004300885
57	0xbc65cae7	-0.0140254265
58	0x3c84c44e	0.016206887
59	0x3c07bf95	0.008285423
60	0xbaa2bce0	-0.0012415908
61	0x3c745cb7	0.014914683
62	0x3cffb6a2	0.031215016
63	0x3bea3451	0.00714735
64	0x3d62f4bc	0.05540918
65	0x3cd696c9	0.026194947
66	0x3ce77b05	0.028256902
67	0x3c7f201e	0.015571622
68	0x3cf079b2	0.029354904
69	0xbb2fd1c8	-0.002682792
70	0x3d428074	0.047485784
71	0x3c3fe977	0.011713377
72	0x3d0c55a2	0.034261353
73	0xbca19c73	-0.019727921
74	0x3c14f77e	0.00909221
75	0x3cc50eec	0.024054967
76	0xbb3e4dc1	-0.0029038044
77	0x3d9e56ad	0.07731376
78	0x3be5b7f1	0.007010453
79	0x3c2d77bc	0.010587629
80	0x377dd1aa	1.5128791e-05
81	0x39064fbb	0.00012808938
82	0x3cabe6c8	0.020984069
83	0x3c8d62c2	0.017259005
84	0x3c9a7c25	0.018858025
85	0x3c3ecd37	0.011645607
86	0x3d09aea1	0.033613805
87	0x3b8a3986	0.004218283
88	0x3d073438	0.033008784
89	0x3c3f52cf	0.011677458
90	0x3ccfbcf9	0.025358664
91	0x3c98a0ed	0.018631423
92	0x3cdc9869	0.026928144
93	0x3cfd074e	0.030887272
94	0xbbf2f1bb	-0.0074140704
95	0x3cc24c0b	0.0237179
96	0x3cd36c9d	0.025808627
97	0x3ca7a9fa	0.020466793
98	0x3caea907	0.021320833
99	0xb9f593ae	-0.0004684007
100	0x3d08e0f0	0.033417642
101	0x3c2be4fc	0.010491606
102	0x3c819ec6	0.01582278
103	0xbcb70001	-0.022338869
104	0x3cc17791	0.023616584
105	0xbb4bcdf0	-0.003109809
106	0x3c3eb702	0.011640312
107	0x3c82c5de	0.015963491
108	0x3c6596e7	0.014013029
109	0xbd3345ee	-0.043767862
110	0x3c89b659	0.016810583
111	0x3c84b126	0.016197752
112	0x3d359a96	0.044336878
113	0x3c9bc573	0.01901505
114	0xbcc2f48f	-0.023798255
115	0x3d93a3c0	0.07208967
116	0x3d0631c3	0.0327623
117	0x3cd5a1c3	0.02607811
118	0x3c9f72cb	0.019463917
119	0xbae48921	-0.0017435887
120	0x3d0524ac	0.032505676
121	0x3cff44a0	0.031160653
122	0x3d0fc2f6	0.03509804
123	0x3d203b5c	0.03911911
124	0x3d072ff9	0.033004735
125	0x3c05630f	0.008141293
126	0xbd1228dd	-0.0356835
127	0x3cdcdc20	0.026960433

network_body._body_endoder.seq_layers.2.weight f4 [128, 128]
0	0x3bed65c2	0.0072447965
1	0x3e38ac48	0.1803447
2	0xbc81eb49	-0.015859263
3	0xbd9ed2ea	-0.077550724
4	0xbdb09e42	-0.08623935
5	0xbd50c188	-0.050965816
6	0x3de39aa2	0.11113478
7	0xbe7c4dd0	-0.24639058
8	0xbd80d2cf	-0.062902085
9	0xbe2e41a8	-0.17017233
10	0x3e1d66b4	0.1537121
11	0x3b6822be	0.0035421099
12	0xbcb7d39d	-0.022439772
13	0xbe057a4e	-0.13034937
14	0xbdb52328	-0.08844596
15	0x3c07fb45	0.008299653
16	0xbda296a3	-0.07938888
17	0x3cbe3891	0.023220332
18	0x3d475df3	0.04867358
19	0xbda41897	-0.08012503
20	0xbda917dd	-0.08256505
21	0x3dd0fdf4	0.10204688
22	0xbd9e6c7b	-0.07735535
23	0xbdac1049	-0.08401544
24	0xbe6784c3	-0.22609238
25	0xbd8b5201	-0.068027504
26	0xbd84d520	-0.06485963
27	0x3d7bb0e4	0.061447993
28	0x3dde8b9c	0.10866472
29	0x3e17536f	0.14777921
30	0xbe86f688	-0.26359963
31	0xbc7f8df2	-0.015597807
32	0xbd15fad8	-0.036616176
33	0xbdb3f404	-0.08786777
34	0x3cbfbc57	0.023405237
35	0x3bc45e5b	0.0059926934
36	0x3d01aee3	0.031660926
37	0x3cfa9cfe	0.030592438
38	0xbd2ab06f	-0.041672166
39	0x3e4acde0	0.19805098
40	0x3d7b16ea	0.06130115
41	0x3dd057f5	0.101730265
42	0xbdbf5a1b	-0.09343358
43	0xbdfc68cc	-0.12324676
44	0xbdcc0963	-0.09962728
45	0x3e3c5666	0.18392333
46	0xbd892c2a	-0.06697877
47	0x3d5752b1	0.052569095
48	0x3c4b813f	0.012420951
49	0xbd30d7a4	-0.0431744
50	0xbe110de8	-0.14165461
51	0x3c533063	0.012889954
52	0x3e444888	0.19168293
53	0x3da9a7b2	0.082839385
54	0x3dcd1f09	0.10015685
55	0xbde6b83c	-0.11265609
56	0xbd5db5e1	-0.05412853
57	0x3e25b30b	0.1618158
58	0xbd462205	-0.048372287
59	0x3d9199cd	0.07109413
60	0x3cab16cb	0.020884892
61	0x3d4691bd	0.04847883
62	0x3ca081dd	0.019593174
63	0x3d825b11	0.06365026
64	0x3d20eead	0.03929012
65	0x3e94b2d8	0.29042697
66	0x3d2a0bc7	0.041515138
67	0x3d49da93	0.049280714
68	0x3cba93fb	0.02277564
69	0xbe03822a	-0.12842622
70	0x3de9c7ca	0.1141506
71	0x3d2504a0	0.040287614
72	0xbdc50431	-0.0961994
73	0xbd84674b	-0.06465014
74	0xbdd3f3bd	-0.10349224
75	0x3e0362c8	0.12830651
76	0x3cbd0039	0.023071395
77	0xbe0af52b	-0.13570087
78	0xbd962ea1	-0.073331125
79	0x38f001dd	0.00011444439
80	0xbca9d3cf	-0.020730881
81	0xbe15adf3	-0.14617138
82	0xbd629f48	-0.055327684
83	0xbdfdd8be	-0.12394856
84	0xbe3de16b	-0.18543021
85	0xbe20eed1	-0.15716101
86	0x3d3f132f	0.046649154
87	0xbc5ef237	-0.013607553
88	0x3d9f7bd1	0.07787288
89	0xbda99f62	-0.08282353
90	0x3e0c1689	0.13680471
91	0xbd95bdab	-0.07311567
92	0x3d561b9e	0.05227243
93	0xbdf24c09	-0.11830909
94	0x3c688935	0.014192869
95	0xbd424478	-0.04742858
96	0x3d8fbe3e	0.07018708
97	0x3d83b235	0.06430475
98	0xbe3c83c0	-0.18409634
99	0xbe1ce850	-0.15322995
100	0x3dabd280	0.08389759
101	0x3cd3c974	0.025852896
102	0xbd12a1aa	-0.035798706
103	0xbe033a35	-0.12815173
104	0xbd8349bd	-0.06410549
105	0x3e067380	0.13129997
106	0xbd83c75d	-0.0643451
107	0xbc452bc8	-0.012034364
108	0xbb9fe268	-0.0048792847
109	0xbd7d8c58	-0.06190142
110	0x3d9ba403	0.07599642
111	0x3c9c2c2a	0.019064028
112	0x3e3869cc	0.18009108
113	0xbe3d1004	-0.1846314
114	0x3c54df60	0.01299271
115	0x3d47fc65	0.048824687
116	0xbdd0d52d	-0.1019691
117	0xbdfdf023	-0.12399318
118	0xbdc555cc	-0.09635505
119	0x3d1b2c09	0.037883792
120	0xbdbacad0	-0.09120715
121	0x3cde59c4	0.027142413
122	0x3ce55eb5	0.027999261
123	0xbd2bbbdf	-0.041927215
124	0xbd9ebd68	-0.0775097
125	0xbdbe4adf	-0.09291624
126	0xbddb3d41	-0.10705043
127	0x3e596cd8	0.21232927
128	0x3db03710	0.08604252
129	0x3e3cb895	0.18429787
130	0x3b32d819	0.0027289449
131	0xbdc2894f	-0.09498846
132	0xbd49b64f	-0.04924613
133	0x3dac9e06	0.08428578
134	0xbd3fe69b	-0.046850782
135	0xbc291226	-0.010319268
136	0xbdce7eac	-0.100827545
137	0xbdff9db7	-0.124812536
138	0x3cb06a24	0.021534987
139	0xbc741a65	-0.014898871
140	0x3d37f96a	0.044915594
141	0xbd58cdde	-0.052930705
142	0xbe210df5	-0.1572798
143	0x3c98a946	0.018635403
144	0xbd5cb8c6	-0.05388715
145	0x3bf57c71	0.007491641
146	0x3c9bf3f8	0.019037232
147	0xbd3659ca	-0.044519223
148	0x3d133e3c	0.035948023
149	0x3deab6ca	0.114606455
150	0x3e04e525	0.12978037
151	0x3dcd014f	0.10010015
152	0xbe02b669	-0.12764896
153	0x3d454d54	0.04816945
154	0x3d11c98f	0.035592612
155	0x3e961f0d	0.29320565
156	0x3e2dd89c	0.16977161
157	0xbcf812be	-0.030282374
158	0xbe3111a8	-0.17291892
159	0x3d4ac71a	0.049506284
160	0x3e347ccd	0.17625733
161	0xbc8aa171	-0.016922684
162	0xbd923a18	-0.07139987
163	0xbd2b2281	-0.041780952
164	0x3c836f69	0.016044335
165	0xbdb528e7	-0.08845692
166	0xbe057668	-0.1303345
167	0x3d41d2cd	0.047320176
168	0xbd77b5e0	-0.060476184
169	0xbd68525f	-0.05671918
170	0x3d08b016	0.033371054
171	0xbddfe750	-0.10932791
172	0xbd27024c	-0.040773675
173	0x3dde5492	0.10855974
174	0x3d42c723	0.047553193
175	0xbe20b4ce	-0.15693972
176	0xbcc12414	-0.023576774
177	0xbcaae148	-0.020859376
178	0x3d47acbe	0.048748724
179	0xbda397c5	-0.07987932
180	0x3da89c60	0.08232951
181	0xbd8e2a75	-0.06941692
182	0x3d6ad9b9	0.057336543
183	0xbe2a2293	-0.16614752
184	0x39b93403	0.00035324701
185	0x3c84f614	0.01623062
186	0x3e0db127	0.1383711
187	0xbda164df	-0.07880568
188	0xbcebafcc	-0.02877035
189	0xbdca6fb3	-0.09884586
190	0x3dcd1f01	0.10015679
191	0xbb8c3aed	-0.0042794854
192	0xbcc200cf	-0.023682026
193	0x3de587db	0.11207553
194	0xbd8cf405	-0.068824805
195	0x3d5b5b0e	0.053553633
196	0x3e09f041	0.13470556
197	0x3c0cd228	0.008595027
198	0xbd64c775	-0.05585428
199	0x3dbd207e	0.09234713
200	0xbe221958	-0.1582998
201	0x3d863219	0.06552524
202	0xbe332c22	-0.17497304
203	0x3d41465f	0.04718625
204	0x3cef01c7	0.029175652
205	0xbdc1818b	-0.094485365
206	0x3cf89ed0	0.030349165
207	0xbce773b8	-0.028253421
208	0x3e4e07cf	0.20120166
209	0x3cb48d11	0.022039922
210	0x3ccfba3e	0.025357362
211	0xbd063916	-0.032769285
212	0xbda16ba7	-0.07881861
213	0x3d71bb91	0.059016768
214	0x3dc6c8b5	0.097062506
215	0x3da11277	0.0786485
216	0xbcd70fee	-0.026252713
217	0x3e03b192	0.12860706
218	0xbe24e722	-0.16103795
219	0x3e3d5114	0.1848796
220	0xbe2977a1	-0.16549541
221	0xbe63164c	-0.22176474
222	0xbc01dbce	-0.007925941
223	0xbdb29af9	-0.08720965
224	0x3d123ce5	0.035702605
225	0xbccb1d8b	-0.02479436
226	0x3e193292	0.14960697
227	0x3b8b5ee2	0.0042532543
228	0x3de37c4e	0.111076936
229	0xbcc98996	-0.024601739
230	0x3ba13186	0.0049192337
231	0xbd78dc2a	-0.06075684
232	0xbdc34a7e	-0.09535693
233	0xbd753a38	-0.059869975
234	0x3bb156b3	0.0054119467
235	0x3e00612e	0.12537071
236	0x3e3288d4	0.17435008
237	0x3de3bb28	0.111196816
238	0xbe037173	-0.12836246
239	0xbd37313b	-0.044724684
240	0x3cf09f4e	0.029372837
241	0x3da02f35	0.07821504
242	0xbe0a638c	-0.13514537
243	0x3e08ccd0	0.1335938
244	0xbdbc8c2d	-0.09206424
245	0xbbc3009b	-0.005951
246	0xbd9d6d18	-0.076868236
247	0xbc62fba1	-0.013853938
248	0x3d858cf9	0.06521029
249	0x3e312975	0.17300971
250	0xbc9313c0	-0.017953753
251	0x3d9118a7	0.0708478
252	0xbc60e6aa	-0.01372687
253	0x3d4a4cb6	0.049389564
254	0xbc7347c0	-0.0148486495
255	0x3d8da8a4	0.06916931

network_body._body_endoder.seq_layers.2.bias f4 [128]
0	0x3ccde6aa	0.025134403
1	0x3ca12dd0	0.019675165
2	0x3c8c1d85	0.01710392
3	0x3cb1af28	0.021689966
4	0x3cce8bd7	0.025213165
5	0x3cd6f540	0.026239991
6	0x3c97df3b	0.018539062
7	0x3c72f12c	0.014828008
8	0x3cae5f50	0.021285683
9	0x3b2d338d	0.0026428432
10	0x3c4b87e3	0.012422535
11	0x3c9dfcc6	0.01928557
12	0x3ca2cdb7	0.019873483
13	0xbbe3957c	-0.00694531
14	0x3bea0362	0.0071415165
15	0xbc781cf2	-0.01514362
16	0x3bad1438	0.0052819513
17	0x3c1b7951	0.009489373
18	0x3c9f0de2	0.0194158
19	0x3d0cb0a2	0.034348138
20	0x3bed2541	0.007237107
21	0x3c092c3f	0.0083723655
22	0x3d0f33e3	0.034961592
23	0x3ca2c96d	0.019871438
24	0x3c868faf	0.016425936
25	0x3ab4219c	0.0013742927
26	0x3c20a504	0.009804968
27	0x3cbb0db3	0.02283368
28	0x3cb82476	0.022478323
29	0x3ca35cd1	0.01994172
30	0x3d197050	0.037460625
31	0x3d1fd3af	0.039020237
32	0x3b5c1dfe	0.0033587213
33	0x3b40bc90	0.0029409267
34	0x3af80211	0.0018921514
35	0x3c5afdaa	0.013366142
36	0x3c8d477c	0.017246
37	0x3d02469c	0.03180562
38	0x3cbe5169	0.023232179
39	0xbc2b3e5b	-0.010451878
40	0x3cbe4aa3	0.023228949
41	0x3c861024	0.016365118
42	0x3cc29f0f	0.023757486
43	0x3d12a53a	0.035802104
44	0x3cf63d65	0.030058572
45	0x3c9b1da9	0.018935042
46	0xbb8846c4	-0.0041588265
47	0xbb0009aa	-0.001953701
48	0x3c7c6f1c	0.01540735
49	0xbc25b732	-0.010114478
50	0x3c89793c	0.016781442
51	0x3d1c7984	0.038201824
52	0x3d0dc4d8	0.034611553
53	0x3be2eef3	0.0069254576
54	0x3c24ec1e	0.01006606
55	0x3c126790	0.008935824
56	0x3cd376f3	0.025813555
57	0x3c12f47a	0.008969421
58	0xbac2157d	-0.0014807429
59	0x3cbb9c67	0.022901727
60	0x3c14c252	0.009079533
61	0x3c1508f9	0.0090963775
62	0x3d47b5b6	0.048757277
63	0x3d0d48bb	0.03449319
64	0x3bfbc723	0.007683651
65	0x3cfc03be	0.030763503
66	0x3cda7445	0.02666677
67	0x3cbec4df	0.023287235
68	0xbb87a013	-0.0041389554
69	0x3cf2ca5a	0.029637504
70	0x3c8c4185	0.017121086
71	0x3c765944	0.015035931
72	0x3d1b98c4	0.037987486
73	0x3cc1ae09	0.023642557
74	0x3d24816c	0.04016249
75	0x3c14cfbb	0.00908273
76	0x3bef8d6c	0.00731056
77	0x3d0ce0bb	0.034394007
78	0xbc575c53	-0.01314457
79	0x3cb8345c	0.022485904
80	0x3c522286	0.012825614
81	0x3c677df2	0.014129149
82	0x3cabe3de	0.020982679
83	0x3ccb06d4	0.02478353
84	0x3d0e2376	0.034701787
85	0x3ac43f0a	0.00149724
86	0x3c7a40ab	0.015274207
87	0xbb380177	-0.0028077045
88	0x3cdc402b	0.026886066
89	0x3ceef50a	0.029169578
90	0xbba5fe3d	-0.005065708
91	0xbbb58ce2	-0.005540476
92	0x3bd3424a	0.0064471113
93	0x3cef8e6e	0.02924272
94	0x3cc74f85	0.02432991
95	0x3c10879e	0.008821396
96	0x3d1723dd	0.036899436
97	0x3c48f78e	0.012266053
98	0x3cdb74ac	0.026789032
99	0x3bcabf31	0.0061873426
100	0x3cbfbde3	0.023405975
101	0x3be39f83	0.0069465055
102	0x3c407b61	0.011748166
103	0x3c5ab0f7	0.013347856
104	0x3cdabf06	0.026702415
105	0x3c4d3373	0.0125244735
106	0x3cc0f7b5	0.023555616
107	0x3c891c41	0.016737105
108	0x3ca3c738	0.019992456
109	0x3bbf6e1d	0.005841984
110	0x3c30408e	0.010757579
111	0xbb64c32d	-0.0034906373
112	0x3c06041c	0.008179691
113	0x3c7a187e	0.015264628
114	0x3c8258ba	0.015911449
115	0xbc0e8f77	-0.008701197
116	0x3cb9b318	0.022668406
117	0x3cf9b234	0.030480482
118	0x3d0092ba	0.03138993
119	0x3c7d4ce5	0.015460228
120	0x3cdff6a3	0.027339285
121	0xbab78340	-0.0014000908
122	0x3ce7c593	0.028292453
123	0x3ca10769	0.019656854
124	0x3ca36c79	0.019949185
125	0x3cf0a4d7	0.029375477
126	0x3cfb3c4a	0.030668397
127	0x3c98e823	0.018665379

action_model._continuous_distribution.log_sigma f4 [1, 5]
0	0xbd519303	-0.051165592
1	0xbcc70927	-0.024296356
2	0xbcebe297	-0.02879457
3	0x3d57b1bf	0.052659746
4	0xbcde012c	-0.027100168

action_model._continuous_distribution.mu.weight f4 [5, 128]
0	0x3b8bb966	0.0042640446
1	0x3bfd35e0	0.0077273697
2	0xbb888254	-0.004165927
3	0xbcf0eb47	-0.029409064
4	0xbc3ef3cd	-0.011654806
5	0xbd63b0b7	-0.05558845
6	0xbda6d05b	-0.081452094
7	0xbc19f4cb	-0.009396742
8	0xbdcb7008	-0.09933478
9	0xbd854a4c	-0.06508312
10	0x3ce4938f	0.027902393
11	0x3c42c0ff	0.011886834
12	0xbd746e1b	-0.059675317
13	0x3d3b0575	0.0456595
14	0xbd076af2	-0.033060975
15	0x3c44ac1b	0.012003924
16	0x3d6aafd8	0.057296604
17	0x3db35961	0.08757282
18	0xbc932b67	-0.017965032
19	0x3d412067	0.047150042
20	0x3c389d0c	0.011267912
21	0xbd239da7	-0.03994527
22	0xbd685dc7	-0.056730058
23	0x3d1e5750	0.038657486
24	0x3dc2541f	0.09488701
25	0xbd515bec	-0.051113054
26	0xbc9abb5c	-0.018888168
27	0x3d2cd42c	0.04219453
28	0xbd6153aa	-0.05501143
29	0x3c0df54b	0.008664439
30	0xbd55077c	-0.05200909
31	0xbd7e30ea	-0.062058367
32	0x3c1f3e67	0.009719468
33	0x3ceb4465	0.028719136
34	0xbc8c101c	-0.017097525
35	0x3d85ead2	0.06538929
36	0x3a1d315e	0.0005996431
37	0xbd0b882c	-0.03406541
38	0xbd0cda45	-0.034387846
39	0x3c4f4501	0.012650729
40	0xbd27da29	-0.040979538
41	0x3d1482a1	0.03625739
42	0xbdad9bc5	-0.08476976
43	0x3d04ca4e	0.032419495
44	0xbcef7b26	-0.029233526
45	0xbc3b30cc	-0.011425208
46	0x3cc6bf70	0.024261206
47	0x3d28c984	0.041207805
48	0xbb094504	-0.0020945678
49	0x3cf88fd7	0.030342026
50	0x38f4869b	0.00011659899
51	0x3e2cc166	0.1687065
52	0xbd34e91f	-0.044167634
53	0xbca7db0f	-0.020490197
54	0xbcdbe57d	-0.026842827
55	0xbc2e7c57	-0.010649762
56	0xbde7af10	-0.113126874
57	0x3d42da2f	0.047571357
58	0x3d3a3889	0.045464072
59	0xbd8d3f31	-0.068968184
60	0x3daa34e1	0.08310867
61	0xbdafb810	-0.08580029
62	0xbcbdee1d	-0.02318483
63	0xbdc53846	-0.09629874
64	0x3d9afb5b	0.075674735
65	0xbcac2d08	-0.021017566
66	0xbde584ca	-0.11206968
67	0xbb57974b	-0.0032896574
68	0x3c963be2	0.018339101
69	0x3d0a4c62	0.03376425
70	0x3d4bd92c	0.049767658
71	0xbd44c61d	-0.048040498
72	0xbd1c952c	-0.0382282
73	0xbd3b6ba0	-0.045756936
74	0x3d32d2d6	0.0436581
75	0xbd348577	-0.044072594
76	0x3ca791a3	0.020455187
77	0x3d9824fa	0.07428928
78	0x3dbaac08	0.091148436
79	0x3c0682ed	0.008209926
80	0xbbe1d3f9	-0.006891724
81	0x3b5f9a5c	0.0034119105
82	0xbc967fa6	-0.018371414
83	0xbd9b909e	-0.07595943
84	0xbd7cab63	-0.061686885
85	0x3cba1e8e	0.022719648
86	0x3d38239b	0.04495583
87	0xbc3e77fc	-0.011625286
88	0x3d5d0481	0.053959373
89	0x3c859b88	0.016309515
90	0x3d8d4ff8	0.069000185
91	0x3c8a80be	0.016907092
92	0x3c6fd670	0.014638528
93	0x3b53b294	0.0032302486
94	0xbd53a4f2	-0.051670976
95	0x3d92fcdc	0.07177135
96	0x3cdc8834	0.026920415
97	0x3da85873	0.08219995
98	0xbce36897	-0.027759833
99	0x3d8ffdf9	0.07030863
100	0x3db7c0c6	0.089723155
101	0xbc5abde5	-0.013350938
102	0x393580a6	0.0001730943
103	0x3ae11179	0.0017171345
104	0xbd3ddb0b	-0.046351474
105	0x3d17ccd0	0.03706056
106	0x3e119282	0.14216045
107	0xbddd71a9	-0.108126946
108	0xbb7af4f7	-0.0038292983
109	0x3d378888	0.04480794
110	0x3d31ddb3	0.04342432
111	0x3cfd2456	0.030901115
112	0x3ddaf947	0.10692077
113	0xbd59ff61	-0.053222064
114	0x3d96197c	0.073290795
115	0x3da00a6c	0.07814488
116	0x3d73237e	0.05936002
117	0xbb1c688f	-0.0023866033
118	0xbdae17a1	-0.085006006
119	0xbd9aa711	-0.07551397
120	0x3db69816	0.08915727
121	0xbcd58546	-0.026064526
122	0x3b4d131e	0.0031291912
123	0xbc7396fc	-0.01486754
124	0x3bb4ed11	0.0055214246
125	0x3b5c2a6c	0.0033594621
126	0xbd408155	-0.04699834
127	0x3d7e26a8	0.062048584
128	0xbca07e61	-0.019591512
129	0x3d84a94b	0.064776026
130	0xbcecc96e	-0.028904643
131	0x3d07441c	0.03302394
132	0xbd138d97	-0.036023702
133	0x3cfd8558	0.030947372
134	0xbde5cc7b	-0.11220642
135	0xbd971e11	-0.073787816
136	0x3bb7561c	0.005594982
137	0x3d35f1c2	0.04442001
138	0x3dc36a8d	0.09541807
139	0x3ce821b8	0.02833639
140	0x3cb4efa5	0.022086928
141	0x3d0a512f	0.03376883
142	0xbcde6d4e	-0.02715173
143	0x3c9cedb4	0.019156314
144	0xbc793752	-0.015210943
145	0xbd4aa79f	-0.049476262
146	0xbdcdd03d	-0.10049484
147	0xbd28a9fb	-0.04117773
148	0x3d588570	0.05286163
149	0x3b936a9c	0.004498793
150	0x3d432ff6	0.04765316
151	0xbd88bb96	-0.06676404
152	0xbc975ab0	-0.01847586
153	0x3d53d998	0.051721185
154	0x3d960cf3	0.073266886
155	0xbdd1e645	-0.102489986
156	0xbd50058a	-0.050786532
157	0x39a52b5d	0.0003150356
158	0x3e0a6a93	0.13517217
159	0x3d038e8e	0.032118373
160	0x3d3f6fe4	0.046737567
161	0xbdb810ee	-0.08987604
162	0x3d5b8dfb	0.0536022
163	0xbd5e1ffa	-0.054229714
164	0xbdb45069	-0.088043995
165	0xbe00490c	-0.12527865
166	0x3dcef11f	0.10104584
167	0x3d762e5d	0.06010281
168	0xbd985705	-0.07438473
169	0x3de72a8e	0.112874135
170	0xbd10485e	-0.035225265
171	0xbd0f3b24	-0.03496851
172	0xbd17b2df	-0.03703582
173	0x3dae7557	0.085184745
174	0xbdbbd5fe	-0.09171675
175	0xbd3cfe23	-0.0461408
176	0xbcc0ff56	-0.023559254
177	0x3c046374	0.008080352
178	0xbd28369e	-0.041067712
179	0x3dc1561b	0.094402514
180	0x3e13ae1b	0.14421885
181	0xbd139918	-0.036034673
182	0xbd71632f	-0.05893248
183	0xbd700fc0	-0.05860877
184	0xbbb8cb3a	-0.005639461
185	0xbbce157a	-0.0062891813
186	0xbd100665	-0.03516235
187	0x3da6bd15	0.08141533
188	0x3d593525	0.0530292
189	0xbca40d23	-0.020025795
190	0x3dcd774a	0.10032518
191	0x3dfc260c	0.12311944
192	0x3ba254ef	0.0049539725
193	0x3ddb5c71	0.10710991
194	0x3db1c403	0.086799644
195	0x3e079de2	0.13243821
196	0x3ce7840f	0.028261213
197	0x3dcd4285	0.10022453
198	0xbc5511cf	-0.013004734
199	0x3dd3e045	0.103455104
200	0x3da395ed	0.079875804
201	0x3d9c831c	0.07642195
202	0x3e1020b5	0.14074977
203	0x3d00aad3	0.03141291
204	0x3dc5464d	0.096325494
205	0x3dbe8df8	0.09304422
206	0xbceeb520	-0.029139102
207	0xbd7b9830	-0.061424434
208	0x3da7a6be	0.081861004
209	0xb994650c	-0.00028304046
210	0x3d778f2e	0.06043928
211	0x3ab2eb65	0.0013650475
212	0xbb7f52ea	-0.0038959333
213	0xbd45fff1	-0.048339788
214	0x3da160cd	0.078797914
215	0x3d87ccb3	0.0663084
216	0xbdb94a42	-0.09047367
217	0xbda9e0e2	-0.08294846
218	0xbc6b01b6	-0.01434367
219	0x3d22879f	0.03968012
220	0xbcb9c078	-0.022674784
221	0x3ddf395c	0.10899612
222	0x3da09af7	0.07842057
223	0xbdd20d6f	-0.102564685
224	0xbcd0d9aa	-0.025494415
225	0x3d441682	0.047873028
226	0xbd3e82fe	-0.046511643
227	0x3d86465b	0.06556388
228	0x3bb00b2c	0.0053724255
229	0xbcfde277	-0.030991776
230	0x3d842e11	0.06454099
231	0xbd8af8d3	-0.06785741
232	0x3c8ec156	0.017426174
233	0x3b36bb2f	0.0027882566
234	0x3d4b294e	0.049599938
235	0xbcd0daad	-0.025494898
236	0xbdc9e19a	-0.09857483
237	0xbcabf36d	-0.020990098
238	0xbd18487c	-0.0371785
239	0x3d0e2aa6	0.03470864
240	0xbcce958e	-0.025217798
241	0x3bc448a8	0.0059901066
242	0x3d65428e	0.055971675
243	0x3bacb13b	0.005270151
244	0xbd74a3f1	-0.05972666
245	0xbd96bf44	-0.073607
246	0xbc7acdec	-0.015307885
247	0xbcc22841	-0.023700835
248	0x3cee0297	0.02905397
249	0xbc461b01	-0.012091399
250	0x3b11208c	0.0022144644
251	0x3c81d8d7	0.015850468
252	0xbdd6700b	-0.10470589
253	0x3da8b050	0.08236754
254	0x3d8d6518	0.06904048
255	0xbd014bb8	-0.03156635

action_model._continuous_distribution.mu.bias f4 [5]
0	0x39da39db	0.00041623306
1	0xbbf4ba45	-0.007468494
2	0xbac3816b	-0.0014915889
3	0x3cbd6cb1	0.023123117
4	0x3c55106d	0.0130044045
