config/results/AgrConserv_Refactored_2M_V2/Hummingbird_Aggressive/Hummingbird_Aggressive-499968.pt (torch, 574408 bytes, 36 tensors)

network_body._body_endoder.seq_layers.0.weight f4 [128, 47]
000000 0a bd 70 bc 29 ff 9c be f6 e2 f8 bd f0 d4 91 3c
       -0.014693508 -0.30663422 -0.12152664 0.017801732
000010 e0 9c ae 3d c6 ba 88 3d bb 7d 82 bd 0d d7 da 3d
       0.08526015 0.06676249 -0.063716374 0.10685549
000020 93 71 c7 bd 11 a3 85 3d d3 89 db bd 77 ff d1 bd
       -0.097384594 0.06525243 -0.10719647 -0.10253804
000030 62 27 7d 3d f9 92 6f bc 9a 34 d2 bd f3 39 f2 bd
       0.061805137 -0.014622443 -0.10263939 -0.11827459
000040 8b 49 27 bd d3 7a 1c bd 75 fb 41 3e 73 7a 63 bd
       -0.04084162 -0.03820307 0.1894358 -0.0555367
000050 09 65 bb bc 04 06 c7 bd 1c e8 15 3e 0a 57 23 3e
       -0.022875326 -0.09717944 0.14639324 0.15951172
000060 f6 46 af 3d d7 73 25 bd 5c 0d 94 be 9c 34 2f be
       0.085584566 -0.040393677 -0.28916442 -0.17109913
000070 85 75 3c 3e 2b b0 b2 bd b5 41 a0 3b 5a 7f c5 3d
       0.18404205 -0.087250076 0.0048906454 0.09643431
000080 6c a7 b8 3d 9b f7 86 3c 90 6e 74 be 5f d0 a8 bd
       0.09016308 0.01647549 -0.23870301 -0.08242869
000090 d1 c0 b9 bd b5 9e 4d 3d 5f 2a 80 bd b4 e2 b1 3c
       -0.0906998 0.050200183 -0.06258082 0.021714546
0000a0 7d 7a b5 3d 06 6f 1a 3e d9 c5 48 3e 09 37 2e be
       0.088612534 0.15081415 0.19606723 -0.17013182
0000b0 b9 f5 4d be b8 6d 13 3e a9 0b 29 3e b0 02 f0 bd
       -0.20113267 0.14397323 0.16508354 -0.117192626
0000c0 9b 6a d1 3d 20 d1 18 3e ba d2 18 3d f5 79 88 bc
       0.102254115 0.14923525 0.03731034 -0.016659716
0000d0 81 9e d6 bd 61 46 02 be 6f 9a 06 be ec 9f d8 3d
       -0.10479451 -0.1272216 -0.13144849 0.10577378
0000e0 e1 59 e8 bd 5b 6c b9 3d 3e 41 68 bd e2 ae 0f bd
       -0.11345268 0.0905387 -0.056702845 -0.03507889
0000f0 da 12 58 be 0d 72 39 bc 82 27 d5 3d fa 8d a2 bd
       -0.21100941 -0.011318696 0.10407926 -0.07937236
000100 6d da d5 3d 7e 7b ce bb 4c 83 01 bb 57 8b 3d 3e
       0.10442052 -0.0063013425 -0.0019762097 0.18510185
000110 8b 6a 22 bd 33 76 d6 bd 14 7c b7 bc 9e e8 fe bd
       -0.03965239 -0.104717635 -0.022398032 -0.12446712
000120 e6 b9 5b 3e 7b 67 6a 3d 71 ac 2e 3e a1 68 44 3d
       0.21457633 0.057227593 0.17057969 0.047951344
000130 cd 0c b9 bb be a2 75 bd 3e 4e 08 3d 59 06 7b 3e
       -0.005647278 -0.059969656 0.033277743 0.2451414
000140 2c d3 8c 3c 98 da c5 bd 07 7b 24 bd ba 96 e9 bb
       0.017190538 -0.09660834 -0.04015639 -0.0071285637
000150 eb da 6e bd 6c f9 58 3d 41 f4 3c bd 6b 98 2b 3e
       -0.058314245 0.052972242 -0.046131376 0.16757362
000160 fa ae 44 3e 28 bd c9 be af 7a ac be 8d b0 15 bc
       0.19207373 -0.39402127 -0.3368735 -0.009136331
000170 3c c8 0f 3e bd ea 0f 3d a1 75 2a be 87 3c 94 3e
       0.14041227 0.035135973 -0.16646434 0.2895243
000180 7e 82 7a 3e f5 d3 50 3c d8 ad a6 3d 75 85 d9 3d
       0.24463841 0.012745847 0.08138627 0.10621158
000190 b2 a0 2a 3c 18 dc 8c 3e f3 de a7 3c c3 74 32 3e
       0.010414289 0.27511668 0.020492053 0.17427354
0001a0 64 32 7e be 46 2c 83 be 09 f8 d4 bd 84 14 d3 bd
       -0.2482391 -0.25619715 -0.103988715 -0.103066474
0001b0 33 7b 29 3e 4e 28 7f bd 66 a6 27 be f5 fc 06 be
       0.16550903 -0.062294297 -0.1637207 -0.13182433
0001c0 1b f1 25 3d 9a 1f 1b 3e 0a 1c 55 3c ab 04 87 bd
       0.04051314 0.15148774 0.013007173 -0.06592687
0001d0 f3 42 58 3d a9 ed 6c be e7 8e 2d be c2 7e 26 be
       0.052798223 -0.23137535 -0.16949044 -0.16259292
0001e0 ea c3 4a bd 44 5b fa 3c 2d 53 d3 3d 5f a6 0e 3e
       -0.049503244 0.030561097 0.10318599 0.13930653
0001f0 ba 11 a9 bc 15 a4 6b 3e bf d8 4b be b1 1f fe 3d
       -0.020638335 0.23011811 -0.19906901 0.124083884
000200 48 b8 fb 3d 8a d7 61 3d dc 97 17 3e 49 2e 5a be
       0.12291008 0.055137195 0.14804024 -0.21306719
000210 72 40 8e bd d9 ff 58 3e dc 45 9f bd 97 ad 02 3e
       -0.06945886 0.21191348 -0.077769965 0.12761532
000220 5e 21 b1 3d ab 40 36 3e 8c 98 b6 3d 7f 2b f6 bd
       0.086489424 0.17798106 0.08915815 -0.12020015
000230 94 dd 56 3b 05 6e 2d 3e 78 0b e1 bd 97 70 9f bc
       0.003278588 0.169365 -0.109885156 -0.019462867
000240 61 19 96 3c 5b 5f c1 bd a5 c4 95 bd f0 10 31 be
       0.018322648 -0.09442016 -0.073128976 -0.17291617
000250 9a 3b d2 bd a6 31 e4 bd f0 10 1c 3e c4 13 45 3d
       -0.10265274 -0.11142282 0.15240836 0.048114553
000260 2b ad 06 3d 7c e7 83 bd c7 23 27 3c 83 da 8c bd
       0.03287999 -0.064406365 0.010201401 -0.06877615
000270 a0 5e b3 bd 3b e9 6e 3e 49 4e 04 be ac 91 02 be
       -0.08758283 0.23331158 -0.12920488 -0.12750882
000280 af 4e dc 3c 24 c1 26 3d 3c 60 12 bc 31 3d 9b 3d
       0.026892988 0.040711537 -0.008934077 0.07580031
000290 2b 7a 92 3d 02 f8 4f be ad 46 99 3e 36 81 c8 3d
       0.07152208 -0.20309451 0.29936734 0.0979027
0002a0 02 49 58 3d 45 12 50 bb f8 7e 26 be 42 c9 a3 bb
       0.052804 -0.003174917 -0.16259372 -0.004998357
0002b0 f5 5b 8a bd 66 bd 6b be a6 5f 55 3e 45 6d 8b be
       -0.06755821 -0.23021469 0.20837268 -0.27231804
0002c0 77 07 69 bd 6f 79 1e be da 8d 00 3e 95 0e b4 bc
       -0.056891885 -0.1547601 0.12554112 -0.02197961
0002d0 3d 02 fe 3d b9 13 45 be a1 53 2a 3c 35 56 25 be
       0.12402771 -0.19245805 0.010395915 -0.16146167
0002e0 e6 62 80 bd e5 5a 4a 3e a6 b7 7e 3b 4a 39 ca 3d
       -0.062688634 0.19761236 0.0038866787 0.09874208
0002f0 31 2c 7b bd 96 fe 14 be 34 d6 a4 bd fa 82 cf bd
       -0.06132144 -0.14550242 -0.080486685 -0.10132404
000300 f0 00 e5 bd dc fb c0 3c dd 77 a4 3d e5 c8 e9 bd
       -0.111818194 0.023557596 0.080306746 -0.11415271
000310 55 7c e2 3d ec c1 99 3d c8 6c 30 bd 4b 74 2d be
       0.11058871 0.07507691 -0.043072492 -0.16938893
000320 f8 4c c6 3d e0 25 cc bd 6d 9b 12 3e 61 03 66 be
       0.096826494 -0.099681616 0.14317103 -0.22462226
000330 b6 90 ce 3d 6f f7 3a bd a4 5d 3f 3d 21 71 e8 bd
       0.10086195 -0.045646127 0.046720162 -0.113497026
000340 3f 20 2e bd 70 e8 4e 3d c4 53 b1 be 5e 49 23 be
       -0.04251122 0.05051464 -0.3463422 -0.15945956
000350 ee cd 27 3d c8 13 58 be b9 cf 70 3e b7 e5 3b be
       0.040967874 -0.21101296 0.2351674 -0.18349348
000360 7f 8d b4 bd f2 1c 34 3e 4d 1e 39 bc 82 e8 12 be
       -0.08816051 0.17589167 -0.011298728 -0.14346507
000370 da 79 8c be c6 42 74 be 26 b3 4e 3e 27 1a fc bd
       -0.27436715 -0.23853597 0.20185527 -0.12309676
000380 5c c2 37 3e 34 42 e3 3d c6 6d 0a bd a0 1b 28 be
       0.17945236 0.110966116 -0.033796094 -0.16416788
000390 44 19 d3 3c 7c be 2c be f6 21 7f 3c eb 12 b7 bc
       0.025768884 -0.16869539 0.015572062 -0.022347888
0003a0 f5 e6 83 bd 16 dd 16 3e bc f7 70 bd c8 81 76 3e
       -0.06440536 0.14732775 -0.058830008 0.24072945
0003b0 a7 35 05 be 91 fd cd bd 77 8c 93 be 88 c1 34 3e
       -0.13008748 -0.100581296 -0.28818104 0.17651951
0003c0 b1 ec 4b bd 3a dc 6b be 78 03 a7 be f7 57 dd 3c
       -0.049786273 -0.23033229 -0.32619834 0.027019484
0003d0 08 fc 35 3e 2d b2 3b 3d 03 04 ab be 97 8f d3 3d
       0.17771924 0.04582422 -0.33401498 0.10330122
0003e0 0a 3a e2 bd 45 4e 46 be af 90 ac 3d 31 e2 54 3d
       -0.11046226 -0.19365795 0.08426034 0.051973525
0003f0 ae 6d e3 bd 88 32 d0 3d 20 25 1a 3d cc e3 ff 3c
       -0.11104904 0.10165888 0.03763306 0.031236552

network_body._body_endoder.seq_layers.0.bias f4 [128]
000000 36 ee 94 3c f3 e7 a3 3c 9d d0 bf 3b b9 80 14 3c
       0.018179994 0.020008063 0.005853726 0.009063893
000010 8e d9 9f bc 13 f0 26 3c 64 3d 6e 3c 04 b6 d6 bb
       -0.019512918 0.010189074 0.014541004 -0.0065524597
000020 fe 6c 8b 3c b2 ef 05 3c 1f 2d be 3c d1 0d 21 bc
       0.017019745 0.008174824 0.023214875 -0.009829954
000030 ba f3 c9 3b f4 fa d6 bb 56 18 05 3b c8 46 86 3c
       0.0061630877 -0.0065606777 0.0020308695 0.016391173
000040 1f b4 8d 3c 92 6e 8d 3c 90 14 4e 3c 44 df 0f bb
       0.017297802 0.017264638 0.012578145 -0.0021953145
000050 77 67 33 3b 58 4c fe 3b 09 13 85 bc 9e d5 41 bb
       0.0027374902 0.0077605657 -0.016244428 -0.0029576789
000060 42 c4 cb bc c9 ee 72 bb a0 4a cf bc 50 9c 83 3b
       -0.024873856 -0.0037068597 -0.025304139 0.0040164366
000070 d8 43 8b 3c 5f c1 06 3c 34 ed b0 3c 4a c6 b0 bb
       0.017000124 0.008224814 0.021597482 -0.0053947316
000080 0b ed ab bc e8 91 ac 3a e5 dc a1 bc 61 8a 91 bc
       -0.020987054 0.0013166042 -0.019758651 -0.01776618
000090 77 64 fd 3b 65 cf 7e bb 00 f5 f4 3c 9a 23 ee ba
       0.0077329236 -0.003888094 0.029901981 -0.0018168569
0000a0 90 05 db 3c 80 ee bf bc 87 75 b1 3c 93 7f a6 3c
       0.02673605 -0.023429155 0.021662487 0.020324504
0000b0 29 46 fa 3b 44 f1 98 3c ac 22 a5 3b 00 c7 e7 39
       0.0076377583 0.018669732 0.0050395336 0.0004420802
0000c0 1a 17 cd 3b 78 d0 78 bc 0e 87 68 bb 37 0c c2 3c
       0.0062588574 -0.015186422 -0.003548089 0.023687465
0000d0 98 38 42 3c 6d 80 40 bc 63 01 f9 3c 4c 8b 45 3c
       0.011854313 -0.011749369 0.030396169 0.012057137
0000e0 1f cd 2d 3c 64 08 9b 3a 1b 46 c8 3c 11 86 11 3a
       0.010607987 0.0011828062 0.024447491 0.00055512885
0000f0 3c 26 74 bc 32 02 82 3c ef 72 0e 3c fc e1 01 3b
       -0.014901694 0.015870187 0.0086943945 0.0019818535
000100 e2 c8 84 3c 0d a5 63 3c b4 11 be bc d5 ca 32 3c
       0.01620907 0.013894332 -0.0232018 0.010912617
000110 84 4e 6b 3c d3 a0 b8 3a 57 e5 b3 3c cc e1 db 39
       0.014361981 0.0014086015 0.021959944 0.00041939167
000120 0c ec 6f 3c d4 46 a1 bc f7 19 78 bb 50 e6 45 3c
       0.01464368 -0.019687094 -0.0037857273 0.012078837
000130 7f c9 87 3c 5b 24 0b 3d c6 9a 90 3b 00 d7 10 3c
       0.016575573 0.03397022 0.0044129817 0.0088403225
000140 49 a2 04 bc b8 6d 05 bb 05 8b b5 3c 95 ae 86 3c
       -0.008095332 -0.0020359587 0.022161016 0.01644067
000150 0d 1e 96 3b df 2a 0b bb 3e 2c f0 3c c1 cb 65 bb
       0.004581219 -0.002123527 0.029317971 -0.0035064074
000160 7e 3c fd 3c 2e 73 f8 ba 93 8e 28 ba c5 5c fb 3a
       0.030912634 -0.0018955225 -0.00064299366 0.0019177428
000170 46 98 41 39 3b 9e b6 3b 5a f8 20 bc cb 13 44 3c
       0.0001846264 0.0055730618 -0.009824837 0.01196761
000180 a4 63 68 3c 58 fc a4 3c 5b 26 a6 bb 22 e7 7e bc
       0.014183912 0.020139858 -0.0050704903 -0.015558036
000190 4c 30 ba 3c e5 6a 20 bc 9e 9a e9 bb 80 d0 89 bc
       0.022728108 -0.009791111 -0.0071290275 -0.016823053
0001a0 b1 32 3c 3c 16 f7 2c 3a e2 22 2c bc d1 ec 8f 39
       0.011486695 0.0006598098 -0.010506364 0.00027451527
0001b0 b4 ed 13 bb d7 28 ba bc c5 7e 28 3c 44 1d 2c 3c
       -0.0022572102 -0.022724552 0.01028413 0.010505024
0001c0 45 00 ff 3c 0a 2b 1e bc 39 3d 57 bc b9 f6 d5 3c
       0.031128058 -0.009653816 -0.013137155 0.026118623
0001d0 be 96 74 3c 2d 35 e6 3c 63 d5 e7 3b 8f 12 9c bb
       0.014928518 0.028101528 0.007074998 -0.0047629545
0001e0 79 ef 2c 3c 87 60 90 3c 53 4f 9d 3c 0e 15 d1 3b
       0.010555142 0.017624153 0.019202864 0.0063806837
0001f0 18 cc a9 3c 7a 05 9e bb 38 e0 73 bc 8a df 10 bb
       0.020727202 -0.00482243 -0.014885001 -0.0022105896

network_body._body_endoder.seq_layers.2.weight f4 [128, 128]
000000 6e 31 ba 3c 32 fd 26 3e e8 b9 14 bc e6 15 ce bd
       0.022728648 0.16307524 -0.009077527 -0.100627705
000010 10 8d 97 bd b6 a3 78 bd 61 48 de 3d 24 73 67 be
       -0.073999524 -0.060703002 0.10853649 -0.22602516
000020 10 e9 93 bd 9d 64 2b be a1 e0 0d 3e f0 7a ec 3c
       -0.072221875 -0.167376 0.1385522 0.028867215
000030 3e 6a 51 bc 48 1e f9 bd a0 a0 85 bd e0 75 21 3b
       -0.012781678 -0.12163979 -0.065247774 0.002463691
000040 70 18 92 bd 45 54 8f 3c 91 22 a5 3c 47 4d 8c bd
       -0.07133567 0.017496238 0.020158084 -0.06850677
000050 30 65 a7 bd a7 61 b2 3d 8d 14 8a bd 73 e9 c4 bd
       -0.08173597 0.08710032 -0.06742201 -0.096148394
000060 24 26 5b be 80 6d 97 bd 75 2f 65 bd ae bb b8 3a
       -0.21401268 -0.07393932 -0.05595346 0.0014094019
000070 3b fe 92 3d 59 20 dd 3d d9 8c 66 be ce 01 02 bd
       0.07177397 0.107971855 -0.22514667 -0.031740002
000080 09 ff a2 bc 28 f0 9f bd 57 6c c5 3c 6a d4 2b bc
       -0.019897 -0.07809478 0.024099512 -0.010487655
000090 68 53 31 3d 18 a3 2b 3d 6b ab c7 bc 8f de 35 3e
       0.043292433 0.041903585 -0.02437373 0.1776068
0000a0 9f 2e 58 3d 53 e5 de 3d 38 e0 f6 bd f2 25 0e be
       0.052778836 0.10883584 -0.12054485 -0.13881662
0000b0 71 a1 be bd 36 ba 18 3e 3a 49 87 bd c1 2d 92 3d
       -0.09308136 0.14914784 -0.06605764 0.07137633
0000c0 93 42 f4 3c 69 70 0e bd ae 0b 03 be 24 bc 82 3c
       0.029816901 -0.03477517 -0.12797424 0.015958853
0000d0 f8 16 2c 3e 3e 85 d9 3d bc 19 46 3d a1 b7 d4 bd
       0.16805637 0.10621117 0.048364386 -0.10386587
0000e0 b2 71 b0 bd e9 b5 06 3e 62 40 8e bd da 13 89 3d
       -0.08615436 0.1315533 -0.06945874 0.066932395
0000f0 9e 5f 0e 3d 3e c5 66 3d 5c ea 28 3c 6c bf 2e 3d
       0.034759156 0.05634045 0.010309782 0.042663023
000100 74 1c 6d 3d f3 09 84 3e b6 46 09 3d 65 b8 1c 3d
       0.057888463 0.2578884 0.0335147 0.03826179
000110 58 80 c8 3c cf 1c fc bd 57 e1 f8 3d 4f 8c eb 3c
       0.024475262 -0.12310182 0.12152355 0.028753428
000120 e6 d6 a7 bd 1e c8 b4 bd a7 ba be bd ff 10 dc 3d
       -0.081952855 -0.08827232 -0.09312945 0.10745429
000130 3b ba 0f 3d bf e9 0c be 75 ad 91 bd 64 c1 ae bc
       0.035089713 -0.13761042 -0.071131624 -0.02133245
000140 b1 17 16 bd c8 5e 06 be ea b4 5e bd fb 23 da bd
       -0.036643688 -0.13122094 -0.05437175 -0.10651394
000150 9b f6 3c be 51 2f 47 be 64 64 39 3d 95 36 2e bd
       -0.18453448 -0.19451644 0.045261756 -0.042532522
000160 a3 fa 8a 3d e4 3e b5 bd e6 70 17 3e b9 ec 8e bd
       0.067860864 -0.08849886 0.14789161 -0.06978745
000170 3a 55 0e 3d e8 69 c6 bd d9 6f 11 3d 38 c1 76 bd
       0.034749247 -0.09688169 0.035507057 -0.06024286
000180 24 4b 4b 3d c2 d0 e0 3c b5 58 24 be ad 72 05 be
       0.049632207 0.027443293 -0.16049464 -0.13032027
000190 17 c7 96 3d d3 14 28 3d 31 b4 07 bd 59 56 f0 bd
       0.07362192 0.041035485 -0.03313083 -0.117352195
0001a0 24 6c b6 bc c1 b7 ce 3d dc fb 5e bd 8b 5f ae bc
       -0.022268362 0.10093642 -0.05443941 -0.021285793
0001b0 29 78 0d 3c 32 e1 6f bd 41 9b 32 3d 87 2e c9 3b
       0.008634605 -0.058564372 0.043605093 0.0061395797
0001c0 44 a0 02 3e 20 00 0f be 87 2c c6 3c 93 55 bf 3d
       0.12756449 -0.13964891 0.024191154 0.09342494
0001d0 ec bc 04 be c8 b4 f0 bd 4c f7 84 bd 0c 16 2f 3d
       -0.12962693 -0.11753231 -0.06492481 0.042745635
0001e0 89 da 86 bd 5a 65 cf 3c 84 b2 ca 3c 7e 24 2f bd
       -0.06584651 0.025316883 0.024743326 -0.04275941
0001f0 72 b3 c0 bd de 4c ab bd 74 c3 b3 bd a6 ca 2d 3e
       -0.094092265 -0.08364271 -0.08777514 0.16971835
000200 aa 37 06 3d 60 23 cb 3d fe 47 2b 3d 9e 72 df bd
       0.03276793 0.099188566 0.041816704 -0.10910533
000210 85 a1 5c bc 88 e1 36 3d ae 5d 49 bd 6a 85 ef 3c
       -0.013466244 0.044648677 -0.049161606 0.029238421
000220 1f 3e c2 bd e1 f6 f1 bd ec 41 9d bc 2e 3e 0b 3c
       -0.09484505 -0.118146665 -0.019196473 0.0084987115
000230 3d 01 5e 3d 5c f3 13 bd ae c0 f4 bd 35 52 da ba
       0.0542004 -0.036120757 -0.11950813 -0.001665658
000240 42 53 6e bd 04 1a 4b bb 00 76 f0 bc 2e 83 8d bc
       -0.05818487 -0.0030990848 -0.029353142 -0.017274465
000250 d6 d9 69 3c f8 44 85 3d 3f d3 1b 3e 18 69 70 3d
       0.014273128 0.06507295 0.15217303 0.058693975
000260 07 ac dc bd d0 bf ee 3a 23 b0 81 3d d5 37 75 3e
       -0.10774999 0.0018215124 0.063324235 0.2394708
000270 69 16 12 3e bc 1b 0e bd 03 36 20 be 40 44 0f 3c
       0.14266361 -0.03469442 -0.15645604 0.008744299
000280 62 46 44 3e 27 87 d3 3b 4d 68 20 bd 53 20 a6 bd
       0.19167474 0.0064553204 -0.03916197 -0.08111634
000290 c5 b0 10 3d 48 10 70 bd 52 9e a3 bd cd e4 11 3c
       0.03532483 -0.058609277 -0.079891816 0.008904648
0002a0 0f b0 d1 bd c2 e9 1b bd 1d 56 2a 3d 96 5b 06 be
       -0.10238659 -0.038064726 0.04158603 -0.13120875
0002b0 31 b6 94 bd c0 01 74 3d 6c 5f d3 3c cb fd ec bd
       -0.07261313 0.05957198 0.025802337 -0.11571845
0002c0 57 a4 9e bc e8 85 96 3b dc 13 03 3d 3c bd 5f bd
       -0.019365473 0.0045935996 0.03200136 -0.054623827
0002d0 8f 25 0b 3d 0b 1b e2 bd 93 9f b7 3b d4 af 32 be
       0.033971366 -0.11040314 0.0056037395 -0.17449886
0002e0 40 72 16 3d db 20 9d 3b 89 0a 11 3e e6 35 97 bd
       0.03673005 0.0047951764 0.14164175 -0.07383327
0002f0 20 06 0d bd 4c bd c4 bc 2f 92 a6 3d 15 4c 21 bd
       -0.03442967 -0.024016045 0.08133351 -0.039379198
000300 db c2 94 bd 6e 2e b5 3d 3b ea ea bd 4d 06 d4 3c
       -0.07263728 0.088467464 -0.11470457 0.02588191
000310 ba 71 e7 3d e3 70 ff 3c c9 ba b9 3c c2 24 91 3d
       0.113009885 0.031181758 0.022672074 0.07087089
000320 20 d3 40 be 40 48 3d 3d 1c 0c 41 be bb 15 4f 3d
       -0.18830538 0.04621148 -0.18852276 0.050557833
000330 29 83 78 3d 89 fa eb bd 8b 03 b5 3d 2a ac 1d bd
       0.06067196 -0.11522395 0.088385664 -0.038494267
000340 0b 49 2a 3e 58 44 31 3d c0 d7 1f 3c 3f 98 2f 3b
       0.16629426 0.04327807 0.009756029 0.0026793627
000350 89 9f f8 bd b6 cb a8 3d 03 88 cb 3d 8d eb 52 3d
       -0.12139804 0.0824198 0.099380516 0.05149417
000360 14 20 00 bd 84 98 f1 3d 68 ba a7 bd eb c4 06 3e
       -0.031280592 0.11796668 -0.08189851 0.13161056
000370 c4 9f 2f be d7 8e 6f be 29 36 c2 bc 3d e0 89 bd
       -0.1715079 -0.23394333 -0.023707466 -0.06732223
000380 21 8a f6 bb 21 58 09 bd 9c 66 13 3e 08 6b 23 3c
       -0.0075237905 -0.033531312 0.14394611 0.009974249
000390 44 7b 37 3d 76 77 64 bc 4c 9d 8b bc e2 a3 34 bd
       0.04479529 -0.013944497 -0.017042778 -0.044101603
0003a0 66 f9 43 bd f8 ae a3 bd 72 aa 8e 3c 1d 95 c8 3d
       -0.047845267 -0.07992357 0.017415259 0.09794066
0003b0 e5 2b 23 3e 27 a9 d9 3d 3d 84 f4 bd a1 dd e0 bc
       0.15934713 0.106279664 -0.11939285 -0.02744943
0003c0 b7 1f bc bc 6e 49 c9 3c c3 65 c9 bd 6f 9a 28 3e
       -0.022964342 0.024571147 -0.09833863 0.16465162
0003d0 12 95 1c be 13 35 2b bd 0a a0 95 bd b6 9f 2f 3c
       -0.15291241 -0.041798662 -0.07305916 0.01071923
0003e0 bc 89 22 3d ae cd 1e 3e 4d 15 82 bd 63 f0 e8 3b
       0.039682135 0.15508148 -0.06351719 0.0071087345
0003f0 32 85 50 bd 38 e4 97 3d 2f c6 ee 3c 3b 22 87 3d
       -0.050908275 0.07416576 0.029147236 0.06598326

network_body._body_endoder.seq_layers.2.bias f4 [128]
000000 da 8f 84 3c 03 27 9e bb 39 29 cc 3b 99 e1 fb 3b
       0.016181875 -0.004826428 0.0062305 0.0076868054
000010 b0 90 86 3c 0d 2a 83 3c 46 56 c2 3b 4e cd 57 3c
       0.016426414 0.016011262 0.0059306948 0.013171507
000020 4d 0f ec 3b c0 60 8e 3a 72 a5 33 bb d6 02 91 bb
       0.0072039724 0.0010862574 -0.0027411846 -0.004425387
000030 4a 37 2c ba f8 ee 03 bb 4d cd 62 3c 26 aa bc bb
       -0.0006569518 -0.002013145 0.013842893 -0.005757588
000040 26 23 5c 3c e0 91 00 3c ed f7 dd 3b 95 59 e4 3b
       0.013436114 0.007847279 0.00677394 0.006968687
000050 95 86 b7 bc bc df 18 3c 96 70 f5 3b d0 bc d3 3c
       -0.02240304 0.009330686 0.007490228 0.025846869
000060 2c fd f2 3b 04 38 5d bc 7d a2 8f bc 9a a0 89 3c
       0.0074154343 -0.013502125 -0.017533535 0.016800214
000070 4b 96 a2 3c f3 07 8e 3c 8d 78 5d bc 66 5c d8 3c
       0.019847056 0.017337775 -0.013517511 0.026411247
000080 85 07 68 bc 65 c5 33 3c 90 b8 19 bc b9 86 81 3b
       -0.014161949 0.0109723555 -0.009382382 0.003952828
000090 09 d4 8f 3b 84 02 8f 3c bb ec b7 ba 1b 8a 64 bc
       0.00438929 0.017457254 -0.0014032343 -0.013948943
0000a0 4d 7f 20 3c 7d 24 85 bc 41 d9 47 3c b7 fc b1 3c
       0.009795976 -0.01625275 0.012197793 0.02172695
0000b0 10 f9 b2 3c 61 8c 45 bc f0 2c 04 ba 69 77 99 ba
       0.021847278 -0.012057395 -0.00050420966 -0.0011708561
0000c0 3c 48 2e 3b 98 a9 3c bc 92 cc 86 3c c4 87 8c 3c
       0.0026593348 -0.011515044 0.016454969 0.017154582
0000d0 06 90 25 bc 83 67 91 3c 22 94 25 3b d4 30 f1 3b
       -0.010105139 0.017749554 0.0025265296 0.007360557
0000e0 dd bb ba 3b d4 58 0e bc a9 ef 02 3c 23 1b de 3b
       0.0056986646 -0.00868817 0.00799171 0.0067781373
0000f0 1c 07 d9 39 f1 a0 4d 3a 6d 41 48 3c fa b1 84 bb
       0.00041394762 0.00078441115 0.01222263 -0.004049537
000100 29 b7 3b 3b 96 fa 99 b9 ea 8b 38 3b a7 5e 02 3b
       0.0028643108 -0.00029369135 0.0028159567 0.0019892843
000110 4b 87 3a bc 9b 75 56 bc 7f 49 d8 3b 4c a5 31 bc
       -0.011384795 -0.013089563 0.0066005583 -0.0108426325
000120 fb 6a 0f bc 99 15 8e 39 ab cc 23 bc 4b 1b 55 bc
       -0.0087535335 0.00027100442 -0.009997527 -0.013006995
000130 f2 69 98 bc 94 a4 d1 3b 12 a9 2a bc c3 38 cd 3c
       -0.018605206 0.006397793 -0.010416286 0.02505148
000140 41 22 a9 bb 47 a4 15 3c 0a 1a 9d ba 0b 02 24 bb
       -0.005161554 0.009133405 -0.001198591 -0.0025025632
000150 ef 4f 41 3c 81 19 ea 3b 5c 49 9e ba 39 5a 8e bc
       0.011798843 0.0071441536 -0.0012076306 -0.017377006
000160 8e 1a a5 3c ed 9a 83 3c 59 a1 e3 bb 1f 7a 50 bc
       0.020154264 0.016065085 -0.0069467244 -0.012724428
000170 d3 c3 4e bc 42 ae 22 bc fb f4 bd bb b7 e1 fe 3a
       -0.01261993 -0.009929242 -0.005797026 0.001944593
000180 aa 9c b5 3c f5 0c 31 bc bb b2 b4 3c 34 5d e9 bb
       0.02216943 -0.010806312 0.022057882 -0.0071217064
000190 aa 17 0c 3b 05 f4 8a bb db a9 81 bb fc da 67 3c
       0.002137641 -0.004240515 -0.003957016 0.014151331
0001a0 59 9f 3f 3c 3b c3 9a 3b 2b 8e 49 3c f3 82 84 3c
       0.011695706 0.0047229803 0.012301962 0.016175723
0001b0 9b ec 9f 3c 60 65 00 3b 30 7f 4a 3c 55 58 7a bc
       0.019522002 0.0019591674 0.012359425 -0.015279849
0001c0 58 04 d9 3b 0f 00 7a 3c 01 76 cb bb b0 50 9a bb
       0.0066228323 0.015258803 -0.0062091355 -0.0047093257
0001d0 9c 83 81 3c 96 33 b3 3c 60 f5 96 3c 4b ca 91 3c
       0.015809827 0.021875184 0.01842755 0.017796656
0001e0 b1 90 8f 3c b2 e8 88 b9 bf 09 9b 3c be 53 21 3c
       0.017525049 -0.00026113313 0.018925546 0.009846626
0001f0 2e 07 7e 3c 42 86 13 3b 0a bb 1f bc 30 55 79 3c
       0.015504641 0.0022510444 -0.009749183 0.015218064

action_model._continuous_distribution.log_sigma f4 [1, 5]
000000 e8 61 29 bc 98 cf c4 3a 78 37 27 3d d2 4f 02 3d
       -0.010338284 0.0015015481 0.040824383 0.031814404
000010 d5 63 59 bc
       -0.013268431

action_model._continuous_distribution.mu.weight f4 [5, 128]
000000 ca 48 34 3a b2 57 07 3c df d8 26 3a 0e 77 ba bc
       0.00068773015 0.008260654 0.0006364714 -0.022761848
000010 70 19 74 bc 58 7c d9 bc c4 bf 09 bd ce f7 02 bc
       -0.014898643 -0.02654855 -0.033630148 -0.007993652
000020 ed c1 83 bd 41 2f c0 bc 2d 77 94 3c dd 1b 8f 3c
       -0.06433473 -0.023460032 0.018123234 0.017469341
000030 38 e9 ac bc 84 f8 35 3c 8c ed 69 bc 00 28 99 3c
       -0.021107301 0.011106614 -0.014277827 0.018695831
000040 87 b0 c5 3c b9 65 6e 3d 17 d2 7e bc d1 f5 a9 3c
       0.024132026 0.05820248 -0.015553019 0.020747097
000050 2c 50 83 3c 20 89 d7 bc d9 93 c8 bc 63 4c a3 3c
       0.01602944 -0.026310503 -0.024484562 0.019933885
000060 0f 1e 50 3d ea 3b 04 bd 12 8a ed bb 7c 91 ca 3c
       0.050809916 -0.0322837 -0.0072491253 0.024727575
000070 92 34 d4 bc 98 cc 2f 3b c7 91 d0 bc 13 2a 27 bd
       -0.025903974 0.0026824828 -0.025460137 -0.04081161
000080 5b 31 80 3b 03 aa 77 3c 8c e0 93 bc 5d 96 1f 3d
       0.0039121336 0.015116218 -0.018051408 0.038961757
000090 1d f1 00 3c b2 cf eb bb 8a e3 e7 bc af b4 39 3a
       0.007869986 -0.00719639 -0.028306741 0.0007084114
0000a0 d2 6c da bc c8 33 42 3c 13 2c 51 bd aa d9 2c 3c
       -0.026663218 0.011853166 -0.051067423 0.010549942
0000b0 3b 49 61 bc 93 03 7a bc 80 f4 e1 3b 96 34 30 3c
       -0.01375037 -0.015259641 0.0068956017 0.010754725
0000c0 9e 5e 96 bb c3 ed 3b 3c 1d bf ce bb cf d1 d3 3d
       -0.004588916 0.011470261 -0.0063094036 0.10342752
0000d0 9f de b5 bc 80 4f 87 bc b4 90 c8 bb 73 b9 bb 3a
       -0.02220088 -0.0165174 -0.0061207656 0.0014322236
0000e0 8b 13 65 bd 10 30 a3 3c ad c1 7e 3c ea 87 21 bd
       -0.05592684 0.019920379 0.015549106 -0.03943626
0000f0 42 88 e6 3c 6e d3 65 bd 79 10 da bb 4d 5a 7c bd
       0.028141145 -0.05610984 -0.0066547957 -0.061609555
000100 97 49 10 3d c6 b1 16 bc 4a a0 96 bd a6 fc f6 3b
       0.03522643 -0.009197658 -0.073547915 0.0075374423
000110 1b 4d 1a 3c f4 92 aa 3c 7f 2a 09 3d d2 a7 e7 bc
       0.009417797 0.020822026 0.033487793 -0.028278265
000120 62 ef b8 bc 2d aa 4d bc 8f 0c 9c 3c fa 85 6d bc
       -0.022575084 -0.01255278 0.019048957 -0.0144972745
000130 e3 ad ab 3b d2 f5 02 3d 51 25 1d 3d c7 60 49 3b
       0.005239235 0.031972714 0.038365666 0.003072785
000140 cc 9f cc bb 4e 64 74 3c a3 40 ad bc cd af 10 bd
       -0.006244635 0.014916493 -0.021148985 -0.035323907
000150 51 fa df bc c0 fa 1a b8 ad e8 4a 3c 4a b7 93 bc
       -0.02734104 -3.694999e-05 0.012384576 -0.018031735
000160 e8 8a d3 3c 9c a4 2a 3c 91 49 1c 3d f4 55 83 3c
       0.025823072 0.0104152225 0.038156096 0.016032197
000170 39 57 4c 3c ea d7 52 3b ec e6 15 bd 6f ea 2e 3d
       0.012471967 0.0032172152 -0.036597177 0.042704042
000180 b2 d9 89 3c 94 44 c9 3c 6f 6e 94 bc 23 ef 1c 3d
       0.016827438 0.024568833 -0.018119065 0.038313996
000190 f2 4a 21 3d c2 f2 fb ba 0b 9e ec bb 39 82 70 ba
       0.039378114 -0.0019222128 -0.0072209886 -0.0009174678
0001a0 32 57 e8 bc 02 aa c6 3c be f7 8b 3d 60 35 8b bd
       -0.02836189 0.024250988 0.068343624 -0.0679729
0001b0 c0 89 58 bb 86 b3 bf 3c d3 42 ba 3c 0d 38 e3 3c
       -0.003304109 0.023401033 0.022736942 0.027736688
0001c0 94 b0 91 3d 46 0e 20 bd 16 28 15 3d c9 31 e0 3c
       0.07113758 -0.039076112 0.036415182 0.02736749
0001d0 af 34 21 3d 95 b3 a8 bb ba ef 44 bd 2c 86 55 bd
       0.039356884 -0.005148361 -0.048080184 -0.05212991
0001e0 e3 31 73 3d 56 07 b6 bc 85 a0 c7 bb 7a 1e 5a bb
       0.059373748 -0.022220295 -0.0060921335 -0.0033282326
0001f0 f2 87 de 3a 9d 37 52 3b df 5d 71 bc 25 06 18 3d
       0.0016977771 0.0032076605 -0.014731853 0.037115235
000200 fb 2b f4 3b 9f fb 09 3d e2 58 14 bd 67 7f a6 3c
       0.007451532 0.03368723 -0.036217578 0.020324422
000210 a3 b9 34 bd 38 15 19 bb 46 d6 b6 bc 60 b1 52 bd
       -0.04412235 -0.0023358595 -0.02231897 -0.05143869
000220 be bf a7 3b a6 33 76 3c 4f d8 64 3d 87 75 97 3c
       0.005119293 0.015026962 0.05587035 0.018488659
000230 47 25 22 bc af cd bc bc 4f 21 be bc dc 1a 06 3d
       -0.009896583 -0.023047296 -0.023209242 0.03274046
000240 68 6a e7 bc fc ff 55 bd c1 6b 7b bd 4c 89 dc bb
       -0.02824898 -0.05224608 -0.06138206 -0.0067302343
000250 20 20 1f 3d 84 d3 15 bc 64 85 a0 3c 3a ec 69 bd
       0.038848996 -0.009144668 0.019594856 -0.05711005
000260 b4 d4 e4 bc 7b ea 68 3c d6 7c 26 3d 73 a8 a6 bd
       -0.027933456 0.014216061 0.040646397 -0.08137598
000270 fc 25 ba bc 3e 21 29 bc ee 5e d9 3c d4 89 f4 3c
       -0.02272319 -0.010322867 0.026534524 0.029850878
000280 76 1a e1 3b 8f e0 ec bc 3b f2 e6 3c 23 a2 33 bd
       0.0068696095 -0.028915672 0.028191676 -0.043855797
000290 d0 a6 6d bd ad ab 85 bc 1b 8d 9f 3c a9 a4 ae 3c
       -0.058020413 -0.016317213 0.019476464 0.02131875
0002a0 67 3b 02 bd 37 7c 33 3d 99 31 a5 bc 3c 71 2a bd
       -0.03179493 0.043819632 -0.020165252 -0.041611895
0002b0 7e 59 bb bc 89 15 c9 bb f1 98 15 bd 99 ea 9e bc
       -0.022869822 -0.0061366004 -0.03652281 -0.019398974
0002c0 e1 84 23 bd 9e 53 25 3c 07 77 4e bd ed aa af 3c
       -0.039921645 0.010090737 -0.050406482 0.021443808
0002d0 d2 22 9d 3c 17 cc 1c bd ed 3d ba 3a 3f 23 d5 bc
       0.019181643 -0.038280573 0.0014209129 -0.026017783
0002e0 35 62 15 bc d3 56 98 bc d4 65 b7 bc 71 72 14 3d
       -0.009117653 -0.018596089 -0.022387423 0.036241952
0002f0 b1 a6 a4 bc 94 97 e3 bc 1d 71 87 3c 46 cd 3e 3d
       -0.020099016 -0.027782239 0.016533429 0.046582483
000300 e0 ab 33 bb cd 6d 38 3d 20 f4 d4 3c af d8 75 3d
       -0.0027415678 0.04502659 0.025995314 0.0600211
000310 37 07 06 3d cd 25 00 3d 64 6f 11 3d 32 ed 9f 3c
       0.032721724 0.03128605 0.03550662 0.019522283
000320 01 31 17 3d 86 f3 90 3c e6 60 cf 3c c8 66 c4 3a
       0.03691197 0.017694246 0.02531476 0.0014984244
000330 8a fd 12 3d 02 d1 0c 3d 8f 91 43 bc c4 e5 5f bd
       0.035886325 0.034379013 -0.011936559 -0.05466248
000340 d6 f0 07 3d ac 39 58 bc a4 77 ff bb 2f d6 54 3c
       0.033188663 -0.013197344 -0.0077962447 0.0129905185
000350 1a cf cc 3c 1f 9e 64 bc 7c 83 48 3c c6 76 38 3d
       0.025001097 -0.013953715 0.01223838 0.045035146
000360 19 f4 81 bd 98 62 84 3b e6 8c 9d 3c 0a 5c b0 3c
       -0.06345386 0.0040400736 0.019232225 0.021528263
000370 26 f8 92 38 c8 a3 ce 3c 5c 7b 5e bb 9f 7b 6a bd
       7.008044e-05 0.025224581 -0.003394804 -0.0572468
000380 5a 69 07 bd 70 17 32 bb 0b 81 1c bd f5 89 d1 3c
       -0.033059455 -0.0027174614 -0.038209002 0.025578478
000390 18 ef 78 bb ba 93 d4 bb f0 5c af bc a1 8f 3f bd
       -0.0037984308 -0.006487337 -0.02140662 -0.046767835
0003a0 08 ce ba b9 b7 01 f4 bc c2 85 92 3c 44 82 98 bc
       -0.0003563019 -0.029785974 0.017886046 -0.018616803
0003b0 c2 4a 5b bd 2a 9d d5 bc b0 2f 09 bd 2c 66 0d 3d
       -0.05353809 -0.026075918 -0.033492744 0.034521267
0003c0 42 32 0e bd d5 b7 af bb da f5 98 3c 38 ca 63 bc
       -0.0347159 -0.0053624907 0.018671919 -0.013903193
0003d0 69 b7 1e bd b3 1a 4b bd a6 18 aa bb 4e 2f a9 bc
       -0.038749132 -0.04958601 -0.0051909266 -0.02065244
0003e0 fd 76 60 bc aa b7 ce bc 9e fe 1f bb d0 41 a5 bb
       -0.013700244 -0.025234062 -0.0024413238 -0.005043246
0003f0 f8 60 a7 bd 89 b7 e2 3c a7 60 a3 3c c3 32 32 bd
       -0.08172792 0.027675407 0.019943548 -0.04350544

action_model._continuous_distribution.mu.bias f4 [5]
000000 2e 56 b9 ba 25 25 92 bc ae ee 15 bb 4b 58 8b 3c
       -0.0014140063 -0.017839978 -0.002287786 0.017009875
000010 f0 2e 07 bc
       -0.008250937

exp_avg f4 [128, 47]
000000 91 14 d0 b8 d7 46 c8 34 00 00 00 00 01 92 fd b5
       -9.922044e-05 3.7304446e-07 0.0 -1.8892462e-06
000010 1c e6 ac b8 dc e5 89 b7 00 00 00 00 75 b8 14 b7
       -8.24446e-05 -1.643871e-05 0.0 -8.864435e-06
000020 89 79 d5 b8 98 3e 43 36 00 00 00 00 83 da 97 35
       -0.00010179269 2.9093699e-06 0.0 1.1313972e-06
000030 a0 9c b1 b8 ff dd 6d b7 00 00 00 00 32 69 04 b7
       -8.4691914e-05 -1.4177988e-05 0.0 -7.892306e-06
000040 09 56 c0 b8 1c 2f ef b6 00 00 00 00 e9 53 aa b6
       -9.171299e-05 -7.1282393e-06 0.0 -5.0761632e-06
000050 25 95 b1 b8 a3 9e 6d b7 00 00 00 00 05 c4 d9 b6
       -8.467798e-05 -1.4163236e-05 0.0 -6.4899236e-06
000060 ca 8e b9 b8 86 d1 2d b7 00 00 00 00 18 75 26 b7
       -8.848084e-05 -1.0360387e-05 0.0 -9.921634e-06
000070 64 6d 98 b8 54 6e db b7 00 00 00 00 7c eb 4d b7
       -7.2683004e-05 -2.615821e-05 0.0 -1.227378e-05
000080 36 44 09 b8 e0 a6 8a b8 00 00 00 00 22 c8 31 b5
       -3.272687e-05 -6.611436e-05 0.0 -6.622887e-07
000090 32 d5 b7 37 5b 84 81 b8 3e 04 f0 37 0d a9 e0 37
       2.1914577e-05 -6.1758525e-05 2.8612205e-05 2.6781601e-05
0000a0 cd 9b 89 b7 2d 21 9c b8 e8 55 2b b8 a7 b4 d5 38
       -1.6404223e-05 -7.444839e-05 -4.0849583e-05 0.000101902806
0000b0 15 c4 2a b8 70 7f 78 b6 1b 91 56 b8 e5 d8 8e 38
       -4.0713774e-05 -3.7029058e-06 -5.1156716e-05 6.8114874e-05
0000c0 34 61 3f b5 00 00 00 00 11 92 f2 35 75 7b 4d 38
       -7.1294494e-07 0.0 1.8072916e-06 4.8990787e-05
0000d0 6f 30 9a 37 00 00 00 00 18 e2 62 37 2e b9 77 38
       1.8380784e-05 0.0 1.3523291e-05 5.906185e-05
0000e0 ff 69 0b 37 00 00 00 00 b3 6b 08 37 4e 10 00 38
       8.309725e-06 0.0 8.131307e-06 3.0532763e-05
0000f0 31 ad 1a 38 00 00 00 00 a0 a1 9b 37 1f 62 4f 38
       3.687776e-05 0.0 1.8552702e-05 4.944403e-05
000100 71 a7 96 37 00 00 00 00 2f 7f 0c 37 b8 da 1b 38
       1.7959364e-05 0.0 8.3742625e-06 3.7158577e-05
000110 45 b6 fd 37 00 00 00 00 9c d6 5c 37 40 3a 48 38
       3.0244826e-05 0.0 1.31629895e-05 4.7737965e-05
000120 35 f7 a4 37 00 00 00 00 77 35 86 37 8c 58 b8 37
       1.9665438e-05 0.0 1.5998941e-05 2.1975742e-05
000130 91 89 3e 38 00 00 00 00 35 dc 93 37 5a 3a b3 38
       4.542765e-05 0.0 1.7626307e-05 8.546254e-05
000140 ab 7d 97 b7 00 00 00 00 92 a8 ae b7 11 bf 93 b7
       -1.8059121e-05 0.0 -2.0820913e-05 -1.7612738e-05
000150 c1 30 41 38 2c 00 38 b6 59 85 46 b8 34 b6 12 b8
       4.606019e-05 -2.7418237e-06 -4.733107e-05 -3.4978802e-05
000160 17 98 ba 37 3d fd f7 b7 e9 76 aa b7 18 07 81 37
       2.224375e-05 -2.9562618e-05 -2.0320951e-05 1.5381302e-05
000170 1f e4 6f 36 e7 02 60 38 d9 c8 a5 34 9d 66 cc b4
       3.574656e-06 5.3408465e-05 3.087978e-07 -3.8072622e-07
000180 00 00 00 00 05 e1 ce b3 75 c7 3d b7 ce d2 3c 37
       0.0 -9.633553e-08 -1.1311718e-05 1.1254755e-05
000190 00 00 00 00 ca 86 e8 35 b3 da b6 36 f5 c3 b8 b6
       0.0 1.7324576e-06 5.4494826e-06 -5.5064397e-06
0001a0 00 00 00 00 db dd 02 b7 73 cb 4e b6 e3 03 4a 36
       0.0 -7.800259e-06 -3.0814815e-06 3.0102608e-06
0001b0 00 00 00 00 59 48 c6 b3 c9 f0 0e b6 ef a1 09 36
       0.0 -9.2332535e-08 -2.1299804e-06 2.0508849e-06
0001c0 00 00 00 00 20 8f 38 b5 ab 63 b3 b6 3d bc b0 36
       0.0 -6.8753616e-07 -5.3462186e-06 5.2671226e-06
0001d0 00 00 00 00 b3 ac 86 b2 46 98 0f b7 90 44 0e 37
       0.0 -1.5678188e-08 -8.558918e-06 8.479823e-06
0001e0 00 00 00 00 4d 60 93 36 11 fd 63 b7 56 a9 62 37
       0.0 4.3921523e-06 -1.3589176e-05 1.3510076e-05
0001f0 00 00 00 00 d3 18 88 36 99 35 0f b7 e1 e1 0d 37
       0.0 4.0560058e-06 -8.535943e-06 8.456846e-06
000200 00 00 00 00 8f e9 64 b7 34 c9 f7 b6 0a ba b2 36
       0.0 -1.3644239e-05 -7.3845968e-06 5.326471e-06
000210 c8 c5 87 34 70 cf 3b b6 d7 28 9f 37 4f c7 91 37
       2.5289614e-07 -2.7985916e-06 1.8973295e-05 1.7378157e-05
000220 35 a9 78 36 56 68 34 b8 e9 ab 4d b7 f9 27 8d b5
       3.7053371e-06 -4.3012515e-05 -1.2258978e-05 -1.0516952e-06
000230 63 02 58 36 c0 cd 75 38 de aa 5d 34 00 00 00 00
       3.2187897e-06 5.860417e-05 2.064439e-07 0.0
000240 0f 7d ba 35 83 5a 89 38 06 28 df b6 00 00 00 00
       1.3894477e-06 6.549528e-05 -6.6505772e-06 0.0
000250 db a0 5d b5 ce 68 84 38 aa 0c 90 b6 00 00 00 00
       -8.256299e-07 6.313772e-05 -4.2930087e-06 0.0
000260 12 29 bc 35 cb 6a 83 38 93 ea 80 b6 00 00 00 00
       1.4019045e-06 6.2664585e-05 -3.8420053e-06 0.0
000270 a7 66 bf 33 05 20 88 38 c8 a4 cc b6 00 00 00 00
       8.912803e-08 6.4909495e-05 -6.098857e-06 0.0
000280 0d 76 25 b6 00 ea 7f 38 dc e8 13 b6 00 00 00 00
       -2.465563e-06 6.1014667e-05 -2.204025e-06 0.0
000290 1e e6 e6 35 42 40 93 38 4f 54 3f b7 00 00 00 00
       1.7203308e-06 7.021475e-05 -1.1404117e-05 0.0
0002a0 d2 a9 74 b6 eb bf 6f 38 f6 70 dd 35 00 00 00 00
       -3.6457682e-06 5.7160778e-05 1.6498659e-06 0.0
0002b0 e5 19 6c 36 39 38 12 37 67 1d 52 38 00 00 00 00
       3.5181813e-06 8.7153685e-06 5.0095285e-05 0.0
0002c0 92 e7 15 38 41 ea 8c b6 1e 57 03 38 18 dd 5e b7
       3.5740035e-05 -4.199596e-06 3.1313968e-05 -1.32837085e-05
0002d0 6e 90 e6 b6 4e 79 93 b7 89 a9 c4 37 0f 35 01 38
       -6.871348e-06 -1.7580252e-05 2.3443967e-05 3.080541e-05
0002e0 84 fc 0b b7 1e 23 36 38 18 50 8a 36 8c 27 0a 38
       -8.343839e-06 4.3424887e-05 4.1220446e-06 3.2938595e-05
0002f0 fb dd 40 37 8e ca 1a b4 00 00 00 00 de 50 06 b3
       1.1495776e-05 -1.4416057e-07 0.0 -3.1272855e-08
000300 31 1c 15 37 e9 f5 24 36 00 00 00 00 2c c6 6e 35
       8.887656e-06 2.4581043e-06 0.0 8.8950287e-07
000310 d3 03 23 37 b7 ae da 35 00 00 00 00 73 91 c8 34
       9.7164475e-06 1.6293114e-06 0.0 3.735873e-07
000320 81 c4 19 37 26 77 13 36 00 00 00 00 34 7c 27 35
       9.165263e-06 2.197406e-06 0.0 6.239309e-07
000330 38 42 15 37 ef 90 24 36 00 00 00 00 ef b8 93 35
       8.89651e-06 2.4522267e-06 0.0 1.1006176e-06
000340 23 46 1c 37 41 81 08 36 00 00 00 00 da 1e 0f 35
       9.314655e-06 2.0340815e-06 0.0 5.3316546e-07
000350 93 f0 21 37 29 af e3 35 00 00 00 00 1f bb a9 35
       9.652361e-06 1.6963796e-06 0.0 1.2645941e-06
000360 92 1d 2d 37 20 47 8a 35 00 00 00 00 8b a1 6e 34
       1.0318488e-05 1.0302501e-06 0.0 2.2224246e-07
000370 be 95 e5 36 3a 37 97 36 00 00 00 00 f3 da f1 b6
       6.842164e-06 4.50658e-06 0.0 -7.2078487e-06
000380 cd 7a 90 b6 0d ca 0e 37 9c 23 91 b6 97 4b 37 b6
       -4.3058303e-06 8.510903e-06 -4.325482e-06 -2.7313124e-06
000390 39 05 da 35 98 0c 35 37 c4 a8 4f 36 24 f4 8f b7
       1.6243786e-06 1.0791373e-05 3.0943638e-06 -1.7160615e-05
0003a0 43 06 17 36 43 78 8b 34 7f 54 9e 36 0a 04 7c 36
       2.2504398e-06 2.597827e-07 4.7186036e-06 3.7553277e-06
0003b0 17 54 e3 34 00 00 00 00 63 7c 63 35 55 09 a7 37
       4.2343228e-07 0.0 8.4745096e-07 1.9912297e-05
0003c0 8b df 83 b7 00 00 00 00 cb 71 ad b6 aa b3 d4 37
       -1.5720512e-05 0.0 -5.169049e-06 2.5356032e-05
0003d0 dd 89 b1 b7 00 00 00 00 2f 4d c4 b6 e6 07 aa 37
       -2.1164242e-05 0.0 -5.8502405e-06 2.0269257e-05
0003e0 5f 3c 87 b7 00 00 00 00 64 90 99 b6 3e 69 c6 37
       -1.6121367e-05 0.0 -4.5765646e-06 2.3652447e-05
0003f0 fc 66 a3 b7 00 00 00 00 20 b1 f7 b6 ec 90 80 37
       -1.947907e-05 0.0 -7.3817937e-06 1.5326274e-05

exp_avg_sq f4 [128, 47]
000000 6d 0f 8f 33 ea 33 c8 2f 00 00 00 00 af 39 95 2d
       6.661762e-08 3.6416675e-10 0.0 1.6964955e-11
000010 9b 6f 8a 33 be c1 ee 30 00 00 00 00 c3 33 5b 2f
       6.446427e-08 1.7371844e-09 0.0 1.9936323e-10
000020 f8 fc 88 33 fd 23 1e 31 00 00 00 00 6d a4 47 2f
       6.379008e-08 2.3012483e-09 0.0 1.815736e-10
000030 ec 8c 8c 33 ed ee c0 30 00 00 00 00 2a 31 30 2f
       6.5448916e-08 1.4037745e-09 0.0 1.6024573e-10
000040 43 80 8a 33 a7 84 23 31 00 00 00 00 55 f1 4d 2f
       6.4494564e-08 2.3795026e-09 0.0 1.873038e-10
000050 95 c6 8c 33 95 9b b9 30 00 00 00 00 f2 5b 33 2f
       6.55538e-08 1.3504741e-09 0.0 1.6312621e-10
000060 f7 87 8a 33 ef 2d 27 31 00 00 00 00 6f 70 49 2f
       6.4508576e-08 2.4327809e-09 0.0 1.8320788e-10
000070 96 7c 8a 33 28 8e ba 30 00 00 00 00 c4 b1 3a 2f
       6.448788e-08 1.3573684e-09 0.0 1.6979756e-10
000080 c2 58 c6 32 9c 73 33 33 00 00 00 00 27 cc f3 31
       2.3090596e-08 4.178183e-08 0.0 7.0954402e-09
000090 a2 b3 88 32 f4 10 80 32 13 8b 08 32 0c 07 e4 32
       1.5914171e-08 1.490887e-08 7.947864e-09 2.6545898e-08
0000a0 34 f1 49 32 32 9e 33 33 d6 82 3d 32 65 3e e4 32
       1.1754583e-08 4.1820563e-08 1.1030997e-08 2.6571067e-08
0000b0 f3 fc 17 33 e4 6e da 2e 8c 14 2e 32 fb 03 ee 33
       3.5387483e-08 9.9331904e-11 1.0132805e-08 1.1083463e-07
0000c0 69 05 66 30 00 00 00 00 4e 38 b4 2d e1 b4 e2 33
       8.36812e-10 0.0 2.0488635e-11 1.0556847e-07
0000d0 b0 8a 22 31 00 00 00 00 de e6 cc 2f 71 d3 e4 33
       2.3652937e-09 0.0 3.7271425e-10 1.0655538e-07
0000e0 ac d1 20 31 00 00 00 00 5f 64 83 2f be 7a e5 33
       2.340225e-09 0.0 2.390008e-10 1.068597e-07
0000f0 16 8f 0f 31 00 00 00 00 df 00 b1 2f d0 16 e2 33
       2.0890574e-09 0.0 3.2196731e-10 1.0528095e-07
000100 aa 03 4b 31 00 00 00 00 71 32 b0 2f fe 2c eb 33
       2.954247e-09 0.0 3.2050054e-10 1.0951224e-07
000110 03 83 05 31 00 00 00 00 e9 40 87 2f 61 82 de 33
       1.9428519e-09 0.0 2.4602478e-10 1.03613964e-07
000120 29 71 74 31 00 00 00 00 5e 7c e0 2f 5f 17 e7 33
       3.5570997e-09 0.0 4.083373e-10 1.0761027e-07
000130 c3 84 25 31 00 00 00 00 10 0d 90 2f 1a 01 33 33
       2.4086126e-09 0.0 2.620273e-10 4.1677687e-08
000140 5f f0 86 33 00 00 00 00 af a2 48 32 61 34 ee 32
       6.2835845e-08 0.0 1.1678522e-08 2.7730666e-08
000150 1a 5b a4 32 9e c1 2e 32 9a b3 4d 33 4d 6c a4 32
       1.9133541e-08 1.01721565e-08 4.789363e-08 1.9141362e-08
000160 b7 b6 9f 33 3e ae 65 32 5a 42 4c 33 d6 7c 6f 33
       7.43725e-08 1.3369172e-08 4.7557798e-08 5.576006e-08
000170 15 d4 1c 2f 19 eb 6b 32 f4 74 bc 32 d1 81 df 2f
       1.4263464e-10 1.3732255e-08 2.1939265e-08 4.0655704e-10
000180 00 00 00 00 1d 3c 85 2d bd 81 ae 32 6e 71 d6 30
       0.0 1.5147045e-11 2.0315264e-08 1.5602788e-09
000190 00 00 00 00 9d 08 22 2f d4 c1 ad 32 69 08 d1 30
       0.0 1.4736874e-10 2.0227994e-08 1.5209142e-09
0001a0 00 00 00 00 ad e5 19 2f ec fa b1 32 88 f1 d7 30
       0.0 1.3996866e-10 2.0719618e-08 1.5711956e-09
0001b0 00 00 00 00 36 4e 1f 2f 82 06 b1 32 3e ad d5 30
       0.0 1.4488752e-10 2.0608471e-08 1.5547028e-09
0001c0 00 00 00 00 fd 97 11 2f 1e d1 b2 32 8c 37 ce 30
       0.0 1.324167e-10 2.0817023e-08 1.500426e-09
0001d0 00 00 00 00 75 bc 10 2f df a1 b0 32 59 02 e5 30
       0.0 1.3163677e-10 2.0562707e-08 1.666261e-09
0001e0 00 00 00 00 33 2f 17 2f 56 86 b0 32 7e 3c d9 30
       0.0 1.3750139e-10 2.0550186e-08 1.5806021e-09
0001f0 00 00 00 00 7b b5 24 2f 9e 35 83 31 71 be 9d 32
       0.0 1.4980188e-10 3.8186974e-09 1.8363808e-08
000200 00 00 00 00 b9 95 77 31 79 40 b6 31 57 61 90 31
       0.0 3.6028338e-09 5.304227e-09 4.202018e-09
000210 e5 a6 06 31 5a df 35 32 28 e0 a3 31 75 0d 6c 32
       1.9594435e-09 1.0586371e-08 4.769408e-09 1.3740068e-08
000220 8b 0c 82 31 f9 83 1b 32 34 75 45 32 78 95 26 2e
       3.784924e-09 9.0521945e-09 1.1493558e-08 3.7876785e-11
000230 1f 49 9c 31 21 da 06 33 c7 da a2 2e 00 00 00 00
       4.5485105e-09 3.1397693e-08 7.40577e-11 0.0
000240 fd 79 81 2d 4f ba e3 32 82 d3 21 31 00 00 00 00
       1.4719776e-11 2.6511001e-08 2.3548812e-09 0.0
000250 c1 94 5f 2f 5a 66 e9 32 d5 6e 27 31 00 00 00 00
       2.033458e-10 2.7171314e-08 2.43647e-09 0.0
000260 97 2a 55 2f 19 96 f4 32 3f 41 1f 31 00 00 00 00
       1.9387368e-10 2.8473595e-08 2.3174633e-09 0.0
000270 cc bb 54 2f cf e8 f4 32 0b 5a 21 31 00 00 00 00
       1.9348007e-10 2.8511208e-08 2.3479767e-09 0.0
000280 0c 4f 2c 2f bb 74 fd 32 f8 ab 0c 31 00 00 00 00
       1.5671392e-10 2.950616e-08 2.0470434e-09 0.0
000290 d2 57 4a 2f c0 d3 f0 32 de 4d 44 31 00 00 00 00
       1.8402993e-10 2.803597e-08 2.8566016e-09 0.0
0002a0 d0 27 70 2f e1 26 f8 32 87 b4 0a 31 00 00 00 00
       2.1842017e-10 2.888868e-08 2.018426e-09 0.0
0002b0 66 18 56 2f b1 66 a7 31 3f 6b e3 32 00 00 00 00
       1.9471855e-10 4.8720143e-09 2.6475048e-08 0.0
0002c0 b8 84 92 31 f3 cf c9 31 45 1e 05 32 36 5b 56 31
       4.2642476e-09 5.873511e-09 7.748501e-09 3.1192946e-09
0002d0 8c 66 57 32 a5 3f c0 31 4c d8 b6 32 f4 cc ac 31
       1.2537964e-08 5.595171e-09 2.1285949e-08 5.0291593e-09
0002e0 ba 27 67 32 63 61 85 32 d5 5f 47 2e 37 fa 1d 32
       1.34550024e-08 1.5527524e-08 4.5332477e-11 9.195495e-09
0002f0 ec 96 c1 31 82 5b 4f 2e 00 00 00 00 a7 15 52 2c
       5.634197e-09 4.7147626e-11 0.0 2.9854814e-12
000300 80 98 ac 31 f2 8d 86 2f 00 00 00 00 2c e0 9f 2d
       5.023196e-09 2.4475316e-10 0.0 1.817576e-11
000310 d5 51 ae 31 a2 7b 80 2f 00 00 00 00 00 0e aa 2d
       5.0733697e-09 2.337091e-10 0.0 1.933298e-11
000320 13 c3 b6 31 9e 92 74 2f 00 00 00 00 53 24 86 2d
       5.3190745e-09 2.224376e-10 0.0 1.5250167e-11
000330 b1 8b bb 31 0f 4f 5c 2f 00 00 00 00 fe b1 7a 2d
       5.4582974e-09 2.003697e-10 0.0 1.4250377e-11
000340 6a 09 b9 31 b2 3f 93 2f 00 00 00 00 6a de 98 2d
       5.385279e-09 2.6784402e-10 0.0 1.7379171e-11
000350 8a e6 b9 31 5f d9 7a 2f 00 00 00 00 b2 fb a0 2d
       5.410418e-09 2.2814593e-10 0.0 1.830167e-11
000360 b7 a9 b4 31 e5 ff b1 2f 00 00 00 00 85 a0 e1 2d
       5.257984e-09 3.2377936e-10 0.0 2.5650823e-11
000370 93 4b e2 30 e8 0d 87 31 00 00 00 00 89 93 13 30
       1.6465144e-09 3.930598e-09 0.0 5.368795e-10
000380 02 7b a4 30 5d 4f d4 30 67 6b 4a 30 e3 61 14 31
       1.1967531e-09 1.5447587e-09 7.36398e-10 2.1592477e-09
000390 11 dd a4 30 36 66 53 31 26 b3 96 30 7e fb 10 31
       1.1995401e-09 3.0762641e-09 1.0964853e-09 2.1097715e-09
0003a0 1f 90 48 31 88 11 3c 2d e4 3a b9 30 e8 6d 78 33
       2.9185754e-09 1.06904555e-11 1.3477259e-09 5.784196e-08
0003b0 ca 92 eb 2f 00 00 00 00 68 9a de 2d 93 0f 60 33
       4.285055e-10 0.0 2.5307048e-11 5.216823e-08
0003c0 33 4d 59 31 00 00 00 00 5d 22 9e 2f 8d 33 60 33
       3.1621539e-09 0.0 2.876445e-10 5.220095e-08
0003d0 f4 8d 63 31 00 00 00 00 de d4 97 2f b1 c6 6a 33
       3.3113539e-09 0.0 2.761799e-10 5.466308e-08
0003e0 12 61 5a 31 00 00 00 00 3f c3 a6 2f 1a c0 69 33
       3.1778353e-09 0.0 3.0333955e-10 5.4424255e-08
0003f0 81 b2 5d 31 00 00 00 00 e5 64 84 2f 8e ec 6b 33
       3.22612e-09 0.0 2.408235e-10 5.4930346e-08

exp_avg f4 [128]
000000 fc 48 cf b8 f0 5a 8d 38 a2 e3 a9 b3 73 ab 76 38
       -9.8841236e-05 6.740342e-05 -7.911082e-08 5.8810645e-05
000010 7c 66 3e 37 d9 08 8c 36 b2 7c a3 b8 7f 20 8b b6
       1.1348744e-05 4.173355e-06 -7.795672e-05 -4.146306e-06
000020 d9 8c 89 b8 1a 5c 64 b5 0d f9 69 38 ff 2b 86 b8
       -6.558904e-05 -8.5070644e-07 5.5783476e-05 -6.397813e-05
000030 96 fa f3 37 ab 07 b7 b7 37 1c 57 b7 a2 c1 16 36
       2.9084546e-05 -2.181887e-05 -1.2821568e-05 2.246445e-06
000040 c4 b0 3e b9 a1 3a ca b8 f6 1d 0c 39 df 1b 0a 37
       -0.00018185662 -9.643031e-05 0.00013362602 8.23193e-06
000050 c1 80 87 37 ba d4 33 38 d1 e8 65 37 6f c5 a0 b7
       1.615321e-05 4.2875043e-05 1.370367e-05 -1.9165424e-05
000060 6a d9 25 37 07 7a ca b7 8c b6 97 37 fb f0 5b 37
       9.885387e-06 -2.41371e-05 1.8085608e-05 1.3109525e-05
000070 4d 16 e9 38 b9 3c bf 38 21 51 1f b9 6d ca 26 38
       0.000111144596 9.1189e-05 -0.00015193645 3.9766008e-05
000080 63 f0 48 36 17 e3 d1 35 a5 27 4c 35 7a 71 28 38
       2.9942246e-06 1.5637805e-06 7.605361e-07 4.0160005e-05
000090 03 36 2a 37 85 0f 0e b4 d2 48 da b8 9f cf 9f 38
       1.0145365e-05 -1.3230427e-07 -0.00010408614 7.620383e-05
0000a0 56 7f 80 b8 bc 5d c3 36 31 19 c2 b7 3c 47 39 38
       -6.127234e-05 5.822365e-06 -2.3138333e-05 4.417378e-05
0000b0 e8 eb 5e b9 fb 99 d4 38 c9 93 eb 37 ac 9f ae b6
       -0.00021259452 0.00010137629 2.8083e-05 -5.2041923e-06
0000c0 7b f3 fd b5 83 18 52 37 db 99 e8 37 63 d9 6b b8
       -1.8920831e-06 1.25226825e-05 2.77282e-05 -5.6230823e-05
0000d0 d7 2c 2a b7 51 7e 45 b7 6e 68 24 39 f2 d2 42 b8
       -1.014323e-05 -1.1771525e-05 0.00015679162 -4.6449662e-05
0000e0 2a f1 20 b7 61 ef 17 38 a5 33 63 37 1f 0e 84 38
       -9.592894e-06 3.6224144e-05 1.3542279e-05 6.296881e-05
0000f0 ef 53 51 37 4e 5a cf b7 d4 82 80 36 24 1f 37 38
       1.2476913e-05 -2.4718374e-05 3.8299277e-06 4.3659602e-05
000100 b7 1e b3 b6 08 6e a4 38 95 8a 9d b6 43 83 04 b8
       -5.3381914e-06 7.840624e-05 -4.6950977e-06 -3.15935e-05
000110 9c a5 d5 36 28 aa 71 37 a7 25 d9 b7 69 76 95 b6
       6.367174e-06 1.4404337e-05 -2.5885949e-05 -4.454331e-06
000120 7a 3c 09 37 6e da 2f 38 bb 0e 94 b7 83 b6 4d b8
       8.179917e-06 4.192668e-05 -1.7649834e-05 -4.9045786e-05
000130 24 ef 98 b6 f0 b4 a4 37 c3 72 32 b8 14 5b fd b7
       -4.5577926e-06 1.9634579e-05 -4.2545387e-05 -3.0202362e-05
000140 15 14 0b b8 de b1 0e b7 19 99 ca b8 02 7a 55 b8
       -3.3158885e-05 -8.5052725e-06 -9.660627e-05 -5.0896786e-05
000150 ac be 28 b9 ac 40 0c 38 c9 56 6f b8 1e 36 ff 37
       -0.0001609276 3.343883e-05 -5.7062865e-05 3.042357e-05
000160 0f 5b 7a b6 17 ff 4f 38 1c 84 6f b7 d3 19 34 b8
       -3.7305906e-06 4.9590217e-05 -1.4276269e-05 -4.2939395e-05
000170 a4 d2 69 b7 69 5f a4 b7 b3 02 8d b7 be 68 84 35
       -1.3936926e-05 -1.9594752e-05 -1.6809767e-05 9.86525e-07
000180 c7 3d 66 b7 08 c0 16 37 58 b7 e8 b6 0d e9 ce 36
       -1.3723452e-05 8.9854075e-06 -6.935483e-06 6.166409e-06
000190 ab d6 cc b7 6d a6 26 38 a4 50 ef 37 95 5f 2f 36
       -2.4418658e-05 3.973248e-05 2.8528571e-05 2.6132668e-06
0001a0 3a 0e 1c b8 78 8e 30 38 13 b6 1e 37 84 d6 7a b8
       -3.7206548e-05 4.2094354e-05 9.459926e-06 -5.9804428e-05
0001b0 22 7b 86 36 ab 1a 1c b7 d4 c8 95 37 c1 96 98 b8
       4.0078457e-06 -9.304534e-06 1.7855702e-05 -7.276005e-05
0001c0 cc 98 b8 38 31 a9 2a b8 4c b0 6e 37 11 2c b8 b7
       8.802264e-05 -4.068873e-05 1.4226953e-05 -2.195503e-05
0001d0 c4 38 97 38 9f ec db b7 59 5e 63 b6 c5 f0 c8 36
       7.2108145e-05 -2.621702e-05 -3.3880553e-06 5.9884937e-06
0001e0 af d5 14 b9 80 3a 71 37 bd 46 8d b8 23 0b 8b 35
       -0.00014193983 1.437834e-05 -6.73658e-05 1.0359548e-06
0001f0 43 0d f5 34 e8 8c a7 35 4e d7 9a 37 02 e4 05 38
       4.5644455e-07 1.2483479e-06 1.845849e-05 3.192202e-05
