config/results/AgrConserv_Refactored_2M_V1/Hummingbird_Aggressive.onnx (onnx, 97764 bytes, 7 tensors)

network_body._body_endoder.seq_layers.0.weight f4 [128, 47]
0.0073760347 -0.18700646 0.053003818 -0.056709047 0.28140306 0.034712214 0.06877686 -0.12842593
-0.029732266 0.123968765 0.062886655 -0.13805775 0.09438629 -0.2158751 0.2567463 -0.01828125
0.014669865 -0.008876844 0.17924178 0.07423183 -0.13327703 0.1564074 -0.1785921 -0.0075777615
0.119692676 0.0030647104 -0.010986052 -0.03977055 0.05137173 -0.069066286 0.03029009 0.015330126
-0.095942244 -0.14001988 -0.109990865 0.005832387 -0.058102246 0.123299524 0.3217272 -0.19331859
0.2569314 -0.10440389 -0.02129194 -0.23695622 -0.12556688 -0.029400293 -0.16819206 -0.13971359
-0.01117162 0.112858824 0.15851757 0.1594839 -0.1297138 -0.08784446 0.06078304 -0.2833857
-0.0047115465 0.20128003 -0.22253776 0.15420137 0.29863954 0.30778775 0.064869806 0.20820884
0.04249667 0.22769348 0.028470464 0.18932697 -0.11483714 -0.082720116 -0.16119674 -0.09886165
0.092714876 -0.070661016 -0.057728786 -0.13354152 -0.01962269 -0.3189976 0.12182446 0.03235759
0.2006677 0.26346004 -0.11178797 0.18136165 0.17095985 -0.03558943 0.08521784 -0.115046956
-0.30393833 -0.19693637 0.24447909 -0.05473888 -0.025565078 0.31743923 -0.09024329 -0.1391923
-0.10666032 0.246241 0.00738971 -0.11462918 -0.1537776 -0.12487508 -0.15493119 0.16087987
0.04041112 -0.017807303 0.36775222 0.01901901 0.11538828 -0.24370065 0.06545979 -0.10577462
-0.05086283 0.0076171313 0.1682112 0.20604503 0.20957407 -0.03618608 -0.030397963 0.055285197
-0.12639573 -0.07170964 0.057165872 -0.28298312 -0.035326898 0.049605664 -0.2139535 -0.02973178
-0.18930408 -0.012791276 0.010660223 0.105246715 0.0135521805 -0.1687903 0.13138984 -0.17217864
0.09568904 0.14785793 0.0017140955 -0.025322087 0.18599367 0.08687033 0.009322209 -0.24967192
-0.026246691 -0.27739483 0.057339527 0.03754119 -0.20589125 0.19279422 -0.30134648 -0.085905656
0.19569081 0.105415314 -0.24893633 0.06773981 -0.06577408 0.054079555 0.17702557 0.03380116
0.15550882 0.32858893 -7.0873866e-06 -0.078195825 -0.064656876 0.11608018 -0.053328797 -0.3480646
-0.1819573 -0.18914065 -0.10055219 0.0009069017 0.1307194 0.15385038 0.017523423 0.150711
-0.10213194 0.14687274 -0.013283936 0.11168302 -0.005503942 0.020900656 -0.13740617 -0.16352409
0.019626662 0.08594249 -0.007048659 0.06703886 -0.1856888 0.21927385 0.061547387 0.093233295
-0.11263814 0.1249992 0.15768024 -0.06536225 0.07218564 0.11013042 -0.049837045 0.12890434
-0.16115104 0.009944859 0.1395735 0.37511998 0.14704512 0.049052477 -0.1435411 0.082086794
-0.11431152 -0.020376898 -0.025192492 -0.06873867 -0.0060346494 -0.22291201 -0.14498256 -0.108146526
0.029951457 -0.288853 -0.05209662 0.17511159 -0.017955748 0.04860233 0.045285854 0.012641827
0.011137577 -0.023285989 -0.15886644 -0.2441641 0.1257538 -0.22051087 -0.03566421 0.06885433
-0.10186235 -0.09209864 0.012063306 0.25111264 -0.4680508 0.3687581 -0.056161452 0.011071581
0.36065927 0.010494419 -0.17667115 -0.19332588 0.087810926 0.11402199 0.116584994 0.19757077
0.0447996 -0.19085783 -0.06814651 0.14335005 -0.119514205 0.014233806 -0.26320618 0.08386733
00000000: aab2 f13b 9f7e 3fbe 881a 593d bf47 68bd
00000010: 1014 903e 652e 0e3d e2da 8c3d 1682 03be
00000020: 1591 f3bc 56e3 fd3d b8ca 803d 035f 0dbe
00000030: 994d c13d 5d0e 5dbe 4074 833e 8fc2 95bc
00000040: e059 703c 2f70 11bc 288b 373e dc06 983d
00000050: c679 08be 4329 203e d9e0 36be df4e f8bb
00000060: 6f21 f53d 4fd9 483b d8fe 33bc 72e6 22bd
00000070: 2a6b 523d a072 8dbd ec22 f83c 352b 7b3c
00000080: 5e7d c4bd 5f61 0fbe e442 e1bd 9c1d bf3b
00000090: 9ffc 6dbd 7684 fc3d 6db9 a43e 4ff5 45be
000000a0: 838c 833e b5d1 d5bd 6f6c aebc a7a4 72be
000000b0: 9b94 00be e2d8 f0bc 8a3a 2cbe 1411 0fbe
000000c0: 2c09 37bc 8722 e73d 6e52 223e bf4f 233e
000000d0: b2d3 04be cce7 b3bd a3f7 783d ee17 91be
000000e0: 5163 9abb 5a1c 4e3e f0e0 63be f7e6 1d3e
000000f0: 48e7 983e 5b96 9d3e 76da 843d b334 553e
00000100: fd10 2e3d 7b28 693e e43a e93c eede 413e
00000110: bc2f ebbd 2a69 a9bd c210 25be fa77 cabd
00000120: 4ce1 bd3d b9b6 90bd 0575 6cbd 1cbf 08be
00000130: c3bf a0bc a753 a3be 1a7f f93d 6489 043d
00000140: d57b 4d3e 3ce4 863e 17f1 e4bd deb6 393e
00000150: 1910 2f3e 39c6 11bd b186 ae3d bd9d ebbd
00000160: ce9d 9bbe b0a9 49be ba58 7a3e e035 60bd
00000170: db6d d1bc 6587 a23e 79d1 b8bd 6d88 0ebe
00000180: ba70 dabd 9a26 7c3e 6125 f23b b4c2 eabd
00000190: e077 1dbe 82be ffbd 48a6 1ebe b1bd 243e
000001a0: 2186 253d 9fe0 91bc 054a bc3e c1cd 9b3c
000001b0: b150 ec3d aa8c 79be c80f 863d 5da0 d8bd
000001c0: 8b55 50bd 2199 f93b 8f3f 2c3e 78fd 523e
000001d0: 969a 563e db37 14bd 2605 f9bc bb72 623d
000001e0: e26d 01be 81dc 92bd c326 6a3d 2ae3 90be
000001f0: f0b2 10bd 4f2f 4b3d a016 5bbe 1090 f3bc
00000200: eed8 41be 8092 51bc 37a8 2e3c 978b d73d
00000210: f709 5e3c 5dd7 2cbe 0f8b 063e 994f 30be
00000220: 9ef8 c33d 1268 173e 80ab e03a 4470 cfbc
00000230: 2075 3e3e 12e9 b13d 2ebc 183c ffa9 7fbe
00000240: 4d03 d7bc b206 8ebe dadc 6a3d cac4 193d
00000250: 28d5 52be d96b 453e 164a 9abe 4eef afbd
00000260: 2c63 483e fce3 d73d 2ae9 7ebe 2bbb 8a3d
00000270: 90b4 86bd 8682 5d3d 3146 353e 1673 0a3d
00000280: b43d 1f3e cf3c a83e 30d0 edb6 2225 a0bd
00000290: d36a 84bd 72bb ed3d 4c6f 5abd 8635 b2be
000002a0: 0453 3abe 16ae 41be 4eee cdbd 25bd 6d3a
000002b0: 4edb 053e f48a 1d3e 488d 8f3c fc53 1a3e
000002c0: 8d2a d1bd cf65 163e dea4 59bc 11ba e43d
000002d0: 695a b4bb da37 ab3c 34b4 0cbe dc72 27be
000002e0: 18c8 a03c 9e02 b03d 70f8 e6bb ab4b 893d
000002f0: 3425 3ebe 5389 603e 1d19 7c3d 19f1 be3d
00000300: d3ae e6bd 95ff ff3d ee76 213e a5dc 85bd
00000310: 11d6 933d 0f8c e13d ee21 4cbd 80ff 033e
00000320: c704 25be c3ef 223c 5bec 0e3e ba0f c03e
00000330: ff92 163e 40eb 483d 70fc 12be 1f1d a83d
00000340: 281c eabd 74ed a6bc 7c60 cebc dcc6 8cbd
00000350: 4fbe c5bb 0c43 64be 4f76 14be ed7b ddbd
00000360: c25c f53c 8ae4 93be 4463 55bd 7450 333e
00000370: ef17 93bc 3d13 473d a97d 393d aa1f 4f3c
00000380: 627a 363c 42c2 bebc e2ad 22be 2706 7abe
00000390: 9bc5 003e 9acd 61be a214 12bd 8003 8d3d
000003a0: 359d d0bd 369e bcbd 2ca5 453c d691 803e
000003b0: 5ba4 efbe ddcd bc3e 8d09 66bd 9465 353c
000003c0: 55a8 b83e c9f0 2b3c 48e9 34be 38f7 45be
000003d0: 37d6 b33d 5c84 e93d 1dc4 ee3d fe4f 4a3e
000003e0: c97f 373d 3c70 43be 6690 8bbd 5bca 123e
000003f0: ddc3 f4bd e934 693c f6c2 86be a2c2 ab3d

network_body._body_endoder.seq_layers.0.bias f4 [128]
-0.0057197413 0.015558128 0.020873917 0.005328461 0.018191935 0.006060334 0.01947023 -0.0035250965
-0.016503766 -0.015823543 0.023709267 0.020193828 -0.0069381394 0.0032130147 -0.013505195 0.010031209
0.007394593 -0.008054775 -0.0047710435 0.016037209 0.017730346 0.002647182 0.0035996507 0.009404545
-0.009456418 0.0064240275 0.0076053105 0.014753745 -0.017670767 0.023039853 0.027360447 0.010342134
-0.01878206 -0.0017022219 0.015980128 0.008297492 0.017722972 0.016289752 -0.011274157 0.019979833
-0.01274136 0.025951087 0.018003877 0.00483051 0.00062013377 -0.007424988 -0.013028338 0.020937199
0.0050248844 0.02044495 -0.00566601 0.0067135384 -0.014730015 -0.0014550185 0.040321607 0.011178631
-0.012341031 0.0017120295 0.009516469 -0.0057991114 0.012134981 0.0343658 -0.008063107 0.03658722
-0.0012564211 -0.002658315 0.008255162 0.017527075 0.0019839024 -0.0013219997 0.012066344 0.009267098
-0.014540304 0.0066027124 -0.019524766 0.0126031125 -0.027183117 0.0001019898 0.008611637 0.002213835
-0.011241697 0.035521068 -0.009218012 -0.00327001 -0.0119690485 0.004241349 -0.005359605 -0.007360702
0.00053156365 -0.009278579 0.0068390835 0.009137942 0.009976718 0.0098914 0.022171818 -0.0063995915
-0.016937133 0.00018888284 -0.0010723993 0.010144347 -0.008137572 0.004978794 0.018055052 -0.009341289
-0.01181568 0.009811468 -0.009317 0.016705299 0.0032615203 -0.014663648 0.012172386 0.01718526
-0.00051705266 -0.0023288056 0.0042878888 0.00063693494 0.011328487 0.0042083445 -0.014385848 0.016381087
0.020154912 0.007583553 0.024113558 0.028529128 -0.00470061 0.009125255 0.0039602774 0.010232808
00000000: ab6c bbbb 85e7 7e3c c7ff aa3c 5f9a ae3b
00000010: 4107 953c c495 c63b 0880 9f3c 4e05 67bb
00000020: e832 87bc 60a0 81bc f039 c23c 876d a53c
00000030: 5559 e3bb 7191 523b e544 5dbc f159 243c
00000040: 584e f23b 2df8 03bc 6a56 9cbb 7760 833c
00000050: 3b3f 913c 587c 2d3b 1ee8 6b3b 8515 1a3c
00000060: 18ef 1abc a680 d23b f835 f93b b1b9 713c
00000070: 49c2 90bc 13be bc3c 0423 e03c 0e72 293c
00000080: d6dc 99bc 171d dfba c2e8 823c 34f2 073c
00000090: c42f 913c 1672 853c 3eb7 38bc bfac a33c
000000a0: 23c1 50bc 6097 d43c de7c 933c 4149 9e3b
000000b0: 7990 223a 504d f3bb cf74 55bc 7d84 ab3c
000000c0: c9a7 a43b 2b7c a73c f0a9 b9bb 3efd db3b
000000d0: 2956 71bc 52b6 beba 4528 253d 9426 373c
000000e0: 0932 4abc 2d66 e03a f7ea 1b3c 7906 bebb
000000f0: cdd1 463c 27c3 0c3d 1f1b 04bc 7bdc 153d
00000100: 7fae a4ba 2037 2ebb a940 073c f194 8f3c
00000110: 5c04 023b f346 adba eab1 453c 07d5 173c
00000120: 753a 6ebc 915b d83b 67f2 9fbc 497d 4e3c
00000130: 21af debc 5be3 d538 d317 0d3c fd15 113b
00000140: 182f 38bc 8a7e 113d 2507 17bc aa4d 56bb
00000150: d419 44bc 04fb 8a3b a09f afbb 0b32 f1bb
00000160: a258 0b3a 2e05 18bc 641a e03b 4fb7 153c
00000170: 6375 233c 8a0f 223c aca1 b53c aab3 d1bb
00000180: bebf 8abc da0e 4639 c08f 8cba 7a34 263c
00000190: 7353 05bc 2725 a33b 30e8 933c 350c 19bc
000001a0: 8e96 41bc 48c0 203c 55a6 18bc 8dd9 883c
000001b0: 3bbf 553b cc3f 70bc b06e 473c 1ac8 8c3c
000001c0: d18a 07ba e09e 18bb 6b81 8c3b fbf7 263a
000001d0: 1e9b 393c 27e6 893b 9fb2 6bbc a131 863c
000001e0: ea1b a53c 747f f83b cc89 c53c ebb5 e93c
000001f0: 9307 9abb 1882 153c 37c5 813b 82a7 273c

network_body._body_endoder.seq_layers.2.weight f4 [128, 128]
0.10083889 0.12950389 0.046430152 0.013161027 0.0028159735 -0.09239182 -0.13339908 -0.06624478
-0.054479297 0.039776158 0.13590622 -0.027366927 -0.08598029 -0.028763024 -0.042389724 -0.08175699
0.115306616 0.16300878 -0.10342077 -0.04502297 -0.08705957 0.034823213 0.066470735 -0.00843897
-0.07579647 0.1313647 -0.024684457 -0.05547558 0.055940673 -0.118857205 -0.07599443 -0.15039882
0.020357288 0.08435219 0.11193666 -0.024034636 0.15360925 0.0598631 0.022033257 -0.0075662625
-0.09568746 0.019687008 0.046041425 -0.045006804 0.072072335 -0.026724514 0.015896436 -0.053078167
0.06474214 0.036632635 -0.11389696 0.0076619154 -0.0385991 -0.06284174 0.06519393 -0.123136945
-0.042719413 -0.14188594 0.030782826 0.10050556 -0.12943117 -0.06525142 0.015852073 0.056593854
-0.06284716 0.013043232 -0.006062294 -0.004510283 0.06349905 0.049025185 -0.100936376 -0.0828248
-0.10318391 -0.14891462 -0.076434806 0.02637046 -0.14502859 -0.021524413 -0.033515286 0.11168941
0.014887756 -0.11333381 -0.092325896 0.09432608 -0.1040739 0.028745057 -0.14805637 0.10443729
0.033549424 -0.010075351 -0.06572142 -0.0029734008 -0.086098395 -0.104798205 -0.08950773 0.0684098
0.09071884 0.0917089 -0.06334038 -0.12511644 -0.1634423 -0.12046112 -0.08088687 0.047569565
-0.03962558 0.0026130653 -0.0093704285 0.024783453 0.030817738 -0.021838833 0.0011035238 -0.07102067
-0.027735315 -0.08622748 0.14720425 -0.029558035 0.0038392406 0.052547865 -0.025320537 0.10009619
0.020299481 0.024126673 0.030381162 -0.14310679 -0.035051778 0.11347048 0.0519044 -0.11989225
-0.07944816 -0.10023386 -0.0073375544 -0.08593061 -0.03256373 -0.05594752 -0.082242675 -0.094473846
-0.092939384 -0.008295348 0.05483995 -0.05375023 0.011247038 -0.18441968 0.062852345 0.22007982
0.20652564 0.06152526 -0.08685884 -0.034866974 -0.14816414 0.029550487 -0.104708135 0.17651041
-0.08782136 -0.212528 -0.013115464 0.120550364 -0.06812701 0.071434006 -0.048997488 0.010927985
-0.031364165 -0.02774658 -0.09343708 0.10517787 0.04694989 0.10572339 -0.0017226806 -0.009261661
-0.077277526 0.040067434 0.08611193 0.11385769 0.055094693 -0.04858923 0.04445523 0.06428001
0.01797703 -0.037738442 -0.10135177 0.10691751 -0.09770365 -0.15792902 -0.05681175 0.06519933
0.0010978776 -0.12875943 0.07817909 0.12161491 0.004891071 0.011851359 -0.12815446 -0.030711247
0.03810026 0.030449174 0.0035553663 0.1158759 -0.15115924 -0.04319073 -0.10854073 0.13854225
-0.1727888 -0.1246501 0.02403044 -0.055234663 0.041667126 -0.11491913 0.15214679 -0.0019546358
-0.07745338 0.112609304 0.074246176 0.113719136 0.058370125 -0.009823479 -0.19997902 0.041524924
0.036276996 0.06402583 -0.033600807 0.0760105 -0.2410723 0.0066316407 0.1341989 0.09876801
-0.04197923 -0.02292336 0.117509104 -0.13441202 -0.09260818 -0.045580648 -0.12318506 0.02764589
-0.01890884 0.058347624 0.104707986 0.042205404 0.051514547 0.017769506 0.010686487 -0.0054405206
0.052391533 0.055926174 0.047458757 -0.008627103 -0.0878755 -0.14906783 -0.054512333 0.0038209264
0.079456 0.06778713 -0.07114838 -0.052874405 0.15733346 -0.29398027 -0.07164938 -0.09654987
00000000: 9f84 ce3d ab9c 043e 8b2d 3e3d 59a1 573c
00000010: 328c 383b ec37 bdbd c599 08be 58ab 87bd
00000020: af25 5fbd 53ec 223d 002b 0b3e 9b30 e0bc
00000030: 6f16 b0bd 6fa0 ebbc d9a0 2dbd 3570 a7bd
00000040: e025 ec3d c6eb 263e 45ce d3bd 016a 38bd
00000050: 4a4c b2bd c9a2 0e3d cf21 883d 9b43 0abc
00000060: 2e3b 9bbd 7884 063e 0f37 cabc 5d3a 63bd
00000070: 0c22 653d 686b f3bd f8a2 9bbd 2602 1abe
00000080: 54c4 a63c d7c0 ac3d 0c3f e53d 49e4 c4bc
00000090: be4b 1d3e 0333 753d 177f b43c 69ee f7bb
000000a0: c9f7 c3bd a646 a13c ef95 3c3d 0e59 38bd
000000b0: a99a 933d 5eed dabc 3e39 823c 7e68 59bd
000000c0: 8797 843d 1a0c 163d cf42 e9bd ce10 fb3b
000000d0: 171a 1ebd 2cb3 80bd 6584 853d 392f fcbd
000000e0: 8dfa 2ebd 8c4a 11be 442c fc3c dcd5 cd3d
000000f0: 9b89 04be 89a2 85bd 35dc 813c f5ce 673d
00000100: 03b6 80bd 48b3 553c 35a6 c6bb ffca 93bb
00000110: ca0b 823d a2ce 483d bbb7 cebd 0ca0 a9bd
00000120: 1652 d3bd 137d 18be da89 9cbd dd06 d83c
00000130: 6082 14be f753 b0bc 5347 09bd 6bbd e43d
00000140: c6eb 733c 8e1b e8bd 5c15 bdbd 082e c13d
00000150: b224 d5bd c17a eb3c 179c 17be 38e3 d53d
00000160: 1f6b 093d 1613 25bc f498 86bd 63dd 42bb
00000170: 5b54 b0bd 71a0 d6bd d44f b7bd 701a 8c3d
00000180: cdca b93d e0d1 bb3d 9ab8 81bd 861e 00be
00000190: 6b5d 27be 52b4 f6bd 04a8 a5bd 4ed8 423d
000001a0: 6f4e 22bd f63f 2b3b 6d86 19bc ab06 cb3c
000001b0: 7b75 fc3c 5ae7 b2bc 1da4 903a 4973 91bd
000001c0: 2c35 e3bc 0898 b0bd b6bc 163e b123 f2bc
000001d0: c59b 7b3b 6e3c 573d 046d cfbc 3bff cc3d
000001e0: 194b a63c 4da5 c53c eae1 f83c 968a 12be
000001f0: 7492 0fbd 3663 e83d b599 543d 118a f5bd
00000200: b8b5 a2bd 6947 cdbd de6f f0bb 63fc afbd
00000210: 8c61 05bd 3a29 65bd d96e a8bd 817b c1bd
00000220: 0157 bebd 36e9 07bc db9f 603d 3429 5cbd
00000230: 7f45 383c 83d8 3cbe bbb8 803d 9b5c 613e
00000240: 757b 533e e901 7c3d 0ce3 b1bd acd0 0ebd
00000250: 57b8 17be dd13 f23c 3871 d6bd 25bf 343e
00000260: afdb b3bd f1a0 59be 3ee2 56bc 1ce3 f63d
00000270: 2c86 8bbd fe4b 923d 97b1 48bd 4b0b 333c
00000280: b677 00bd cc4c e3bc f15b bfbd 7f67 d73d
00000290: 874e 403d 8185 d83d 92cb e1ba 39be 17bc
000002a0: ae43 9ebd c01d 243d 745b b03d 382e e93d
000002b0: f9aa 613d 8005 47bd b016 363d 3da5 833d
000002c0: 9044 933c a093 1abd 8491 cfbd 91f7 da3d
000002d0: da18 c8bd 25b8 21be 70b3 68bd 3a87 853d
000002e0: a9e6 8f3a 83d9 03be 5c1c a03d 3d11 f93d
000002f0: 4745 a03b 342c 423c ec3a 03be 2796 fbbc
00000300: 050f 1c3d 8c70 f93c 2601 693b 5850 ed3d
00000310: 7dc9 1abe c3e8 30bd 9a4a debd 05de 0d3e
00000320: 8cef 30be 8d48 ffbd 7cdb c43c be3d 62bd
00000330: 26ab 2a3d b95a ebbd 5ecc 1b3e 5919 00bb
00000340: e19f 9ebd b59f e63d 610e 983d 94e5 e83d
00000350: 8315 6f3d a8f2 20bc 4dc7 4cbe 0a16 2a3d
00000360: 3097 143d f91f 833d 00a1 09bd 65ab 9b3d
00000370: a8db 76be 3c4e d93b 706b 093e e246 ca3d
00000380: 6af2 2bbd c5c9 bbbc 9da8 f03d 4ea3 09be
00000390: 5ca9 bdbd c6b2 3abd 7348 fcbd a279 e23c
000003a0: b6e6 9abc ebfd 6e3d 2471 d63d 93df 2c3d
000003b0: eb00 533d 5b91 913c 6016 2f3c 6546 b2bb
000003c0: 8198 563d d812 653d 1d64 423d b158 0dbc
000003d0: 12f8 b3bd 3da5 18be 5348 5fbd 8268 7a3b
000003e0: d4b9 a23d fbd3 8a3d 3eb6 91bd d592 58bd
000003f0: 061c 213e 9584 96be e9bc 92bd f0bb c5bd

network_body._body_endoder.seq_layers.2.bias f4 [128]
0.0039510843 0.01458563 0.009095533 0.0074645565 0.011153088 0.0017326658 -0.00846061 0.012317498
0.00077102287 0.01464691 0.0050194124 0.010178485 0.0032874686 0.011018661 0.006093812 0.0061958344
0.0027968371 0.0036208262 0.010473529 -0.00075445854 0.0023926368 -0.008969589 0.0033423563 0.024035264
0.0004337289 0.012009611 0.008287003 0.0077606533 0.004751255 -0.0014323686 0.0076610562 0.0015934643
-0.00023161925 -0.0063038566 -0.0006961708 -0.008837405 0.014145868 -0.00015018569 -0.005264813 0.023039928
-0.007789529 -0.0016940245 -0.0039686034 0.0050030095 0.0027033314 -0.006936147 0.012575109 -0.0034100658
0.028117549 0.0011337105 0.004476511 0.0008245042 0.014699887 0.00010288981 0.013444178 0.0074846735
0.0096535375 0.0072928686 0.005904276 -0.00011605639 -0.002335556 -0.00969534 0.007165636 0.009494368
0.0050349953 0.0033489554 0.004842399 -0.0054827756 0.024749834 -0.0044903634 -0.0025531307 7.85968e-05
0.007407709 0.0234026 0.011425741 -0.005300385 0.00823136 0.013670156 0.0054135886 0.0008613009
0.0029932524 0.008015651 -0.008423415 0.006272599 -0.008011827 -0.0068482417 0.016553417 0.006049843
0.0025248097 0.018251698 -0.0064149727 0.010532205 0.008492721 0.011265266 0.010630476 0.001879621
0.01741072 -0.0057492633 0.0045119096 0.018433785 -0.0023813331 0.0015224575 0.010285024 -0.0025285485
0.010981864 0.0041687205 0.006024258 0.009268012 -0.010228405 0.0067088655 -0.0032666984 0.011470554
0.0053268867 0.003811312 0.0009215849 -0.004736544 0.00065329263 0.006559066 0.0027236294 0.0094378805
2.7377777e-05 0.005431494 -0.0026382445 0.008537181 -0.017168364 0.009659194 0.00499518 -0.010900154
00000000: 1978 813b 91f8 6e3c 6e05 153c 3d99 f43b
00000010: 71bb 363c 9e1a e33a 5f9e 0abc 55cf 493c
00000020: 781e 4a3a 98f9 6f3c e279 a43b a9c3 263c
00000030: 9272 573b 9d87 343c 9aae c73b 6d06 cb3b
00000040: 244b 373b 624b 6d3b 2a99 2b3c dbc6 45ba
00000050: c9cd 1c3b 2ff5 12bc 6f0b 5b3b 9ae5 c43c
00000060: 1c66 e339 f6c3 443c 36c6 073c 144d fe3b
00000070: 6ab0 9b3b 51be bbba 9909 fb3b cadb d03a
00000080: d2de 72b9 9590 cebb 3b7f 36ba c3ca 10bc
00000090: 12c4 673c 2a7b 1db9 7484 acbb 3bbe bc3c
000000a0: 4e3f ffbb 080a deba 0f0b 82bb 49f0 a33b
000000b0: 602a 313b 9e48 e3bb d407 4e3c 697b 5fbb
000000c0: c656 e63c 0399 943a b2af 923b 8a23 583a
000000d0: cbd7 703c 8cc6 d738 f844 5c3c fe41 f53b
000000e0: df29 1e3c 04f9 ee3b a878 c13b 4d63 f3b8
000000f0: 2110 19bb 34d9 1ebc b6cd ea3b 448e 1b3c
00000100: 9afc a43b 267a 5b3b fdac 9e3b dba8 b3bb
00000110: 2ac0 ca3c e623 93bb 6d52 27bb 56d4 a438
00000120: 5ebc f23b cfb6 bf3c 0833 3b3c daae adbb
00000130: d4dc 063c caf8 5f3c 7964 b13b edc8 613a
00000140: 712a 443b 1454 033c 5d02 0abc 608a cd3b
00000150: 0a44 03bc 3767 e0bb 089b 873c c33d c63b
00000160: 4777 253b 9684 953c b134 d2bb 458f 2c3c
00000170: 0e25 0b3c f391 383c 732b 2e3c 9d5d f63a
00000180: eda0 8e3c 5164 bcbb a4d8 933b 7302 973c
00000190: 2410 1cbb 328d c73a 8482 283c 01b6 25bb
000001a0: 47ed 333c c399 883b 2467 c53b dcd8 173c
000001b0: 0a95 27bc 0bd6 db3b 1b16 56bb feee 3b3c
000001c0: 2a8d ae3b 34c7 793b 8496 713a 0335 9bbb
000001d0: ba41 2b3a 6fed d63b eb7e 323b 57a1 1a3c
000001e0: 54a9 e537 adfa b13b 66e6 2cbb 88df 0b3c
000001f0: aba4 8cbc 9941 1e3c 9bae a33b 8f96 32bc

action_model._continuous_distribution.log_sigma f4 [1, 5]
0.019484142 0.03396924 -0.0043219416 0.068942115 0.023256917
00000000: 359d 9f3c 5423 0b3d 139f 8dbb 8631 8d3d
00000010: 4a85 be3c

action_model._continuous_distribution.mu.weight f4 [5, 128]
0.042677276 -0.026964363 0.03316401 -0.0031946036 -0.0003062848 0.040909722 -0.014833895 -0.0011080481
0.062151972 0.041278083 0.0101692 -0.026565032 0.0036673301 -0.024746826 -0.026373303 -0.009408369
0.0144203035 -0.06155578 -0.060695745 0.010568328 -0.017187834 0.027992558 -0.024120716 -0.020211997
0.022454416 0.08657054 -0.017836057 -0.05341199 -0.0491527 0.02233028 0.075493865 0.00033918468
0.037751816 0.033338588 0.0032905033 -0.0023929009 -0.063799135 -0.03658089 -0.020733234 -0.06969507
0.04356476 -0.004606721 0.054839175 -0.043553915 0.003557156 0.018305717 -0.03526706 -0.012517698
-0.033770975 0.052426066 -0.009644197 0.044913456 -0.004951352 0.011391283 -0.03991372 -0.040559042
-0.005742585 -0.053675786 0.039749797 0.03430374 -0.031258352 0.05267855 -0.0081599755 -0.0047465805
-0.010468427 -0.008369596 0.0773432 0.018123351 -0.09503697 0.03374287 0.022462424 0.010626035
-0.038080525 -0.03834525 0.024993122 -0.009990985 0.04138529 -0.028126407 -0.0627036 -0.025131764
0.027374297 -0.041764192 -0.0073474376 -0.011406003 0.053721562 0.0004078201 -0.015562491 0.03245381
0.026878819 -0.010554587 0.017244555 0.041866668 -0.0343083 -0.03567356 0.08259235 0.01259669
-0.04565465 0.013101244 -0.018362941 -0.021423362 0.02470901 0.0134195555 -0.054346804 0.07389715
-0.032687448 -0.032739535 -0.009494711 0.04455588 0.019549396 0.0036851007 0.007688031 -0.0072589987
-0.01283898 -0.015981255 -0.0019771915 -0.012548346 -0.011768498 0.003054677 0.052114546 0.0016791712
-0.0023263963 0.07570798 0.011449466 -0.03248779 0.006323469 -0.04566471 0.023851713 0.044309933
0.021417547 0.0020577172 0.0014844786 0.0066510625 -0.03721916 0.041910756 -0.002681945 0.068667
-0.008225578 0.015273322 0.0040432164 -0.05543635 0.06790638 0.05283365 0.00091924804 -0.019802457
-0.029700363 -0.01816275 -0.012917297 -0.0131557435 0.02069002 0.056844354 -0.040665347 0.0077156224
-0.028437724 -0.049336277 -0.08214438 -0.04265277 0.016323106 -0.013388169 -0.019607292 0.031113064
-0.032400604 0.0505993 0.00119819 0.021058006 0.045747027 -0.02159983 0.020166408 -0.081852786
-0.0095367795 -0.030136904 0.025771245 -0.012015001 0.039981738 0.0037434106 0.018303787 -0.053582113
0.027531322 -0.0010974086 -0.007915246 0.048250962 -0.009555304 -0.0067691593 0.030152377 -0.011525395
-0.04690029 0.050928872 -0.043906078 -0.015824659 -0.036171943 -0.0067880233 0.026477877 0.043663457
-0.010429466 -0.015079701 0.06654808 0.025809616 -0.019962588 0.017636042 -0.00029081275 -0.009625232
-0.03757694 0.036438532 -0.044657394 -0.020747278 -0.026993115 0.039316673 0.051455684 -0.0690511
-0.038059134 -0.01039823 0.004583922 -0.01710972 -0.030096872 -0.028745145 0.057638247 0.0060925516
0.012957438 -0.01919097 0.02364111 -0.031958524 0.038991906 0.013846268 0.008553803 0.019704862
-0.021097962 -0.013068852 0.003592383 -0.018802011 0.04859845 -0.040854353 0.016461115 0.023165897
-0.03640936 -0.0111989295 0.017995948 0.042634442 -0.014788995 -0.052466955 0.025514452 0.023100588
0.0115492465 0.008871251 -0.014338082 -0.021502493 -0.06723531 0.029509513 -0.06851618 0.030323725
0.03493821 0.056728676 0.041477557 -0.033041615 0.024358349 0.040919345 -0.010568799 0.021042876
00000000: 5ece 2e3d 5ee4 dcbc fcd6 073d 8e5c 51bb
00000010: da94 a0b9 f490 273d dd09 73bc ed3b 91ba
00000020: 1193 7e3d 3513 293d b79c 263c e99e d9bc
00000030: 9757 703b dbb9 cabc d30c d8bc 8f25 1abc
00000040: 2343 6c3c ea21 7cbd 1a9c 78bd c826 2d3c
00000050: 80cd 8cbc a650 e53c cf98 c5bc a193 a5bc
00000060: 53f2 b73c e54b b13d ec1c 92bc 88c6 5abd
00000070: 5754 49bd feed b63c 879c 9a3d 99d4 b139
00000080: a6a1 1a3d 0b8e 083d 7ca5 573b 37d2 1cbb
00000090: 1fa9 82bd d8d5 15bd bed8 a9bc 4abc 8ebd
000000a0: f670 323d faf3 96bb 0b9f 603d 9765 32bd
000000b0: 2d1f 693b dff5 953c 3174 10bd 0817 4dbc
000000c0: 6f53 0abd b7bc 563d b202 1ebc 2cf7 373d
000000d0: f33e a2bb 81a2 3a3c 927c 23bd 3d21 26bd
000000e0: 4b2c bcbb 24db 5bbd afd0 223d 1482 0c3d
000000f0: c208 00bd 77c5 573d 6bb1 05bc 3489 9bbb
00000100: c483 2bbc a120 09bc 1d66 9e3d 6c77 943c
00000110: bea2 c2bd f735 0a3d 1e03 b83c d218 2e3c
00000120: 53fa 1bbd e90f 1dbd 60be cc3c 3ab1 23bc
00000130: 9f83 293d 5a69 e6bc bf6a 80bd 21e1 cdbc
00000140: 1040 e03c ee10 2bbd c6c2 f0bb 3ee0 3abc
00000150: 240b 5c3d b0d0 d539 d1f9 7ebc 49ee 043d
00000160: f830 dc3c 25ed 2cbc 7444 8d3c 627c 2b3d
00000170: dc86 0cbd 701e 12bd 2e26 a93d 5962 4e3c
00000180: 5f00 3bbd 9aa6 563c e16d 96bc 0c80 afbc
00000190: 8d6a ca3c b2dd 5b3c c19a 5ebd 6457 973d
000001a0: 46e3 05bd e419 06bd b48f 1bbc 3a80 363d
000001b0: 0e26 a03c bb81 713b e1eb fb3b e5dc edbb
000001c0: 965a 52bc 1feb 82bc c593 01bb 9497 4dbc
000001d0: a9d0 40bc fa30 483b 1076 553d a317 dc3a
000001e0: 7476 18bb c90c 9b3d 8b96 3b3c eb11 05bd
000001f0: 1a35 cf3b eb0a 3bbd ab64 c33c 557e 353d
00000200: da73 af3c c4da 063b d692 c23a 28f1 d93b
00000210: 1e73 18bd 9daa 2b3d 92c3 2fbb 49a1 8c3d
00000220: 93c4 06bc f53c 7a3c f57c 843b 3a11 63bd
00000230: 8012 8b3d 1968 583d b1f9 703a c338 a2bc
00000240: 2d4e f3bc 0cca 94bc 12a3 53bc 308b 57bc
00000250: 1e7e a93c a0d5 683d b590 26bd 55d3 fc3b
00000260: 3bf6 e8bc d614 4abd 503b a8bd acb4 2ebd
00000270: 09b8 853c 0d5a 5bbc 799f a0bc d3e0 fe3c
00000280: 7fb6 04bd 3641 4f3d 960c 9d3a d781 ac3c
00000290: 3c61 3b3d 20f2 b0bc 0634 a53c 6fa2 a7bd
000002a0: 2740 1cbc abe1 f6bc 381e d33c 91da 44bc
000002b0: e4c3 233d 0254 753b d3f1 953c eb78 5bbd
000002c0: 5e89 e13c ecd6 8fba f3ae 01bc cda2 453d
000002d0: da8d 1cbc d3cf ddbb 1e02 f73c 03d5 3cbc
000002e0: 851a 40bd cb9a 503d dcd6 33bd b7a2 81bc
000002f0: 0829 14bd 116e debb 22e8 d83c 74d8 323d
00000300: 5ae0 2abc da10 77bc 5c4a 883d b06e d33c
00000310: 9588 a3bc 7679 903c 3a78 98b9 26b3 1dbc
00000320: 47ea 19bd 9240 153d acea 36bd 32f6 a9bc
00000330: aa20 ddbc 850a 213d 32c3 523d aa6a 8dbd
00000340: e5e3 1bbd 565d 2abc ba34 963b af29 8cbc
00000350: b78d f6bc f07a ebbc 1516 6c3d 07a4 c73b
00000360: 6f4b 543c 6236 9dbc 00ab c13c f1e6 02bd
00000370: fab5 1f3d 75db 623c 4025 0c3c 176c a13c
00000380: a2d5 acbc bd1e 56bc 2f6e 6b3b ad06 9abc
00000390: 2b0f 473d e556 27bd 76d9 863c 68c6 bd3c
000003a0: fb21 15bd b77b 37bc 3d6c 933c 74a1 2e3d
000003b0: 8a4d 72bc 97e7 56bd af03 d13c 723d bd3c
000003c0: 0d39 3d3c b958 113c 46ea 6abc ff25 b0bc
000003d0: abb2 89bd efbd f13c 3652 8cbd 7669 f83c
000003e0: 5e1b 0f3d 545c 683d 5fe4 293d a556 07bd
000003f0: 298b c73c 0b9b 273d c228 2dbc 1c62 ac3c

action_model._continuous_distribution.mu.bias f4 [5]
-0.006307377 -0.0014531574 -0.00017068145 -0.012495 0.0012730578
00000000: 1dae cebb df77 beba f4f8 32b9 d4b7 4cbc
00000010: bbdc a63a
