config/results/AgrConserv_Refactored_2M_Almost-Final_v4/Hummingbird_Aggressive/Hummingbird_Aggressive-1499968.onnx (onnx, 97764 bytes, 7 tensors)

network_body._body_endoder.seq_layers.0.weight f4 [128, 47]
-0.03396426 -0.042072587 0.40345123 -0.14771114 0.115428016 -0.019781152 -0.2432997 0.19929561
0.2522708 -0.023260977 0.23526251 0.04122502 0.106365345 -0.010686981 -0.20179549 -0.2726397
0.17711872 -0.0063422294 -0.036475938 0.20808111 0.107134454 -0.1862646 -0.16215517 -0.04890548
-0.0034822794 0.025110953 0.10955726 0.13054061 0.0512675 -0.19167656 0.03890053 0.08449976
0.15556748 0.091125965 -0.019998126 0.15703663 0.12619717 0.050537273 0.040304217 -0.22277738
0.009241882 0.1242812 0.4256767 -0.18432435 -0.04333712 -0.09069216 0.35423538 -0.24653567
0.03617127 -0.13571711 -0.3342312 0.12856829 -0.04055109 -0.06706267 0.38990536 -0.15953247
0.14375752 -0.015731476 -0.0057026204 0.14150171 0.14866473 0.06310714 0.09977646 -0.0008660741
0.0035910362 -0.3431982 -0.1682101 0.38781658 0.09851596 -0.1571875 -0.056444 -0.10436701
0.04358415 0.18418388 0.092287876 0.09640246 -0.1935631 0.13435908 0.090220064 -0.09262021
0.0332872 0.034160577 0.08084724 -0.1464355 -0.110157244 -0.19811046 0.10770178 0.18694621
0.14570013 0.30259347 -0.17621176 -0.25639316 0.10356329 -0.09477851 0.31390825 -0.067569956
-0.08647599 -0.012291936 0.034243204 0.22591168 -0.10956849 -0.1394638 -0.1079747 0.19730493
0.17870617 0.02164057 0.047074005 0.037383895 0.24915792 0.15265164 -0.2287355 0.11354225
0.05066683 -0.23076281 -0.09801975 -0.18020478 0.05332281 -0.18987758 0.12054046 0.07263918
-0.047914103 0.10192127 0.087605424 0.1168823 0.10949806 0.006420427 -0.06283372 0.16738288
-0.15054132 0.1812374 0.09807325 0.13349158 -0.020258693 0.19958846 0.24705973 0.021304434
-0.42004818 -0.084014714 -0.1959527 0.29676816 0.006581187 0.16999371 -0.046726074 0.096909165
-0.31661633 0.32482237 -0.12399953 -0.026886 0.1516446 0.05018675 -0.05680327 -0.11170441
0.04872584 0.13052894 0.18686076 0.051480632 -0.14126642 0.19008964 0.122344695 0.0879616
-0.045564286 -0.08441424 -0.029933069 0.035720136 0.004532446 0.12354987 0.13840605 0.08838805
0.16901012 0.07781465 0.0015086044 0.06115073 0.16434507 0.26970333 -0.042851467 -0.14093797
0.06428872 -0.21363068 0.06868363 0.009613763 0.0672226 0.4560542 0.15163329 0.2981966
0.08017754 -0.1850676 0.2309462 -0.0847233 0.1236404 0.11632617 0.07396018 0.13071598
-0.02223157 -0.19156457 -0.0699641 0.0134284105 -0.14888445 0.035173018 0.16317922 -0.026594423
0.059738707 -0.12901174 -0.051671036 -0.050867338 -0.15825747 0.0055404063 0.041756853 0.07529281
0.053930122 0.066415556 0.19731848 0.104832314 0.13482897 0.13833576 -0.31946552 -0.16391225
0.17951919 -0.004273335 0.118218936 0.21544804 0.08487298 -0.07639177 0.03688504 0.25403196
0.1408972 -0.07258254 -0.07504946 -0.25007972 -0.1838356 -0.09578098 0.4703687 0.25430816
-0.11236169 0.10750056 -0.18576841 0.08614617 -0.31778586 -0.08718414 -0.06901806 0.0030837478
0.21853067 -0.07275284 -0.094080836 -0.059198003 -0.1296054 -0.1906458 -0.3258754 0.14358315
0.06711753 0.053480007 0.010137621 0.14124882 -0.14450008 -0.025003202 0.2453401 0.029649336
00000000: 1c1e 0bbd 4e54 2cbd 2991 ce3e 9741 17be
00000010: 8665 ec3d 150c a2bc 8e23 79be 2614 4c3e
00000020: a329 813e ce8d bebc a8e8 703e 91db 283d
00000030: 13d6 d93d 7218 2fbc 7aa3 4ebe 6e97 8bbe
00000040: 9c5e 353e 7ad2 cfbb cb67 15bd 3713 553e
00000050: 4f69 db3d 26bc 3ebe 010c 26be 1d51 48bd
00000060: f436 64bb 7cb5 cd3c 8f5f e03d 70ac 053e
00000070: dffd 513d dc46 44be 2a56 1f3d 360e ad3d
00000080: 154d 1f3e 40a0 ba3d 1cd3 a3bc 36ce 203e
00000090: d539 013e 2c00 4f3d 0916 253d c11f 64be
000000a0: 436b 173c 2487 fe3d 4cf2 d93e 86bf 3cbe
000000b0: 4482 31bd d0bc b9bd 575e b53e d973 7cbe
000000c0: 5328 143d 6df9 0abe 5a20 abbe 68a7 033e
000000d0: e618 26bd 2758 89bd ada1 c73e 7b5c 23be
000000e0: 2c35 133e 4cdf 80bc 0cdd babb d3e5 103e
000000f0: 913b 183e 513e 813d 9a57 cc3d 4009 63ba
00000100: 9757 6b3b adb7 afbe 453f 2cbe e58f c63e
00000110: bcc2 c93d c3f5 20be d331 67bd 5fbe d5bd
00000120: 4b85 323d b39a 3c3e 6d01 bd3d a76e c53d
00000130: 6835 46be 6d95 093e 4cc5 b83d aaaf bdbd
00000140: 2958 083d f6eb 0b3d 3d93 a53d 30f3 15be
00000150: 1f9a e1bd 78dd 4abe c092 dc3d d46e 3f3e
00000160: 6a32 153e 88ed 9a3e db70 34be f745 83be
00000170: fd18 d43d 3c1b c2bd 95b8 a03e 1e62 8abd
00000180: 531a b1bd 1e64 49bc 9a42 0c3d 6455 673e
00000190: 7265 e0bd 99cf 0ebe d721 ddbd 4e0a 4a3e
000001a0: c0fe 363e 9147 b13c acd0 403d db1f 193d
000001b0: 4123 7f3e b650 1c3e a439 6abe d788 e83d
000001c0: 0688 4f3d 164d 6cbe 94be c8bd 9a87 38be
000001d0: 0569 5a3d 456f 42be ebdd f63d dac3 943d
000001e0: 9441 44bd 19bc d03d 796a b33d fd5f ef3d
000001f0: 8540 e03d 7262 d23b f7ae 80bd 6b66 2b3e
00000200: 8127 1abe 4c96 393e a1da c83d 04b2 083e
00000210: 8ff5 a5bc eb60 4c3e 3afd 7c3e a386 ae3c
00000220: 8e10 d7be e80f acbd d3a7 48be fff1 973e
00000230: ffa6 d73b d512 2e3e d763 3fbd 5078 c63d
00000240: 891b a2be 1e4f a63e 77f3 fdbd 0740 dcbc
00000250: b948 1b3e 9f90 4d3d 8caa 68bd 48c5 e4bd
00000260: bf94 473d 61a9 053e 6d58 3f3e 5bdd 523d
00000270: 25a8 10be dca6 423e db8f fa3d 3625 b43d
00000280: 9ea1 3abd 60e1 acbd 3236 f5bc 474f 123d
00000290: ea84 943b b707 fd3d 51ba 0d3e cb04 b53d
000002a0: fd10 2d3e 4a5d 9f3d 5dbc c53a 3079 7a3d
000002b0: 134a 283e 8e16 8a3e 0585 2fbd 0b52 10be
000002c0: cea9 833d 00c2 5abe 01aa 8c3d 0b83 1d3c
000002d0: 01ac 893d f07f e93e c245 1b3e 3aad 983e
000002e0: 1f34 a43d 5c82 3dbe 297d 6c3e 6983 adbd
000002f0: 2e37 fd3d 6a3c ee3d 6f78 973d 69da 053e
00000300: fb1e b6bc 8129 44be 5749 8fbd d602 5c3c
00000310: 2a75 18be 9511 103d 7418 273e 8cdc d9bc
00000320: 93b0 743d a71b 04be 02a5 53bd 455a 50bd
00000330: 3f0e 22be 4c8c b53b 3c09 2b3d 1e33 9a3d
00000340: d5e5 5c3d e104 883d db0d 4a3e 53b2 d63d
00000350: 9b10 0a3e e4a7 0d3e fc90 a3be 9dd8 27be
00000360: e1d3 373e 5507 8cbb c51c f23d 699e 5c3e
00000370: e3d1 ad3d 4a73 9cbd c514 173d 7a10 823e
00000380: 5b47 103e 28a6 94bd 88b3 99bd 730a 80be
00000390: 663f 3cbe d228 c4bd 2bd4 f03e ae34 823e
000003a0: e31d e6bd 4129 dc3d 133a 3ebe 676d b03d
000003b0: d4b4 a2be 998d b2bd 5759 8dbd b418 4a3b
000003c0: 81c6 5f3e 71ff 94bd 74ad c0bd 9b79 72bd
000003d0: 47b7 04be a738 43be 24d9 a6be 7607 133e
000003e0: ea74 893d da0d 5b3d 4418 263c 88a3 103e
000003f0: d4f7 13be 84d3 ccbc 6f3a 7b3e 2ae3 f23c

network_body._body_endoder.seq_layers.0.bias f4 [128]
0.019449469 0.012258102 0.06153148 0.030893262 0.021753887 0.04181096 0.013193274 -0.020464195
0.035546195 0.013580866 0.026797684 -0.021504499 -0.007574018 0.06587354 -0.013874349 -0.04354271
0.017496416 0.0039896923 0.03286459 0.02076909 -0.009857886 0.03189842 0.0007904951 0.020839088
0.0036378035 0.013738649 0.03052315 0.017103165 0.05424868 -0.032060537 0.022865163 0.008976486
0.022252131 0.0035182654 -0.0074348752 0.011372308 0.005962804 -0.016405545 0.006260879 -0.015057504
0.0043156133 0.027025055 0.03524366 0.04644194 0.054509025 0.007730412 0.019754633 0.032104574
0.035983115 0.025271622 0.03831636 0.068937145 0.0027653417 0.03824047 0.023124406 0.027377235
0.018312432 0.04345442 -0.009245349 0.054056056 0.021167617 0.05278004 0.049021393 -0.024630865
0.054031305 -0.0034710118 0.014648528 0.02116152 0.0025920235 0.022328544 0.04672824 0.044431414
0.06921475 0.038443383 0.05476206 -0.02494527 0.049323775 0.026339851 0.028829345 0.053651337
-0.02278566 0.048873603 0.014182841 0.023822172 0.017468628 0.026812784 0.008553004 0.024409281
0.009480601 0.007910451 0.0080277575 -0.01154018 -0.014741936 0.014666497 0.05577214 -0.049671724
0.005295153 0.0016052227 0.043567702 0.041364238 0.021207744 0.014460863 0.019008998 -0.0023546184
0.028669886 0.007745672 0.028733151 0.02092421 0.016108474 0.0025751186 0.036770772 0.024806192
0.007630371 -0.02503848 0.015976824 0.03965187 0.035449136 -0.008715623 0.041030154 -0.030824268
0.02338495 -0.023592522 0.014918161 0.0022012698 0.04095363 -0.011474275 0.03047157 -0.0024899496
00000000: 7e54 9f3c 35d6 483c 6f08 7c3d de13 fd3c
00000010: 3535 b23c f841 2b3d 9a28 583c 87a4 a7bc
00000020: e398 113d 4882 5e3c d186 db3c 342a b0bc
00000030: 782f f8bb b5e8 863d 3d51 63bc d759 32bd
00000040: a554 8f3c f7bb 823b 059d 063d f023 aa3c
00000050: f882 21bc eba7 023d 3a39 4f3a bcb6 aa3c
00000060: 3768 6e3b 1218 613c af0b fa3c f01b 8c3c
00000070: dd33 5e3d e951 03bd b94f bb3c 1c12 133c
00000080: 1a4a b63c b392 663b 41a0 f3bb eb52 3a3c
00000090: a063 c33b ec64 86bc 0f28 cd3b c0b3 76bc
000000a0: fd69 8d3b a663 dd3c a85b 103d e739 3e3d
000000b0: db44 5f3d 654f fd3b 78d4 a13c 1680 033d
000000c0: 0863 133d 6f06 cf3c 9ef1 1c3d eb2e 8d3d
000000d0: bc3a 353b 0aa2 1c3d 656f bd3c 3946 e03c
000000e0: f403 963c 43fd 313d ce79 17bc e269 5d3d
000000f0: b667 ad3c e22f 583d a8ca 483d abc6 c9bc
00000100: ee4f 5d3d ea79 63bb 6100 703c ed5a ad3c
00000110: f0de 293b 5aea b63c 1c66 3f3d b7fd 353d
00000120: 76c0 8d3d cf76 1d3d 2f4e 603d 065a ccbc
00000130: ba07 4a3d acc6 d73c 852b ec3c 81c1 5b3d
00000140: fea8 babc b02f 483d 265f 683c b726 c33c
00000150: 5e1a 8f3c 7ca6 db3c e621 0c3c f9f5 c73c
00000160: 8654 1b3c d69a 013c db86 033c 0613 3dbc
00000170: 2988 71bc bf4b 703c 5471 643d 9474 4bbd
00000180: f682 ad3b 5666 d23a 0c74 323d 8c6d 293d
00000190: ddbb ad3c 41ed 6c3c c2b8 9b3c f14f 1abb
000001a0: 1cdd ea3c 68cf fd3b c961 eb3c 4069 ab3c
000001b0: ebf5 833c 52c3 283b f39c 163d 5b36 cb3c
000001c0: 3108 fa3b 801d cdbc d4e1 823c 006a 223d
000001d0: 1d33 113d f9cb 0ebc 3c0f 283d 2d83 fcbc
000001e0: cb91 bf3c 1b45 c1bc 4d6b 743c 2e43 103b
000001f0: febe 273d 99fe 3bbc 849f f93c 6c2e 23bb

network_body._body_endoder.seq_layers.2.weight f4 [128, 128]
-0.14056793 -0.07693597 0.15943518 -0.09341479 -0.042892653 -0.024812158 -0.093433574 -0.0010725738
-0.017460098 0.04283164 -0.018654983 -0.14634281 0.061549306 0.16904111 0.05516852 -0.08650736
0.061527744 -0.12998964 0.13790227 -0.022291047 0.2869005 -0.009905176 0.028141296 -0.058104113
0.08949121 -0.15296848 0.051707324 0.058485467 -0.15964678 0.09940894 0.10402477 0.076890625
0.09035113 0.11429467 -0.039102003 0.04092564 0.19158174 -0.054292686 -0.15238288 0.10532629
-0.05628975 -0.05200898 -0.052843414 -0.101208776 -0.06546429 -0.17414944 0.054377176 0.059371635
-0.16025726 -0.12387844 -0.10188425 0.1415817 0.1662165 -0.1560387 0.083276846 0.06848166
0.026629383 0.14369594 0.05888851 -0.037657335 -0.18371852 -0.122593075 0.14808689 0.033893336
-0.044367563 0.023120077 -0.20922355 -0.08399778 0.008034407 0.00023629198 -0.018082924 -0.21121255
-0.0008336176 -0.15983158 -0.04389861 -0.020788904 -0.10938147 -0.015698621 -0.19050875 -0.05356944
0.043014232 -0.09134401 0.049081556 0.103863604 0.173126 -0.10740328 -0.049594797 0.21414192
0.13676438 0.0829358 -0.029167373 0.07549754 -0.053835038 -0.09357726 -0.021191765 -0.0031084698
0.14503686 0.055047076 -0.15189369 0.020874903 0.15182167 -0.022747518 0.03294928 0.17624637
0.085297026 -0.06438965 0.0052151065 0.078777336 -0.060677223 -0.07158635 -0.08059083 0.088791184
-0.0026076997 -0.17914574 0.04411325 0.16810888 -0.08727423 -0.12578295 0.17297137 0.15357198
-0.001340291 -0.11479955 -0.06662598 0.12082363 0.2105949 -0.061811395 -0.038301356 0.05326152
0.23853509 0.10777285 -0.06812598 0.17763187 -0.053214673 0.017276315 -0.0021295839 0.011775121
0.05003271 -0.02354344 -0.043255787 -0.14964373 0.01086665 -0.026187455 0.08283714 -0.072643846
0.027327681 0.020167371 -0.23277022 -0.016654454 -0.03664645 -0.025918156 -0.11017055 0.008000923
-0.02060051 0.0016030243 -0.051181618 -0.00959657 0.021100506 -0.023395307 0.072578125 0.0037690366
0.045875262 -0.054558862 0.094429255 -0.019356767 0.14683548 -0.1634201 -0.15054657 -0.10866366
0.08199536 -0.035406146 -0.049362775 -0.07839251 -0.18522806 0.06909792 0.012093396 0.018573748
0.1922656 0.13195379 0.026943343 -0.067998484 -0.002577065 0.020690503 -0.0791845 0.008639348
-0.0031848107 -0.06254392 -0.039409813 -0.07269827 -0.038245726 -0.01560815 -0.16509616 0.056493178
-0.09292864 0.14540955 -0.015357055 -0.016162017 -0.007937237 0.1807524 0.16348302 -0.045399018
0.12392577 -0.04915095 -0.020653544 -0.07786298 -0.041999284 -0.0042933663 0.12978931 -0.11436141
-0.08890302 0.019518707 0.099556364 -0.09888317 -0.28150165 0.13868488 -0.022467507 0.038097307
0.09849037 -0.010481411 0.06712115 -0.03060605 0.0009147084 0.10962421 0.017995633 -0.15661216
-0.10487858 -0.01389207 -0.017854003 0.0037524248 -0.113790296 0.047256745 -0.026590414 0.00802786
0.062040217 -0.002076373 0.21642828 0.020811178 0.07601973 -0.04490713 0.11868125 -0.044608537
0.036475763 0.022974655 0.10325328 0.035634726 0.13427839 0.14806192 0.10553007 0.011718394
0.04913691 -0.053563714 0.103929214 0.09108089 0.08157423 -0.09651986 -0.069008484 0.006747808
00000000: 0af1 0fbe 9b90 9dbd fa42 233e 4150 bfbd
00000010: 35b0 2fbd de42 cbbc 1a5a bfbd 9b95 8cba
00000020: 7b08 8fbc 3b70 2f3d 56d2 98bc e4da 15be
00000030: 201b 7c3d 1d19 2d3e 63f8 613d c52a b1bd
00000040: 8404 7c3d 011c 05be 4136 0d3e b79b b6bc
00000050: 9fe4 923e 5249 22bc 9388 e63c 94fe 6dbd
00000060: 2b47 b73d c5a3 1cbe 0fcb 533d 758e 6f3d
00000070: 727a 23be ea96 cb3d f00a d53d d578 9d3d
00000080: 030a b93d 5313 ea3d 6c29 20bd a5a1 273d
00000090: 012e 443e 0262 5ebd 420a 1cbe 4fb5 d73d
000000a0: 1590 66bd 5e07 55bd 5672 58bd 8c46 cfbd
000000b0: 2412 86bd 3b54 32be 9aba 5e3d ac2f 733d
000000c0: 7b1a 24be fbb3 fdbd b1a8 d0bd cbfa 103e
000000d0: a834 2a3e 9cc8 1fbe 0d8d aa3d 1d40 8c3d
000000e0: dd25 da3c 0725 133e 1435 713d 943e 1abd
000000f0: b520 3cbe 1412 fbbd 17a4 173e bdd3 0a3d
00000100: c3ba 35bd 5166 bd3c b33e 56be 0707 acbd
00000110: bfa2 033c 25c5 7739 a422 94bc 1a48 58be
00000120: 2187 5aba e4aa 23be 07cf 33bd 7e4d aabc
00000130: 6403 e0bd 659a 80bc ba14 43be a16b 5bbd
00000140: b12f 303d 9112 bbbd be09 493d 71b6 d43d
00000150: f147 313e 40f6 dbbd ea23 4bbd 0548 5b3e
00000160: f60b 0c3e 3fda a93d 6af0 eebc 749e 9a3d
00000170: 2182 5cbd 6fa5 bfbd 5a9a adbc 78b7 4bbb
00000180: 8b84 143e 0b79 613d 058a 1bbe d801 ab3c
00000190: 2477 1b3e 0159 babc d3f5 063d ee79 343e
000001a0: 35b0 ae3d b9de 83bd 7ce3 aa3b 0356 a13d
000001b0: ae88 78bd dd9b 92bd ce0c a5bd 27d8 b53d
000001c0: f1e5 2abb fb71 37be 18b0 343d bc24 2c3e
000001d0: d5bc b2bd 3fcd 00be 681f 313e f941 1d3e
000001e0: b4ac afba 071c ebbd 3473 88bd 6172 f73d
000001f0: 31a6 573e f22d 7dbd e2e1 1cbd c028 5a3d
00000200: 8b42 743e 03b8 dc3d a285 8bbd 21e5 353e
00000210: a1f7 59bd 0f87 8d3c 7d90 0bbb 70ec 403c
00000220: 19ef 4c3d 2cde c0bc fb2c 31bd 353c 19be
00000230: 090a 323c 1387 d6bc 85a6 a93d 4cc6 94bd
00000240: 4dde df3c 0b36 a53c 515b 6ebe ec6e 88bc
00000250: 971a 16bd 5052 d4bc 19a1 e1bd 4e16 033c
00000260: 67c2 a8bc 921c d23a d1a3 51bd ef3a 1dbc
00000270: f8da ac3c 84a7 bfbc d7a3 943d f101 773b
00000280: b3e7 3b3d 1d79 5fbd 2064 c13d 1592 9ebc
00000290: 0a5c 163e 9957 27be e128 1abe 0e8b debd
000002a0: 2fed a73d 0906 11bd 9f30 4abd 418c a0bd
000002b0: 6dac 3dbe 3683 8d3d 6123 463c f927 983c
000002c0: 46e1 443e e51e 073e 49b8 dc3c ca42 8bbd
000002d0: fae3 28bb 217f a93c 7c2b a2bd 0d8c 0d3c
000002e0: 42b8 50bb 0717 80bd 2f6c 21bd d5e2 94bd
000002f0: 8da7 1cbd 53b9 7fbc f80e 29be 6465 673d
00000300: 5f51 bebd 3ee6 143e 289c 7bbc 3566 84bc
00000310: 2f0b 02bc 2817 393e 1868 273e 52f4 39bd
00000320: cbcc fd3d 8252 49bd 9f31 a9bc a076 9fbd
00000330: 7107 2cbd 5eaf 8cbb 7de7 043e 5136 eabd
00000340: c912 b6bd b2e5 9f3c 35e4 cb3d 4283 cabd
00000350: fc20 90be 6903 0e3e c70d b8bc ec0b 1c3d
00000360: 52b5 c93d 39ba 2bbc d076 893d 8ab9 fabc
00000370: 0bc9 6f3a a882 e03d 946b 933c f05e 20be
00000380: 95ca d6bd 919b 63bc 8f42 92bc 3eeb 753b
00000390: e30a e9bd 4a90 413d 24d4 d9bc 4987 033c
000003a0: e21d 7e3d c213 08bb 609f 5d3e 347c aa3c
000003b0: 3bb0 9b3d 8af0 37bd 280f f33d 71b7 36bd
000003c0: 9c67 153d 5835 bc3c 7576 d33d b8f5 113d
000003d0: 4680 093e 8b9d 173e 2620 d83d 82fe 3f3c
000003e0: c943 493d a065 5bbd d7d8 d43d 9e88 ba3d
000003f0: 6410 a73d 34ac c5bd 5254 8dbd b71c dd3b

network_body._body_endoder.seq_layers.2.bias f4 [128]
0.014333784 0.026135368 0.02448818 0.041229017 -0.01247391 0.026842866 0.0083834715 0.02585843
0.029523674 0.014630185 0.012107542 0.0133172395 -0.008771096 0.045721322 0.0028536587 0.0024644434
0.0003798669 0.03752215 -0.01442836 -0.00022464085 0.025053028 0.030459162 0.004104704 0.02168875
0.011669687 0.0056402395 0.040907353 0.03153499 0.038626604 -0.0140970675 0.01664131 0.05960142
0.014925844 0.007827031 0.010604484 0.036525372 0.036938965 0.02987527 0.03486793 0.007991216
0.0223266 0.020434508 0.020196522 0.01034844 -0.015542922 0.017940316 0.037241913 0.022299657
-0.010034331 0.056977395 0.019382922 -0.020843467 0.0138689345 -0.008366065 0.024362624 0.03453032
0.021685919 -0.00049757486 -0.013778154 0.022634715 0.009603366 0.047659203 0.028885717 0.023841731
0.023851817 0.026131693 0.01567137 0.010073429 0.026623545 0.036237083 0.01003548 -0.003802633
0.031168116 0.011380664 0.029088838 0.0162725 0.012309924 0.03798076 0.023277435 -0.015937341
0.01934979 0.029821554 0.03429252 0.012934051 0.018764822 0.013180318 0.00898708 0.032862436
-0.0016303215 0.030805986 -0.0057200636 0.01426798 0.028809316 0.014046179 0.045275968 -0.011432798
0.008080669 0.020890934 0.0058506867 0.016664572 0.030461378 0.028837193 0.033357225 0.047668952
0.025353372 0.029729655 0.017076053 0.007757218 0.00499902 0.03382374 0.01781353 0.035307296
0.009707456 0.029168334 0.04516351 0.0075460356 0.044973254 0.028437853 0.028805854 0.020859208
0.001326827 -0.020476364 0.019657044 0.0130739845 0.024837 0.0035117434 0.021504525 0.03578447
00000000: 3fd8 6a3c d719 d63c 709b c83c c2df 283d
00000010: 5f5f 4cbc 92e5 db3c d45a 093c 0fd5 d33c
00000020: a2db f13c 72b3 6f3c b65e 463c 8d30 5a3c
00000030: a5b4 0fbc 4846 3b3d 7304 3b3b 8082 213b
00000040: df28 c739 d3b0 193d ee64 6cbc 928d 6bb9
00000050: 023c cd3c 7e85 f93c c180 863b 9bac b13c
00000060: 3732 3f3c c2d1 b83b 788e 273d d52a 013d
00000070: ee36 1e3d 63f7 66bc 5b53 883c 9e20 743d
00000080: 878b 743c f33c 003c 6ebe 2d3c a19b 153d
00000090: 504d 173d fbbc f43c add1 0e3d 97ed 023c
000000a0: 46e6 b63c 4566 a73c 2d73 a53c 818c 293c
000000b0: bda7 7ebc 92f7 923c fa8a 183d c5ad b63c
000000c0: 0967 24bc 2161 693d efc8 9e3c ebbf aabc
000000d0: 873a 633c d211 09bc 2094 c73c aa6f 0d3d
000000e0: aba6 b13c af6f 02ba c4bd 61bc 706c b93c
000000f0: 7057 1d3c 4c36 433d bda1 ec3c bc4f c33c
00000100: e364 c33c 2212 d63c 3f61 803c 060b 253c
00000110: 9f19 da3c 566d 143d db6b 243c 9835 79bb
00000120: 4754 ff3c f775 3a3c b74b ee3c e84d 853c
00000130: 90af 493c b791 1b3d 52b0 be3c 078f 82bc
00000140: 7383 9e3c 554c f43c 5076 0c3d 58e9 533c
00000150: afb8 993c 43f2 573c 8c3e 133c c39a 063d
00000160: 83b0 d5ba d65c fc3c 5f6f bbbb 3fc4 693c
00000170: 8401 ec3c f221 663c 4b73 393d a150 3bbc
00000180: c864 043c 7723 ab3c 1eb7 bf3b 2484 883c
00000190: 248a f93c fa3b ec3c 96a1 083d 8540 433d
000001a0: e0b1 cf3c 9b8b f33c 14e3 8b3c 4330 fe3b
000001b0: d2ce a33b c38a 0a3d aeed 913c 629e 103d
000001c0: 060c 1f3c 6ef2 ee3c 5ffd 383d bc44 f73b
000001d0: e035 383d 80f6 e83c 41fa eb3c eee0 aa3c
000001e0: ede8 ad3a 0cbe a7bc cf07 a13c 4434 563c
000001f0: f776 cb3c 4725 663b 422a b03c bd92 123d

action_model._continuous_distribution.log_sigma f4 [1, 5]
-0.051267877 -0.02892224 -0.08519339 0.016649796 0.047590077
00000000: 44fe 51bd 55ee ecbc df79 aebd 2765 883c
00000010: d0ed 423d

action_model._continuous_distribution.mu.weight f4 [5, 128]
-0.016160568 0.044608653 0.020523656 -0.11786812 -0.038781825 0.008201033 -0.006053876 0.08222767
-0.020217499 0.020917062 -0.073298104 0.09783488 0.016545743 0.025566548 -0.022602376 0.058254376
0.09276483 0.023139935 0.0010317244 0.012365506 -0.09784379 0.013458605 0.0068167173 -0.052580632
-0.08256385 0.06611806 0.08297277 -0.018556248 -0.14682646 -0.016933985 -0.029169794 0.00972949
0.010554113 0.037649583 -0.031471044 0.10621118 -0.08598138 -0.06092722 -0.11024633 0.03969285
-0.009451999 0.012366687 -0.023568423 0.09996935 0.0075836675 -0.031576414 -0.042174824 -0.0404914
0.0043680496 -0.07367511 -0.043702632 0.026006993 0.034799457 -0.0054399073 0.11295181 -0.09813222
-0.06173362 0.1308992 0.025538636 -0.0318169 0.027448727 -0.0612901 0.054333623 0.042275522
-0.0064300527 -0.053761233 -0.020558387 0.016794758 0.013564885 -0.0674937 0.011332902 -0.026607936
0.06615044 0.0313892 -0.0007404565 -0.0019345651 -0.03730871 -0.005939356 0.06794719 -0.017127752
-0.057790846 0.102314495 0.055310037 -0.081817225 -0.06540303 0.08272979 0.08610098 -0.02593651
0.003525994 -0.026777828 -0.0022227669 0.006260513 -0.12803572 -0.05860065 0.05327075 0.01678541
0.0067094625 0.045338433 -0.004992499 0.006218912 0.10759278 0.009246776 -0.018206399 -0.06489278
-0.094182715 0.009654682 -0.03870539 0.012427752 -0.037721444 -0.023889648 -0.09014176 0.07976468
0.055650584 0.035450306 -0.0035692486 0.062993206 0.045617696 0.09361108 0.03617264 0.011817538
-0.072686866 -0.02317011 0.0084978845 -0.021664886 -0.004040203 -0.031491004 0.017764607 -0.030445416
-0.11596678 0.064629145 0.12604548 -0.018824618 0.0293145 0.10494319 0.039290834 0.08636934
-0.026320577 0.03147685 0.012166537 -0.011298489 -0.08813689 0.1485638 -0.06686545 0.044368226
-0.007769203 0.093259014 0.024897367 0.03655032 0.008546434 0.033168133 -0.06430799 0.004116855
-0.068162076 -0.0038950515 0.10969413 -0.104187526 -0.011184305 0.025971068 0.05260006 0.12185791
0.12069496 0.06869285 0.08817007 0.04492503 -0.035263475 -0.05256557 0.07968774 -0.028101921
-0.047297 -0.08754745 0.030311035 -0.043921307 -0.023267303 -0.050734196 0.07493347 0.030422883
-0.021540977 0.10985235 -0.06293437 0.0061213444 -0.09432816 0.041391682 0.042558875 0.075231306
0.06395766 0.011358077 0.012822421 -0.08910552 0.06938805 0.11893346 -0.022673156 -0.03155621
-0.06345073 -0.05354266 -0.07050665 0.076967575 -0.08111554 0.10465059 -0.070869274 0.0018303378
-0.064874016 -0.10044077 -0.034577146 0.011179036 -0.095351025 0.20656705 0.042633466 0.007225991
-0.022197584 0.054450616 -0.025016172 -0.011759375 0.088717274 -0.0006935904 0.07149234 -0.12685184
-0.0044121603 -0.038431425 0.033531167 0.060041647 0.044081952 -0.06682854 -0.13119899 -0.020845868
-0.014291132 0.0021332067 -0.040893786 -0.037293367 0.0054379744 0.12503652 0.01767529 0.042291127
0.079246245 0.1630114 0.113351405 0.0061625913 -0.002268697 0.08669038 0.043194428 0.102768995
0.01139169 0.07384251 0.08446825 -0.021640373 -0.11807199 0.033859488 -0.06565229 -0.04798184
0.05141712 0.017934466 0.118154325 0.005030299 -0.1668242 -0.00879584 -0.06407217 0.039109115
00000000: 2b63 84bc 90b7 363d 3a21 a83c d764 f1bd
00000010: b1d9 1ebd a05d 063c 985f c6bb fb66 a83d
00000020: 2b9f a5bc 425a ab3c 511d 96bd a75d c83d
00000030: f08a 873c f070 d13c 9e28 b9bc 249c 6e3d
00000040: 7dfb bd3d f68f bd3c ed3a 873a b198 4a3c
00000050: 5362 c8bd 7b81 5c3c c55e df3b ca5e 57bd
00000060: 3c17 a9bd e868 873d a1ed a93d 4603 98bc
00000070: ad59 16be 24b9 8abc 7ef5 eebc 7068 1f3c
00000080: 29eb 2c3c 7336 1a3d c8e7 00bd 3f85 d93d
00000090: 0117 b0bd d28e 79bd d4c8 e1bd f894 223d
000000a0: 8fdc 1abc a59d 4a3c 9112 c1bc bbbc cc3d
000000b0: 6a80 f83b 4556 01bd 82bf 2cbd 4fda 25bd
000000c0: db21 8f3b fae2 96bd 8801 33bd 9e0c d53c
000000d0: e089 0e3d 4041 b2bb 4753 e73d 8cf9 c8bd
000000e0: 64dc 7cbd 710a 063e 6736 d13c 7052 02bd
000000f0: 27dc e03c 540b 7bbd ef8c 5e3d 1929 2d3d
00000100: 31b3 d2bb bd34 5cbd 106a a8bc 2995 893c
00000110: 403f 5e3c 233a 8abd a3ad 393c e3f8 d9bc
00000120: e279 873d f691 003d 321b 42ba 3c91 fdba
00000130: 05d1 18bd ee9e c2bb e527 8b3d 804f 8cbc
00000140: 18b6 6cbd 438a d13d c78c 623d ca8f a7bd
00000150: 06f2 85bd 3c6e a93d b655 b03d ce78 d4bc
00000160: 5d14 673b 2d5d dbbc d7ab 11bb fd24 cd3b
00000170: cc1b 03be 3c07 70bd 6e32 5a3d 8e81 893c
00000180: 0ddb db3b cbb4 393d 1e98 a3bb 04c8 cb3b
00000190: 9a59 dc3d ca7f 173c 9625 95bc 81e6 84bd
000001a0: dee2 c0bd ac2e 1e3c 8b89 1ebd c59d 4b3c
000001b0: cd81 1abd 39b4 c3bc 3e9c b8bd aa5b a33d
000001c0: def1 633d 5734 113d 0eea 69bb 9502 813d
000001d0: 9fd9 3a3d 2ab7 bf3d c329 143d 599e 413c
000001e0: dadc 94bd 3ecf bdbc b63a 0b3c 8f7a b1bc
000001f0: ae63 84bb b6fc 00bd 1587 913c aa68 f9bc
00000200: fe7f edbd 495c 843d 1112 013e 1636 9abc
00000210: f624 f03c 75ec d63d 6def 203d 69e2 b03d
00000220: 409e d7bc dfed 003d 2856 473c 4c1d 39bc
00000230: 1d81 b4bd 1c21 183e c1f0 88bd 75bb 353d
00000240: cc94 febb 95fe be3d 90f5 cb3c cab5 153d
00000250: 5806 0c3c 4fdb 073d e8b3 83bd afe6 863b
00000260: 8f98 8bbd 1f44 7fbb 51a7 e03d 4560 d5bd
00000270: 603e 37bc 47c1 d43c 2973 573d a490 f93d
00000280: eb2e f73d d6ae 8c3d 8292 b43d 4f03 383d
00000290: 6f70 10bd ff4e 57bd 5333 a33d 0036 e6bc
000002a0: 80ba 41bd 144c b3bd d94e f83c d4e6 33bd
000002b0: 129b bebc a9ce 4fbd b876 993d 6939 f93c
000002c0: b476 b0bc 45fa e03d bce3 80bd 8f95 c83b
000002d0: 1f2f c1bd 538a 293d 3752 2e3d df12 9a3d
000002e0: 3cfc 823d 3a17 3a3c 2215 523c f47c b6bd
000002f0: 521b 8e3d 6393 f33d 0ebd b9bc 1641 01bd
00000300: 75f2 81bd 8c4f 5bbd ca65 90bd 2da1 9d3d
00000310: e71f a6bd 0c53 d63d e923 91bd f2e7 ef3a
00000320: abdc 84bd e4b3 cdbd c4a0 0dbd 4728 373c
00000330: 6647 c3bd 5086 533e 6ea0 2e3d 02c8 ec3b
00000340: b5d7 b5bc 9c07 5f3d b7ee ccbc 65aa 40bc
00000350: 67b1 b53d 10d2 35ba 936a 923d 73e5 01be
00000360: e293 90bb 456a 1dbd fa57 093d 3bee 753d
00000370: 478f 343d 67dd 88bd 0759 06be f4c4 aabc
00000380: 5a25 6abc 45cd 0b3b 3e80 27bd eec0 18bd
00000390: 0931 b23b 9309 003e c5cb 903c 7639 2d3d
000003a0: db4b a23d 76ec 263e c824 e83d 90ef c93b
000003b0: 6bae 14bb ba8a b13d a4ec 303d 8d78 d23d
000003c0: 36a4 3a3c be3a 973d b1fd ac3d 2747 b1bc
000003d0: bacf f1bd 3fb0 0a3d b574 86bd 9b88 44bd
000003e0: c29a 523d 4deb 923c e5fa f13d 35d5 a43b
000003f0: f7d3 2abe 6d1c 10bc 4538 83bd e130 203d

action_model._continuous_distribution.mu.bias f4 [5]
-0.00093314017 -0.011908596 -0.0013203894 0.027251763 0.019112121
00000000: fa9d 74ba 461c 43bc eb10 adba 173f df3c
00000010: 0691 9c3c
