config/results/AgrConserv_Refactored_2M_Almost-Final_v4/Hummingbird_Aggressive/Hummingbird_Aggressive-999960.pt (torch, 574408 bytes, 36 tensors)

network_body._body_endoder.seq_layers.0.weight f4 [128, 47]
000000 b1 a4 19 bd c7 4f 18 bd 29 91 ce 3e 5e 3a 17 be
       -0.037510578 -0.037185457 0.40345123 -0.14768359
000010 59 3a eb 3d 49 c6 ec bc 8e 23 79 be a7 6d 44 3e
       0.11485738 -0.028903143 -0.2432997 0.19182454
000020 29 f2 80 3e 74 3c da bc a8 e8 70 3e d4 da 18 3d
       0.25184754 -0.026640154 0.23526251 0.037318066
000030 4e 48 d5 3d 50 7a 80 bc 7a a3 4e be 0a 3c 8a be
       0.10414182 -0.015683323 -0.20179549 -0.2699893
000040 32 57 33 3e c5 62 82 bc cb 67 15 bd 91 0e 52 3e
       0.17513731 -0.015916238 -0.036475938 0.20513369
000050 03 f4 da 3d ee e8 41 be 01 0c 26 be 0e 5a 37 bd
       0.10691073 -0.18936512 -0.16215517 -0.044763617
000060 a1 80 d3 bb e9 bc bb 3c 8f 5f e0 3d 5f 57 0a 3e
       -0.0064545427 0.022917228 0.10955726 0.13509892
000070 dc 41 4b 3d ce 29 47 be 2a 56 1f 3d 9b 15 b1 3d
       0.049623355 -0.19449541 0.03890053 0.08646699
000080 62 cc 19 3e 84 28 b9 3d 1c d3 a3 bc 3a 7a 20 3e
       0.15019372 0.09040931 -0.019998126 0.15671626
000090 f1 a2 ec 3d a2 95 33 3d c5 2a 3f 3d 57 f2 6e be
       0.11554516 0.043843873 0.046671648 -0.23334633
0000a0 23 02 95 3c c3 62 07 3e 0f a3 d0 3e 6d 6c 33 be
       0.018189495 0.13221268 0.40749404 -0.1752183
0000b0 fd 7a 38 bd b3 77 98 bd 82 06 b5 3e f8 a5 81 be
       -0.045039166 -0.07444706 0.35356528 -0.25321937
0000c0 f3 dd 41 3d 6d f9 0a be 83 8b a5 be a7 ee fb 3d
       0.047330808 -0.13571711 -0.32333001 0.12301379
0000d0 46 a2 41 bd 27 58 89 bd 82 e7 c5 3e 18 fc 27 be
       -0.047273897 -0.06706267 0.3865319 -0.1640476
0000e0 60 09 16 3e 4c df 80 bc 93 6c b3 bb 3a 17 0d 3e
       0.14652014 -0.015731476 -0.0054755895 0.13778391
0000f0 15 b1 0f 3e 51 3e 81 3d 6d 85 d6 3d 59 76 c2 bb
       0.14032395 0.06310714 0.10474668 -0.0059345183
000100 ef 15 a3 b9 ad b7 af be 6f 11 24 be da c4 c5 3e
       -0.00031106125 -0.3431982 -0.16022275 0.38626748
000110 2a 12 d8 3d c3 f5 20 be c4 3c 2b bd 72 4d e0 bd
       0.105503395 -0.1571875 -0.041805997 -0.109522715
000120 29 ba 5a 3d b3 9a 3c 3e 85 25 ea 3d 17 58 bd 3d
       0.053400192 0.18418388 0.114329375 0.092453174
000130 dd fe 31 be 6d 95 09 3e 52 58 e7 3d 1f de d7 bd
       -0.17382379 0.13435908 0.11296143 -0.10540413
000140 66 42 15 3d f6 eb 0b 3d 87 c5 a0 3d 02 a4 15 be
       0.036440276 0.034160577 0.07850175 -0.14613345
000150 68 00 ef bd fd 81 44 be 4d 3c df 3d 67 1c 3b 3e
       -0.11669999 -0.19190212 0.10900173 0.18272553
000160 64 14 12 3e 44 a6 96 3e 5f 95 18 be 8c 6a 86 be
       0.14265591 0.29423726 -0.1490073 -0.26253164
000170 f5 bf 1a 3e 2e af c6 bd 90 5b a0 3e bd 56 8f bd
       0.15112288 -0.097013816 0.31319857 -0.06998966
000180 53 1a b1 bd bd d6 01 bc 4b 0f be 3c 6e 95 5e 3e
       -0.08647599 -0.007924733 0.023200652 0.2173669
000190 72 65 e0 bd 88 24 1f be 43 ca e8 bd 60 87 44 3e
       -0.10956849 -0.1554128 -0.11366703 0.19192266
0001a0 c0 fe 36 3e 4c ee da 3b f5 d9 2e 3d f5 0f be 3c
       0.17870617 0.006681239 0.04268833 0.023200968
0001b0 41 23 7f 3e 2f 34 05 3e b5 88 6b be cd 70 d9 3d
       0.24915792 0.13008188 -0.23001368 0.10617218
0001c0 06 88 4f 3d 56 f2 76 be 5f e9 ce bd 63 16 3f be
       0.05066683 -0.24115881 -0.10103106 -0.18660884
0001d0 05 69 5a 3d bb 68 4f be 59 4e f7 3d 2e 04 8a 3d
       0.05332281 -0.20254795 0.120754905 0.067390785
0001e0 94 41 44 bd aa 0a b6 3d 8b 92 b1 3d ef 09 e5 3d
       -0.047914103 0.08888753 0.08670529 0.11183535
0001f0 85 40 e0 3d af 10 8a 3b 46 5f 4d bd 70 6b 24 3e
       0.10949806 0.0042134146 -0.050139688 0.16056609
000200 81 27 1a be af 60 2e 3e 9c 72 dd 3d f9 37 08 3e
       -0.15054132 0.1702907 0.10812876 0.13302602
000210 28 b9 bc bc 1c 4d 57 3e 2f 9c 7b 3e 4f 06 9d 3c
       -0.023037508 0.21025509 0.24571298 0.019168047
000220 c4 26 d1 be a2 bd b4 bd 46 a6 49 be ef 1b 96 3e
       -0.40849888 -0.08825232 -0.19692335 0.29318187
000230 1a 8c 90 3b e2 06 29 3e f1 49 20 bd 50 78 c6 3d
       0.0044112327 0.16506532 -0.039133016 0.096909165
000240 6c f6 9f be 13 df a3 3e d7 a7 08 be 07 40 dc bc
       -0.31242692 0.3200613 -0.13345276 -0.026886
000250 d3 85 17 3e bd 1a 3b 3d 2c 2b 5e bd 48 c5 e4 bd
       0.14797144 0.045679796 -0.05424039 -0.11170441
000260 d9 58 38 3d dc 9e fe 3d d2 6c 39 3e 5b dd 52 3d
       0.045006607 0.12432644 0.18107918 0.051480632
000270 d3 b6 0c be 80 23 3f 3e 36 24 e6 3d 36 25 b4 3d
       -0.13741617 0.18665886 0.112373754 0.0879616
000280 c7 a7 3f bd 58 e4 b4 bd e5 96 bf bc 47 4f 12 3d
       -0.046790864 -0.088326156 -0.023387382 0.035720136
000290 e6 93 3f 3c 2c ca f3 3d fb e8 15 3e cb 04 b5 3d
       0.011692977 0.119037956 0.14639656 0.08838805
0002a0 d6 c1 2e 3e ae 56 98 3d 9e 71 43 3c 30 79 7a 3d
       0.1706613 0.07438408 0.011928944 0.06115073
0002b0 b7 9e 33 3e ae d1 8d 3e d4 21 4d bd 0b 52 10 be
       0.17541014 0.27699035 -0.05008109 -0.14093797
0002c0 6c 09 52 3d df ed 5c be 5e aa 71 3d e4 f0 99 3c
       0.051278517 -0.21575116 0.059000365 0.018791623
0002d0 68 35 86 3d bb 66 e5 3e 16 1a 1e 3e fd a5 91 3e
       0.06553155 0.4480494 0.15439638 0.28446952
0002e0 db 07 aa 3d 1f d2 3e be b5 54 7b 3e 8c a4 b7 bd
       0.083022796 -0.18634842 0.24544032 -0.08966932
0002f0 62 c9 f7 3d 24 48 db 3d 6f 78 97 3d 61 78 e1 3d
       0.120989576 0.10707119 0.07396018 0.110092886
000300 8b 1e 82 bc 46 68 39 be 57 49 8f bd a8 89 ed 3c
       -0.015883705 -0.18106183 -0.0699641 0.028996304
000310 d7 ab 15 be 18 26 24 3d 74 18 27 3e aa c8 5c bc
       -0.14616333 0.04007539 0.16317922 -0.013475576
000320 55 21 5c 3d ab ac d8 bd 02 a5 53 bd 21 17 fe bc
       0.053742725 -0.10579809 -0.051671036 -0.031016888
000330 04 b7 24 be 91 ad 01 3c 3c 09 2b 3d 0b 66 98 3d
       -0.1608544 0.007914917 0.041756853 0.07441338
000340 6f 90 48 3d ba 43 88 3d db 0d 4a 3e 52 44 d2 3d
       0.048965868 0.06653543 0.19731848 0.10266937
000350 2e c9 04 3e e7 d5 08 3e fc 90 a3 be 44 e6 33 be
       0.12967369 0.13362847 -0.31946552 -0.17568308
000360 57 25 34 3e 34 92 70 bc c5 1c f2 3d c6 0a 46 3e
       0.17592369 -0.014683295 0.118218936 0.19340047
000370 05 17 b6 3d 21 c0 ac bd c5 14 17 3d 12 92 7f 3e
       0.088911094 -0.08435083 0.03688504 0.24958065
000380 8c 06 03 3e 1f c4 9e bd c6 a2 89 bd 59 cb 87 be
       0.12795466 -0.07752251 -0.067205 -0.2652233
000390 c4 60 3c be c8 61 93 bd 14 24 e9 3e 49 01 65 3e
       -0.18396288 -0.07196385 0.45535338 0.22363771
0003a0 7c fa de bd a9 8e 8b 3d 15 e9 44 be 60 16 9d 3d
       -0.1088762 0.0681432 -0.19229539 0.07670283
0003b0 0c 9c a3 be 99 8d b2 bd d2 8d a4 bd b9 03 69 bb
       -0.31954992 -0.08718414 -0.080348626 -0.0035555197
0003c0 2d 14 5b 3e 71 ff 94 bd 0b 9d ce bd a9 bc 81 bd
       0.21394415 -0.07275284 -0.10088547 -0.06334812
0003d0 9e 82 08 be a7 38 43 be dc 5a a8 be 8b 19 09 3e
       -0.13331077 -0.1906458 -0.3288182 0.1338865
0003e0 2a 03 8c 3d da 0d 5b 3d d0 52 cb 3b 1a 12 09 3e
       0.06836541 0.053480007 0.0062049404 0.13385811
0003f0 e7 9b 15 be 84 d3 cc bc 71 d1 72 3e 8d c1 ac 3c
       -0.14610253 -0.025003202 0.23712708 0.021088386

network_body._body_endoder.seq_layers.0.bias f4 [128]
000000 f5 15 8a 3c 6e 7c 28 3c cf 5a 77 3d ef 73 ea 3c
       0.016856173 0.010283573 0.060389336 0.028619735
000010 21 25 8a 3c f2 e4 ff 3c 49 20 28 3c 8c 6c 69 bc
       0.016863408 0.0312371 0.010261604 -0.014247071
000020 84 bc d3 3c 86 26 41 3c 27 d7 84 3c 39 95 77 bc
       0.025846727 0.01178897 0.016215874 -0.015111261
000030 eb 0e 90 3a c4 dc 70 3d 8f fd 82 bc 78 55 1e bd
       0.0010990774 0.05880429 -0.015990047 -0.038655728
000040 ed bb 99 3c 87 9f 8c 3b af 59 07 3d a3 2d 55 3c
       0.018766368 0.004291478 0.033044513 0.013011369
000050 30 3b b4 bc 96 0f ac 3c 55 65 0e bb f0 d7 02 3c
       -0.022000879 0.021003526 -0.002172788 0.007986054
000060 b0 46 1c b5 b0 f1 4c 3c 83 1c bb 3c b9 31 45 3c
       -5.821739e-07 0.012508795 0.022840744 0.012035781
000070 4d cf 4c 3d 9e be 05 bd c1 45 7a 3c 7b ac ce 3b
       0.050002385 -0.03265249 0.01527542 0.0063071824
000080 af d8 7a 3c a7 1c a4 38 de 9d bc bb c2 70 0f 3c
       0.01531045 7.825466e-05 -0.005756124 0.008754911
000090 88 2c a0 3a 91 f6 79 bb 11 e5 a2 3b 3f f4 8d bc
       0.0012220303 -0.003814135 0.0049711545 -0.01732838
0000a0 53 72 08 ba 05 d5 92 3c cd ef e2 3c 47 9f 27 3d
       -0.0005205024 0.017923841 0.027702237 0.040923383
0000b0 6b 40 4b 3d f0 b5 a5 3b c7 37 83 3c 22 8b ae 3c
       0.04962198 0.005057089 0.016017808 0.021306578
0000c0 ca ae ff 3c 7e 84 9a 3c 1e 8b f8 3c c2 95 80 3d
       0.031211276 0.018862005 0.030339774 0.06278564
0000d0 dc 85 08 bb ae b4 02 3d 3b aa 6c 3c 7a 30 d7 3c
       -0.002083174 0.03191059 0.014444883 0.026268233
0000e0 e9 d2 15 3c b7 49 1c 3d 8e 93 83 bc c9 65 3a 3d
       0.009144523 0.038156237 -0.01606157 0.045507226
0000f0 57 5c 85 3c cf f5 2a 3d cf 37 2a 3d c0 5c de bc
       0.016279383 0.041738328 0.04155713 -0.027143836
000100 c0 e1 3e 3d 95 4f 13 bc 72 93 2d 3c e4 df ba 3c
       0.04660201 -0.008991142 0.010594236 0.022811837
000110 f4 e7 03 3b c9 e6 af 3c e6 d1 1e 3d 00 33 d6 3c
       0.0020127269 0.021472352 0.038774393 0.026147366
000120 cf 74 5a 3d 27 af 0f 3d 4d 77 3f 3d de 2d b1 bc
       0.053334054 0.035079148 0.046744633 -0.021628316
000130 47 17 25 3d 34 cb 9c 3c 6e 55 b8 3c 06 b5 3c 3d
       0.040305402 0.019139864 0.022501674 0.046071075
000140 2d fa 93 bc dc 5c 16 3d c3 37 27 3c 3e 76 b7 3c
       -0.018063629 0.03670965 0.010206166 0.02239525
000150 dc e5 99 3c db b4 e7 3c a6 26 06 bb dc 03 99 3c
       0.018786363 0.02828448 -0.0020469814 0.018678598
000160 a8 b6 91 3b 37 46 e4 39 66 dc 0c bb f5 47 25 bc
       0.004446823 0.00043539863 -0.0021493672 -0.010087957
000170 54 82 27 bc e9 3f 1b 3b f7 f6 56 3d 10 de 16 bd
       -0.010223944 0.0023689216 0.052481618 -0.03683287
000180 42 71 d6 ba b0 d4 1d 3b ca 07 26 3d ad 7a 0e 3d
       -0.0016360658 0.002408307 0.040534772 0.03478496
000190 5a 64 92 3c 58 40 95 3c e7 c1 40 3c ca df b4 3a
       0.017870117 0.018219158 0.01176498 0.0013799604
0001a0 be 01 b7 3c 96 f1 b1 3a 14 ad d9 3c 7b 61 67 3c
       0.022339698 0.0013576027 0.026571788 0.014122362
0001b0 a0 5c 85 3c f7 4a 89 bb 06 7c 04 3d ed e7 b3 3c
       0.016279519 -0.0041898447 0.03234484 0.021961177
0001c0 e1 50 03 3c 7c a5 52 bc 45 30 2c 3c 01 f8 cc 3c
       0.0080148885 -0.012856837 0.010509555 0.025020601
0001d0 07 30 f9 3c a7 ee 16 bc 4f ca a5 3c e1 5e af bc
       0.030418409 -0.009212173 0.02023807 -0.021407546
0001e0 ef c3 8f 3c 91 f6 d3 bc e9 bb ce 3c e9 62 ae bb
       0.017549483 -0.025874408 0.025236087 -0.0053218496
0001f0 c3 25 1c 3d 6c 3b 51 bc 62 18 da 3c e0 45 16 bc
       0.03812195 -0.012770515 0.026622955 -0.009171933

network_body._body_endoder.seq_layers.2.weight f4 [128, 128]
000000 d5 9c 0a be 2c 6e 85 bd 1f 42 27 3e f7 86 bb bd
       -0.13536389 -0.06515154 0.16333817 -0.09156602
000010 54 f5 86 bd 3e 88 e7 bc b1 c6 a4 bd b4 b0 03 3c
       -0.065897614 -0.028263208 -0.0804571 0.008037735
000020 0e 7a 2e 3b c2 84 0f 3d d8 9b 44 bb 0c 19 11 be
       0.0026623043 0.035038717 -0.0030000117 -0.14169711
000030 34 c7 90 3d d9 d5 14 3e 89 56 0c 3d a3 0d a8 bd
       0.07069245 0.14534701 0.034262214 -0.08205726
000040 7c 14 7d 3d dd d0 03 be c2 1c 07 3e ca be da bc
       0.061787114 -0.12872644 0.13194564 -0.026702303
000050 ac b5 85 3e dd cd ea 3b 27 58 2a 3d c7 8d 4d bd
       0.26115167 0.007165654 0.041587975 -0.050184038
000060 fe 92 9e 3d ad cb 14 be dd 34 e4 3c a2 20 d7 3c
       0.0774288 -0.14530821 0.027857238 0.026260678
000070 71 06 10 be 31 02 de 3d 3d f9 ad 3d 3e be b2 3d
       -0.14064957 0.10840262 0.08494804 0.08727692
000080 7b b4 c8 3d 61 39 c2 3d 3a 89 91 bc 2a bd 41 3d
       0.09800049 0.094836004 -0.01776563 0.04729954
000090 6d 8d 36 3e 3b 8f 4a bd 68 22 17 be 91 79 90 3d
       0.17827387 -0.049453 -0.14759219 0.07054437
0000a0 3b 61 7d bd 0b 87 db bc 06 8a 6c bd 00 bc cc bd
       -0.061860304 -0.026797792 -0.057748817 -0.09996796
0000b0 ef e9 b8 bd 16 1e 3b be 29 fa 5a 3d 11 fe 55 3d
       -0.09028994 -0.18273196 0.053461228 0.05224425
0000c0 bc b2 22 be c2 32 1c be a4 d1 c2 bd be a9 09 3e
       -0.15888494 -0.15253738 -0.09512642 0.13443658
0000d0 ad c2 1d 3e cc fc 0e be 55 44 d7 3d 3c fd 76 3d
       0.15406294 -0.13963622 0.1051108 0.060300097
0000e0 2f d6 4e 3d 83 bb 04 3e f8 e7 52 3d ad e1 d2 bc
       0.05049723 0.12962155 0.051490754 -0.025742376
0000f0 ce 59 26 be 86 51 da bd 61 69 03 3e 02 71 b2 3c
       -0.16245195 -0.106600806 0.12833168 0.021782402
000100 22 a0 2d bd e8 0d 05 3d 69 b7 41 be b0 69 a0 bd
       -0.042389043 0.032483965 -0.18917622 -0.07832658
000110 72 95 c3 bb c7 48 28 bb 31 89 de bc 5e 13 42 be
       -0.005968743 -0.0025678144 -0.027165027 -0.189527
000120 13 c8 20 3d 3c 26 1e be f2 d8 76 bd cd 69 47 bc
       0.039253306 -0.15444273 -0.06026549 -0.012171221
000130 97 e1 cb bd a5 98 0c bc a8 2b 43 be 56 85 16 bd
       -0.09955137 -0.008581315 -0.19059622 -0.036748253
000140 27 11 28 3d 07 7e 96 bd 87 b0 44 3d 26 1c c1 3d
       0.041031983 -0.073482566 0.048019912 0.09429197
000150 b8 f3 29 3e 25 2b d4 bd 10 cf 1e bd 7d 6f 51 3e
       0.16596878 -0.10359792 -0.03877169 0.20452686
000160 f9 3c 01 3e 39 91 af 3d 7d 7a 6d 3c de bd aa 3d
       0.12620915 0.08572621 0.0144945355 0.083369955
000170 b8 68 32 bd ac 62 b4 bd 15 b6 16 bd 6b 7a 42 bb
       -0.0435569 -0.08807883 -0.03679474 -0.0029675018
000180 11 36 0d 3e 19 e0 84 3d f1 b0 0f be 9f b2 14 3c
       0.13790156 0.06488056 -0.14032342 0.00907579
000190 df b8 12 3e 80 cc 52 bc 50 32 fb 3c 8d 48 3e 3e
       0.14328335 -0.012866139 0.03066364 0.18582363
0001a0 0a e1 cd 3d 97 2a 26 bd 42 45 f8 3b c9 01 79 3d
       0.100526884 -0.04056796 0.0075766155 0.060792718
0001b0 8c ae 9d bd cc a6 3c bd 9b 87 a4 bd 99 64 b7 3d
       -0.07699308 -0.046057507 -0.08033677 0.08954734
0001c0 3c f5 87 3b 50 1a 2a be 7f 69 50 3d fc 79 25 3e
       0.0041491073 -0.166116 0.05088186 0.16159815
0001d0 7d c1 b9 bd 93 48 ec bd 0e c8 2a 3e c2 c7 21 3e
       -0.09070108 -0.1153728 0.16677877 0.15798858
0001e0 4d af 03 3b f8 7a e5 bd dd 03 84 bd f1 e0 c9 3d
       0.00200935 -0.11205095 -0.06446049 0.09857357
0001f0 e2 8e 53 3e 59 cb 76 bd cc 24 e3 bc 8e f7 78 3d
       0.20659974 -0.06025252 -0.027727507 0.06078296
000200 d2 5c 6d 3e a5 38 d9 3d ee 48 93 bd 17 7e 32 3e
       0.2317994 0.10606507 -0.071916446 0.17430912
000210 07 72 76 bd bc f3 3d 3c 37 37 c2 bb 30 68 58 3c
       -0.06016734 0.011593755 -0.0059269923 0.013208434
000220 73 8e 13 3d 53 d9 d8 bc 45 db 50 bd c3 f1 14 be
       0.036024522 -0.026470816 -0.05099036 -0.1454535
000230 28 e3 3e 3c 6d bb ce bc 8f bc aa 3d c7 48 8f bd
       0.011650838 -0.025235856 0.08336746 -0.06996303
000240 b2 01 b3 3c c6 da 91 3c 7b 8d 6a be 13 bb a3 bc
       0.021851394 0.017804515 -0.22905533 -0.019986665
000250 03 7f dd bc db a8 03 bd a0 45 ea bd 0f 62 23 3c
       -0.027038103 -0.032143455 -0.11439061 0.009972109
000260 9b bb ba bc 65 f1 d9 3b 36 89 5a bd 62 4f 7e bc
       -0.022794535 0.006651091 -0.05335351 -0.015521856
000270 a9 b6 ad 3c bc 30 9d bc 15 f3 90 3d 5c 56 eb 3b
       0.021205263 -0.019188277 0.07077614 0.0071819257
000280 82 94 2e 3d fb 45 63 bd 07 44 b6 3d d2 67 99 bc
       0.042622097 -0.05548666 0.08899694 -0.018726263
000290 c2 b4 0d 3e 6e 70 25 be 53 a6 15 be 09 e1 d4 bd
       0.13838485 -0.1615617 -0.14614229 -0.103944845
0002a0 8e d9 97 3d f1 2f 4a bd ac 93 4f bd 50 7b a5 bd
       0.07414542 -0.049362127 -0.05067794 -0.080801606
0002b0 dd c0 33 be 1f 4f 8e 3d 13 d4 a2 3c 65 82 8b 3c
       -0.1755404 0.06948685 0.019876515 0.01702995
0002c0 58 b8 3a 3e e2 bc 05 3e 60 23 9d 3c ef 4b 66 bd
       0.18234384 0.13060334 0.019181907 -0.05622476
0002d0 a5 70 d8 bb ec 2d 61 3c 72 5d a6 bd 35 e1 7f 3a
       -0.006605225 0.013743859 -0.08123292 0.00097610365
0002e0 c4 10 91 bc 10 a1 77 bd a7 14 09 bd 52 91 8a bd
       -0.01770819 -0.060456336 -0.03346696 -0.06765999
0002f0 17 fe 1f bd 96 30 da bc a5 66 18 be 09 bb 7a 3d
       -0.03906068 -0.026634496 -0.14882906 0.061213527
000300 f0 96 bb bd ac eb 0a 3e 8c 47 d0 bc be fa 58 bc
       -0.091596484 0.13566464 -0.025424741 -0.013243375
000310 69 ee bc bb 2b 2c 32 3e b4 0b 27 3e 5a 48 4b bd
       -0.0057657254 0.17399661 0.16313058 -0.049629547
000320 49 f2 e3 3d ad b4 4b bd 44 38 b3 bc f7 21 9e bd
       0.111301966 -0.049732853 -0.021877415 -0.07721322
000330 57 05 3d bd 55 c3 42 3b 70 cb 03 3e bf 2d e6 bd
       -0.04614767 0.0029718478 0.12870574 -0.11239194
000340 fa c9 ae bd 7d cb 7f 3c a3 8f c9 3d d2 2d c6 bd
       -0.08534618 0.01561248 0.0984185 -0.09676708
000350 8e 14 91 be a3 84 09 3e de 71 e4 bc 03 f3 1b 3d
       -0.28335994 0.13429503 -0.027886327 0.03807355
000360 82 e0 c3 3d 40 14 c5 bc 67 50 75 3d aa f4 ef bc
       0.09564306 -0.024057508 0.05989113 -0.02929147
000370 89 e6 ea 3a 90 75 e6 3d 3a 98 bf 3c dc ca 1a be
       0.0017921488 0.11252892 0.023388017 -0.15116447
000380 40 80 de bd a6 b8 4f bc a3 41 61 bc a0 c1 c0 b9
       -0.108643055 -0.012678301 -0.013748559 -0.00036765356
000390 b7 c9 ea bd 6e 49 39 3d d4 9e 76 bc a0 26 ba 3b
       -0.11464255 0.045236044 -0.015052516 0.005680874
0003a0 71 80 66 3d 46 f3 a0 3a 83 63 55 3e 90 f6 97 3c
       0.056274835 0.0012279532 0.20838742 0.018550187
0003b0 a1 18 a1 3d 91 c9 40 bd 61 b9 e0 3d 40 66 22 bd
       0.07866026 -0.04706723 0.10972858 -0.039648294
0003c0 01 da 09 3d 60 05 c0 3c 4f 29 c1 3d 4c e3 fb 3c
       0.03365517 0.023440063 0.09431707 0.030748032
0003d0 7e c1 ff 3d 53 5e 12 3e 86 04 d1 3d 83 33 81 3c
       0.124880776 0.14293794 0.10205941 0.015771633
0003e0 bc 3b 3e 3d 9d 37 70 bd dd 75 d6 3d 36 bb c9 3d
       0.046443686 -0.058646787 0.104716994 0.09850161
0003f0 b1 62 a1 3d 50 d7 c6 bd de f5 96 bd 1c 5e 10 3c
       0.07880152 -0.09709036 -0.07371114 0.0088115

network_body._body_endoder.seq_layers.2.bias f4 [128]
000000 16 d4 27 3c 48 13 bb 3c 7d 66 53 3c ae 5d 18 3d
       0.010243436 0.022836342 0.012902853 0.037198715
000010 69 07 9a bc 6d 0f 2b 3c 13 f4 0b bc 2e bb ba 3c
       -0.018802362 0.0104406895 -0.008542079 0.022794332
000020 20 9e f0 3c c9 32 9a 3c 28 8c 23 3c 00 95 6d 3c
       0.029372275 0.018823044 0.009982146 0.014500856
000030 5a 96 63 bc a8 4f 0e 3d 2d 6f 47 ba 0c 19 b4 b9
       -0.013890827 0.034743935 -0.0007607814 -0.00034350937
000040 7a 17 b3 ba 6f 3d c3 3c a9 36 eb bc 2f 9e 1e ba
       -0.0013663613 0.023833005 -0.028712587 -0.0006050793
000050 e7 a5 a8 3c 7b e1 f0 3c bb 8f db 3a c7 a3 a4 3c
       0.02058692 0.029404392 0.0016751209 0.020097626
000060 cf 04 09 3c f6 c0 b8 3b 9a d3 1b 3d 93 b9 d6 3c
       0.008362963 0.005638237 0.038043596 0.026211536
000070 57 4c 08 3d a5 65 bf bc 81 b5 12 3c a8 c5 4e 3d
       0.03327593 -0.023363898 0.008954407 0.05048147
000080 34 c8 fc 3b 62 92 f7 3b 58 50 4d 3b 17 d4 1a 3d
       0.0077142958 0.007555292 0.0031328406 0.03779992
000090 04 17 08 3d 76 3a 92 3c a6 97 dc 3c 9d 9a c9 3a
       0.033225074 0.017850142 0.02692778 0.0015381161
0000a0 83 27 c5 3c b7 e9 90 3c 5c 98 b4 3c 45 1f 0e 3c
       0.024066692 0.017689569 0.022045307 0.008674447
0000b0 5f cf 7c bc 0a 4c 5e 3c 36 0f 03 3d fb e9 ac 3c
       -0.0154303005 0.013567934 0.03199693 0.021107664
0000c0 8b 51 6b bc e2 91 48 3d a2 23 91 3c 90 24 bc bc
       -0.014362703 0.04896725 0.017717186 -0.022966653
0000d0 30 32 1d 3c 27 36 b3 bc 84 92 dd 3c bd 91 d8 3c
       0.009594485 -0.021876408 0.027047403 0.02643668
0000e0 4a 7b 32 3c ec ec 6a 39 5e 21 a3 bc d2 ab 85 3c
       0.010893652 0.0002240424 -0.019913372 0.016317282
0000f0 6b 29 63 3b 79 fa 13 3d d2 0e e1 3c ea 7c e9 3c
       0.0034662138 0.03612754 0.027472887 0.028501946
000100 e0 c7 98 3c f3 6f c5 3c c5 58 18 3c a5 f0 a1 3b
       0.018649995 0.024101233 0.009298508 0.004942017
000110 52 ed c3 3c 4c 6e df 3c 77 3b d7 3b 03 95 4d bc
       0.023916874 0.027274273 0.006568368 -0.012547734
000120 eb 08 d4 3c 4c f0 1c 3c fb 21 f8 3c 07 26 88 3c
       0.025883159 0.009578776 0.03028964 0.016619695
000130 17 f9 4d bb 2b 2e db 3c 5b 3d c3 3c 2d 86 ae bc
       -0.0031428987 0.026755413 0.023832968 -0.021304214
000140 b4 cb aa 3c e1 9c ee 3c 59 3a 16 3d b8 09 02 3c
       0.020849086 0.02912754 0.03667674 0.007936887
000150 37 51 39 3c 82 01 2c 3c 2f fa c5 3b b5 09 d2 3c
       0.011310867 0.010498406 0.006041787 0.025639394
000160 ad b3 2a bc cf 19 bf 3c d2 64 93 bc c7 22 fd 3b
       -0.010418815 0.023327736 -0.01799241 0.007725093
000170 34 a3 bb 3c d1 7b 3d 3c 46 83 1b 3d 66 11 86 bc
       0.02290497 0.011565165 0.03796699 -0.016365718
000180 d7 9f 51 3a 87 92 b8 3c 10 ce f0 3b f7 9b 96 3c
       0.0007996535 0.022530807 0.0073487833 0.018384917
000190 4e c8 08 3d 8a 46 bb 3c 2a 66 b9 3c eb 8d 1c 3d
       0.03339415 0.022860784 0.022631723 0.03822128
0001a0 24 18 8b 3c c8 85 94 3c 8e cf 36 3b 0c ea e8 3b
       0.016979285 0.018130198 0.0027894708 0.0071079787
0001b0 5a 53 13 bb 50 9c ee 3c fe e4 71 3c 6a 1a fe 3c
       -0.0022480101 0.02912727 0.014764069 0.031018455
0001c0 13 f7 a0 3b f4 e6 f3 3c bc a9 22 3d 00 55 fa 3b
       0.004912266 0.029773213 0.039712653 0.0076395273
0001d0 d1 0a 14 3d 6e af e3 3c 90 60 ad 3c d1 49 99 3c
       0.036143128 0.027793612 0.021164209 0.018711956
0001e0 ff 3d c8 bb 5e c9 ca bc ba bf 5f 3c d7 0d 26 3b
       -0.006110906 -0.024754222 0.013656551 0.002533784
0001f0 85 5f 40 3c 02 e8 a5 3b 01 1c 9c 3c 81 81 00 3d
       0.011741524 0.005063058 0.019056322 0.031373505

action_model._continuous_distribution.log_sigma f4 [1, 5]
000000 12 57 e8 bc 1a f7 01 bc 0b a3 51 bd 11 91 90 3c
       -0.02836183 -0.007932449 -0.05118088 0.017647298
000010 d4 1a 4e 3d
       0.050318554

action_model._continuous_distribution.mu.weight f4 [5, 128]
000000 8c c6 53 bc 3c e5 18 3d d1 1c 88 3c e9 f8 e2 bd
       -0.012925755 0.03732799 0.016615303 -0.11082632
000010 30 5b 25 bd 91 8e 19 3c f1 db bf bb f8 06 99 3d
       -0.040370166 0.009372369 -0.0058550765 0.07472032
000020 b0 8d 98 bc 99 ad 98 3c eb 8e 85 bd dc 7b be 3d
       -0.01862225 0.018637465 -0.065214 0.09300968
000030 96 58 59 3c cc 54 a5 3c c9 6a ae bc f9 97 70 3d
       0.013265749 0.020182036 -0.021291154 0.058738682
000040 57 d1 a4 3d 9c a8 d0 3c 68 87 98 b9 a3 5e 0f 3c
       0.08047741 0.025471024 -0.00029092585 0.0087505905
000050 82 25 c0 bd 1e a8 2f 3c 8f 2b 28 3c 5f 6a 41 bd
       -0.09382154 0.010721235 0.010264291 -0.047220584
000060 0a f1 9d bd ca fe 83 3d 85 c8 a2 3d c4 5a 90 bc
       -0.0771199 0.064450815 0.07948402 -0.017621405
000070 4a f6 0f be 5f 90 90 bc 2e 1f fc bc 1f 63 e9 3b
       -0.14058796 -0.017646967 -0.030776586 0.007122412
000080 ef 11 fb 3a 9c 44 15 3d f3 51 ee bc 5e ab cb 3d
       0.0019155125 0.036442384 -0.02909181 0.09944795
000090 9d ad a3 bd 9c b5 4d bd 58 27 cd bd 80 69 21 3d
       -0.079920985 -0.050222024 -0.1001727 0.039407253
0000a0 a0 16 19 bc 46 0b 37 3c f9 e4 c1 bc e4 29 bb 3d
       -0.009343773 0.011172121 -0.023668753 0.091388494
0000b0 4a cb 11 3c 4b b4 d9 bc 9c fb 16 bd ce 60 17 bd
       0.008898566 -0.026575228 -0.036861047 -0.036957555
0000c0 e8 d8 59 bb c2 21 8a bd 1b 8d 29 bd 20 a5 be 3c
       -0.0033240858 -0.0674472 -0.041394334 0.023272097
0000d0 6f 72 11 3d 52 03 ff bb 34 aa e0 3d 83 a8 b5 bd
       0.035509523 -0.0077823782 0.10969964 -0.08870032
0000e0 c4 7d 64 bd 01 94 fc 3d 22 d7 a3 3c 84 04 eb bc
       -0.055784002 0.12332917 0.020000044 -0.028688677
0000f0 91 b7 a8 3c c0 b6 5a bd 81 17 51 3d 22 15 24 3d
       0.020595344 -0.05339694 0.051047806 0.040059216
000100 b8 4f 0d bc 2a 55 44 bd b5 1c 9c bc ed 63 41 3c
       -0.008624963 -0.04793278 -0.019056657 0.011803609
000110 25 70 28 3c 26 cb 75 bd 31 3a 1a 3c a0 8a d5 bc
       0.010280644 -0.06000819 0.009413288 -0.026067078
000120 be 0e 80 3d 3c d8 f0 3c a8 d4 a6 ba 5e be d2 ba
       0.06252812 0.029399984 -0.0012728171 -0.0016078462
000130 79 60 ff bc ab cf 9e bb d6 59 8b 3d e1 d5 9a bc
       -0.031173931 -0.0048465333 0.06804244 -0.018900814
000140 b8 7e 56 bd 1e 79 c9 3d d0 7a 47 3d 22 7b 93 bd
       -0.052366942 0.098375544 0.048701108 -0.0720122
000150 4a 17 80 bd 99 57 91 3d 8d 24 a6 3d 6f 88 cb bc
       -0.06254442 0.07096786 0.0811244 -0.02484533
000160 20 d7 83 3b c5 b9 a8 bc b1 72 b8 ba 26 da 22 3c
       0.0040234476 -0.020596394 -0.0014072267 0.009939706
000170 8c 79 f4 bd ef 84 4e bd a0 01 52 3d 05 ff 40 3c
       -0.11937246 -0.050419744 0.05127108 0.011779551
000180 86 19 03 3c 72 f9 20 3d af 2e 7d bb 2f e6 81 3b
       0.008001691 0.03930039 -0.0038632562 0.0039642076
000190 27 1a d4 3d 12 4e 1f 3c 83 e6 69 bc 51 18 61 bd
       0.10356551 0.009723203 -0.01427615 -0.05495483
0001a0 8f 01 b6 bd de 0a 3d 3c 51 4c 04 bd 37 e0 79 3c
       -0.08887016 0.0115382355 -0.032299343 0.015251211
0001b0 46 22 16 bd b9 9f a4 bc 3e 65 b4 bd 21 2e 94 3d
       -0.03665378 -0.020095693 -0.08808373 0.07235361
0001c0 45 8d 32 3d fd a9 18 3d 2a b9 64 bb cf 62 82 3d
       0.043591756 0.03727149 -0.0034900405 0.063665025
0001d0 b3 e2 3e 3d 4a 37 ba 3d 27 a7 02 3d 6c db 4d 3c
       0.046602916 0.09092577 0.03189769 0.012564521
0001e0 60 1d 7f bd a2 84 cd bc ce 48 0e 3c 77 75 a5 bc
       -0.062283874 -0.025087658 0.00868435 -0.020197613
0001f0 05 68 f8 ba 9b c1 f2 bc 36 ac 83 3c 47 9d e1 bc
       -0.0018951899 -0.029633334 0.016073328 -0.027540816
000200 95 ce bc bd 2a eb 76 3d 04 90 c9 3d 24 b9 97 bc
       -0.0921909 0.060282864 0.09841922 -0.0185209
000210 02 63 b8 3c 15 40 78 3d dc 77 0a 3d 6c e2 82 3d
       0.022508148 0.06060799 0.033805713 0.06390843
000220 c7 30 c1 bc 1a 2e a5 3c 99 7e ed 3b 36 b2 3c bc
       -0.02358283 0.020163585 0.0072477576 -0.011517098
000230 eb a4 82 bd d5 80 eb 3d 67 ef 2d bd 3d da c5 3c
       -0.06379112 0.11499182 -0.04246464 0.024151916
000240 aa 02 9d bb 0d 9a 6e 3d e9 d8 bd 3c 49 80 a3 3c
       -0.0047915773 0.058252383 0.02317472 0.019958632
000250 fe bb 40 3c 95 b7 d4 3c 9d c9 66 bd a4 cb c2 3b
       0.011763571 0.025966445 -0.056344617 0.005944686
000260 f5 62 5f bd 16 da 84 bb 1d 16 b0 3d bc ff a3 bd
       -0.054537732 -0.004054318 0.08597968 -0.08007762
000270 79 9d 34 bc 5d e0 c0 3c d3 db 0a 3d 52 8b b7 3d
       -0.0110238725 0.023544485 0.033901047 0.0896212
000280 dc 9e c2 3d 63 49 5e 3d 5c 10 82 3d dd a6 1a 3d
       0.09502956 0.054269206 0.063507766 0.03775679
000290 cd 27 ea bc a3 0f d3 bc 26 92 78 3d 29 a3 a2 bc
       -0.028583432 -0.025764292 0.060686253 -0.019853191
0002a0 79 a3 29 bd 39 04 92 bd 61 62 ad 3c f9 94 0c bd
       -0.041415665 -0.07129712 0.021165075 -0.03432176
0002b0 74 a4 be bc fe a8 17 bd c2 11 6b 3d 5f 9f b1 3c
       -0.023271777 -0.037026398 0.057389982 0.02168244
0002c0 bb 9a 5f bc 4b 7f b2 3d e3 0f 56 bd 34 43 69 3b
       -0.01364773 0.087156855 -0.052261245 0.0035593035
0002d0 50 bc 98 bd 01 13 23 3d ac 1a 08 3d 1a a7 74 3d
       -0.07457793 0.039813045 0.03322856 0.059729673
0002e0 89 e1 13 3d 46 76 24 3c 09 1d fe 3b bc 44 8e bd
       0.03610376 0.010037964 0.007754926 -0.06946704
0002f0 33 44 5f 3d fc b4 b3 3d 84 94 9b bc a3 35 f9 bc
       0.0545084 0.087747544 -0.018991716 -0.030421084
000300 64 43 49 bd 9b 79 2e bd 2d 21 56 bd a4 41 8b 3d
       -0.049136534 -0.04259644 -0.052277733 0.06799629
000310 47 ee 8b bd b8 1b 9f 3d 56 49 5a bd 1b 66 e9 3b
       -0.06832557 0.07768959 -0.053292595 0.0071227676
000320 0f a7 3a bd c2 e9 a4 bd aa 77 d6 bc ab cf d7 3b
       -0.045569476 -0.08052398 -0.026180107 0.0065860352
000330 9d 9e 5f bd 82 f4 2e 3e 6a 83 f6 3c 4e 3e ba 3b
       -0.054594625 0.1708546 0.03009196 0.005683697
000340 36 61 9e bc 56 e4 1d 3d 7f 9f af bc 8a 76 d8 bb
       -0.019333463 0.038547836 -0.021438358 -0.006605928
000350 b8 21 92 3d 2e 0c f5 3a 8d 81 5e 3d 70 d1 ca bd
       0.071353376 0.0018695646 0.054322768 -0.09903228
000360 56 a2 ca bb 3f 8e bd bc 71 56 c3 3c f5 9c 3a 3d
       -0.0061839027 -0.023139117 0.02384493 0.045559842
000370 ca 52 1c 3d 25 b3 5b bd 85 32 d6 bd 04 bf 26 bc
       0.03816489 -0.053637642 -0.104588546 -0.010177378
000380 79 99 20 bc 47 c0 14 3b 74 cf db bc 26 91 f4 bc
       -0.009802216 0.0022697614 -0.02683232 -0.029854368
000390 a1 c4 0b 3b c8 68 ca 3d 2a cb 28 3c 93 aa cd 3c
       0.0021326917 0.09883267 0.010302344 0.02510575
0003a0 98 87 78 3d 6e 79 f7 3d 50 b3 8c 3d 3e d5 bc ba
       0.060676187 0.12083708 0.06870139 -0.0014406813
0003b0 55 8e 42 3b 65 1c 9b 3d 7e e1 19 3d a8 5f bc 3d
       0.0029686887 0.07573775 0.03756856 0.091979325
0003c0 cb 58 5b 3c 87 63 62 3d b9 aa 87 3d b5 ec 69 bc
       0.013387869 0.055270698 0.0662436 -0.014277627
0003d0 80 82 b4 bd 57 b2 c0 3c e2 49 39 bd 4a 88 13 bd
       -0.088139534 0.023522539 -0.045236476 -0.036018647
0003e0 9c da 12 3d d5 e7 83 3c 5a f8 bc 3d 3c 08 02 3c
       0.035853013 0.016101757 0.09227057 0.007936534
0003f0 10 68 ff bd a9 a6 ee bb 21 b3 51 bd 42 e8 ee 3c
       -0.1247102 -0.007283051 -0.05119622 0.029163484

action_model._continuous_distribution.mu.bias f4 [5]
000000 23 db f5 3a 21 50 37 bc d8 47 0e bb b6 4d 08 3d
       0.0018757324 -0.011188538 -0.0021710303 0.033277236
000010 36 eb 68 3c
       0.014216235

exp_avg f4 [128, 47]
000000 1c 6b df 38 fe 1c c1 38 00 00 00 00 9d 9c 45 37
       0.00010653419 9.2083574e-05 0.0 1.1778579e-05
000010 6b a6 62 39 6e df 80 36 00 00 00 00 ac c5 c8 b6
       0.00021615035 3.840708e-06 0.0 -5.9834765e-06
000020 76 39 45 39 19 7c 84 36 00 00 00 00 23 1a 91 b6
       0.0001880879 3.9483534e-06 0.0 -4.3243795e-06
000030 27 eb b0 39 ad da 64 36 00 00 00 00 3d aa b2 b6
       0.00033744538 3.4101934e-06 0.0 -5.3246317e-06
000040 e0 bc 31 39 18 7b 7f 36 00 00 00 00 b7 c1 cf b6
       0.00016950397 3.806961e-06 0.0 -6.191632e-06
000050 7f 0d 9d 39 fb 27 03 b6 00 00 00 00 95 ec 69 b6
       0.0002995543 -1.9543793e-06 0.0 -3.4857414e-06
000060 c6 6f 71 39 dc 42 97 b7 00 00 00 00 58 ba 13 b7
       0.0002302519 -1.8031737e-05 0.0 -8.805269e-06
000070 b0 7b 59 39 81 74 1f 37 00 00 00 00 99 af 27 b6
       0.0002074081 9.504264e-06 0.0 -2.498715e-06
000080 3f 46 81 37 de 8c 37 39 00 00 00 00 63 af 04 38
       1.541071e-05 0.00017504717 0.0 3.1634594e-05
000090 fc 62 05 39 31 e6 02 39 47 96 f8 b8 ed e0 2b 39
       0.00012720743 0.00012483519 -0.00011853553 0.00016391622
0000a0 a0 1d dc b6 5c 06 70 b8 57 cb e6 37 ab c8 5e 39
       -6.5599597e-06 -5.722638e-05 2.7512824e-05 0.00021246324
0000b0 74 4b 5d 39 cf 11 18 b6 4e a2 18 39 2c d9 a6 b7
       0.00021104311 -2.266013e-06 0.00014556313 -1.988987e-05
0000c0 54 c3 e6 38 00 00 00 00 52 87 de 36 0b bd 02 39
       0.00011003637 0.0 6.631869e-06 0.0001246819
0000d0 7b cc fd 36 00 00 00 00 eb c7 94 36 98 70 d7 38
       7.563792e-06 0.0 4.4340172e-06 0.00010272971
0000e0 f6 e4 08 37 00 00 00 00 e8 dd b3 36 25 ef 0f 39
       8.159541e-06 0.0 5.360449e-06 0.00013726631
0000f0 83 2a a1 36 00 00 00 00 f5 d2 6b 36 d6 72 66 38
       4.803123e-06 0.0 3.5140522e-06 5.4943222e-05
000100 6b f2 0c 36 00 00 00 00 d0 b0 ae 36 c3 c2 a9 38
       2.1002732e-06 0.0 5.206188e-06 8.094825e-05
000110 81 62 7d 36 00 00 00 00 6e 8e 8c 36 2c 84 a2 38
       3.7757275e-06 0.0 4.188906e-06 7.749381e-05
000120 71 c1 b0 b6 00 00 00 00 2b c8 02 37 14 9b 44 38
       -5.2677283e-06 0.0 7.795209e-06 4.687447e-05
000130 51 65 14 38 00 00 00 00 19 f0 2a 37 9f bb c8 b8
       3.5380308e-05 0.0 1.0188692e-05 -9.57169e-05
000140 d2 90 41 39 00 00 00 00 d3 b3 c0 38 2c 98 c0 b7
       0.00018459864 0.0 9.188768e-05 -2.2959044e-05
000150 b1 ed 92 38 44 c8 7d b8 87 0d 0c b7 1b ac 64 38
       7.006096e-05 -6.0506412e-05 -8.3478e-06 5.451972e-05
000160 c3 b0 f9 b7 1d d0 3a b8 b9 52 37 39 99 65 83 38
       -2.9765424e-05 -4.4539676e-05 0.00017483057 6.265491e-05
000170 7d 80 a3 b4 27 08 43 b6 2e 40 01 b9 03 ad 05 b9
       -3.0454603e-07 -2.906201e-06 -0.00012326307 -0.0001274832
000180 00 00 00 00 e1 9f 58 36 d5 5b c0 b9 12 50 ba b5
       0.0 3.227957e-06 -0.00036689514 -1.3881383e-06
000190 00 00 00 00 5a 56 63 37 ed be 9b b9 19 b8 82 35
       0.0 1.355036e-05 -0.00029706155 9.739334e-07
0001a0 00 00 00 00 8f 51 65 37 33 2f b8 b9 78 51 b6 b6
       0.0 1.3668453e-05 -0.0003513038 -5.433507e-06
0001b0 00 00 00 00 88 d9 43 37 ad 9a 1f b9 d5 ed 32 b5
       0.0 1.1673554e-05 -0.00015221043 -6.665626e-07
0001c0 00 00 00 00 16 a2 7d 37 1c 50 ac b9 44 6f df 35
       0.0 1.5117714e-05 -0.00032866083 1.6647177e-06
0001d0 00 00 00 00 3e 67 d2 36 94 26 81 b9 18 4a 0e b7
       0.0 6.2705067e-06 -0.0002463354 -8.481111e-06
0001e0 00 00 00 00 29 35 6d 37 90 b1 22 b9 54 bb 28 b8
       0.0 1.4138678e-05 -0.00015515671 -4.0228784e-05
0001f0 00 00 00 00 e5 28 0d 37 fe 3d 49 b6 b0 04 6b b9
       0.0 8.413776e-06 -2.9987418e-06 -0.00022413093
000200 00 00 00 00 36 69 0d b8 ab 9b 12 b9 ec 8d 08 b9
       0.0 -3.3715005e-05 -0.00013981636 -0.0001302284
000210 4c b0 11 39 f5 5b 4e b9 cc 06 43 b8 ca 8a f8 38
       0.00013893953 -0.00019679948 -4.6497953e-05 0.00011851413
000220 a8 a8 53 38 3f e5 33 b9 52 e7 81 b9 68 ed c0 35
       5.0463394e-05 -0.00017156171 -0.00024777144 1.4374209e-06
000230 76 78 76 b9 b7 b4 92 37 c1 02 61 b8 00 00 00 00
       -0.00023505263 1.7488708e-05 -5.3646745e-05 0.0
000240 d1 39 13 b7 45 70 29 b8 02 c7 8a 37 00 00 00 00
       -8.775344e-06 -4.03973e-05 1.6543552e-05 0.0
000250 85 34 1d 37 21 6f 50 37 4f bf 98 37 00 00 00 00
       9.370157e-06 1.242364e-05 1.8208897e-05 0.0
000260 2f 12 c5 36 5a 0d 89 38 b1 b8 5d 37 00 00 00 00
       5.8731744e-06 6.535156e-05 1.3215628e-05 0.0
000270 80 a3 d5 36 4f 0f 5c b8 2b d8 25 37 00 00 00 00
       6.3669286e-06 -5.2466345e-05 9.885097e-06 0.0
000280 d3 c4 11 36 b2 70 2e 38 8b ed 1b 37 00 00 00 00
       2.172125e-06 4.158979e-05 9.294027e-06 0.0
000290 1b dd b3 36 91 d7 f3 b8 35 2a db 37 00 00 00 00
       5.3603558e-06 -0.00011627295 2.6126489e-05 0.0
0002a0 f6 3d 8c 36 d4 e8 f8 37 a7 a5 7d 36 00 00 00 00
       4.1795383e-06 2.9672323e-05 3.779636e-06 0.0
0002b0 f8 ac b9 35 38 1e 28 b9 86 38 0b 39 00 00 00 00
       1.3833915e-06 -0.00016032986 0.0001327713 0.0
0002c0 44 41 72 38 b6 50 49 37 64 ae fe b7 43 99 15 38
       5.775808e-05 1.1999326e-05 -3.0360367e-05 3.5667104e-05
0002d0 6c 07 8b 37 e4 ab 58 38 f7 28 1c 38 93 46 b6 38
       1.6573547e-05 5.16585e-05 3.723145e-05 8.691582e-05
0002e0 1a 47 b4 37 11 8a 92 b8 e8 a4 fc b5 39 b3 80 b8
       2.1490781e-05 -6.9875394e-05 -1.8823457e-06 -6.1368984e-05
0002f0 a1 48 66 39 34 3b a4 b7 00 00 00 00 ed 96 b7 36
       0.00021961566 -1.9577892e-05 0.0 5.471395e-06
000300 87 24 62 39 78 e6 d3 36 00 00 00 00 eb 62 2f b7
       0.00021566647 6.31512e-06 0.0 -1.0453844e-05
000310 38 de 89 39 1c ee 82 36 00 00 00 00 fa cb 14 b7
       0.00026296242 3.9020215e-06 0.0 -8.868979e-06
000320 ad 10 aa 39 45 a5 14 37 00 00 00 00 f6 c3 2e b7
       0.0003243735 8.859967e-06 0.0 -1.0416834e-05
000330 38 e8 01 39 b0 24 a4 36 00 00 00 00 75 8e 6e b7
       0.00012388907 4.891852e-06 0.0 -1.4219074e-05
000340 fd 8d 96 39 f8 99 85 35 00 00 00 00 f6 5e 1a b7
       0.0002871602 9.954083e-07 0.0 -9.201225e-06
000350 fa 7d 28 39 97 39 b8 37 00 00 00 00 0b 47 5e b7
       0.00016068658 2.1961327e-05 0.0 -1.3248772e-05
000360 53 1a 36 39 a1 ae 45 b7 00 00 00 00 13 09 c8 b7
       0.00017366679 -1.1782774e-05 0.0 -2.3846083e-05
000370 9e 4a 9d 38 0c fa e3 38 00 00 00 00 18 c3 15 b8
       7.500242e-05 0.00010870778 0.0 -3.5706063e-05
000380 7f 67 62 39 0c 86 e5 38 9c 75 02 b9 fb 5a 95 39
       0.00021591595 0.00010944539 -0.00012441579 0.0002848728
000390 44 fe 7b b8 74 1d ae b8 1e 3c 06 39 6b a4 12 b7
       -6.0079867e-05 -8.3024526e-05 0.00012801631 -8.74056e-06
0003a0 e1 d4 8b 39 c3 c0 fb b5 52 98 69 39 2b 1d d1 38
       0.00026670753 -1.8757058e-06 0.00022277355 9.9713296e-05
0003b0 5b 2c 34 38 00 00 00 00 a5 35 56 37 89 b3 01 39
       4.2956653e-05 0.0 1.2767884e-05 0.00012369281
0003c0 95 d9 67 b5 00 00 00 00 c8 d2 80 b6 1b 31 fc 38
       -8.637083e-07 0.0 -3.8392354e-06 0.00012025443
0003d0 15 cf 49 b5 00 00 00 00 01 b1 1c b6 7b 29 32 39
       -7.517968e-07 0.0 -2.3348841e-06 0.00016990856
0003e0 10 8c db b5 00 00 00 00 ea 13 c9 b5 25 cc 00 39
       -1.6357535e-06 0.0 -1.4981463e-06 0.00012283081
0003f0 f7 a6 1c 36 00 00 00 00 d8 dd f8 b5 b7 2c 32 39
       2.3342998e-06 0.0 -1.8542005e-06 0.0001699206

exp_avg_sq f4 [128, 47]
000000 ef 5b 03 35 a9 8a 0d 33 00 00 00 00 44 d5 c2 31
       4.8935084e-07 3.295523e-08 0.0 5.6703886e-09
000010 85 db 02 35 aa be 11 31 00 00 00 00 e9 30 e2 2f
       4.8748217e-07 2.1208657e-09 0.0 4.1143913e-10
000020 b1 6d 08 35 ef 80 0a 31 00 00 00 00 d9 7d ee 2f
       5.082357e-07 2.0154933e-09 0.0 4.3381368e-10
000030 c1 15 07 35 58 0a 11 31 00 00 00 00 e1 68 f1 2f
       5.0323075e-07 2.1106157e-09 0.0 4.3912166e-10
000040 66 4b 0c 35 9d fc 30 31 00 00 00 00 8b 58 35 30
       5.2263783e-07 2.5754965e-09 0.0 6.5973244e-10
000050 b6 9e 0b 35 d3 a5 25 31 00 00 00 00 a7 76 25 30
       5.201249e-07 2.410492e-09 0.0 6.0195265e-10
000060 6f de 0c 35 eb 7e ed 31 00 00 00 00 ea 9a a5 30
       5.247775e-07 6.9120367e-09 0.0 1.2049359e-09
000070 fb a7 0d 35 38 df ad 31 00 00 00 00 a8 14 97 30
       5.2771037e-07 5.0603397e-09 0.0 1.0992567e-09
000080 e9 fa 08 34 ed a5 ca 34 00 00 00 00 88 d0 98 33
       1.2757268e-07 3.774616e-07 0.0 7.115983e-08
000090 11 c3 aa 33 1f 47 37 34 fb ea fb 33 62 95 fb 33
       7.951724e-08 1.7069077e-07 1.1730841e-07 1.1715271e-07
0000a0 58 48 ca 33 2e 14 a6 34 77 a3 bd 33 37 b3 8f 34
       9.419517e-08 3.0934592e-07 8.8307324e-08 2.6766222e-07
0000b0 b8 1d a7 34 13 75 5a 2f da 98 78 34 5c c3 23 34
       3.1127797e-07 1.9868578e-10 2.3152407e-07 1.525163e-07
0000c0 8b ed d7 32 00 00 00 00 02 08 12 31 a2 8f 34 34
       2.5137316e-08 0.0 2.1250348e-09 1.681606e-07
0000d0 5c 13 9d 30 00 00 00 00 55 93 87 2f 18 5e 39 34
       1.1428756e-09 0.0 2.4661043e-10 1.7263699e-07
0000e0 f6 03 b2 30 00 00 00 00 94 50 96 2f b6 11 38 34
       1.295233e-09 0.0 2.7342095e-10 1.7142779e-07
0000f0 49 0b 9e 30 00 00 00 00 b1 37 94 2f c8 49 3a 34
       1.149922e-09 0.0 2.6960614e-10 1.7349441e-07
000100 67 e2 be 30 00 00 00 00 78 22 ab 2f 92 7b 3d 34
       1.3888667e-09 0.0 3.112921e-10 1.7646951e-07
000110 b3 34 a8 30 00 00 00 00 bf 75 a7 2f be cc 3f 34
       1.2238587e-09 0.0 3.0460787e-10 1.7862746e-07
000120 8e 19 86 31 00 00 00 00 16 1e 13 30 2e 6f 3d 34
       3.9028185e-09 0.0 5.3521043e-10 1.7642444e-07
000130 92 a3 0e 31 00 00 00 00 27 15 0f 30 65 d7 16 33
       2.0756699e-09 0.0 5.2053156e-10 3.5120497e-08
000140 e7 d4 16 34 00 00 00 00 fb 5d 00 33 43 2a 01 33
       1.4047292e-07 0.0 2.9887797e-08 3.007359e-08
000150 fe e4 7f 33 6c d6 2d 33 7c 52 3d 33 80 af 14 33
       5.958008e-08 4.0474717e-08 4.408001e-08 3.461855e-08
000160 10 6c de 33 f0 b6 23 33 8a 1d c8 33 8c dd d9 33
       1.0357337e-07 3.8117776e-08 9.318599e-08 1.0145149e-07
000170 0b cf 55 2e 6e 1a a8 33 36 48 24 35 fe e8 c8 32
       4.8614484e-11 7.827917e-08 6.119984e-07 2.3389017e-08
000180 00 00 00 00 fb 49 11 32 00 d0 17 35 79 c8 f4 31
       0.0 8.456932e-09 5.6554563e-07 7.1241257e-09
000190 00 00 00 00 e1 61 af 30 52 10 1c 35 06 dd 04 32
       0.0 1.2760745e-09 5.813828e-07 7.733666e-09
0001a0 00 00 00 00 9b 62 c8 30 2c e0 1d 35 c3 49 e4 31
       0.0 1.4579941e-09 5.881327e-07 6.644059e-09
0001b0 00 00 00 00 c6 ec b0 30 ae 2f 22 35 d4 aa 09 32
       0.0 1.287298e-09 6.0419086e-07 8.013291e-09
0001c0 00 00 00 00 3b 0c e4 30 89 51 26 35 42 e2 f8 31
       0.0 1.659266e-09 6.195847e-07 7.2434725e-09
0001d0 00 00 00 00 ef 08 d5 30 b0 8b 25 35 fb 99 4d 32
       0.0 1.5500329e-09 6.167056e-07 1.1967582e-08
0001e0 00 00 00 00 68 87 1c 31 d8 47 28 35 1f f9 58 32
       0.0 2.2777957e-09 6.2689423e-07 1.2629498e-08
0001f0 00 00 00 00 63 15 23 31 98 41 08 34 0b 39 06 35
       0.0 2.3731779e-09 1.268985e-07 5.00019e-07
000200 00 00 00 00 86 6c c3 33 31 3f d5 33 05 cb 63 34
       0.0 9.1001354e-08 9.93008e-08 2.121488e-07
000210 1a 21 1c 34 40 25 21 34 b7 7c 12 34 8c 9d c0 34
       1.4540674e-07 1.5007845e-07 1.364268e-07 3.5877417e-07
000220 2c d3 07 34 5b aa b4 34 59 32 c1 34 d8 a6 22 2f
       1.2649679e-07 3.3651563e-07 3.5985684e-07 1.4793089e-10
000230 80 71 a7 34 3c 7d 0a 35 4d d6 09 33 00 00 00 00
       3.1188756e-07 5.1591246e-07 3.2092704e-08 0.0
000240 88 3f d4 31 5c 29 08 35 a2 19 17 31 00 00 00 00
       6.1772347e-09 5.0724134e-07 2.1987963e-09 0.0
000250 96 f4 05 30 32 f3 0a 35 c1 16 24 31 00 00 00 00
       4.8732696e-10 5.17629e-07 2.3878075e-09 0.0
000260 10 e2 14 30 2e 90 08 35 52 a1 22 31 00 00 00 00
       5.416334e-10 5.0873757e-07 2.3665803e-09 0.0
000270 d4 7c 0b 30 a9 04 0e 35 cd da 3f 31 00 00 00 00
       5.0745297e-10 5.2905904e-07 2.7918532e-09 0.0
000280 89 20 4e 30 d2 ed 0c 35 f7 a0 50 31 00 00 00 00
       7.49886e-10 5.250014e-07 3.0359482e-09 0.0
000290 97 e6 4a 30 b8 54 12 35 dd ce e4 31 00 00 00 00
       7.381486e-10 5.451252e-07 6.659191e-09 0.0
0002a0 23 4f be 30 f0 07 0f 35 c3 78 e5 31 00 00 00 00
       1.3846811e-09 5.32832e-07 6.678506e-09 0.0
0002b0 39 4b b1 30 13 49 3e 34 c8 a8 b8 34 00 00 00 00
       1.2899825e-09 1.7721713e-07 3.4395475e-07 0.0
0002c0 4c 24 8f 33 b0 4f b9 33 13 3f 3b 34 ba cd 00 34
       6.665559e-08 8.629229e-08 1.7438678e-07 1.1995772e-07
0002d0 b5 28 06 34 3e 3c c8 33 7b 67 a3 34 09 5b cf 33
       1.2494532e-07 9.324184e-08 3.0436408e-07 9.655748e-08
0002e0 fd c6 93 34 cf 85 a7 34 d5 8f 33 2f da a6 81 34
       2.7525667e-07 3.1203533e-07 1.6331055e-10 2.4149523e-07
0002f0 91 10 0b 35 6b a3 3a 33 00 00 00 00 a0 34 07 32
       5.180564e-07 4.3455127e-08 0.0 7.87e-09
000300 05 3d 00 35 7e c2 da 30 00 00 00 00 99 7a 08 30
       4.777251e-07 1.5916866e-09 0.0 4.9650734e-10
000310 2e 15 08 35 96 ce 08 31 00 00 00 00 1f b7 2c 30
       5.069477e-07 1.9908035e-09 0.0 6.2833466e-10
000320 57 17 0a 35 c1 69 d8 30 00 00 00 00 c9 ec 20 30
       5.144297e-07 1.5746126e-09 0.0 5.8544153e-10
000330 e0 01 11 35 47 37 33 31 00 00 00 00 fc 10 6c 30
       5.401944e-07 2.607935e-09 0.0 8.5880436e-10
000340 42 87 14 35 30 c7 26 31 00 00 00 00 24 80 70 30
       5.533112e-07 2.4269404e-09 0.0 8.749359e-10
000350 f7 cc 14 35 5c b1 11 32 00 00 00 00 5e ef d0 30
       5.543256e-07 8.480438e-09 0.0 1.5202024e-09
000360 20 86 19 35 8a 28 b5 31 00 00 00 00 74 b1 db 30
       5.719212e-07 5.272402e-09 0.0 1.5984782e-09
000370 f8 20 08 34 f3 62 db 34 00 00 00 00 3e d6 ab 33
       1.2677981e-07 4.0863924e-07 0.0 8.0017784e-08
000380 e0 66 aa 33 2e 72 4a 34 84 da 0c 34 da 16 ff 33
       7.934955e-08 1.8854254e-07 1.3118012e-07 1.18785195e-07
000390 03 b9 02 34 09 72 b0 34 10 36 d6 33 c2 a3 b0 34
       1.21745e-07 3.2865526e-07 9.9749855e-08 3.2901704e-07
0003a0 96 61 ae 34 c9 f6 9a 2e 0e 50 9b 34 ed f7 64 34
       3.248103e-07 7.046947e-11 2.8929247e-07 2.132435e-07
0003b0 cf 43 0e 32 00 00 00 00 0e 92 3f 31 3b 46 50 34
       8.280906e-09 0.0 2.787718e-09 1.9397059e-07
0003c0 d2 e9 8c 30 00 00 00 00 25 10 82 2f 61 53 55 34
       1.0252796e-09 0.0 2.3658334e-10 1.9867504e-07
0003d0 38 81 86 30 00 00 00 00 fc 5b 8e 2f 84 91 5c 34
       9.786509e-10 0.0 2.5895008e-10 2.0542035e-07
0003e0 77 ce 89 30 00 00 00 00 dc 73 86 2f bf ba 63 34
       1.0026743e-09 0.0 2.445678e-10 2.120896e-07
0003f0 16 6b 90 30 00 00 00 00 5c a7 ba 2f c2 1b 69 34
       1.0507815e-09 0.0 3.395212e-10 2.1709914e-07

exp_avg f4 [128]
000000 42 b8 4c 39 79 2c bb 38 14 3b 78 b9 ab 13 e7 b7
       0.00019523597 8.9251385e-05 -0.00023673131 -2.7546504e-05
000010 97 6b 48 39 81 f1 10 39 c1 dd 84 b5 0b 58 90 b7
       0.00019113567 0.00013822877 -9.899305e-07 -1.7207136e-05
000020 53 f3 df b7 e1 f6 09 39 7e 49 43 38 de e0 21 38
       -2.6696978e-05 0.00013157308 4.6560068e-05 3.8594815e-05
000030 12 3d af b7 e7 71 5d b8 56 5b 0b 39 88 24 0b b7
       -2.0890064e-05 -5.2796586e-05 0.00013290098 -8.293551e-06
000040 91 eb 83 37 a0 e8 e6 b7 8f e5 ea 37 7b fe 9b b6
       1.5726111e-05 -2.7526461e-05 2.800187e-05 -4.6489854e-06
000050 83 9e 00 b8 eb 5f 20 b7 8c 9c b0 b8 16 86 2a 38
       -3.0665204e-05 -9.559076e-06 -8.421493e-05 4.0656036e-05
000060 81 8b 11 b8 f9 7d 98 37 54 3a 55 39 3c 4e 88 38
       -3.4700617e-05 1.8178473e-05 0.00020334992 6.499558e-05
000070 96 f1 06 b9 de 16 58 b7 f9 9e f4 37 5f b7 39 b9
       -0.00012869234 -1.2879927e-05 2.9161094e-05 -0.00017711286
000080 67 59 c1 38 a1 9e 20 37 97 2b a3 b8 05 a3 f1 b7
       9.21961e-05 9.573677e-06 -7.780565e-05 -2.880535e-05
000090 3b f9 65 39 07 20 1f 37 a2 9d 6e b8 70 bd 1b b8
       0.00021931987 9.4845955e-06 -5.689043e-05 -3.7131307e-05
0000a0 fe 4d c7 38 80 43 60 38 11 60 aa 38 e2 87 31 b9
       9.5035866e-05 5.3468626e-05 8.1241255e-05 -0.00016930656
0000b0 71 88 3e 39 40 1c 9b 38 3c f7 3a b8 d3 15 14 39
       0.0001817064 7.396238e-05 -4.457611e-05 0.0001412251
0000c0 57 53 15 39 9e b6 95 b7 63 89 9f 37 d4 da 7d 38
       0.00014240794 -1.7847222e-05 1.9018253e-05 6.05237e-05
0000d0 11 26 9c 38 b2 ba bb 38 ad e0 f0 b8 36 75 f5 38
       7.44575e-05 8.9516296e-05 -0.00011485941 0.000117043426
0000e0 d4 16 00 39 cb be 91 b9 1e 32 cd b7 33 8a 5a b8
       0.00012215535 -0.00027798707 -2.4461242e-05 -5.210396e-05
0000f0 5b db 39 b9 c8 d1 00 39 ee 54 1e b8 b0 8c 64 37
       -0.00017724691 0.00012285181 -3.7749232e-05 1.3622615e-05
000100 e0 80 97 b9 04 ba 0c 39 2e e7 e9 b8 c4 60 a2 b6
       -0.00028896984 0.00013420737 -0.00011153366 -4.8392412e-06
000110 4e 72 2c 39 25 67 be b8 61 4a 1f 39 18 d1 16 38
       0.0001644578 -9.079118e-05 0.0001519113 3.595752e-05
000120 89 70 8a 37 14 90 a9 b7 ba 75 5e 39 ee be 19 b8
       1.6503285e-05 -2.0213462e-05 0.00021215426 -3.665586e-05
000130 9b 2c 09 b9 5c e8 a5 b8 07 36 b5 38 34 0a 80 b9
       -0.00013081955 -7.9110934e-05 8.640816e-05 -0.00024421664
000140 38 ab fe 35 53 c1 ac 36 8b 97 6d b9 db 1b ad b8
       1.8974306e-06 5.1485054e-06 -0.00022658535 -8.254471e-05
000150 71 94 6d 37 89 de 10 39 38 61 c6 b8 33 5a 6e b8
       1.41608625e-05 0.00013815811 -9.459484e-05 -5.6827626e-05
000160 34 95 9b 38 78 c4 19 39 50 04 d5 b8 8d 8f ff 36
       7.418767e-05 0.00014664407 -0.00010157435 7.6163037e-06
000170 f4 da a3 38 5d 9f a1 b6 45 b1 8e b9 16 33 32 b7
       7.813229e-05 -4.8167262e-06 -0.00027216427 -1.0621521e-05
000180 2a b1 49 39 9e 71 ac 36 68 3c b0 b7 11 7b 8a 39
       0.00019234853 5.1392262e-06 -2.1008964e-05 0.00026413103
000190 f5 7d b4 b8 fd 97 d1 b8 b7 40 ef b8 22 c2 b1 b7
       -8.60653e-05 -9.9942066e-05 -0.00011408462 -2.1190444e-05
0001a0 86 2e d7 38 09 8f 36 b8 86 53 a7 b7 29 05 53 b7
       0.000102606646 -4.3525393e-05 -1.9946845e-05 -1.25777815e-05
0001b0 38 6f 29 38 81 65 1a b9 3b bc bd 38 46 ee 54 b8
       4.039632e-05 -0.00014724398 9.047283e-05 -5.076665e-05
0001c0 23 97 ff b7 cd 17 80 b4 e7 8a 68 39 a6 a1 28 39
       -3.0468747e-05 -2.3859175e-07 0.0002217699 0.00016081947
0001d0 77 b4 24 39 38 98 af 36 94 3b 87 38 45 bb 6e 36
       0.00015707487 5.233127e-06 6.448399e-05 3.5573769e-06
0001e0 a7 86 0a 39 ab b5 37 b9 3f 02 0d 38 dd 64 15 b8
       0.00013210867 -0.00017519917 3.361911e-05 -3.5618305e-05
0001f0 d5 b4 3b b9 28 df 00 b7 12 f7 81 b9 53 7e 4e b7
       -0.00017901075 -7.681352e-06 -0.0002478888 -1.2307969e-05
