config/results/AgrConserv_Refactored_2M_Almost-Final_v4/Hummingbird_Aggressive/Hummingbird_Aggressive-1743168.onnx (onnx, 97764 bytes, 7 tensors)

network_body._body_endoder.seq_layers.0.weight f4 [128, 47]
000000 9a 56 0b bd 64 41 1d bd 29 91 ce 3e 10 7c 17 be
       -0.034018137 -0.03839244 0.40345123 -0.1479342
000010 f2 e1 f0 3d 36 f6 96 bc 8e 23 79 be f0 57 4f 3e
       0.11761846 -0.01842795 -0.2432997 0.20248389
000020 38 26 82 3e 65 3e bf bc a8 e8 70 3e 29 53 34 3d
       0.25419784 -0.023345182 0.23526251 0.04402462
000030 1d 97 de 3d 8b 3f 0f bc 7a a3 4e be 31 af 89 be
       0.10868666 -0.008743177 -0.20179549 -0.26891473
000040 30 0a 36 3e e0 50 cd ba cb 67 15 bd 5a 78 57 3e
       0.17777324 -0.0015664361 -0.036475938 0.21042004
000050 62 f3 dc 3d 6c 5a 3d be 01 0c 26 be 74 d6 38 bd
       0.10788609 -0.18491524 -0.16215517 -0.045126393
000060 49 6d 6f bb 37 fc f5 3c 8f 5f e0 3d f6 c0 06 3e
       -0.0036533645 0.030027492 0.10955726 0.13159546
000070 d4 82 56 3d 3f 73 42 be 2a 56 1f 3d 7e 91 af 3d
       0.05237086 -0.18989275 0.03890053 0.08572672
000080 dc 77 22 3e 77 fb b9 3d 1c d3 a3 bc ac 95 1f 3e
       0.15866035 0.09081166 -0.019998126 0.15584439
000090 99 77 02 3e f8 60 4f 3d 31 74 29 3d dc 84 62 be
       0.12740935 0.050629586 0.041370574 -0.22120994
0000a0 0e 1f 1d 3c 65 3c fb 3d c9 56 dc 3e 3b a3 3e be
       0.009589924 0.12267379 0.43034962 -0.18616955
0000b0 ba 79 32 bd 44 34 be bd 64 dc b5 3e 3e 08 7d be
       -0.04357312 -0.092873126 0.35519707 -0.24710175
0000c0 80 34 28 3d 6d f9 0a be bb 80 ab be 42 bd 05 3e
       0.041065693 -0.13571711 -0.3349665 0.13060477
0000d0 cd 17 3c bd 27 58 89 bd 1a 73 c6 3e ac 2d 21 be
       -0.045921136 -0.06706267 0.3875969 -0.15740079
0000e0 a6 fb 0f 3e 4c df 80 bc 0b 37 ce bb 96 51 13 3e
       0.1406084 -0.015731476 -0.0062931827 0.14386591
0000f0 84 9b 15 3e 51 3e 81 3d e4 3e cb 3d de 74 43 b6
       0.14610106 0.06310714 0.09924105 -2.912529e-06
000100 a3 c6 48 3b ad b7 af be af 9b 2e be 57 52 c7 3e
       0.0030635975 -0.3431982 -0.17051576 0.38930008
000110 60 35 bf 3d c3 f5 20 be 69 e2 71 bd e8 d7 d5 bd
       0.09336352 -0.1571875 -0.059053812 -0.104415715
000120 55 33 41 3d b3 9a 3c 3e 16 bb b8 3d 53 df c8 3d
       0.047168095 0.18418388 0.09020059 0.09808221
000130 4f 92 46 be 6d 95 09 3e 73 9f b2 3d 35 1f b2 bd
       -0.1939175 0.13435908 0.08721819 -0.086973585
000140 d2 1b 05 3d f6 eb 0b 3d e2 57 a3 3d 15 1d 18 be
       0.032497235 0.034160577 0.07975747 -0.14854844
000150 4d 72 e1 bd b6 70 4a be e3 41 d7 3d 58 61 41 3e
       -0.11008129 -0.19769558 0.10510614 0.1888479
000160 a4 e6 14 3e a7 7a 9c 3e f1 2b 37 be 1f bd 81 be
       0.14541107 0.30562326 -0.17887856 -0.253396
000170 d0 13 bf 3d 28 61 c0 bd 87 93 a1 3e c5 01 8d bd
       0.09329951 -0.09393531 0.31557867 -0.06885103
000180 53 1a b1 bd 67 37 5b bc 62 cc 03 3d be d1 65 3e
       -0.08647599 -0.013379908 0.032177337 0.22443292
000190 72 65 e0 bd 51 e3 0f be 71 60 df bd 5d f0 48 3e
       -0.10956849 -0.14051558 -0.109070666 0.19622941
0001a0 c0 fe 36 3e d3 91 b1 3c 8b fd 40 3d 19 bf 16 3d
       0.17870617 0.02167598 0.047116797 0.03680334
0001b0 41 23 7f 3e 4c 28 1a 3e 64 ef 68 be 9f bd e1 3d
       0.24915792 0.15054435 -0.2274757 0.110224955
0001c0 06 88 4f 3d 74 f4 6d be bf 68 c7 bd e9 07 39 be
       0.05066683 -0.23237783 -0.097367756 -0.18069424
0001d0 05 69 5a 3d 40 d4 44 be 7c e3 fb 3d 43 71 8e 3d
       0.05332281 -0.19221592 0.122992486 0.06955197
0001e0 94 41 44 bd ae 4d cc 3d f8 62 b6 3d 16 f9 f1 3d
       -0.047914103 0.09975754 0.089055955 0.118150875
0001f0 85 40 e0 3d 9e c9 89 3b 66 67 83 bd 15 ab 2d 3e
       0.10949806 0.004204943 -0.06416206 0.16959794
000200 81 27 1a be 3f 78 3b 3e 17 5e c1 3d a8 24 0a 3e
       -0.15054132 0.18307589 0.09441774 0.13490546
000210 a0 31 b6 bc d6 c3 47 3e 55 68 7d 3e 2f 1e a8 3c
       -0.02224046 0.19508299 0.24746831 0.020522205
000220 b3 22 d9 be 2d bc a2 bd 65 f1 45 be 8d d1 94 3e
       -0.42409286 -0.07946048 -0.19330366 0.29066125
000230 f4 da 0b 3c 54 8e 2d 3e 03 d4 27 bd 50 78 c6 3d
       0.008536089 0.16948825 -0.040973675 0.096909165
000240 67 48 a2 be 25 64 a6 3e bb 48 00 be 07 40 dc bc
       -0.31695864 0.3249828 -0.12527744 -0.026886
000250 4c e2 1b 3e 7e c1 51 3d ba 9f 6a bd 48 c5 e4 bd
       0.15223044 0.05120992 -0.057281233 -0.11170441
000260 5c 89 52 3d ca 3a 07 3e a9 a9 43 3e 5b dd 52 3d
       0.051400527 0.1320602 0.19107689 0.051480632
000270 5e 05 0c be 7b 10 43 3e 0e 02 fd 3d 36 25 b4 3d
       -0.13673922 0.19049256 0.123539075 0.0879616
000280 be 51 34 bd 42 12 aa bd ef e3 f3 bc 47 4f 12 3d
       -0.044023268 -0.08304264 -0.029771773 0.035720136
000290 ce 40 f7 3b 87 19 fe 3d 49 b4 11 3e cb 04 b5 3d
       0.007545567 0.12407213 0.1422893 0.08838805
0002a0 75 13 2e 3e aa 7c a2 3d 1d dc 71 3b 30 79 7a 3d
       0.1699961 0.07933934 0.003690488 0.06115073
0002b0 2a 35 29 3e 75 d2 8a 3e 02 28 2d bd 0b 52 10 be
       0.16524187 0.2711369 -0.042274483 -0.14093797
0002c0 50 87 85 3d d1 1d 5c be 02 03 8e 3d a4 e4 1f 3c
       0.065199494 -0.21495749 0.069341674 0.009759102
0002d0 f3 fd 85 3d 84 aa e9 3e 52 80 19 3e ad 8e 9a 3e
       0.065425776 0.45637906 0.14990357 0.30186978
0002e0 5c 9b a3 3d e6 77 3c be 11 d7 69 3e cd 86 aa bd
       0.07988617 -0.18405113 0.22835948 -0.083264925
0002f0 b2 c2 fd 3d 76 e4 f4 3d 6f 78 97 3d e2 da 09 3e
       0.12390651 0.11957638 0.07396018 0.13462403
000300 3d d5 a0 bc b8 3d 3f be 57 49 8f bd da ce 94 3c
       -0.01963293 -0.18675888 -0.0699641 0.01816504
000310 f5 d6 16 be b4 e7 15 3d 74 18 27 3e 8c 72 c2 bc
       -0.14730437 0.036597922 0.16317922 -0.02373626
000320 58 9b 7b 3d 05 7a ff bd 02 a5 53 bd 97 26 35 bd
       0.061427444 -0.12474445 -0.051671036 -0.044226255
000330 41 47 21 be 49 e4 0a 3c 3c 09 2b 3d 4d 3f a6 3d
       -0.15749837 0.008477279 0.041756853 0.081175424
000340 ce 16 62 3d 67 bb 92 3d db 0d 4a 3e fe e5 e9 3d
       0.05519753 0.071646504 0.19731848 0.11420821
000350 47 96 0a 3e 5d ec 0e 3e fc 90 a3 be 89 d8 21 be
       0.13533889 0.13957353 -0.31946552 -0.15805258
000360 48 b6 38 3e d8 a0 41 bb c5 1c f2 3d 04 c3 63 3e
       0.18038285 -0.0029545333 0.118218936 0.22242361
000370 39 20 ac 3d d9 16 99 bd c5 14 17 3d bf 55 83 3e
       0.084045835 -0.07475061 0.03688504 0.25651357
000380 fc 8a 13 3e 53 79 90 bd 27 18 9c bd e7 fa 7b be
       0.14408487 -0.07054391 -0.07621794 -0.2460743
000390 16 50 3e be 91 6b cc bd d1 1b f3 3e ea a8 83 3e
       -0.18585238 -0.09981454 0.4748216 0.2571481
0003a0 c9 08 eb bd 23 2a fa 3d 4d a9 3c be d4 32 b7 3d
       -0.11476285 0.12215068 -0.18423958 0.089452416
0003b0 d5 b4 a2 be 99 8d b2 bd 48 41 88 bd a9 2a da 3b
       -0.3177859 -0.08718414 -0.066530764 0.0066579175
0003c0 42 04 64 3e 71 ff 94 bd 43 be b5 bd 3a 8f 66 bd
       0.22267249 -0.07275284 -0.0887418 -0.056288935
0003d0 e8 b6 02 be a7 38 43 be de 43 a5 be b2 d2 16 3e
       -0.12765086 -0.1906458 -0.3227834 0.14728811
0003e0 ab 32 8a 3d da 0d 5b 3d bf 62 65 3c 9b d8 13 3e
       0.067479454 0.053480007 0.014000594 0.14438097
0003f0 01 f4 0f be 84 d3 cc bc 2f 9f 7f 3e 05 90 04 3d
       -0.14057924 -0.025003202 0.24963067 0.03236391

network_body._body_endoder.seq_layers.0.bias f4 [128]
000000 89 51 a8 3c 44 21 5f 3c 64 01 81 3d 90 2b 03 3d
       0.020546691 0.013618771 0.06299093 0.032023966
000010 d6 a6 ba 3c 27 31 38 3d 10 fc 5c 3c 4d ae a2 bc
       0.022784632 0.04496875 0.013487831 -0.019858504
000020 e5 27 1a 3d e3 62 76 3c c5 02 e0 3c 09 8b b9 bc
       0.037635703 0.015038225 0.02734507 -0.022649305
000030 92 f1 16 bc 75 2d 8c 3d d7 71 4c bc 7d 4f 46 bd
       -0.009212868 0.06844608 -0.012478313 -0.04841565
000040 b5 91 93 3c c7 cf 74 3b 99 97 08 3d ad 91 c8 3c
       0.018013814 0.003735529 0.0333477 0.024483526
000050 67 e9 2f bc 4f ed 0a 3d 90 b6 30 3a d5 f9 a2 3c
       -0.0107368 0.03391772 0.0006741071 0.01989452
000060 9a 35 b6 3b 46 62 64 3c 9d 4f 01 3d c3 db 93 3c
       0.005560589 0.013939446 0.031570066 0.018049126
000070 c8 ea 63 3d df a5 ff bc da d3 cb 3c d3 cd 28 3c
       0.055643827 -0.031207023 0.024881292 0.010302979
000080 36 ec ba 3c 1f e7 ac 3b 8e ab 10 bc c1 7e 2b 3c
       0.022817712 0.005276575 -0.008829964 0.010467232
000090 cd 21 cb 3b 46 bc a7 bc 6e 27 f8 3b 02 d3 6c bc
       0.0061990977 -0.020475518 0.0075730598 -0.014454605
0000a0 c0 fe bd 3b e7 7e db 3c e4 d4 18 3d 43 35 42 3d
       0.005798191 0.02679391 0.037312403 0.047414076
0000b0 f1 bb 63 3d 95 55 04 3c 40 d5 a3 3c 6b 96 11 3d
       0.055599157 0.008077045 0.019999146 0.03554384
0000c0 59 d8 1a 3d eb 94 db 3c c5 09 21 3d e9 5a 90 3d
       0.03780398 0.026804408 0.039315958 0.0704859
0000d0 28 7c 9b 3b aa 70 21 3d 0e 45 c9 3c 16 07 e3 3c
       0.004745025 0.039414085 0.02456906 0.02771334
0000e0 ac 95 a0 3c c3 ae 37 3d ce ca 29 bc 01 92 66 3d
       0.01960262 0.0448444 -0.010363294 0.056291584
0000f0 99 ae b6 3c b7 00 5d 3d b0 07 50 3d a8 97 d6 bc
       0.022300052 0.05395576 0.05078858 -0.026195362
000100 42 69 61 3d e0 0c 39 bb e7 a9 77 3c 8d 0f a9 3c
       0.055032022 -0.0028236434 0.0151161915 0.020637298
000110 5f 39 bf 3a a4 a4 b7 3c 9a b9 4a 3d 62 4c 39 3d
       0.0014589241 0.022417374 0.04949341 0.04523886
000120 ab b6 90 3d 16 b6 22 3d 4f 22 67 3d 81 93 d8 bc
       0.07066091 0.039724432 0.056429204 -0.026437523
000130 78 f1 4e 3d 6f 99 d9 3c cf 15 03 3d 97 9f 5e 3d
       0.05052325 0.02656242 0.03200322 0.054351415
000140 45 2e d6 bc ca fd 4f 3d 66 1f 78 3c 7e 9f c1 3c
       -0.02614511 0.05077914 0.015144205 0.023635622
000150 6f c9 96 3c 67 a3 e1 3c 9b 1e 1b 3c 9e fb dd 3c
       0.018406598 0.027543737 0.009467746 0.02709752
000160 b1 5c 34 3c b6 56 15 3c 01 25 14 3c f5 d0 43 bc
       0.0110084275 0.009114912 0.009042026 -0.011951675
000170 9a 9a 87 bc 20 7e 9e 3c 81 25 68 3d fc 0c 67 bd
       -0.016553212 0.01934725 0.05667639 -0.056408867
000180 0b db c7 3b 30 54 87 ba 14 e4 2f 3d 11 50 32 3d
       0.00609911 -0.0010324772 0.04294212 0.04353339
000190 ca 1e c3 3c 0d bb 55 3c d0 de a7 3c 66 54 9a bb
       0.023818392 0.013045085 0.020491987 -0.004709768
0001a0 8b 7c f2 3c f9 54 f1 3b a1 4b f3 3c ca e0 bf 3c
       0.029600402 0.007364866 0.029699149 0.023422617
0001b0 f5 33 94 3c e8 7d 82 3b 30 7d 1d 3d 62 10 d2 3c
       0.018091181 0.0039822944 0.038449466 0.025642578
0001c0 87 65 35 3c 0d 60 fd bc 18 af 92 3c 3d bb 35 3d
       0.011071569 -0.03092959 0.017905757 0.044368017
0001d0 07 06 17 3d 57 ba 36 bc a4 ef 48 3d 96 5d 09 bd
       0.036870982 -0.011152825 0.049056664 -0.033536516
0001e0 12 e1 c3 3c 99 2d ba bc a9 6d 5b 3c 2e f7 24 3b
       0.023911033 -0.02272682 0.013392844 0.0025171745
0001f0 da e7 2f 3d d5 4e 68 bc 5c da fd 3c b1 bd 93 bb
       0.04294572 -0.014178951 0.03098791 -0.004508697

network_body._body_endoder.seq_layers.2.weight f4 [128, 128]
000000 c1 98 10 be 4f d2 a4 bd e3 d0 23 3e 38 48 c2 bd
       -0.14120771 -0.08047926 0.15997653 -0.09486431
000010 34 9d 22 bd 8a 5c b9 bc e8 57 c4 bd 42 e6 21 bb
       -0.0397007 -0.022627134 -0.09587079 -0.0024703895
000020 a6 28 89 bc 4f e9 38 3d 73 d9 89 bc 8d 97 16 be
       -0.016743015 0.045144375 -0.01682732 -0.1470625
000030 b7 bf 79 3d 9b fe 30 3e 60 07 6b 3d ac df b1 bd
       0.06097385 0.17284624 0.05738008 -0.0868524
000040 e5 74 77 3d 91 70 06 be 4b c9 10 3e 71 e5 b4 bc
       0.060414214 -0.13128878 0.14139287 -0.022082062
000050 1a 1c 93 3e 20 61 41 bc a2 97 d9 3c 01 57 74 bd
       0.28732377 -0.011802942 0.026561562 -0.059653286
000060 0e 12 ba 3d 5c 4e 1d be 74 a8 5f 3d 98 9d 7f 3d
       0.09085475 -0.15361923 0.05460401 0.062406152
000070 60 55 29 be f1 ad c6 3d 78 ef db 3d 64 d2 96 3d
       -0.16536474 0.097011454 0.107390344 0.073643476
000080 9c 20 bb 3d 7c 4c eb 3d 0f 47 32 bd cf 10 27 3d
       0.09137079 0.114891976 -0.043524798 0.040787514
000090 fb 8b 49 3e 1f d0 5d bd 28 92 1d be 26 4a e0 3d
       0.19682305 -0.054153558 -0.15387785 0.10951643
0000a0 3c 86 62 bd 68 23 50 bd 63 26 53 bd bc f4 cd bd
       -0.055303797 -0.050815016 -0.05155028 -0.10056445
0000b0 15 24 80 bd 8d b4 2f be f3 13 5d 3d a4 90 7b 3d
       -0.06256882 -0.17158718 0.053974103 0.061417237
0000c0 88 f9 23 be c3 49 fc bd dd 93 cd bd ea 58 12 3e
       -0.16013157 -0.123187564 -0.10037968 0.1429173
0000d0 25 42 2b 3e bd 11 1e be 3b 46 a8 3d 5d 83 92 3d
       0.16724451 -0.15436454 0.082165204 0.07153962
0000e0 05 f3 c8 3c 68 8f 14 3e c7 3f 6c 3d 75 ae 16 bd
       0.024529943 0.1450783 0.05767801 -0.03678747
0000f0 fe 43 43 be e6 dc fd bd b4 3c 1a 3e 9b 7b 0b 3d
       -0.19068906 -0.12395649 0.15062219 0.034053426
000100 92 ac 3b bd 1f c2 b7 3c 02 f3 58 be e9 47 ad bd
       -0.045818873 0.022431431 -0.2118645 -0.084609814
000110 07 58 32 3c 4d 5b 91 39 ee 09 92 bc 0c 44 59 be
       0.010885245 0.0002772458 -0.017827 -0.21217364
000120 f7 e4 a2 bb 01 23 26 be 2f 0c 21 bd 8e 14 af bc
       -0.0049711424 -0.1622429 -0.03931826 -0.021372106
000130 43 6a e4 bd 11 43 87 bc fd ce 44 be 19 ee 64 bd
       -0.1115308 -0.016511472 -0.19219585 -0.05589113
000140 37 0f 36 3d 22 5e c0 bd f9 c2 41 3d f2 39 d9 3d
       0.044448104 -0.093929544 0.04730508 0.10606755
000150 bc b4 31 3e b1 5c d7 bd 78 39 4d bd 59 b4 5b 3e
       0.17354101 -0.10515726 -0.050103635 0.21455516
000160 bc 85 0e 3e 83 e9 a9 3d 6a 87 11 bd b1 f4 97 3d
       0.13918203 0.08296492 -0.03552953 0.07419718
000170 27 61 64 bd 99 71 c0 bd 18 5b a9 bc 1a cd 58 bb
       -0.055756714 -0.09396667 -0.02067332 -0.0033081234
000180 c4 12 17 3e 3a 56 5e 3d 87 8b 1c be 2f b3 c0 3c
       0.14753252 0.05428145 -0.152876 0.023522941
000190 57 ed 1c 3e 48 5c d9 bc 4e f1 05 3d 79 a7 32 3e
       0.15324913 -0.026533261 0.03270083 0.17446698
0001a0 84 57 ab 3d e6 06 89 bd 81 de 9f 3b b4 5d a8 3d
       0.08366302 -0.06690769 0.0048788195 0.082209975
0001b0 b8 72 77 bd fc 10 9e bd 70 14 a5 bd 51 63 b7 3d
       -0.06041214 -0.07718083 -0.08060539 0.0895449
0001c0 01 31 00 bc 9e e2 37 be 12 40 2e 3d e9 4b 2d 3e
       -0.007824183 -0.17957541 0.04254157 0.16923489
0001d0 e8 c7 b0 bd 4d cd 00 be 1b f1 2f 3e c9 96 1c 3e
       -0.08631879 -0.12578316 0.17181818 0.15291895
0001e0 98 a8 06 ba bb 7e eb bd b7 80 8b bd bc 12 fb 3d
       -0.0005136817 -0.11498781 -0.0681166 0.12259433
0001f0 a2 1c 57 3e 65 d6 7e bd 83 0a 22 bd 5d 71 57 3d
       0.21007016 -0.06221618 -0.039560806 0.052598346
000200 0c 84 76 3e 52 fc e3 3d 8a 5a 91 bd a4 46 37 3e
       0.2407381 0.11132111 -0.07097347 0.17898041
000210 d8 f6 57 bd 6e 47 87 3c 39 1f d1 b9 51 df 46 3c
       -0.052725643 0.016513553 -0.0003988685 0.012138204
000220 e7 b3 4d 3d e9 ea c2 bc ac ba 2f bd 44 0b 1a be
       0.050220396 -0.023793655 -0.042902634 -0.1504336
000230 21 2e 16 3c 4a 19 f8 bc 16 61 aa 3d 68 34 96 bd
       0.009166271 -0.030285496 0.08319299 -0.073342144
000240 15 e3 ef 3c 13 5f b1 3c 05 fc 71 be 14 4c 8a bc
       0.029283086 0.02165178 -0.23631294 -0.01688198
000250 97 29 1a bd e4 aa c0 bc a2 00 e2 bd 17 99 18 3c
       -0.03763732 -0.023518987 -0.11035277 0.009313843
000260 37 00 b4 bc 5a 31 99 3a 7a 31 55 bd 1e e3 14 bc
       -0.021972759 0.0011687682 -0.052049138 -0.009087352
000270 c6 79 c0 3c 89 75 b5 bc f7 e0 90 3d 35 6e b6 3b
       0.023495566 -0.022150772 0.07074159 0.005567337
000280 9e de 44 3d 2b e8 5d bd 8d 62 c2 3d 63 e1 97 bc
       0.048063867 -0.05417649 0.09491453 -0.01854009
000290 58 c8 12 3e 0a c6 28 be 29 41 1b be 45 78 e2 bd
       0.14334238 -0.16481796 -0.15161575 -0.11058096
0002a0 c5 fc a7 3d e2 e8 07 bd 43 2b 49 bd 8a f9 9f bd
       0.08202509 -0.03318108 -0.049113523 -0.07811268
0002b0 da 12 3f be 51 47 8e 3d 8b 15 6c 3c c6 d3 9d 3c
       -0.18659535 0.06947196 0.014409433 0.01926602
0002c0 db ea 46 3e 2b 49 08 3e 7c 5b da 3c f1 b8 92 bd
       0.19425528 0.13309161 0.026654951 -0.07164181
0002d0 e4 d1 c7 ba 79 44 ad 3c 10 51 a2 bd 12 5f f4 3b
       -0.0015245047 0.021150814 -0.07925618 0.0074576223
0002e0 c5 2a 18 ba 8c 48 83 bd 9e 22 24 bd a8 f2 9c bd
       -0.0005804713 -0.064103216 -0.040072076 -0.076634705
0002f0 f8 3d 07 bd 4b 5b 4c bc f9 0c 2b be 8e 6f 5f 3d
       -0.033018082 -0.012472938 -0.16704167 0.054549746
000300 26 f7 b8 bd 73 ea 16 3e 21 3a 58 bc fa 45 87 bc
       -0.09031515 0.14737873 -0.013197453 -0.01651286
000310 c8 4a 1d bc 32 bb 38 3e ab f9 28 3e d3 19 34 bd
       -0.009600349 0.1804016 0.16501491 -0.04396994
000320 83 32 03 3e b8 a6 47 bd 5a c5 c3 bc 9a 9a a1 bd
       0.12812237 -0.04874298 -0.023897815 -0.07890816
000330 fa a1 21 bd a0 66 4d bb ca e2 07 3e 6d 74 eb bd
       -0.039461114 -0.0031341687 0.13270107 -0.11496816
000340 93 80 bc bd 4e 05 c0 3c 70 ea cc 3d b7 e4 cc bd
       -0.09204211 0.02344003 0.10005653 -0.100045614
000350 d8 c0 8f be 55 67 0c 3e 91 68 ac bc 73 d5 1e 3d
       -0.28076816 0.13711293 -0.021045955 0.03877778
000360 e0 73 c7 3d 11 cd c0 bb 6c 64 91 3d af 9c f3 bc
       0.09738898 -0.005883821 0.07099232 -0.029737798
000370 7b 10 48 3b c5 42 df 3d c6 f7 8b 3c 95 e8 20 be
       0.0030527401 0.10901407 0.017085921 -0.15713723
000380 ef a9 d6 bd 27 e7 68 bc dd 70 9e bc 24 3c 98 3b
       -0.10481631 -0.014215267 -0.019340927 0.004645841
000390 8f 77 ea bd a3 c3 47 3d 12 f3 de bc 30 95 fc 3b
       -0.11448585 0.048770558 -0.027215514 0.007708214
0003a0 98 cc 84 3d e4 0b 53 ba 20 1d 5e 3e 1e 40 9a 3c
       0.06484336 -0.0008050783 0.21690798 0.018829402
0003b0 dc 97 9d 3d 1e 10 2e bd 4d 77 f6 3d 5c e4 39 bd
       0.076949805 -0.04249584 0.120344736 -0.045383796
0003c0 9d 01 2a 3d 59 19 b2 3c 31 73 db 3d d1 c7 13 3d
       0.041505445 0.021740602 0.107153304 0.03607923
0003d0 7e 91 0a 3e 53 8c 16 3e fa 22 df 3d b8 97 37 3c
       0.13532063 0.14701967 0.10895343 0.011205606
0003e0 a3 ee 49 3d dd de 61 bd 1d 48 d7 3d b9 06 b8 3d
       0.049299847 -0.05514418 0.105118014 0.08985657
0003f0 7c 52 a9 3d f4 71 c3 bd 7a 80 91 bd 00 0f de 3b
       0.08267686 -0.09543219 -0.07104583 0.0067766905

network_body._body_endoder.seq_layers.2.bias f4 [128]
000000 5b 96 6f 3c f9 2d dc 3c 44 88 da 3c 21 55 2b 3d
       0.01462325 0.02687739 0.026676305 0.041829232
000010 3b a8 48 bc 23 f1 ef 3c 05 c0 25 3c 72 c4 db 3c
       -0.0122471405 0.029289788 0.010116582 0.02682707
000020 35 3c fa 3c b2 5f 68 3c 6b ea 32 3c 58 8b 77 3c
       0.030546287 0.014182972 0.010920147 0.015108906
000030 d9 6c 1e bc 8f 5b 43 3d a8 e7 45 3b 43 fd 8f 3b
       -0.009669506 0.04769474 0.0030197892 0.004394205
000040 c7 86 c2 39 81 9a 27 3d a4 d6 59 bc 64 b5 a6 ba
       0.0003710298 0.04091883 -0.013295803 -0.0012718854
000050 8c 2b d9 3c ae c3 fc 3c ea 50 a3 3b a2 a6 c4 3c
       0.026510023 0.030855026 0.004984011 0.024005238
000060 18 b2 2f 3c af 3a e7 3b 13 28 2c 3d b4 20 08 3d
       0.010723613 0.007056556 0.042030405 0.033234313
000070 d9 30 20 3d 75 17 65 bc 17 58 96 3c 99 cd 7b 3d
       0.039109085 -0.013982643 0.018352551 0.06147537
000080 3a 60 90 3c 66 7b f6 3b 0d 01 32 3c de 62 16 3d
       0.01762401 0.0075220345 0.010864508 0.03671538
000090 1e 0c 1f 3d 6b ee 05 3d 8c bc 11 3d 44 b4 18 3c
       0.038829915 0.032698076 0.035580203 0.009320322
0000a0 5c d7 bf 3c 0a 94 b4 3c 71 ba 9a 3c d1 74 54 3c
       0.023418121 0.022043247 0.01888773 0.012967304
0000b0 1c e2 98 bc 9b 5b a1 3c 04 11 1f 3d 87 93 bd 3c
       -0.018662505 0.019697001 0.038834587 0.023141636
0000c0 16 fc 1d bc 62 98 6e 3d 2f 9d 9e 3c c3 c3 ae bc
       -0.0096426215 0.058250792 0.01936206 -0.02133358
0000d0 ec 0e 7e 3c b9 8a 60 bb 8e 95 cd 3c 46 a1 14 3d
       0.015506487 -0.0034262373 0.025095727 0.036286615
0000e0 0b 6c cb 3c 7b 2f 69 ba 00 e0 75 bc f5 bc d0 3c
       0.024831792 -0.000889532 -0.015007019 0.025480727
0000f0 d3 df 58 3c 0a 3c 4a 3d de c2 f9 3c 65 2e c3 3c
       0.013236958 0.049373664 0.030488428 0.023825834
000100 8c c2 d5 3c ba 27 e4 3c 5b 9c 96 3c f8 5e 4f 3c
       0.026093744 0.027850974 0.018385103 0.01265692
000110 c9 fd e6 3c 3e e0 19 3d 82 30 43 3c c5 31 cc ba
       0.028197186 0.03756737 0.011913421 -0.0015578797
000120 93 d1 08 3d 64 f7 38 3c ad 6d 00 3d a1 15 82 3c
       0.03340299 0.011289451 0.031354595 0.015879454
000130 7d 28 76 3c c8 f7 20 3d 15 03 d5 3c 7f 27 6a bc
       0.015024302 0.039298803 0.026002446 -0.014291643
000140 51 39 8b 3c 7e eb f6 3c 09 86 0b 3d 2c fd 73 3c
       0.016995104 0.030141588 0.034063373 0.014891904
000150 ba a6 ae 3c 74 8c 84 3c b3 7a 2e 3c de 40 0e 3d
       0.021319736 0.016180255 0.010649371 0.03472983
000160 57 a4 41 39 8b 0b 11 3d 17 af 60 bb e1 bb 87 3c
       0.00018467136 0.0354114 -0.003428405 0.01656908
000170 86 05 f4 3c dc 2d 77 3c e9 f3 3c 3d a9 a8 53 bc
       0.02978779 0.015086617 0.04613105 -0.01291863
000180 49 12 2f 3c be 44 a7 3c 63 82 df 3b 33 73 87 3c
       0.010685512 0.020418521 0.006820963 0.016534423
000190 4d 3c f8 3c 90 04 f5 3c d9 43 17 3d 43 ee 4b 3d
       0.030302191 0.029909402 0.03692994 0.04978777
0001a0 b6 10 db 3c 4b 04 f8 3c 01 70 9b 3c fe 4e f4 3b
       0.026741367 0.030275485 0.018974306 0.0074557057
0001b0 7d 2d 06 3c 98 b1 13 3d 0d 6a 86 3c 0e c0 17 3d
       0.008189556 0.03605804 0.01640799 0.037048392
0001c0 69 10 4e 3c d7 fe f1 3c 9e 5e 3f 3d 91 c8 20 3c
       0.012577155 0.029540462 0.046721093 0.009813444
0001d0 77 38 42 3d bb 08 f1 3c 2b 66 07 3d c6 d4 d0 3c
       0.04741713 0.029423108 0.03305642 0.025492083
0001e0 4d e9 f5 3a 9b b4 b0 bc e8 f6 a0 3c b2 e7 8a 3c
       0.0018761546 -0.021570494 0.019648984 0.016956184
0001f0 2f 78 d3 3c 41 1a f7 3a eb 5b c6 3c 5a 2c 17 3d
       0.025814144 0.0018852429 0.024213752 0.03690753

action_model._continuous_distribution.log_sigma f4 [1, 5]
000000 c5 20 6b bd ad 62 fe bc 2e 3b bd bd 17 39 97 3c
       -0.0574043 -0.031052912 -0.09239803 0.01845984
000010 f4 ff 51 3d
       0.051269487

action_model._continuous_distribution.mu.weight f4 [5, 128]
000000 01 5f 6f bc 80 22 39 3d 6a 01 aa 3c 59 6f f0 bd
       -0.014610053 0.045198917 0.020752627 -0.11739988
000010 d0 b0 1d bd af f7 cf 3b 29 85 dd bb 4e 03 a8 3d
       -0.0384987 0.006346665 -0.0067602587 0.08203755
000020 03 3b 9f bc cb bc a7 3c e5 b5 95 bd ec 6e c8 3d
       -0.019437319 0.020475766 -0.07310084 0.09786782
000030 a0 ef 96 3c c6 a4 d5 3c c8 5a aa bc 0c fd 6f 3d
       0.018424809 0.026079547 -0.020795241 0.058590934
000040 ec a9 bf 3d 27 3c b5 3c 90 e6 cc 39 b5 fd 4c 3c
       0.09358582 0.02212341 0.00039081695 0.01251166
000050 ae 4b c6 bd 37 53 72 3c 27 c6 dc 3b 98 b6 57 bd
       -0.096824035 0.014790348 0.006737489 -0.05266437
000060 0d cf a6 bd 2b 8a 85 3d 38 2f a7 3d 02 a7 89 bc
       -0.081449606 0.06520494 0.08163303 -0.016803268
000070 1f 39 15 be 5f 15 8d bc a7 26 e4 bc 2f ec 20 3c
       -0.14572571 -0.017222105 -0.027850462 0.009821936
000080 47 a8 39 3c 8b 7c 17 3d 93 d6 04 bd ac ae d6 3d
       0.011331624 0.036984008 -0.032431196 0.10482535
000090 9c 3f ae bd c6 81 72 bd 03 5e e3 bd b7 25 27 3d
       -0.08508226 -0.059205793 -0.11101916 0.040807452
0000a0 ae 39 0f bc 5b e5 60 3c 44 cb bb bc 4e c4 cf 3d
       -0.008741779 0.013726558 -0.022924073 0.10144864
0000b0 e0 7f ec 3b 32 22 02 bd e4 bb 31 bd 4d b2 23 bd
       0.0072173923 -0.031770892 -0.043392077 -0.039964963
0000c0 5e 3c c1 3b b7 84 96 bd 80 3e 2e bd dd 0b cf 3c
       0.005897089 -0.07349532 -0.042540073 0.025274212
0000d0 20 aa 14 3d be a7 cf bb 5a 12 e6 3d 6f a0 c9 bd
       0.036295056 -0.006337135 0.11233969 -0.098450534
0000e0 29 57 7c bd 27 a4 05 3e 07 17 ce 3c 22 d8 f9 bc
       -0.06160656 0.130509 0.025157465 -0.030498568
0000f0 40 a0 ed 3c ae 1e 7e bd f7 94 64 3d aa fb 2e 3d
       0.029007077 -0.062040977 0.055806126 0.042720474
000100 95 58 96 bb ee aa 56 bd e6 aa 9a bc 55 39 90 3c
       -0.0045881965 -0.052409105 -0.018880319 0.017605463
000110 ea 02 79 3c b1 41 89 bd 44 d2 56 3c f7 84 c2 bc
       0.015198449 -0.06701983 0.013111655 -0.023745043
000120 d6 f0 89 3d 13 d5 04 3d c4 1c 0e 38 69 37 71 bb
       0.06735389 0.032429766 3.388223e-05 -0.0036806709
000130 fc 27 11 bd f3 c2 d1 bb 5a 47 88 3d 3f 0b 91 bc
       -0.035438523 -0.0064014136 0.06654234 -0.017705558
000140 14 33 6f bd 87 65 ce 3d 3e f6 66 3d 79 4c a7 bd
       -0.05839832 0.100779586 0.05638718 -0.08168883
000150 26 2c 83 bd 80 b0 aa 3d 66 2e ae 3d 39 0d c4 bc
       -0.06404905 0.08334446 0.085049435 -0.023932086
000160 80 22 32 3b 3b 54 d9 bc 19 df ed ba 46 eb 9a 3b
       0.0027181208 -0.026529422 -0.0018148153 0.004727754
000170 f0 b9 02 be de 15 6d bd b8 c2 61 3d 78 b4 9f 3c
       -0.12766242 -0.057882182 0.05511734 0.019495234
000180 73 80 a1 3b ca 08 3e 3d fc be 83 bb 0b 72 f4 3b
       0.0049286424 0.0463951 -0.00402057 0.007459884
000190 6d b8 da 3d 20 d6 16 3c c3 b4 9a bc 57 d8 84 bd
       0.10679708 0.009206325 -0.018885022 -0.06486576
0001a0 c1 fc bd bd 61 96 0f 3c 2f 4d 23 bd 17 46 36 3c
       -0.092767246 0.0087638805 -0.03986853 0.011125109
0001b0 79 51 13 bd 06 71 cb bc bc 63 b5 bd 9b 56 a4 3d
       -0.03596637 -0.024834167 -0.088569134 0.08024331
0001c0 d6 a2 6b 3d 45 cc 08 3d 63 d4 a8 bb a0 89 85 3d
       0.05752834 0.03339793 -0.0051522716 0.065203905
0001d0 dd 41 43 3d 95 a4 bd 3d 3f aa 1e 3d 38 f0 59 3c
       0.047670234 0.09259907 0.038736578 0.0133019015
0001e0 33 1f 95 bd 66 8f c4 bc 04 7d 00 3c 00 58 ba bc
       -0.072813414 -0.023994159 0.007842306 -0.02274704
0001f0 b0 20 ea ba b9 53 fe bc 5b 0d 9e 3c 49 8f 02 bd
       -0.0017862525 -0.031045781 0.019293478 -0.03187493
000200 ab 50 f3 bd 8e bb 85 3d 25 4b 04 3e 9c 05 a8 bc
       -0.118806206 0.06529914 0.1291929 -0.020510487
000210 30 db ff 3c a0 bc df 3d 25 6f 26 3d 14 ff b7 3d
       0.031232446 0.10924649 0.04063334 0.08984199
000220 86 c9 e1 bc 96 12 0c 3d dd 43 3b 3c 7a 5a 2e bc
       -0.027561914 0.034197412 0.011429754 -0.0106416885
000230 39 7d bb bd fb 80 1b 3e ef 0c 92 bd d2 c5 4a 3d
       -0.09154744 0.15185921 -0.07131373 0.049505062
000240 e8 8a c8 bb 48 a9 c8 3d e7 9e d0 3c 5f 4c 22 3d
       -0.0061200745 0.09797913 0.025466396 0.039623614
000250 5b f9 c0 3b 9c 16 08 3d 99 a7 85 bd 01 06 3a 3b
       0.0058891005 0.033224687 -0.06526107 0.0028384926
000260 87 38 92 bd ab 84 29 bb e8 61 e6 3d e2 c6 dc bd
       -0.07139688 -0.002586643 0.11249143 -0.107801214
000270 c9 55 50 bc 7f ea d8 3c 1d 33 5a 3d 96 74 fe 3d
       -0.012715765 0.026479004 0.0532714 0.12424581
000280 bc 24 fd 3d 27 7d 91 3d 59 e6 b6 3d fe 38 3e 3d
       0.12360522 0.07103949 0.08930654 0.04644107
000290 2c d5 1a bd 1a f1 6f bd a8 f4 a2 3d 08 ae c8 bc
       -0.037800953 -0.05857954 0.07956821 -0.024497047
0002a0 46 59 4a bd 41 70 b8 bd d7 0b f6 3c f8 39 38 bd
       -0.049401544 -0.09005786 0.030034943 -0.04497716
0002b0 cc fd b9 bc 7c 9e 54 bd b8 a5 9a 3d 9c 84 f7 3c
       -0.022704028 -0.051908955 0.075511396 0.0302146
0002c0 ae ee bd bc 3f 70 e2 3d 0f 3b 86 bd 5e d6 e3 3b
       -0.0231851 0.110565655 -0.06554233 0.006953045
0002d0 7a 42 c4 bd d0 95 2b 3d c9 1a 37 3d 81 ad 9a 3d
       -0.09582992 0.04189092 0.04470328 0.075526245
0002e0 42 74 85 3d e8 9a 62 3c e5 9d 77 3c 30 05 bd bd
       0.06516315 0.013830878 0.015113329 -0.09229505
0002f0 6b bd 92 3d 79 68 f5 3d 97 2e bf bc 52 63 00 bd
       0.07165035 0.11982817 -0.023337645 -0.03134472
000300 a6 d1 87 bd 82 c3 68 bd e4 d5 96 bd c1 76 a0 3d
       -0.06631784 -0.056827076 -0.07365015 0.078351505
000310 2a 9c aa bd 1a 62 da 3d 50 6c 96 bd 40 24 65 3a
       -0.08330567 0.10663243 -0.07344878 0.00087410584
000320 63 4f 86 bd 7f f8 d2 bd 47 be 16 bd 6c d6 45 3c
       -0.065581106 -0.10301303 -0.036802556 0.012075048
000330 30 c0 cc bd da 39 56 3e 4e fe 39 3d 34 df f6 3b
       -0.09997594 0.20920506 0.04540854 0.007533932
000340 20 14 c7 bc 7d c3 6c 3d f1 2c d4 bc b2 64 6f bc
       -0.024301589 0.05780362 -0.025900336 -0.01461141
000350 d4 d5 b7 3d 3c b2 9d 3a de 10 9a 3d a8 0f 06 be
       0.08976331 0.0012031267 0.075227484 -0.1309191
000360 fc 98 47 bb 12 9e 23 bd 15 e1 15 3d 8d f1 7d 3d
       -0.0030456176 -0.03994567 0.036591608 0.06199794
000370 a3 c5 30 3d 0f 08 8f bd a7 fb 08 be 9b ef b4 bc
       0.04315723 -0.06983959 -0.13377248 -0.022086909
000380 05 1e 4f bc 64 23 33 3b 64 2f 30 bd 94 90 1d bd
       -0.012641435 0.0027334327 -0.043013945 -0.03846796
000390 ae 62 f7 3b b2 fe 01 3e c7 c9 89 3c 8d 38 2d 3d
       0.0075496053 0.12694815 0.016819848 0.04229026
0003a0 a7 d5 a4 3d 9d cd 29 3e 8a 6e ee 3d 54 33 f7 3b
       0.080485635 0.16582341 0.116421774 0.0075439606
0003b0 06 6f 8c bb 33 98 b3 3d 07 e0 2e 3d 4a 0e d7 3d
       -0.004285696 0.08769264 0.042694118 0.10500772
0003c0 4d d4 40 3c 3e f8 9a 3d 41 46 b0 3d 60 c9 a9 bc
       0.011769366 0.0756688 0.0860715 -0.020725906
0003d0 98 67 f5 bd 6e 48 18 3d 5d b7 8b bd 96 eb 51 bd
       -0.119826496 0.03717845 -0.06822083 -0.051250063
0003e0 e2 e9 4e 3d 0b b2 95 3c 5f 86 f5 3d f6 d1 a1 3b
       0.050516017 0.018273374 0.1198852 0.0049383594
0003f0 1b 5c 2f be cc 26 2e bc 4c 0f 88 bd fe 8e 23 3d
       -0.17124979 -0.010629367 -0.06643543 0.03993129

action_model._continuous_distribution.mu.bias f4 [5]
000000 bb 57 2d b9 86 32 46 bc 7d 5c 1a bb 32 a9 cb 3c
       -0.00016531248 -0.012097007 -0.0023553662 0.024860952
000010 bd ea cc 3c
       0.025014276
