config/results/AgrConserv_Refactored_2M_Almost-Final_v4/Hummingbird_Aggressive/Hummingbird_Aggressive-999960.onnx (onnx, 97764 bytes, 7 tensors)

network_body._body_endoder.seq_layers.0.weight f4 [128, 47]
0	0xbd19a4b1	-0.037510578
1	0xbd184fc7	-0.037185457
2	0x3ece9129	0.40345123
3	0xbe173a5e	-0.14768359
4	0x3deb3a59	0.11485738
5	0xbcecc649	-0.028903143
6	0xbe79238e	-0.2432997
7	0x3e446da7	0.19182454
8	0x3e80f229	0.25184754
9	0xbcda3c74	-0.026640154
10	0x3e70e8a8	0.23526251
11	0x3d18dad4	0.037318066
12	0x3dd5484e	0.10414182
13	0xbc807a50	-0.015683323
14	0xbe4ea37a	-0.20179549
15	0xbe8a3c0a	-0.2699893
16	0x3e335732	0.17513731
17	0xbc8262c5	-0.015916238
18	0xbd1567cb	-0.036475938
19	0x3e520e91	0.20513369
20	0x3ddaf403	0.10691073
21	0xbe41e8ee	-0.18936512
22	0xbe260c01	-0.16215517
23	0xbd375a0e	-0.044763617
24	0xbbd380a1	-0.0064545427
25	0x3cbbbce9	0.022917228
26	0x3de05f8f	0.10955726
27	0x3e0a575f	0.13509892
28	0x3d4b41dc	0.049623355
29	0xbe4729ce	-0.19449541
30	0x3d1f562a	0.03890053
31	0x3db1159b	0.08646699
32	0x3e19cc62	0.15019372
33	0x3db92884	0.09040931
34	0xbca3d31c	-0.019998126
35	0x3e207a3a	0.15671626
36	0x3deca2f1	0.11554516
37	0x3d3395a2	0.043843873
38	0x3d3f2ac5	0.046671648
39	0xbe6ef257	-0.23334633
40	0x3c950223	0.018189495
41	0x3e0762c3	0.13221268
42	0x3ed0a30f	0.40749404
43	0xbe336c6d	-0.1752183
44	0xbd387afd	-0.045039166
45	0xbd9877b3	-0.07444706
46	0x3eb50682	0.35356528
47	0xbe81a5f8	-0.25321937
48	0x3d41ddf3	0.047330808
49	0xbe0af96d	-0.13571711
50	0xbea58b83	-0.32333001
51	0x3dfbeea7	0.12301379
52	0xbd41a246	-0.047273897
53	0xbd895827	-0.06706267
54	0x3ec5e782	0.3865319
55	0xbe27fc18	-0.1640476
56	0x3e160960	0.14652014
57	0xbc80df4c	-0.015731476
58	0xbbb36c93	-0.0054755895
59	0x3e0d173a	0.13778391
60	0x3e0fb115	0.14032395
61	0x3d813e51	0.06310714
62	0x3dd6856d	0.10474668
63	0xbbc27659	-0.0059345183
64	0xb9a315ef	-0.00031106125
65	0xbeafb7ad	-0.3431982
66	0xbe24116f	-0.16022275
67	0x3ec5c4da	0.38626748
68	0x3dd8122a	0.105503395
69	0xbe20f5c3	-0.1571875
70	0xbd2b3cc4	-0.041805997
71	0xbde04d72	-0.109522715
72	0x3d5aba29	0.053400192
73	0x3e3c9ab3	0.18418388
74	0x3dea2585	0.114329375
75	0x3dbd5817	0.092453174
76	0xbe31fedd	-0.17382379
77	0x3e09956d	0.13435908
78	0x3de75852	0.11296143
79	0xbdd7de1f	-0.10540413
80	0x3d154266	0.036440276
81	0x3d0bebf6	0.034160577
82	0x3da0c587	0.07850175
83	0xbe15a402	-0.14613345
84	0xbdef0068	-0.11669999
85	0xbe4481fd	-0.19190212
86	0x3ddf3c4d	0.10900173
87	0x3e3b1c67	0.18272553
88	0x3e121464	0.14265591
89	0x3e96a644	0.29423726
90	0xbe18955f	-0.1490073
91	0xbe866a8c	-0.26253164
92	0x3e1abff5	0.15112288
93	0xbdc6af2e	-0.097013816
94	0x3ea05b90	0.31319857
95	0xbd8f56bd	-0.06998966
96	0xbdb11a53	-0.08647599
97	0xbc01d6bd	-0.007924733
98	0x3cbe0f4b	0.023200652
99	0x3e5e956e	0.2173669
100	0xbde06572	-0.10956849
101	0xbe1f2488	-0.1554128
102	0xbde8ca43	-0.11366703
103	0x3e448760	0.19192266
104	0x3e36fec0	0.17870617
105	0x3bdaee4c	0.006681239
106	0x3d2ed9f5	0.04268833
107	0x3cbe0ff5	0.023200968
108	0x3e7f2341	0.24915792
109	0x3e05342f	0.13008188
110	0xbe6b88b5	-0.23001368
111	0x3dd970cd	0.10617218
112	0x3d4f8806	0.05066683
113	0xbe76f256	-0.24115881
114	0xbdcee95f	-0.10103106
115	0xbe3f1663	-0.18660884
116	0x3d5a6905	0.05332281
117	0xbe4f68bb	-0.20254795
118	0x3df74e59	0.120754905
119	0x3d8a042e	0.067390785
120	0xbd444194	-0.047914103
121	0x3db60aaa	0.08888753
122	0x3db1928b	0.08670529
123	0x3de509ef	0.11183535
124	0x3de04085	0.10949806
125	0x3b8a10af	0.0042134146
126	0xbd4d5f46	-0.050139688
127	0x3e246b70	0.16056609
128	0xbe1a2781	-0.15054132
129	0x3e2e60af	0.1702907
130	0x3ddd729c	0.10812876
131	0x3e0837f9	0.13302602
132	0xbcbcb928	-0.023037508
133	0x3e574d1c	0.21025509
134	0x3e7b9c2f	0.24571298
135	0x3c9d064f	0.019168047
136	0xbed126c4	-0.40849888
137	0xbdb4bda2	-0.08825232
138	0xbe49a646	-0.19692335
139	0x3e961bef	0.29318187
140	0x3b908c1a	0.0044112327
141	0x3e2906e2	0.16506532
142	0xbd2049f1	-0.039133016
143	0x3dc67850	0.096909165
144	0xbe9ff66c	-0.31242692
145	0x3ea3df13	0.3200613
146	0xbe08a7d7	-0.13345276
147	0xbcdc4007	-0.026886
148	0x3e1785d3	0.14797144
149	0x3d3b1abd	0.045679796
150	0xbd5e2b2c	-0.05424039
151	0xbde4c548	-0.11170441
152	0x3d3858d9	0.045006607
153	0x3dfe9edc	0.12432644
154	0x3e396cd2	0.18107918
155	0x3d52dd5b	0.051480632
156	0xbe0cb6d3	-0.13741617
157	0x3e3f2380	0.18665886
158	0x3de62436	0.112373754
159	0x3db42536	0.0879616
160	0xbd3fa7c7	-0.046790864
161	0xbdb4e458	-0.088326156
162	0xbcbf96e5	-0.023387382
163	0x3d124f47	0.035720136
164	0x3c3f93e6	0.011692977
165	0x3df3ca2c	0.119037956
166	0x3e15e8fb	0.14639656
167	0x3db504cb	0.08838805
168	0x3e2ec1d6	0.1706613
169	0x3d9856ae	0.07438408
170	0x3c43719e	0.011928944
171	0x3d7a7930	0.06115073
172	0x3e339eb7	0.17541014
173	0x3e8dd1ae	0.27699035
174	0xbd4d21d4	-0.05008109
175	0xbe10520b	-0.14093797
176	0x3d52096c	0.051278517
177	0xbe5ceddf	-0.21575116
178	0x3d71aa5e	0.059000365
179	0x3c99f0e4	0.018791623
180	0x3d863568	0.06553155
181	0x3ee566bb	0.4480494
182	0x3e1e1a16	0.15439638
183	0x3e91a5fd	0.28446952
184	0x3daa07db	0.083022796
185	0xbe3ed21f	-0.18634842
186	0x3e7b54b5	0.24544032
187	0xbdb7a48c	-0.08966932
188	0x3df7c962	0.120989576
189	0x3ddb4824	0.10707119
190	0x3d97786f	0.07396018
191	0x3de17861	0.110092886
192	0xbc821e8b	-0.015883705
193	0xbe396846	-0.18106183
194	0xbd8f4957	-0.0699641
195	0x3ced89a8	0.028996304
196	0xbe15abd7	-0.14616333
197	0x3d242618	0.04007539
198	0x3e271874	0.16317922
199	0xbc5cc8aa	-0.013475576
200	0x3d5c2155	0.053742725
201	0xbdd8acab	-0.10579809
202	0xbd53a502	-0.051671036
203	0xbcfe1721	-0.031016888
204	0xbe24b704	-0.1608544
205	0x3c01ad91	0.007914917
206	0x3d2b093c	0.041756853
207	0x3d98660b	0.07441338
208	0x3d48906f	0.048965868
209	0x3d8843ba	0.06653543
210	0x3e4a0ddb	0.19731848
211	0x3dd24452	0.10266937
212	0x3e04c92e	0.12967369
213	0x3e08d5e7	0.13362847
214	0xbea390fc	-0.31946552
215	0xbe33e644	-0.17568308
216	0x3e342557	0.17592369
217	0xbc709234	-0.014683295
218	0x3df21cc5	0.118218936
219	0x3e460ac6	0.19340047
220	0x3db61705	0.088911094
221	0xbdacc021	-0.08435083
222	0x3d1714c5	0.03688504
223	0x3e7f9212	0.24958065
224	0x3e03068c	0.12795466
225	0xbd9ec41f	-0.07752251
226	0xbd89a2c6	-0.067205
227	0xbe87cb59	-0.2652233
228	0xbe3c60c4	-0.18396288
229	0xbd9361c8	-0.07196385
230	0x3ee92414	0.45535338
231	0x3e650149	0.22363771
232	0xbddefa7c	-0.1088762
233	0x3d8b8ea9	0.0681432
234	0xbe44e915	-0.19229539
235	0x3d9d1660	0.07670283
236	0xbea39c0c	-0.31954992
237	0xbdb28d99	-0.08718414
238	0xbda48dd2	-0.080348626
239	0xbb6903b9	-0.0035555197
240	0x3e5b142d	0.21394415
241	0xbd94ff71	-0.07275284
242	0xbdce9d0b	-0.10088547
243	0xbd81bca9	-0.06334812
244	0xbe08829e	-0.13331077
245	0xbe4338a7	-0.1906458
246	0xbea85adc	-0.3288182
247	0x3e09198b	0.1338865
248	0x3d8c032a	0.06836541
249	0x3d5b0dda	0.053480007
250	0x3bcb52d0	0.0062049404
251	0x3e09121a	0.13385811
252	0xbe159be7	-0.14610253
253	0xbcccd384	-0.025003202
254	0x3e72d171	0.23712708
255	0x3cacc18d	0.021088386

network_body._body_endoder.seq_layers.0.bias f4 [128]
0	0x3c8a15f5	0.016856173
1	0x3c287c6e	0.010283573
2	0x3d775acf	0.060389336
3	0x3cea73ef	0.028619735
4	0x3c8a2521	0.016863408
5	0x3cffe4f2	0.0312371
6	0x3c282049	0.010261604
7	0xbc696c8c	-0.014247071
8	0x3cd3bc84	0.025846727
9	0x3c412686	0.01178897
10	0x3c84d727	0.016215874
11	0xbc779539	-0.015111261
12	0x3a900eeb	0.0010990774
13	0x3d70dcc4	0.05880429
14	0xbc82fd8f	-0.015990047
15	0xbd1e5578	-0.038655728
16	0x3c99bbed	0.018766368
17	0x3b8c9f87	0.004291478
18	0x3d0759af	0.033044513
19	0x3c552da3	0.013011369
20	0xbcb43b30	-0.022000879
21	0x3cac0f96	0.021003526
22	0xbb0e6555	-0.002172788
23	0x3c02d7f0	0.007986054
24	0xb51c46b0	-5.821739e-07
25	0x3c4cf1b0	0.012508795
26	0x3cbb1c83	0.022840744
27	0x3c4531b9	0.012035781
28	0x3d4ccf4d	0.050002385
29	0xbd05be9e	-0.03265249
30	0x3c7a45c1	0.01527542
31	0x3bceac7b	0.0063071824
32	0x3c7ad8af	0.01531045
33	0x38a41ca7	7.825466e-05
34	0xbbbc9dde	-0.005756124
35	0x3c0f70c2	0.008754911
36	0x3aa02c88	0.0012220303
37	0xbb79f691	-0.003814135
38	0x3ba2e511	0.0049711545
39	0xbc8df43f	-0.01732838
40	0xba087253	-0.0005205024
41	0x3c92d505	0.017923841
42	0x3ce2efcd	0.027702237
43	0x3d279f47	0.040923383
44	0x3d4b406b	0.04962198
45	0x3ba5b5f0	0.005057089
46	0x3c8337c7	0.016017808
47	0x3cae8b22	0.021306578
48	0x3cffaeca	0.031211276
49	0x3c9a847e	0.018862005
50	0x3cf88b1e	0.030339774
51	0x3d8095c2	0.06278564
52	0xbb0885dc	-0.002083174
53	0x3d02b4ae	0.03191059
54	0x3c6caa3b	0.014444883
55	0x3cd7307a	0.026268233
56	0x3c15d2e9	0.009144523
57	0x3d1c49b7	0.038156237
58	0xbc83938e	-0.01606157
59	0x3d3a65c9	0.045507226
60	0x3c855c57	0.016279383
61	0x3d2af5cf	0.041738328
62	0x3d2a37cf	0.04155713
63	0xbcde5cc0	-0.027143836
64	0x3d3ee1c0	0.04660201
65	0xbc134f95	-0.008991142
66	0x3c2d9372	0.010594236
67	0x3cbadfe4	0.022811837
68	0x3b03e7f4	0.0020127269
69	0x3cafe6c9	0.021472352
70	0x3d1ed1e6	0.038774393
71	0x3cd63300	0.026147366
72	0x3d5a74cf	0.053334054
73	0x3d0faf27	0.035079148
74	0x3d3f774d	0.046744633
75	0xbcb12dde	-0.021628316
76	0x3d251747	0.040305402
77	0x3c9ccb34	0.019139864
78	0x3cb8556e	0.022501674
79	0x3d3cb506	0.046071075
80	0xbc93fa2d	-0.018063629
81	0x3d165cdc	0.03670965
82	0x3c2737c3	0.010206166
83	0x3cb7763e	0.02239525
84	0x3c99e5dc	0.018786363
85	0x3ce7b4db	0.02828448
86	0xbb0626a6	-0.0020469814
87	0x3c9903dc	0.018678598
88	0x3b91b6a8	0.004446823
89	0x39e44637	0.00043539863
90	0xbb0cdc66	-0.0021493672
91	0xbc2547f5	-0.010087957
92	0xbc278254	-0.010223944
93	0x3b1b3fe9	0.0023689216
94	0x3d56f6f7	0.052481618
95	0xbd16de10	-0.03683287
96	0xbad67142	-0.0016360658
97	0x3b1dd4b0	0.002408307
98	0x3d2607ca	0.040534772
99	0x3d0e7aad	0.03478496
100	0x3c92645a	0.017870117
101	0x3c954058	0.018219158
102	0x3c40c1e7	0.01176498
103	0x3ab4dfca	0.0013799604
104	0x3cb701be	0.022339698
105	0x3ab1f196	0.0013576027
106	0x3cd9ad14	0.026571788
107	0x3c67617b	0.014122362
108	0x3c855ca0	0.016279519
109	0xbb894af7	-0.0041898447
110	0x3d047c06	0.03234484
111	0x3cb3e7ed	0.021961177
112	0x3c0350e1	0.0080148885
113	0xbc52a57c	-0.012856837
114	0x3c2c3045	0.010509555
115	0x3cccf801	0.025020601
116	0x3cf93007	0.030418409
117	0xbc16eea7	-0.009212173
118	0x3ca5ca4f	0.02023807
119	0xbcaf5ee1	-0.021407546
120	0x3c8fc3ef	0.017549483
121	0xbcd3f691	-0.025874408
122	0x3ccebbe9	0.025236087
123	0xbbae62e9	-0.0053218496
124	0x3d1c25c3	0.03812195
125	0xbc513b6c	-0.012770515
126	0x3cda1862	0.026622955
127	0xbc1645e0	-0.009171933

network_body._body_endoder.seq_layers.2.weight f4 [128, 128]
0	0xbe0a9cd5	-0.13536389
1	0xbd856e2c	-0.06515154
2	0x3e27421f	0.16333817
3	0xbdbb86f7	-0.09156602
4	0xbd86f554	-0.065897614
5	0xbce7883e	-0.028263208
6	0xbda4c6b1	-0.0804571
7	0x3c03b0b4	0.008037735
8	0x3b2e7a0e	0.0026623043
9	0x3d0f84c2	0.035038717
10	0xbb449bd8	-0.0030000117
11	0xbe11190c	-0.14169711
12	0x3d90c734	0.07069245
13	0x3e14d5d9	0.14534701
14	0x3d0c5689	0.034262214
15	0xbda80da3	-0.08205726
16	0x3d7d147c	0.061787114
17	0xbe03d0dd	-0.12872644
18	0x3e071cc2	0.13194564
19	0xbcdabeca	-0.026702303
20	0x3e85b5ac	0.26115167
21	0x3beacddd	0.007165654
22	0x3d2a5827	0.041587975
23	0xbd4d8dc7	-0.050184038
24	0x3d9e92fe	0.0774288
25	0xbe14cbad	-0.14530821
26	0x3ce434dd	0.027857238
27	0x3cd720a2	0.026260678
28	0xbe100671	-0.14064957
29	0x3dde0231	0.10840262
30	0x3dadf93d	0.08494804
31	0x3db2be3e	0.08727692
32	0x3dc8b47b	0.09800049
33	0x3dc23961	0.094836004
34	0xbc91893a	-0.01776563
35	0x3d41bd2a	0.04729954
36	0x3e368d6d	0.17827387
37	0xbd4a8f3b	-0.049453
38	0xbe172268	-0.14759219
39	0x3d907991	0.07054437
40	0xbd7d613b	-0.061860304
41	0xbcdb870b	-0.026797792
42	0xbd6c8a06	-0.057748817
43	0xbdccbc00	-0.09996796
44	0xbdb8e9ef	-0.09028994
45	0xbe3b1e16	-0.18273196
46	0x3d5afa29	0.053461228
47	0x3d55fe11	0.05224425
48	0xbe22b2bc	-0.15888494
49	0xbe1c32c2	-0.15253738
50	0xbdc2d1a4	-0.09512642
51	0x3e09a9be	0.13443658
52	0x3e1dc2ad	0.15406294
53	0xbe0efccc	-0.13963622
54	0x3dd74455	0.1051108
55	0x3d76fd3c	0.060300097
56	0x3d4ed62f	0.05049723
57	0x3e04bb83	0.12962155
58	0x3d52e7f8	0.051490754
59	0xbcd2e1ad	-0.025742376
60	0xbe2659ce	-0.16245195
61	0xbdda5186	-0.106600806
62	0x3e036961	0.12833168
63	0x3cb27102	0.021782402
64	0xbd2da022	-0.042389043
65	0x3d050de8	0.032483965
66	0xbe41b769	-0.18917622
67	0xbda069b0	-0.07832658
68	0xbbc39572	-0.005968743
69	0xbb2848c7	-0.0025678144
70	0xbcde8931	-0.027165027
71	0xbe42135e	-0.189527
72	0x3d20c813	0.039253306
73	0xbe1e263c	-0.15444273
74	0xbd76d8f2	-0.06026549
75	0xbc4769cd	-0.012171221
76	0xbdcbe197	-0.09955137
77	0xbc0c98a5	-0.008581315
78	0xbe432ba8	-0.19059622
79	0xbd168556	-0.036748253
80	0x3d281127	0.041031983
81	0xbd967e07	-0.073482566
82	0x3d44b087	0.048019912
83	0x3dc11c26	0.09429197
84	0x3e29f3b8	0.16596878
85	0xbdd42b25	-0.10359792
86	0xbd1ecf10	-0.03877169
87	0x3e516f7d	0.20452686
88	0x3e013cf9	0.12620915
89	0x3daf9139	0.08572621
90	0x3c6d7a7d	0.0144945355
91	0x3daabdde	0.083369955
92	0xbd3268b8	-0.0435569
93	0xbdb462ac	-0.08807883
94	0xbd16b615	-0.03679474
95	0xbb427a6b	-0.0029675018
96	0x3e0d3611	0.13790156
97	0x3d84e019	0.06488056
98	0xbe0fb0f1	-0.14032342
99	0x3c14b29f	0.00907579
100	0x3e12b8df	0.14328335
101	0xbc52cc80	-0.012866139
102	0x3cfb3250	0.03066364
103	0x3e3e488d	0.18582363
104	0x3dcde10a	0.100526884
105	0xbd262a97	-0.04056796
106	0x3bf84542	0.0075766155
107	0x3d7901c9	0.060792718
108	0xbd9dae8c	-0.07699308
109	0xbd3ca6cc	-0.046057507
110	0xbda4879b	-0.08033677
111	0x3db76499	0.08954734
112	0x3b87f53c	0.0041491073
113	0xbe2a1a50	-0.166116
114	0x3d50697f	0.05088186
115	0x3e2579fc	0.16159815
116	0xbdb9c17d	-0.09070108
117	0xbdec4893	-0.1153728
118	0x3e2ac80e	0.16677877
119	0x3e21c7c2	0.15798858
120	0x3b03af4d	0.00200935
121	0xbde57af8	-0.11205095
122	0xbd8403dd	-0.06446049
123	0x3dc9e0f1	0.09857357
124	0x3e538ee2	0.20659974
125	0xbd76cb59	-0.06025252
126	0xbce324cc	-0.027727507
127	0x3d78f78e	0.06078296
128	0x3e6d5cd2	0.2317994
129	0x3dd938a5	0.10606507
130	0xbd9348ee	-0.071916446
131	0x3e327e17	0.17430912
132	0xbd767207	-0.06016734
133	0x3c3df3bc	0.011593755
134	0xbbc23737	-0.0059269923
135	0x3c586830	0.013208434
136	0x3d138e73	0.036024522
137	0xbcd8d953	-0.026470816
138	0xbd50db45	-0.05099036
139	0xbe14f1c3	-0.1454535
140	0x3c3ee328	0.011650838
141	0xbccebb6d	-0.025235856
142	0x3daabc8f	0.08336746
143	0xbd8f48c7	-0.06996303
144	0x3cb301b2	0.021851394
145	0x3c91dac6	0.017804515
146	0xbe6a8d7b	-0.22905533
147	0xbca3bb13	-0.019986665
148	0xbcdd7f03	-0.027038103
149	0xbd03a8db	-0.032143455
150	0xbdea45a0	-0.11439061
151	0x3c23620f	0.009972109
152	0xbcbabb9b	-0.022794535
153	0x3bd9f165	0.006651091
154	0xbd5a8936	-0.05335351
155	0xbc7e4f62	-0.015521856
156	0x3cadb6a9	0.021205263
157	0xbc9d30bc	-0.019188277
158	0x3d90f315	0.07077614
159	0x3beb565c	0.0071819257
160	0x3d2e9482	0.042622097
161	0xbd6345fb	-0.05548666
162	0x3db64407	0.08899694
163	0xbc9967d2	-0.018726263
164	0x3e0db4c2	0.13838485
165	0xbe25706e	-0.1615617
166	0xbe15a653	-0.14614229
167	0xbdd4e109	-0.103944845
168	0x3d97d98e	0.07414542
169	0xbd4a2ff1	-0.049362127
170	0xbd4f93ac	-0.05067794
171	0xbda57b50	-0.080801606
172	0xbe33c0dd	-0.1755404
173	0x3d8e4f1f	0.06948685
174	0x3ca2d413	0.019876515
175	0x3c8b8265	0.01702995
176	0x3e3ab858	0.18234384
177	0x3e05bce2	0.13060334
178	0x3c9d2360	0.019181907
179	0xbd664bef	-0.05622476
180	0xbbd870a5	-0.006605225
181	0x3c612dec	0.013743859
182	0xbda65d72	-0.08123292
183	0x3a7fe135	0.00097610365
184	0xbc9110c4	-0.01770819
185	0xbd77a110	-0.060456336
186	0xbd0914a7	-0.03346696
187	0xbd8a9152	-0.06765999
188	0xbd1ffe17	-0.03906068
189	0xbcda3096	-0.026634496
190	0xbe1866a5	-0.14882906
191	0x3d7abb09	0.061213527
192	0xbdbb96f0	-0.091596484
193	0x3e0aebac	0.13566464
194	0xbcd0478c	-0.025424741
195	0xbc58fabe	-0.013243375
196	0xbbbcee69	-0.0057657254
197	0x3e322c2b	0.17399661
198	0x3e270bb4	0.16313058
199	0xbd4b485a	-0.049629547
200	0x3de3f249	0.111301966
201	0xbd4bb4ad	-0.049732853
202	0xbcb33844	-0.021877415
203	0xbd9e21f7	-0.07721322
204	0xbd3d0557	-0.04614767
205	0x3b42c355	0.0029718478
206	0x3e03cb70	0.12870574
207	0xbde62dbf	-0.11239194
208	0xbdaec9fa	-0.08534618
209	0x3c7fcb7d	0.01561248
210	0x3dc98fa3	0.0984185
211	0xbdc62dd2	-0.09676708
212	0xbe91148e	-0.28335994
213	0x3e0984a3	0.13429503
214	0xbce471de	-0.027886327
215	0x3d1bf303	0.03807355
216	0x3dc3e082	0.09564306
217	0xbcc51440	-0.024057508
218	0x3d755067	0.05989113
219	0xbceff4aa	-0.02929147
220	0x3aeae689	0.0017921488
221	0x3de67590	0.11252892
222	0x3cbf983a	0.023388017
223	0xbe1acadc	-0.15116447
224	0xbdde8040	-0.108643055
225	0xbc4fb8a6	-0.012678301
226	0xbc6141a3	-0.013748559
227	0xb9c0c1a0	-0.00036765356
228	0xbdeac9b7	-0.11464255
229	0x3d39496e	0.045236044
230	0xbc769ed4	-0.015052516
231	0x3bba26a0	0.005680874
232	0x3d668071	0.056274835
233	0x3aa0f346	0.0012279532
234	0x3e556383	0.20838742
235	0x3c97f690	0.018550187
236	0x3da118a1	0.07866026
237	0xbd40c991	-0.04706723
238	0x3de0b961	0.10972858
239	0xbd226640	-0.039648294
240	0x3d09da01	0.03365517
241	0x3cc00560	0.023440063
242	0x3dc1294f	0.09431707
243	0x3cfbe34c	0.030748032
244	0x3dffc17e	0.124880776
245	0x3e125e53	0.14293794
246	0x3dd10486	0.10205941
247	0x3c813383	0.015771633
248	0x3d3e3bbc	0.046443686
249	0xbd70379d	-0.058646787
250	0x3dd675dd	0.104716994
251	0x3dc9bb36	0.09850161
252	0x3da162b1	0.07880152
253	0xbdc6d750	-0.09709036
254	0xbd96f5de	-0.07371114
255	0x3c105e1c	0.0088115

network_body._body_endoder.seq_layers.2.bias f4 [128]
0	0x3c27d416	0.010243436
1	0x3cbb1348	0.022836342
2	0x3c53667d	0.012902853
3	0x3d185dae	0.037198715
4	0xbc9a0769	-0.018802362
5	0x3c2b0f6d	0.0104406895
6	0xbc0bf413	-0.008542079
7	0x3cbabb2e	0.022794332
8	0x3cf09e20	0.029372275
9	0x3c9a32c9	0.018823044
10	0x3c238c28	0.009982146
11	0x3c6d9500	0.014500856
12	0xbc63965a	-0.013890827
13	0x3d0e4fa8	0.034743935
14	0xba476f2d	-0.0007607814
15	0xb9b4190c	-0.00034350937
16	0xbab3177a	-0.0013663613
17	0x3cc33d6f	0.023833005
18	0xbceb36a9	-0.028712587
19	0xba1e9e2f	-0.0006050793
20	0x3ca8a5e7	0.02058692
21	0x3cf0e17b	0.029404392
22	0x3adb8fbb	0.0016751209
23	0x3ca4a3c7	0.020097626
24	0x3c0904cf	0.008362963
25	0x3bb8c0f6	0.005638237
26	0x3d1bd39a	0.038043596
27	0x3cd6b993	0.026211536
28	0x3d084c57	0.03327593
29	0xbcbf65a5	-0.023363898
30	0x3c12b581	0.008954407
31	0x3d4ec5a8	0.05048147
32	0x3bfcc834	0.0077142958
33	0x3bf79262	0.007555292
34	0x3b4d5058	0.0031328406
35	0x3d1ad417	0.03779992
36	0x3d081704	0.033225074
37	0x3c923a76	0.017850142
38	0x3cdc97a6	0.02692778
39	0x3ac99a9d	0.0015381161
40	0x3cc52783	0.024066692
41	0x3c90e9b7	0.017689569
42	0x3cb4985c	0.022045307
43	0x3c0e1f45	0.008674447
44	0xbc7ccf5f	-0.0154303005
45	0x3c5e4c0a	0.013567934
46	0x3d030f36	0.03199693
47	0x3cace9fb	0.021107664
48	0xbc6b518b	-0.014362703
49	0x3d4891e2	0.04896725
50	0x3c9123a2	0.017717186
51	0xbcbc2490	-0.022966653
52	0x3c1d3230	0.009594485
53	0xbcb33627	-0.021876408
54	0x3cdd9284	0.027047403
55	0x3cd891bd	0.02643668
56	0x3c327b4a	0.010893652
57	0x396aecec	0.0002240424
58	0xbca3215e	-0.019913372
59	0x3c85abd2	0.016317282
60	0x3b63296b	0.0034662138
61	0x3d13fa79	0.03612754
62	0x3ce10ed2	0.027472887
63	0x3ce97cea	0.028501946
64	0x3c98c7e0	0.018649995
65	0x3cc56ff3	0.024101233
66	0x3c1858c5	0.009298508
67	0x3ba1f0a5	0.004942017
68	0x3cc3ed52	0.023916874
69	0x3cdf6e4c	0.027274273
70	0x3bd73b77	0.006568368
71	0xbc4d9503	-0.012547734
72	0x3cd408eb	0.025883159
73	0x3c1cf04c	0.009578776
74	0x3cf821fb	0.03028964
75	0x3c882607	0.016619695
76	0xbb4df917	-0.0031428987
77	0x3cdb2e2b	0.026755413
78	0x3cc33d5b	0.023832968
79	0xbcae862d	-0.021304214
80	0x3caacbb4	0.020849086
81	0x3cee9ce1	0.02912754
82	0x3d163a59	0.03667674
83	0x3c0209b8	0.007936887
84	0x3c395137	0.011310867
85	0x3c2c0182	0.010498406
86	0x3bc5fa2f	0.006041787
87	0x3cd209b5	0.025639394
88	0xbc2ab3ad	-0.010418815
89	0x3cbf19cf	0.023327736
90	0xbc9364d2	-0.01799241
91	0x3bfd22c7	0.007725093
92	0x3cbba334	0.02290497
93	0x3c3d7bd1	0.011565165
94	0x3d1b8346	0.03796699
95	0xbc861166	-0.016365718
96	0x3a519fd7	0.0007996535
97	0x3cb89287	0.022530807
98	0x3bf0ce10	0.0073487833
99	0x3c969bf7	0.018384917
100	0x3d08c84e	0.03339415
101	0x3cbb468a	0.022860784
102	0x3cb9662a	0.022631723
103	0x3d1c8deb	0.03822128
104	0x3c8b1824	0.016979285
105	0x3c9485c8	0.018130198
106	0x3b36cf8e	0.0027894708
107	0x3be8ea0c	0.0071079787
108	0xbb13535a	-0.0022480101
109	0x3cee9c50	0.02912727
110	0x3c71e4fe	0.014764069
111	0x3cfe1a6a	0.031018455
112	0x3ba0f713	0.004912266
113	0x3cf3e6f4	0.029773213
114	0x3d22a9bc	0.039712653
115	0x3bfa5500	0.0076395273
116	0x3d140ad1	0.036143128
117	0x3ce3af6e	0.027793612
118	0x3cad6090	0.021164209
119	0x3c9949d1	0.018711956
120	0xbbc83dff	-0.006110906
121	0xbccac95e	-0.024754222
122	0x3c5fbfba	0.013656551
123	0x3b260dd7	0.002533784
124	0x3c405f85	0.011741524
125	0x3ba5e802	0.005063058
126	0x3c9c1c01	0.019056322
127	0x3d008181	0.031373505

action_model._continuous_distribution.log_sigma f4 [1, 5]
0	0xbce85712	-0.02836183
1	0xbc01f71a	-0.007932449
2	0xbd51a30b	-0.05118088
3	0x3c909111	0.017647298
4	0x3d4e1ad4	0.050318554

action_model._continuous_distribution.mu.weight f4 [5, 128]
0	0xbc53c68c	-0.012925755
1	0x3d18e53c	0.03732799
2	0x3c881cd1	0.016615303
3	0xbde2f8e9	-0.11082632
4	0xbd255b30	-0.040370166
5	0x3c198e91	0.009372369
6	0xbbbfdbf1	-0.0058550765
7	0x3d9906f8	0.07472032
8	0xbc988db0	-0.01862225
9	0x3c98ad99	0.018637465
10	0xbd858eeb	-0.065214
11	0x3dbe7bdc	0.09300968
12	0x3c595896	0.013265749
13	0x3ca554cc	0.020182036
14	0xbcae6ac9	-0.021291154
15	0x3d7097f9	0.058738682
16	0x3da4d157	0.08047741
17	0x3cd0a89c	0.025471024
18	0xb9988768	-0.00029092585
19	0x3c0f5ea3	0.0087505905
20	0xbdc02582	-0.09382154
21	0x3c2fa81e	0.010721235
22	0x3c282b8f	0.010264291
23	0xbd416a5f	-0.047220584
24	0xbd9df10a	-0.0771199
25	0x3d83feca	0.064450815
26	0x3da2c885	0.07948402
27	0xbc905ac4	-0.017621405
28	0xbe0ff64a	-0.14058796
29	0xbc90905f	-0.017646967
30	0xbcfc1f2e	-0.030776586
31	0x3be9631f	0.007122412
32	0x3afb11ef	0.0019155125
33	0x3d15449c	0.036442384
34	0xbcee51f3	-0.02909181
35	0x3dcbab5e	0.09944795
36	0xbda3ad9d	-0.079920985
37	0xbd4db59c	-0.050222024
38	0xbdcd2758	-0.1001727
39	0x3d216980	0.039407253
40	0xbc1916a0	-0.009343773
41	0x3c370b46	0.011172121
42	0xbcc1e4f9	-0.023668753
43	0x3dbb29e4	0.091388494
44	0x3c11cb4a	0.008898566
45	0xbcd9b44b	-0.026575228
46	0xbd16fb9c	-0.036861047
47	0xbd1760ce	-0.036957555
48	0xbb59d8e8	-0.0033240858
49	0xbd8a21c2	-0.0674472
50	0xbd298d1b	-0.041394334
51	0x3cbea520	0.023272097
52	0x3d11726f	0.035509523
53	0xbbff0352	-0.0077823782
54	0x3de0aa34	0.10969964
55	0xbdb5a883	-0.08870032
56	0xbd647dc4	-0.055784002
57	0x3dfc9401	0.12332917
58	0x3ca3d722	0.020000044
59	0xbceb0484	-0.028688677
60	0x3ca8b791	0.020595344
61	0xbd5ab6c0	-0.05339694
62	0x3d511781	0.051047806
63	0x3d241522	0.040059216
64	0xbc0d4fb8	-0.008624963
65	0xbd44552a	-0.04793278
66	0xbc9c1cb5	-0.019056657
67	0x3c4163ed	0.011803609
68	0x3c287025	0.010280644
69	0xbd75cb26	-0.06000819
70	0x3c1a3a31	0.009413288
71	0xbcd58aa0	-0.026067078
72	0x3d800ebe	0.06252812
73	0x3cf0d83c	0.029399984
74	0xbaa6d4a8	-0.0012728171
75	0xbad2be5e	-0.0016078462
76	0xbcff6079	-0.031173931
77	0xbb9ecfab	-0.0048465333
78	0x3d8b59d6	0.06804244
79	0xbc9ad5e1	-0.018900814
80	0xbd567eb8	-0.052366942
81	0x3dc9791e	0.098375544
82	0x3d477ad0	0.048701108
83	0xbd937b22	-0.0720122
84	0xbd80174a	-0.06254442
85	0x3d915799	0.07096786
86	0x3da6248d	0.0811244
87	0xbccb886f	-0.02484533
88	0x3b83d720	0.0040234476
89	0xbca8b9c5	-0.020596394
90	0xbab872b1	-0.0014072267
91	0x3c22da26	0.009939706
92	0xbdf4798c	-0.11937246
93	0xbd4e84ef	-0.050419744
94	0x3d5201a0	0.05127108
95	0x3c40ff05	0.011779551
96	0x3c031986	0.008001691
97	0x3d20f972	0.03930039
98	0xbb7d2eaf	-0.0038632562
99	0x3b81e62f	0.0039642076
100	0x3dd41a27	0.10356551
101	0x3c1f4e12	0.009723203
102	0xbc69e683	-0.01427615
103	0xbd611851	-0.05495483
104	0xbdb6018f	-0.08887016
105	0x3c3d0ade	0.0115382355
106	0xbd044c51	-0.032299343
107	0x3c79e037	0.015251211
108	0xbd162246	-0.03665378
109	0xbca49fb9	-0.020095693
110	0xbdb4653e	-0.08808373
111	0x3d942e21	0.07235361
112	0x3d328d45	0.043591756
113	0x3d18a9fd	0.03727149
114	0xbb64b92a	-0.0034900405
115	0x3d8262cf	0.063665025
116	0x3d3ee2b3	0.046602916
117	0x3dba374a	0.09092577
118	0x3d02a727	0.03189769
119	0x3c4ddb6c	0.012564521
120	0xbd7f1d60	-0.062283874
121	0xbccd84a2	-0.025087658
122	0x3c0e48ce	0.00868435
123	0xbca57577	-0.020197613
124	0xbaf86805	-0.0018951899
125	0xbcf2c19b	-0.029633334
126	0x3c83ac36	0.016073328
127	0xbce19d47	-0.027540816
128	0xbdbcce95	-0.0921909
129	0x3d76eb2a	0.060282864
130	0x3dc99004	0.09841922
131	0xbc97b924	-0.0185209
132	0x3cb86302	0.022508148
133	0x3d784015	0.06060799
134	0x3d0a77dc	0.033805713
135	0x3d82e26c	0.06390843
136	0xbcc130c7	-0.02358283
137	0x3ca52e1a	0.020163585
138	0x3bed7e99	0.0072477576
139	0xbc3cb236	-0.011517098
140	0xbd82a4eb	-0.06379112
141	0x3deb80d5	0.11499182
142	0xbd2def67	-0.04246464
143	0x3cc5da3d	0.024151916
144	0xbb9d02aa	-0.0047915773
145	0x3d6e9a0d	0.058252383
146	0x3cbdd8e9	0.02317472
147	0x3ca38049	0.019958632
148	0x3c40bbfe	0.011763571
149	0x3cd4b795	0.025966445
150	0xbd66c99d	-0.056344617
151	0x3bc2cba4	0.005944686
152	0xbd5f62f5	-0.054537732
153	0xbb84da16	-0.004054318
154	0x3db0161d	0.08597968
155	0xbda3ffbc	-0.08007762
156	0xbc349d79	-0.0110238725
157	0x3cc0e05d	0.023544485
158	0x3d0adbd3	0.033901047
159	0x3db78b52	0.0896212
160	0x3dc29edc	0.09502956
161	0x3d5e4963	0.054269206
162	0x3d82105c	0.063507766
163	0x3d1aa6dd	0.03775679
164	0xbcea27cd	-0.028583432
165	0xbcd30fa3	-0.025764292
166	0x3d789226	0.060686253
167	0xbca2a329	-0.019853191
168	0xbd29a379	-0.041415665
169	0xbd920439	-0.07129712
170	0x3cad6261	0.021165075
171	0xbd0c94f9	-0.03432176
172	0xbcbea474	-0.023271777
173	0xbd17a8fe	-0.037026398
174	0x3d6b11c2	0.057389982
175	0x3cb19f5f	0.02168244
176	0xbc5f9abb	-0.01364773
177	0x3db27f4b	0.087156855
178	0xbd560fe3	-0.052261245
179	0x3b694334	0.0035593035
180	0xbd98bc50	-0.07457793
181	0x3d231301	0.039813045
182	0x3d081aac	0.03322856
183	0x3d74a71a	0.059729673
184	0x3d13e189	0.03610376
185	0x3c247646	0.010037964
186	0x3bfe1d09	0.007754926
187	0xbd8e44bc	-0.06946704
188	0x3d5f4433	0.0545084
189	0x3db3b4fc	0.087747544
190	0xbc9b9484	-0.018991716
191	0xbcf935a3	-0.030421084
192	0xbd494364	-0.049136534
193	0xbd2e799b	-0.04259644
194	0xbd56212d	-0.052277733
195	0x3d8b41a4	0.06799629
196	0xbd8bee47	-0.06832557
197	0x3d9f1bb8	0.07768959
198	0xbd5a4956	-0.053292595
199	0x3be9661b	0.0071227676
200	0xbd3aa70f	-0.045569476
201	0xbda4e9c2	-0.08052398
202	0xbcd677aa	-0.026180107
203	0x3bd7cfab	0.0065860352
204	0xbd5f9e9d	-0.054594625
205	0x3e2ef482	0.1708546
206	0x3cf6836a	0.03009196
207	0x3bba3e4e	0.005683697
208	0xbc9e6136	-0.019333463
209	0x3d1de456	0.038547836
210	0xbcaf9f7f	-0.021438358
211	0xbbd8768a	-0.006605928
212	0x3d9221b8	0.071353376
213	0x3af50c2e	0.0018695646
214	0x3d5e818d	0.054322768
215	0xbdcad170	-0.09903228
216	0xbbcaa256	-0.0061839027
217	0xbcbd8e3f	-0.023139117
218	0x3cc35671	0.02384493
219	0x3d3a9cf5	0.045559842
220	0x3d1c52ca	0.03816489
221	0xbd5bb325	-0.053637642
222	0xbdd63285	-0.104588546
223	0xbc26bf04	-0.010177378
224	0xbc209979	-0.009802216
225	0x3b14c047	0.0022697614
226	0xbcdbcf74	-0.02683232
227	0xbcf49126	-0.029854368
228	0x3b0bc4a1	0.0021326917
229	0x3dca68c8	0.09883267
230	0x3c28cb2a	0.010302344
231	0x3ccdaa93	0.02510575
232	0x3d788798	0.060676187
233	0x3df7796e	0.12083708
234	0x3d8cb350	0.06870139
235	0xbabcd53e	-0.0014406813
236	0x3b428e55	0.0029686887
237	0x3d9b1c65	0.07573775
238	0x3d19e17e	0.03756856
239	0x3dbc5fa8	0.091979325
240	0x3c5b58cb	0.013387869
241	0x3d626387	0.055270698
242	0x3d87aab9	0.0662436
243	0xbc69ecb5	-0.014277627
244	0xbdb48280	-0.088139534
245	0x3cc0b257	0.023522539
246	0xbd3949e2	-0.045236476
247	0xbd13884a	-0.036018647
248	0x3d12da9c	0.035853013
249	0x3c83e7d5	0.016101757
250	0x3dbcf85a	0.09227057
251	0x3c02083c	0.007936534
252	0xbdff6810	-0.1247102
253	0xbbeea6a9	-0.007283051
254	0xbd51b321	-0.05119622
255	0x3ceee842	0.029163484

action_model._continuous_distribution.mu.bias f4 [5]
0	0x3af5db23	0.0018757324
1	0xbc375021	-0.011188538
2	0xbb0e47d8	-0.0021710303
3	0x3d084db6	0.033277236
4	0x3c68eb36	0.014216235
